results/Bigmap2/BigMapAgent/BigMapAgent-4499945.pt (torch, 791660 bytes, 33 tensors)

network_body._body_endoder.seq_layers.0.weight f4 [128, 81]
00000000: 432b 943e 9194 0e3b 526b 4abd d897 953d
00000010: 6d4e 76bd bbd6 c23c 48e7 073e 175a 753e
00000020: 70ea a4bd fcff f9bd e2d4 38bc 7025 0c3e
00000030: bdac bd3e 4d47 8b3d d6f3 953d a478 df3d
00000040: 7afa 1dbd e6db 2cbd 6c60 663d a2ec de3d
00000050: 4ea8 abbc e53c c43d 88df bb3b 6653 2e3d
00000060: 49f1 e93d a9a3 d93d 4430 903e 6d4c b4bd
00000070: ca2b e1bd 44ff a7bd 9170 183d ccc7 823d
00000080: 6506 523c d821 233e 06a9 293e a25c 8a3d
00000090: 18c9 b1b8 b899 bd3d 8fba 853e 8f38 93bd
000000a0: 6ecc 1e3d bd35 773e 19bf bebd 5bc8 bfbd
000000b0: 9633 c63d e0da 0ebd 96de 92ba 2bb0 a33d
000000c0: b45c a0be 9c59 013e 9855 c6bd dc40 2bbd
000000d0: 8caf e63d aad0 06be 3749 c6bd 49f2 803c
000000e0: 1f15 f2bd a82d 8cbe 2068 0dbe 754d 643d
000000f0: 3d1e f1ba 7e54 d2bd 0c20 5ebc 8376 62be
00000100: 74ad 523d aef2 913d 91f4 0cbd 667f 39bc
00000110: a593 293e 8d11 2fbe 61f7 813d 0843 3c3d
00000120: d11f b9bc 6c99 8d3c b86e 903d 05d1 4ebd
00000130: 7605 3cbe f296 b93d acf1 8bbd 1d99 d23c
00000140: aca5 9bbb 410b 963c 6f03 13be 868e 193b
00000150: 2d42 9abc 1d8f 253d 7bb3 8abc 7503 c23d
00000160: a295 8ebd 8b4c 5b3d ba4c f0bc bb2d 11be
00000170: 8a47 07be 190a 953d 7a44 5b3e c9da 00bc
00000180: b527 afbc 3583 573d c5e1 1fbd 566b d1bd
00000190: 09b2 b9be 3059 b1bd b589 313e cfd6 a3be
000001a0: 50f4 e23d 0816 4abe c96a 65bd 97c7 58bd
000001b0: e466 3d3e 7fb4 f03c 53bc f83d e416 17be
000001c0: 05c9 993d bec7 abbd 536e 9abd 89a0 563d
000001d0: 2052 253e 991b 3dbe fd15 7fbe 63d9 00bd
000001e0: e1cc d03d dca4 04be 3f3c 523e 6428 473c
000001f0: bc61 cbbd c458 773d 851a 11bc 0cc4 0fbc
00000200: 7a59 49bd 7a8f 70bd c8a3 8ebd 8473 413b
00000210: 837c 14be 9e96 b73b 1ce2 d9bd 9db8 983d
00000220: db8d c13d 3819 c03d 926e 3ebd cd28 f6bd
00000230: 6bc7 343e cd01 ba3d 93de 10bd 449c 003e
00000240: f69f 19be 59b6 b4bd aea1 15be 70c9 4f3d
00000250: b9ed 103e 70d1 d7bc 9a39 cebd b29c 2c39
00000260: 89e1 3cbd 62ca 4dbe 8253 1dbe 2b98 f4bd
00000270: 75ef 0dbc 9726 a03e 9f3b 34be 08dd 7bbd
00000280: 1f76 30bd cd93 acbd ba3f 61be 9808 293e
00000290: 6f9a 5bbe 3bfc 503d a5f3 aabd a502 30be
000002a0: e39d cdbc 0a47 823d 0f2d 093d a905 11be
000002b0: ecdf 93bb 5f27 98bd dabf 43bc 9796 1abe
000002c0: 3724 063d fde3 eebd 5499 2dbe d15c 513d
000002d0: 429b cfbd 939b 4a3c eb5a 0abe 3cb9 843d
000002e0: a6d9 8ebe 254a b1bb 8c7e a03d 2b95 0cbe
000002f0: c0b1 7a3d 8cea 5cbe cba0 c5bc dde3 ca3b
00000300: 8ac4 2f3c afc4 b8bd 9317 9cbd 4ac9 2cbc
00000310: ee53 223d 23b7 1fbe a3ca 423d f2fe debc
00000320: cb95 e93d 841a 583d 0f46 3bbe 818a 44be
00000330: 817c a43d 810e c13d ab46 d3bd bafa 1cbe
00000340: 77f7 05be 2321 12bd c231 6a3e f4ff 693c
00000350: 72af 8bbe 6a71 e03d 28e4 283d f5f1 333d
00000360: 15eb df3d 3067 bfbd b289 d53d 5a8e 6abe
00000370: ab1e 913d 0ca2 46bd f953 25be 300a 9cbd
00000380: 6701 1ebd cfa1 153e 4acb 3bbd 86a0 513d
00000390: 19f0 003d 1caa f63d 407c 153e 6b14 1cbe
000003a0: 4316 fa3d 1c5f 99bd 4f23 4cbe 0459 c33b
000003b0: 9f3d ce3d 95d5 d53c 11d4 c23d fff8 d13c
000003c0: 202b 7a3d 3138 c43d 4331 9cbe e51e 94bd
000003d0: 1e32 36bd d170 3f3c 3250 d5bd f254 76bc
000003e0: ffb5 0e3d 923b 9a3d 0c06 6a3e 6f4d 0e3e
000003f0: 64ee 54be cf4b 14be 5746 233d b9e5 c63d
0.28939256 0.0021756033 -0.049418755 0.073043525 -0.060133386 0.023784032 0.1327182 0.23960148
-0.08052528 -0.12207028 -0.011281224 0.13686156 0.3704585 0.06800709 0.07321899 0.10911682
-0.03856895 -0.0422019 0.0562443 0.10884978 -0.020954277 0.09581927 0.005733434 0.042560004
0.114229746 0.10626919 0.28161824 -0.088036396 -0.1099468 -0.08202985 0.037216727 0.063857645
0.012818907 0.15930879 0.16568384 0.067559496 -8.477474e-05 0.09257835 0.26118895 -0.07188522
0.038769178 0.24141593 -0.09313793 -0.09364387 0.09677808 -0.034876704 -0.0011205252 0.07992586
-0.31320727 0.1263184 -0.096842945 -0.0418099 0.11263952 -0.13165537 -0.096819334 0.01574053
-0.11820435 -0.27378583 -0.13809252 0.05573793 -0.0018395853 -0.10270022 -0.013557445 -0.22115521
0.05143495 0.071263656 -0.034412924 -0.011321878 0.16560228 -0.17096539 0.06346012 0.045962363
-0.022598179 0.017285071 0.07052368 -0.050492305 -0.18361458 0.09061994 -0.068332046 0.025707776
-0.0047499742 0.018315913 -0.14356779 0.0023430898 -0.018830383 0.040419687 -0.016931286 0.094733156
-0.06962134 0.053539794 -0.029333461 -0.14177601 -0.13210884 0.072773166 0.2141284 -0.007864662
-0.021381238 0.052615363 -0.03903367 -0.10225551 -0.36268643 -0.08659589 0.17337687 -0.31999823
0.11081755 -0.19734967 -0.05601004 -0.05292472 0.18496281 0.029382942 0.12145295 -0.14754826
0.075090446 -0.08387707 -0.07540574 0.052399192 0.1614461 -0.18467559 -0.24910732 -0.031457316
0.101953276 -0.12953514 0.20530795 0.012155626 -0.09930751 0.060387388 -0.00885642 -0.008774769
-0.049157597 -0.05873058 -0.069648325 0.0029518316 -0.14500622 0.0056026718 -0.1063883 0.07457087
0.09450885 0.0937981 -0.046492167 -0.12019501 0.17654197 0.09082375 -0.035368513 0.1255961
-0.15002427 -0.088238426 -0.14612457 0.050729215 0.14153184 -0.026344985 -0.100695804 0.00016461572
-0.046113525 -0.20096734 -0.15363887 -0.11943086 -0.008663048 0.31279442 -0.17600869 -0.06149009
-0.0430814 -0.08426628 -0.21996966 0.16507185 -0.2144563 0.051021796 -0.08347253 -0.17188509
-0.0250997 0.06361206 0.033490237 -0.14162315 -0.0045127776 -0.074293844 -0.011947596 -0.15096508
0.03274938 -0.11664579 -0.16953021 0.051113907 -0.10137035 0.012366193 -0.13511245 0.06480643
-0.27900428 -0.00541045 0.07836637 -0.13728778 0.06120467 -0.21573848 -0.024124524 0.006191714
0.010728011 -0.090218894 -0.07621684 -0.010546038 0.039630823 -0.15597205 0.04755653 -0.027221177
0.11405524 0.052759662 -0.18288444 -0.1919346 0.0803156 0.094265945 -0.10316213 -0.1533002
-0.13082682 -0.035676133 0.22870544 0.014282215 -0.27282292 0.10959132 0.04123321 0.04393192
0.1093351 -0.09345853 0.10426654 -0.22905865 0.070859276 -0.048494384 -0.16145314 -0.076191306
-0.038575556 0.14612506 -0.04584817 0.051178478 0.031478975 0.120441645 0.14598179 -0.15242164
0.12211277 -0.07488844 -0.19935344 0.005961539 0.10070347 0.02610282 0.09513105 0.025631426
0.061076283 0.0958103 -0.30506334 -0.07232455 -0.04448139 0.011684612 -0.10415687 -0.015034901
0.034841534 0.075308934 0.22853869 0.13896726 -0.20794064 -0.14482044 0.039862003 0.09711785

network_body._body_endoder.seq_layers.0.bias f4 [128]
00000000: 01ac 473e 0a58 3abe 36a4 54be 18b2 6bbd
00000010: 72c1 483e 0e34 26be 8e0c 20be 219d 30be
00000020: cebd 6d3e 34ac 633e 9e08 363d 3cf1 5b3e
00000030: 0969 3e3e 84a0 cdbd fcd0 8cbd bcfd 29be
00000040: 8fd0 173e b939 d33c ec25 1abe 94cb 2cbe
00000050: 5e09 633e caa2 483e 254c 28be e222 583e
00000060: 7817 38be 5f21 263e ad14 463e 8bab 613e
00000070: 0f97 3cbe 8fba 38be 3729 24be e6fa f43d
00000080: 1972 71bd b35d 5b3e f0da f0bd ae56 633e
00000090: 9e12 27be 6216 d3bd 72a8 32be 1867 f4bd
000000a0: 1ad6 4fbe f5d9 2e3e d6b1 c63d 6176 413e
000000b0: f54d fbbd ffea ea3d 5f1a bbbd fdbc 2ebe
000000c0: 5657 39be 36f1 343e 2a22 523e f18f 4fbe
000000d0: e059 603e c12b 35be 3c13 0fbe f60b f73d
000000e0: d882 5fbe 911e 46be 4702 e33d b0e9 673e
000000f0: 66a1 1fbe 2c10 683e 0ce1 4f3e 7209 e7bd
00000100: f2d1 3dbe 898a 593e 7c1f 2b3e 5ada 2dbe
00000110: 5c29 483e 9f3c 9dbd 8c2a 413e 78ad 423e
00000120: e9e8 5b3e 8ab4 28be 4892 5a3e 32ac 483e
00000130: 0c60 173e bfce 413e 0841 383e 6aef 343e
00000140: b304 d93d 45ee 353e e8ff 583d c85d 29be
00000150: c107 10be 0208 533e 7b68 4d3d 767e 30be
00000160: 4a7c 4a3e c0ff 5d3e 4331 7a3d b969 573e
00000170: 1f16 723e 93bf 00be 866d 45be 19b6 a23d
00000180: 6707 f03d eafb 39be 3621 ec3d 51c5 f53d
00000190: b6c7 a9bd 12aa cf3d 8f76 2d3e a5d3 5d3e
000001a0: 490d 183e 267d 273e f0d8 1e3e 4849 373e
000001b0: caae 3c3e 1050 39be 748b e03d 2e5d 3a3e
000001c0: 30ff 543e 8f9f 5a3e e6d5 4f3e 824c 42be
000001d0: 23fa 483e 6b12 36be 58aa 27be a3b7 61be
000001e0: 798e de3d f3d8 403e dc27 3a3e 9fbe 38be
000001f0: 3e76 423e eea2 523e a0f3 463e f088 3d3e
0.19499208 -0.18197647 -0.20765767 -0.05754289 0.19605044 -0.16230795 -0.15629789 -0.1724744
0.23216936 0.22233659 0.04444181 0.21478742 0.18594755 -0.100403816 -0.06875798 -0.16600698
0.14825653 0.02578436 -0.15053529 -0.16874534 0.22171542 0.19593349 -0.16435297 0.21107057
-0.17977703 0.16223668 0.19343825 0.22038095 -0.18417 -0.18039916 -0.16031347 0.119619176
-0.058946703 0.21422462 -0.11760509 0.22201034 -0.16315696 -0.103070036 -0.1744707 -0.11933726
-0.20296517 0.17075332 0.09701888 0.18892814 -0.122707285 0.11470603 -0.09135889 -0.17064281
-0.18099722 0.1767014 0.20520845 -0.20269753 0.21909285 -0.17692472 -0.13972181 0.12062828
-0.21827257 -0.19347598 0.11084419 0.22647738 -0.15588912 0.22662419 0.20300692 -0.112810984
-0.18537119 0.21244253 0.16711229 -0.16977826 0.19547027 -0.07677578 0.18863887 0.19011486
0.21475567 -0.1647512 0.21344864 0.19596937 0.14782733 0.18926524 0.17993557 0.17669454
0.105965994 0.17766674 0.052978426 -0.16539681 -0.14065458 0.20608523 0.05014847 -0.17235741
0.19773975 0.21679592 0.061082136 0.21036424 0.23641251 -0.1257308 -0.19280061 0.079448886
0.11720162 -0.18162504 0.11529772 0.12000526 -0.08290045 0.1013986 0.16939758 0.21662767
0.14848818 0.16356334 0.15512443 0.17899048 0.18426052 -0.18096948 0.109640986 0.18199608
0.20800471 0.2134993 0.2029644 -0.18974498 0.1962667 -0.17780463 -0.16373575 -0.22042708
0.10867018 0.1883276 0.18179268 -0.18041466 0.18990418 0.20569965 0.19428873 0.18509269

network_body._body_endoder.seq_layers.2.weight f4 [128, 128]
00000000: f4be e9bb f2ae 4bbe 971e 4bbe 2cc4 38be
00000010: b4ba 883e 0af5 a4bd ae37 a1be 5016 1dbd
00000020: 8b49 683e 8c7a 983e 30a5 05be 6344 cb3d
00000030: 4cf1 4f3e a3fb d93b a6ec a1bd 49d2 96be
00000040: 0b7c e63d 813b 3c3e 30fe 5dbe 22f4 d9bd
00000050: 0c2d 8c3d ac92 a03e f84e 833d d93a 243e
00000060: b853 65bc bc12 10be 56d4 d03d 034a c93d
00000070: 5bfc 7fbd 81bb 4cbe 64a6 cfbd d954 ab3c
00000080: e316 1a3e 7bf5 233e 3e10 19be 77f4 513e
00000090: 62fb ebbd aad0 5fbe e156 cebc ea20 4dbd
000000a0: 4747 a0bd eac7 863e 2319 d33d e706 bc3e
000000b0: 50a0 56bd e0fa 423e b85d 9a3d 207f edbd
000000c0: 36b5 07be 6a84 8b3d 93d4 f43c f49e 00be
000000d0: bb28 bfbc 26eb 873c 80fa e5bc 4053 01bc
000000e0: a448 92be 2680 a3be 5422 183b 3017 643e
000000f0: f29a 34be 97a3 193e 2957 8f3d 202d 86bc
00000100: 9f7a 26be 9352 953d b48a 97bd 285f 91bd
00000110: 675b fdba 9461 babd 7856 0f3e dcd3 803d
00000120: ff87 2b3e 499a a0bc 966d 8c3d ba19 533c
00000130: 8913 fb3c 5f0a 243e d9fb b93d 504a c33d
00000140: 7788 ac3e b6f3 443e 104f 6cbd d693 16bd
00000150: 5a2f 7bbd 6aba 313e a1a7 853d ed17 eabd
00000160: 9947 583e 7b44 093e 8e0a e3bc 66f8 843e
00000170: 1744 eb3d 145f 853d bc67 78bc 6988 50bd
00000180: 7caf 35be 7094 22be 7c69 24be 9a53 a73d
00000190: 3ebe 8b3c 1167 573e cc40 e23d 858a 163e
000001a0: 46b3 a03d 1e09 a2bb 8ac2 7bbc 0814 e33d
000001b0: 4284 4ebd 477e 40be 72c5 063e 3222 f93d
000001c0: 0d5b 05be 035b 423e 406f 363e e4f0 5ebd
000001d0: 409f ab3d ab8a 21be ec4b 45bd 0e20 8cbe
000001e0: a5c7 07be 96cf 913e 702a ce3d e2df 4dbd
000001f0: 6cb6 173e 2072 973d 9763 f63d ed25 253e
00000200: 73fc 06be 23d5 53bd 29c1 303e 395f 29bd
00000210: acc1 83bd 4883 4c3e 0f7b 9b3d 2d63 1d3e
00000220: 88f5 73bd b999 c6bd aa36 40be bf11 c53c
00000230: c1db bfbd d146 c33d 0de3 ae3b 7ec2 833d
00000240: 5562 023d 618d d83d abe2 83bd bb40 923d
00000250: a1ce 523c 7aea 353c 7427 213d e5c6 f3bd
00000260: 9739 743e eb1d 6ebc bb95 113d bd54 6a3d
00000270: 56fe 143e b3ab 503e cf26 373e fa8e 1f3d
00000280: 9fb6 5dbc 9ed7 6fbe 36af 563d 95f4 39bd
00000290: 9264 ba3d 5e9e 93bd d868 5a3d 79f8 253d
000002a0: 4b3d 833b 6d4a 08be bace f4bd 4327 43bd
000002b0: 8409 433e 7659 03be 73f2 c03b 3ec2 2c3e
000002c0: 3e95 74bd 3d06 11be 64df 0cbe 9871 893d
000002d0: 8933 67be 630d 9a3c b80e 093e e32a 2cbd
000002e0: 5d99 9f3c 7110 603d d131 0c3d 687b cbbd
000002f0: 8249 073e 9821 0ebe 79da b7bc 42fb 7b3e
00000300: 1ca1 253e e37b 2bbe 2a6f adbb 9920 b93d
00000310: edd0 33be f24a 4b3e 15f0 da3d a0b3 013d
00000320: 8df9 27bd ec12 3a3d cb3c aebd a561 973d
00000330: 0c0b d9bd 3d1c 8abd eab7 17be c468 c13b
00000340: 6ba0 f8bd 3f74 24be 6e14 57be 269a 353e
00000350: 4a43 8bba a914 5bbe 99b8 083e 026f 8ebd
00000360: a4c2 c9bd a801 24be d855 163b fbab 7cbd
00000370: c9ce edbd f6d7 b93d df27 14bc 043f 09be
00000380: 2ab3 75bd 2e0a 893d 6ad2 573d 6147 2bbd
00000390: 5579 7a3e d7eb 20be 893c dabd 1d77 47be
000003a0: 944c 8f3c 0550 a4bd 1f05 01be 62c9 0cbe
000003b0: d834 6d3c 3fb9 713e b7e0 1b3d 7c19 81be
000003c0: 6a57 883d 32fa 7dbe 77ae 0f3d 152b 9b3d
000003d0: 119d 3abe f0c1 8f3d 038c 363e bab6 fe3d
000003e0: f480 67be 1913 1cbe 8a97 b4bd 0fae dd3d
000003f0: 81bf 5c3d 7ae6 343d 676b 1c3e 0409 b0bd
-0.007133359 -0.19890955 -0.19835888 -0.18043584 0.26704943 -0.0805455 -0.31487793 -0.038351357
0.22684304 0.29780996 -0.13051295 0.09925153 0.20306891 0.006652312 -0.07906465 -0.2945731
0.11254128 0.18382074 -0.21678996 -0.10642268 0.068445295 0.31361902 0.064115465 0.16038074
-0.013997011 -0.14069647 0.1019675 0.0982857 -0.062496524 -0.19993402 -0.10139158 0.020914482
0.15047793 0.16011612 -0.14947602 0.20503412 -0.11522557 -0.21856943 -0.025187911 -0.050080217
-0.07826095 0.26324397 0.10307529 0.36724016 -0.05239898 0.19041014 0.07537407 -0.11596513
-0.1325272 0.06812365 0.02988652 -0.12560636 -0.023334851 0.01659162 -0.02807355 -0.0078933835
-0.28571045 -0.31933707 0.002321382 0.2227447 -0.17637232 0.15003811 0.06999046 -0.01637894
-0.16257714 0.072911404 -0.073995024 -0.07098228 -0.0019329608 -0.09100643 0.13997829 0.06290409
0.16751097 -0.019604819 0.06856839 0.012884552 0.030648964 0.16019581 0.09081239 0.09535658
0.33697864 0.19233593 -0.057692587 -0.03676208 -0.061324455 0.17356268 0.06526113 -0.11430345
0.21121062 0.1340503 -0.027714994 0.25970763 0.114875965 0.06512275 -0.015161451 -0.05091134
-0.17742723 -0.15876937 -0.16055864 0.081702426 0.017058488 0.2103541 0.11047515 0.14701279
0.07846694 -0.0049449345 -0.015366206 0.11087805 -0.0504191 -0.18798171 0.13161257 0.12164725
-0.13023014 0.1898003 0.17815876 -0.05442895 0.08379984 -0.15775554 -0.048168108 -0.27368206
-0.13259752 0.28478688 0.10066688 -0.05026234 0.14815682 0.073948145 0.12030714 0.16127749
-0.13182239 -0.051716935 0.17261185 -0.041350577 -0.06433424 0.19971955 0.07591831 0.15369864
-0.05956033 -0.09697289 -0.18770853 0.024056314 -0.093680866 0.095349915 0.005337125 0.06433581
0.031832058 0.10573841 -0.06439718 0.071412526 0.012866647 0.011103267 0.039344266 -0.119031705
0.23850094 -0.0145335 0.035543185 0.05720972 0.14550146 0.20377998 0.17885898 0.038954712
-0.01353231 -0.23422095 0.052413188 -0.045399267 0.091012135 -0.072079405 0.053322643 0.040520165
0.0040051094 -0.13309641 -0.119534925 -0.047644865 0.19046599 -0.12827095 0.005888277 0.16870973
-0.05971264 -0.14162536 -0.13757092 0.067111194 -0.22578253 0.018805211 0.13384521 -0.042033087
0.019482309 0.05470318 0.034227196 -0.09935647 0.13211635 -0.13880002 -0.022443043 0.24607566
0.1617474 -0.16746478 -0.005292793 0.09039421 -0.17560168 0.19852808 0.10690323 0.031665444
-0.041009475 0.0454282 -0.08507689 0.07391671 -0.1059781 -0.06743667 -0.14816251 0.0059023816
-0.12139972 -0.1605997 -0.21003887 0.17734584 -0.0010624912 -0.213946 0.13351668 -0.06954767
-0.09851578 -0.16016257 0.002293935 -0.06168745 -0.11611707 0.090743944 -0.009042709 -0.13402945
-0.059985317 0.06691395 0.0526909 -0.04181612 0.24460347 -0.15714966 -0.106560774 -0.19479032
0.01749257 -0.08023075 -0.1259961 -0.13748696 0.014477931 0.23605822 0.0380561 -0.25214756
0.06657298 -0.24802473 0.035078492 0.075765766 -0.18223979 0.070194125 0.17826848 0.12437196
-0.22607785 -0.1524166 -0.08817966 0.10824215 0.05389357 0.044165112 0.15275346 -0.085954696

network_body._body_endoder.seq_layers.2.bias f4 [128]
00000000: 66f7 0e3e b338 83bd 759d 0f3e 8355 2c3e
00000010: c1eb e8bd 5896 d8bd dd37 0d3e f54a 183e
00000020: 8c0b 113e f009 df3d 21f9 293e 7298 77bd
00000030: c655 c9bd 8fd6 1e3e 4571 1c3e eb65 173e
00000040: 5129 18bd 9543 cfbd 97ee c4bd f537 babd
00000050: 71ab 233e 942b ce3d 95c8 173e 0f70 b4bd
00000060: 09e2 f33d 582c f6bd 380d 8d3d 485f 053e
00000070: 773b bcbd 66a4 133e 992d 993d 51a2 a7bd
00000080: c8db 2b3e 3bde d0bd 83a2 7bbd a6f1 f83d
00000090: b8d6 303e 617a babd ea58 203e 5ab0 ebbd
000000a0: aa05 0d3e 876f 003e c7ed dbbd da8b a93d
000000b0: 5f2c de3d 7bbd 0b3e 08f8 92bd ae4e bcbd
000000c0: c684 c9bd 7c97 073e 5c31 88bd d7a1 0b3e
000000d0: 4fe7 c5bd eb81 283e 1fa6 063e 56b8 e13d
000000e0: 1808 d93d 20a2 103e c9e0 003e 4cac 8ebd
000000f0: 7916 bc3a 30c2 0e3e 0724 1f3e 4f01 d2bd
00000100: 14d1 f13d 5cc4 93bd 8042 c4bd 3da7 b13d
00000110: 99f0 f33d c900 113e 5e53 8abd fff6 d53d
00000120: 09c2 ca3d a43d 68bd 88a9 6b3d 1aac a43d
00000130: d995 3e3e d2fa 2b3e 13e3 d83d 9d51 cdbd
00000140: 4e39 093e 4754 183e c691 313e 06cd e73d
00000150: 29cf 163e 3968 1b3e 838e 153e dfa9 ff3d
00000160: b2e5 923d d237 c2bd 00ed cd3d 6950 293e
00000170: 3df1 073e c115 ddbd dbcd d5bd 2816 0d3e
00000180: 5b07 203e af5e 0f3e 38e1 c03d e713 bdbd
00000190: 7eab c2bd efa9 023e a235 cb3d 5189 bdbd
000001a0: 905d 133e 50e6 033e 5430 fc3d 3828 053e
000001b0: fec4 223e ae56 d4bd 9d53 0d3e 3ccf a2bd
000001c0: 138e e1bd 84e3 bebd 8b78 053e c7e0 ed3d
000001d0: 18da 09be 7dea 1d3e 16fc cc3d c463 663d
000001e0: f299 27bc da2e c23d bb85 cdbd 6af4 e93d
000001f0: e6bd de3d 5002 1e3e a352 f43c 211c debd
0.13961563 -0.06407299 0.14024909 0.16829495 -0.113730915 -0.10575551 0.13790841 0.14872344
0.14164561 0.10890567 0.16598941 -0.060448118 -0.09830813 0.15511535 0.15277584 0.14784972
-0.037148777 -0.10120312 -0.0961582 -0.09092704 0.15983368 0.100669056 0.1482261 -0.08810436
0.11908347 -0.12020177 0.06887287 0.13024628 -0.091910295 0.14418182 0.074794 -0.08185256
0.16783059 -0.10198637 -0.06143428 0.12155466 0.17269409 -0.09105373 0.15658918 -0.11508246
0.13771692 0.12542544 -0.10738712 0.08278628 0.10848307 0.136465 -0.071762145 -0.091946945
-0.09839778 0.1324138 -0.066500396 0.13635956 -0.09663259 0.1645581 0.13149308 0.110214874
0.10597247 0.14124346 0.12585749 -0.06966457 0.0014349959 0.13941264 0.15541087 -0.10254156
0.118074566 -0.07215187 -0.09582996 0.08674476 0.11911125 0.14160456 -0.06754182 0.104475014
0.099002905 -0.05669941 0.057534724 0.08040638 0.1861185 0.16794899 0.10590186 -0.10025332
0.13400766 0.148759 0.17340764 0.11318402 0.14727463 0.15176477 0.14605145 0.12483572
0.07172717 -0.09483303 0.1005497 0.1653458 0.13275619 -0.10795165 -0.104396544 0.13777983
0.15627806 0.14000963 0.09417957 -0.09232312 -0.09505366 0.12760137 0.09922339 -0.09254707
0.1439116 0.12880826 0.12313905 0.13003623 0.15895459 -0.10368095 0.13801427 -0.07949683
-0.11013427 -0.09320739 0.13034265 0.116151385 -0.13462102 0.15421481 0.10009019 0.056247488
-0.0102295745 0.094815925 -0.10035273 0.114235714 0.10876064 0.1543057 0.02982456 -0.10845209

action_model._discrete_distribution.branches.0.weight f4 [80, 128]
00000000: 8f47 27bd c53d 7abb 1122 19bd ecf2 83bc
00000010: 3f96 61ba d045 533c d321 d6bc c4e7 27bb
00000020: 04d6 a7bc 92b9 cebc f91f ac3c e768 3b3d
00000030: d149 083d 777a e4bc eaf6 7cbc b0de 2cbd
00000040: 9024 193d 21ad c03c b7e2 9f3b 5d2b 0c3c
00000050: 4b0d 58bc 1135 1bbd c428 4dbc e891 163c
00000060: fbf1 91bc f4b6 8f3c cf41 8bbc f386 423c
00000070: 8f7b 2cbc 94d6 413c ef7a 8d3c 39ed 093c
00000080: 6cb1 0a3c c8ff a53c 5ae6 95b9 ef56 40bd
00000090: 8dd7 49bc 92e5 ae3c 26bd aa3b a910 b53c
000000a0: 3ae1 d7bb 0899 0dbd eb02 08bb d6af 34bd
000000b0: 781d 8ebc b4d0 993c 4126 403c d815 e23a
000000c0: 15ae 6b3b 73f7 cabc 740c 1cbd f9aa bcbc
000000d0: fc43 83bc f726 7d3c 1379 24bd 6ce1 acbb
000000e0: 50a6 dcbc 8f0b 68bc fbb1 61bc f3c5 723c
000000f0: 18da 8c3c 521d 4dbc 1281 303c 4ffe c03b
00000100: 6071 2e3c c84b ad3c a319 da3b 0347 f7bb
00000110: 5ddb a03b d83e 83bc ad0d 65bc f1e3 5cbd
00000120: 17c0 3dbd 42da 35bc bc3f 9abc 0a17 babc
00000130: 9a99 30bb e8ac e2bc 30de f53c f8ce 7abc
00000140: fbae e2bc 9b32 9fbb 4002 97bc d2cd 28bd
00000150: ec3f 0dbd 5bb2 f63a 78a1 53bc b4cc 6abd
00000160: cdab 26bd c09c a33c 0823 be3b 797f 58bc
00000170: cd01 2ebc d091 d73c efb1 1abc edfb 80bb
00000180: 6602 0ebd fb4f efbc a13d ccbc f670 bb3c
00000190: 88a6 ceba d223 d5bc 013a 99bc 4606 d9bc
000001a0: 4392 b33c 5ab5 61bc c819 733a 5c03 60bd
000001b0: 4779 41bc ec60 bc3b 0201 e43b cc9b 1dbc
000001c0: a7b7 683c 2d78 4b3d b65b 2dbd b64c 61bc
000001d0: 45e2 18bc 10c5 4bbc 8fb3 9fbb 7870 ee3c
000001e0: eab8 49bd c55a 64bc 27b1 0b3d ef77 02bd
000001f0: def6 05bd 3826 eabc 8903 97bd 2ed5 95bb
00000200: a460 423c fb4f 683c 658a 2f3d 10bd b33c
00000210: 00de b8bb 374a debc fcdf f33c 4835 8dbc
00000220: 406f 4c39 6ac6 ecbc 3718 d2ba f7bd d13a
00000230: 55dc 0ebd 4e45 423d 7313 3c3d 7b7d 4d3c
00000240: d5bc dabb b5da 2cbd d112 75bb db75 18bd
00000250: 1a48 543d c931 2a3d c71e ae3c 79f2 42bc
00000260: f160 1d3d 620e b6bc 822b 123d b6e9 09bc
00000270: 4535 a8bc 404b 0e3a dae8 31bc fb36 ebbc
00000280: d746 043d c427 d5bb 86b3 d33c 34fc 083c
00000290: 7807 8abb 8652 44bd 6f28 c23b 6589 c8bb
000002a0: b1e0 29b8 fec1 0b3d bc08 efbc 3c33 693d
000002b0: e66a 0c3d c2b8 e23b 0b19 c6bc 88e4 8abc
000002c0: 24b3 11bd 272f 4a3d 8ef9 0a3c b645 083b
000002d0: 7359 d5bb 5dc7 203d ae9b e73c 7e96 153d
000002e0: 8d91 c8bc d514 393c 821f a0ba 3566 943c
000002f0: adcc 6d3c 6458 8c3c 3e07 96bb 2375 ebbc
00000300: 82ad 5d3c 8298 37bd 5694 cabc c964 d43c
00000310: 355d da3b dee0 ed3c c662 4abc 4aab 3b3c
00000320: a4c6 683d 85a3 58bb 88bb c23c c570 8f3c
00000330: 167d 9e3c 41fb a53c 86bc 423b d479 38bc
00000340: 6aaf 3b3c 280b 3c3c 1e82 8e3c 0642 1e3d
00000350: 105f 023d 20cc 5d3c d7c5 993b 9ea6 e33c
00000360: 1418 173d 1199 f1bc 833e a63a 05ff 273d
00000370: 7db6 e43c 5312 ccbc fe55 a43c a051 69bc
00000380: 7165 e93b 75cb 983b b45f 833c ad9a 39bd
00000390: 1cde 7cbd 7cfd 61bb 1840 4a3d 089e 1ebd
000003a0: e850 0c3d fe33 08bd 45b6 853c 4afe 8c3c
000003b0: 4bb7 cb3c 080c c1bc 4c55 333b dae6 5e3a
000003c0: 5cd9 82bc 5154 e2bc e19e 593d 2547 49bc
000003d0: f59b 9cbc 0bc7 633c e846 01bc 0803 c5bc
000003e0: 10e8 e13c b7b1 883b a99a a7bc 5a9f e53c
000003f0: 3060 a7bb 0d0c a13c 7208 853d 68fc 36bc
-0.040839728 -0.003818379 -0.037386004 -0.016107045 -0.0008605457 0.012895063 -0.026139176 -0.002562032
-0.020487793 -0.025234971 0.02101134 0.04575434 0.03327352 -0.027890427 -0.015439728 -0.04220456
0.037388384 0.023520054 0.0048793214 0.0085552605 -0.013186763 -0.037892405 -0.012521926 0.00919006
-0.01781558 0.017543294 -0.016999153 0.011872995 -0.010527506 0.011830945 0.017270533 0.008418375
0.008465152 0.020263568 -0.0002859112 -0.046957906 -0.012319458 0.021349702 0.0052105365 0.02210267
-0.0065881284 -0.03456977 -0.0020753692 -0.044113003 -0.017348036 0.018776275 0.01172787 0.0017248942
0.0035961915 -0.024776196 -0.038097814 -0.023030745 -0.016023628 0.0154511845 -0.040154528 -0.005275896
-0.026934773 -0.014162912 -0.013775344 0.014817703 0.017193839 -0.012519198 0.01077296 0.005889691
0.010647148 0.0211543 0.006655888 -0.007546307 0.0049089626 -0.016021177 -0.013980311 -0.05392832
-0.04632577 -0.0110994 -0.018829219 -0.022716064 -0.0026947022 -0.027670339 0.030013174 -0.015308134
-0.027671328 -0.0048583276 -0.01843369 -0.04121191 -0.03448479 0.0018821465 -0.012916915 -0.057324126
-0.040691186 0.019972205 0.005802516 -0.013213986 -0.0106205465 0.026314646 -0.009441837 -0.003936282
-0.034670256 -0.029212942 -0.02493173 0.022881012 -0.0015766183 -0.026018057 -0.018704416 -0.02649225
0.021920329 -0.013776148 0.0009273556 -0.054690704 -0.0118087 0.0057488587 0.006958128 -0.009619664
0.014203942 0.049675155 -0.04232379 -0.0137511995 -0.009331291 -0.01243712 -0.0048737 0.029106364
-0.049248613 -0.013937657 0.034104493 -0.03185266 -0.032706134 -0.028582677 -0.07373721 -0.004572532
0.011863861 0.014179225 0.042856593 0.021940738 -0.005641699 -0.027134998 0.02976989 -0.01723732
0.000194964 -0.028903205 -0.0016028945 0.0016002049 -0.034878094 0.047429375 0.045916986 0.012542124
-0.0066753426 -0.042200763 -0.0037395249 -0.03722177 0.051826574 0.041551385 0.02125491 -0.01189863
0.03842253 -0.022223655 0.035686024 -0.008417537 -0.020533213 0.0005428083 -0.010858739 -0.02871274
0.03229412 -0.0065049846 0.02584244 0.008360911 -0.004212316 -0.047930263 0.00592523 -0.0061198943
-4.0502e-05 0.034120552 -0.02917897 0.056933627 0.034281634 0.0069189975 -0.024181863 -0.016954675
-0.035571232 0.049361374 0.00848235 0.0020793504 -0.0065109073 0.039252628 0.028272476 0.036520474
-0.024483467 0.011296471 -0.0012216421 0.018115142 0.014514131 0.017131992 -0.0045785 -0.028742379
0.013530137 -0.044823177 -0.024728935 0.025926964 0.006663943 0.02903789 -0.012352651 0.011454413
0.056830063 -0.003305645 0.023771062 0.017509827 0.019346755 0.020261409 0.002971442 -0.011259515
0.011455396 0.011477269 0.01739603 0.038637184 0.03182894 0.013537437 0.004692774 0.02778941
0.036888197 -0.029491933 0.0012683425 0.04101469 0.027919048 -0.024911081 0.020060536 -0.014240652
0.0071226885 0.004662926 0.016036846 -0.045313526 -0.061735258 -0.0034483364 0.04937753 -0.03872493
0.034256846 -0.03325271 0.016322264 0.017211098 0.024867674 -0.023565307 0.0027364073 0.00085030275
-0.015972786 -0.027628096 0.053130034 -0.012285029 -0.019117335 0.013902436 -0.0078904405 -0.024049297
0.027576476 0.004171576 -0.02045949 0.028030086 -0.005107902 0.019659067 0.064957514 -0.011168577

action_model._discrete_distribution.branches.0.bias f4 [80]
00000000: d3a6 8fbc f9e1 9c3c 4b70 c13b e58a 013d
00000010: 47e1 62bd 486a b7bd 7f39 0d3c d442 1a3d
00000020: fa95 8f3a e417 03bd 1a03 6dbc 2c6e 443c
00000030: 77bf 703c c493 18bd 0ffb 1cbc c7fe e63c
00000040: da0e 633c 6c49 8abc 8c6b 253c f627 ba3c
00000050: 3066 82bc 8d6d be3c 3973 20bd 4385 28bb
00000060: 6517 91bb dad9 2ebd 37fc a83c 5452 4bbd
00000070: a098 e93c 0d99 76bb 8e82 1cbd 788b 3fbd
00000080: 6df5 0ebd 0baa debc fb1f 14bd e083 dfbc
00000090: 0298 86bc f03d 94bc ee09 73bc f2d6 bc3c
000000a0: f744 94bc 2939 3ebd 23cd eebc 13fc 87bd
000000b0: 61ea 283b 3d86 073d 4b14 bcba a22b 433c
000000c0: 5f50 b8bc ee79 92bc 13e0 51bb 54e8 13bd
000000d0: 82bf 27bd da67 853d 6ab4 65bd 0c20 89ba
000000e0: 035a 563b bc5d d0bc cd94 04bd 4f30 223d
000000f0: cb4f 2cbc 1e5b fbbb 2b4f 20bb 24ca 9ebc
00000100: 674c 94bc 638c 073a d2e8 173c bd3c cb3d
00000110: 6598 0b3d 4234 abba 58c0 3fbd a0c8 663d
00000120: c5c5 f0bc f278 273c b8b2 7f3c 2590 173d
00000130: 3fd2 0bbd 113b 063d 8a76 c3bb 3396 16bc
-0.017535603 0.01915072 0.005903279 0.0316266 -0.055390622 -0.089558184 0.008619665 0.03766139
0.0010954731 -0.032005206 -0.0144660715 0.011989158 0.014694086 -0.037250295 -0.009581341 0.02819766
0.013858521 -0.016880713 0.010096442 0.022724133 -0.015917867 0.023245597 -0.039172385 -0.0025714196
-0.0044278377 -0.04268823 0.020628078 -0.04963906 0.02851516 -0.0037627846 -0.038210444 -0.046763867
-0.034902025 -0.027180692 -0.03616331 -0.027284563 -0.016429905 -0.01809594 -0.01483391 0.023051713
-0.018099291 -0.04644123 -0.029150551 -0.06639876 0.0025774466 0.033087004 -0.001434931 0.011912258
-0.022499261 -0.017880406 -0.0032024428 -0.036110237 -0.04095412 0.06513949 -0.05608026 -0.0010461821
0.003270746 -0.025435321 -0.03236847 0.039596852 -0.010517071 -0.007670774 -0.002446125 -0.019383498
-0.018102838 0.00051707606 0.009271817 0.09923694 0.03408088 -0.0013061839 -0.046814293 0.056343675
-0.029391179 0.010221707 0.015606575 0.0370027 -0.034136053 0.032771174 -0.0059650587 -0.009191084

exp_avg f4 [128, 81]
00000000: 0400 0000 0400 0080 0400 0080 0400 0080
00000010: 0400 0080 0400 0000 0400 0080 0400 0000
00000020: 0400 0000 0400 0000 0400 0080 1ad7 0600
00000030: 0400 0080 0400 0080 0400 0000 0400 0000
00000040: 0400 0000 0400 0000 0400 0000 0400 0000
00000050: 0400 0080 0400 0080 0400 0000 0400 0080
00000060: 0400 0000 0400 0000 05d8 0417 0400 0080
00000070: 0400 0080 0400 0000 0400 0000 0400 0000
00000080: 0400 0000 0400 0000 0400 0000 0400 0080
00000090: 0400 0080 0400 0000 0400 0000 0400 0000
000000a0: 0400 0080 0400 0000 0400 0000 0400 0000
000000b0: 0400 0000 0400 0000 0400 0000 0400 0000
000000c0: 0400 0000 0400 0000 0400 0080 0400 0000
000000d0: 0400 0080 8533 c52b 0400 0080 0400 0000
000000e0: 0400 0000 0400 0080 0400 0000 0400 0000
000000f0: 0400 0000 0400 0000 0400 0000 0400 0000
00000100: 0400 0000 0400 0000 0400 0080 a859 543a
00000110: 0400 0000 0400 0000 0400 0000 0400 0000
00000120: 0400 0000 0400 0000 49e1 2417 0400 0000
00000130: 0400 0080 0400 0000 0400 0000 0400 0080
00000140: 0000 0000 0400 0080 0400 0000 0400 0000
00000150: 0400 0000 0400 0000 0400 0080 0400 0000
00000160: 0400 0080 0400 0080 0400 0080 0400 0000
00000170: ee89 0480 0400 0000 0400 0000 0400 0080
00000180: 0400 0080 0400 0080 0400 0080 0400 0080
00000190: 0400 0080 0400 0080 0400 0000 0400 0080
000001a0: 0400 0000 0400 0080 0400 0080 461c a496
000001b0: 0400 0080 0400 0000 0400 0080 0400 0000
000001c0: 0400 0080 0400 0080 0400 0080 0400 0080
000001d0: 0400 0000 0400 0000 0400 0080 0400 0080
000001e0: 0400 0080 0400 0000 0400 0080 0400 0080
000001f0: 0400 0080 0400 0080 0400 0080 0400 0080
00000200: 0400 0080 0400 0080 0400 0080 0400 0000
00000210: 0400 0080 0400 0080 4653 9eab 0400 0000
00000220: 0400 0080 0400 0080 0400 0000 0400 0080
00000230: 0400 0080 0400 0080 0400 0080 0400 0080
00000240: 0400 0080 0400 0080 0400 0080 0400 0080
00000250: c451 3cba 0400 0080 0400 0080 0400 0080
00000260: 0400 0080 0400 0080 0400 0080 1f15 d096
00000270: 0400 0080 0400 0000 0400 0080 0400 0080
00000280: 0400 0000 0000 0000 0400 0080 0400 0000
00000290: 0400 0000 0400 0000 0400 0080 0400 0080
000002a0: 0400 0000 0400 0080 0400 0080 0400 0080
000002b0: 0400 0000 7979 0480 0400 0000 0400 0000
000002c0: 0400 0080 0400 0080 0400 0080 0400 0080
000002d0: 0400 0080 0400 0080 0400 0000 0400 0000
000002e0: 0400 0080 0400 0000 0400 0080 0400 0080
000002f0: 3956 a896 0400 0080 0400 0000 0400 0080
00000300: 0400 0080 0400 0080 0400 0080 0400 0080
00000310: 0400 0080 0400 0000 0400 0000 0400 0080
00000320: 0400 0080 0400 0080 0400 0000 0400 0080
00000330: 0400 0080 0400 0080 0400 0080 0400 0080
00000340: 0400 0080 0400 0080 0400 0080 0400 0080
00000350: 0400 0000 0400 0080 0400 0000 b69d acab
00000360: 0400 0000 0400 0080 0400 0080 0400 0000
00000370: 0400 0080 0400 0080 0400 0080 0400 0080
00000380: 0400 0000 0400 0080 0400 0080 0400 0080
00000390: 0400 0080 3615 1dba 0400 0080 0400 0080
000003a0: 0400 0080 0400 0080 0400 0000 0400 0080
000003b0: 1ea1 f996 0400 0080 0400 0080 0400 0080
000003c0: 0400 0080 0400 0000 0000 0000 0400 0080
000003d0: 0400 0000 0400 0000 0400 0000 0400 0000
000003e0: 0400 0000 0400 0000 0400 0080 0400 0080
000003f0: 0400 0000 0400 0000 f880 0280 0400 0000
6e-45 -6e-45 -6e-45 -6e-45 -6e-45 6e-45 -6e-45 6e-45
6e-45 6e-45 -6e-45 6.28177e-40 -6e-45 -6e-45 6e-45 6e-45
6e-45 6e-45 6e-45 6e-45 -6e-45 -6e-45 6e-45 -6e-45
6e-45 6e-45 4.2924155e-25 -6e-45 -6e-45 6e-45 6e-45 6e-45
6e-45 6e-45 6e-45 -6e-45 -6e-45 6e-45 6e-45 6e-45
-6e-45 6e-45 6e-45 6e-45 6e-45 6e-45 6e-45 6e-45
6e-45 6e-45 -6e-45 6e-45 -6e-45 1.4011991e-12 -6e-45 6e-45
6e-45 -6e-45 6e-45 6e-45 6e-45 6e-45 6e-45 6e-45
6e-45 6e-45 -6e-45 0.0008100518 6e-45 6e-45 6e-45 6e-45
6e-45 6e-45 5.327561e-25 6e-45 -6e-45 6e-45 6e-45 -6e-45
0.0 -6e-45 6e-45 6e-45 6e-45 6e-45 -6e-45 6e-45
-6e-45 -6e-45 -6e-45 6e-45 -4.16822e-40 6e-45 6e-45 -6e-45
-6e-45 -6e-45 -6e-45 -6e-45 -6e-45 -6e-45 6e-45 -6e-45
6e-45 -6e-45 -6e-45 -2.6513472e-25 -6e-45 6e-45 -6e-45 6e-45
-6e-45 -6e-45 -6e-45 -6e-45 6e-45 6e-45 -6e-45 -6e-45
-6e-45 6e-45 -6e-45 -6e-45 -6e-45 -6e-45 -6e-45 -6e-45
-6e-45 -6e-45 -6e-45 6e-45 -6e-45 -6e-45 -1.1249688e-12 6e-45
-6e-45 -6e-45 6e-45 -6e-45 -6e-45 -6e-45 -6e-45 -6e-45
-6e-45 -6e-45 -6e-45 -6e-45 -0.0007183815 -6e-45 -6e-45 -6e-45
-6e-45 -6e-45 -6e-45 -3.3617542e-25 -6e-45 6e-45 -6e-45 -6e-45
6e-45 0.0 -6e-45 6e-45 6e-45 6e-45 -6e-45 -6e-45
6e-45 -6e-45 -6e-45 -6e-45 6e-45 -4.10918e-40 6e-45 6e-45
-6e-45 -6e-45 -6e-45 -6e-45 -6e-45 -6e-45 6e-45 6e-45
-6e-45 6e-45 -6e-45 -6e-45 -2.7196278e-25 -6e-45 6e-45 -6e-45
-6e-45 -6e-45 -6e-45 -6e-45 -6e-45 6e-45 6e-45 -6e-45
-6e-45 -6e-45 6e-45 -6e-45 -6e-45 -6e-45 -6e-45 -6e-45
-6e-45 -6e-45 -6e-45 -6e-45 6e-45 -6e-45 6e-45 -1.2265109e-12
6e-45 -6e-45 -6e-45 6e-45 -6e-45 -6e-45 -6e-45 -6e-45
6e-45 -6e-45 -6e-45 -6e-45 -6e-45 -0.00059922354 -6e-45 -6e-45
-6e-45 -6e-45 6e-45 -6e-45 -4.03298e-25 -6e-45 -6e-45 -6e-45
-6e-45 6e-45 0.0 -6e-45 6e-45 6e-45 6e-45 6e-45
6e-45 6e-45 -6e-45 -6e-45 6e-45 6e-45 -2.29936e-40 6e-45

exp_avg_sq f4 [128, 81]
00000000: 5c72 942f 6200 6d2f a3a4 6131 d056 8b30
00000010: 11d2 0726 62f3 1528 7782 982d 5756 8431
00000020: 8a92 b02e ab92 0b2b c44d 782d 99b3 1731
00000030: bd6c af30 23a6 5b2c d5b8 e930 4ab4 b82e
00000040: 0c96 9f32 d64b 472c a57d 2b2f 883b 1f2e
00000050: dca0 522c 5f55 9f2f 081d 9f2a dada cd2c
00000060: 8223 0331 0caa 142c db00 a333 3e23 462b
00000070: d3da 2731 c056 162e df39 7f29 0fa4 fa2a
00000080: 2305 0b2b b18b f12c 494c 602d 2086 0e2b
00000090: 2835 072c 1439 272c 5cca 502e 9a9e fe31
000000a0: 6f96 cb2f ebda 2a2c fb06 8b30 29fb 872a
000000b0: b51b 2630 f4ad 3831 e746 832e 2625 a82f
000000c0: 585e fb2c 94d3 2a2d b2ee bf2d 3eed 7d2d
000000d0: f326 d327 bac5 bf33 dd1c a129 aaf3 502f
000000e0: 0520 b72f 7b27 1b2b 6b46 0f2f f09f 6e31
000000f0: 1821 182e 7bcb ae2f 3452 cb2e cfa5 d22e
00000100: 99c0 9e2c f8ca 772d 61a2 642f 08b0 8e36
00000110: fe3b cb30 516d 692d cb7f b629 9181 c031
00000120: 8e2c 472d 2bff 3f2f 61aa c632 0fa0 0931
00000130: c8ca 872a 07bb 8c30 2056 762e 7752 cd2d
00000140: 0000 0000 40ae c92e 7fc5 9a2e f7eb 2631
00000150: 6a7e 0430 9988 1e26 c28d d627 c19d 0c2d
00000160: 2a5a ab30 4834 642e c53f ac2a ac90 a72c
00000170: 2ccc 3d30 a0a8 d52f 4470 2b2c 77f4 4930
00000180: 58de f72d 6300 4b32 84c0 a52b e503 612e
00000190: 6730 cd2c 3d1b c22b 07c3 342f 2040 5a29
000001a0: 7e9a 802c bbde 3330 aa7d 842b f507 d032
000001b0: b468 152b e174 fb30 de01 d12d 932c 7228
000001c0: cca7 882a ef6e 4f2a 34be ef2b 8d83 992c
000001d0: d4b6 d22a 32e6 482b b12e 2f2b d03c 6a2d
000001e0: e43e d231 6f15 042f 5df5 882b abb4 3e30
000001f0: 48ff 462a ca14 a92f 6f39 d830 1a66 d42d
00000200: e858 392f 4426 9c2c e053 482c a491 362d
00000210: 285a b52c 29bc 6127 551b 6333 002e 9429
00000220: ccf9 072f 08c2 812f 9921 012b f6f6 852e
00000230: 1f90 3e31 78de c42d dd90 2a2f 1bdd 7a2e
00000240: 4346 612e 8c1a 032c e407 a32c 8ff5 ef2e
00000250: e5b8 6736 e283 2c30 6a6c bd2c f2bb 2729
00000260: a8dc 2731 6bdb 892c eb57 822e e657 2b32
00000270: 2b65 9730 39d5 ab2a b01a bf2f b979 f22d
00000280: 8d35 1d2d 0000 0000 e221 252e 65e5 052f
00000290: 0b45 a230 5070 ff2f b168 0126 5ffb 7427
000002a0: 9dc6 a02c d420 c730 18e6 4c2e 7855 592a
000002b0: 0fe2 c52c e23b 4d30 f37a 922f b9d6 492b
000002c0: 1cd2 3430 7a47 992d 7ce8 c131 e120 af2b
000002d0: 6908 362e c62a 602d c6a1 672b d1ec d92e
000002e0: 10c9 7729 453d 082c 667e a230 58a0 cd2a
000002f0: 26a7 0733 518f 6d2a aba4 b930 cf11 5d2d
00000300: a2b1 ba28 ff08 0b2a bcf8 162a 5af2 242c
00000310: c5a3 6d2c 3803 222a 1da6 4c2b fd54 3b2b
00000320: 69b0 842d d60f a231 5d10 a32e f3e5 ad2a
00000330: 8b1a 5630 db7d 572a 2ccb 472f f26e 7630
00000340: 8225 852d babf 302f bd30 fb2c e81a 2b2c
00000350: cc47 9b2c 69d4 fd2c b244 6427 62ec 8f33
00000360: 833a 7729 0bff 902e 96e0 5d2f 9a0b 692a
00000370: 985c ab2e e624 c030 235e 212d dff5 e92e
00000380: 68fc 1d2e 2bdb b32e 0898 bb2b 2993 e22c
00000390: 2822 bc2e aa23 3636 c958 4e30 7b84 8f2c
000003a0: da76 2e29 74ce 0831 90fb 5d2c 90e9 a52e
000003b0: 8946 7432 f228 8830 779f 0c2a 6f5e 0e30
000003c0: 9532 2b2e 4141 352d 0000 0000 d24b 872d
000003d0: e73f ce2d c0a0 da2f 95b2 c92e afce aa25
000003e0: 0517 2a27 fa3b a42b 6272 dc2f ed66 612d
000003f0: 2588 bc29 f1e3 fc2b f265 3e2f 0bbf bd2e
2.70023e-10 2.155516e-10 3.2835394e-09 1.0138255e-09 4.7122227e-16 8.323937e-15 1.7338337e-11 3.8515213e-09
8.029584e-11 4.9586263e-13 1.4114435e-11 2.2075481e-09 1.2763831e-09 3.1213996e-12 1.7005514e-09 8.399377e-11
1.857827e-08 2.8321698e-12 1.5596997e-10 3.620529e-11 2.993209e-12 2.898259e-10 2.8264218e-13 5.850748e-12
1.9083193e-09 2.112646e-12 7.5904346e-08 7.039264e-13 2.4426086e-09 3.41831e-11 5.667157e-14 4.452276e-13
4.938985e-13 6.865141e-12 1.27498645e-11 5.063467e-13 1.9214162e-12 2.3763812e-12 4.7473456e-11 7.410404e-09
3.7032374e-10 2.4279977e-12 1.0115565e-09 2.4155095e-13 6.042982e-10 2.6874405e-09 5.969785e-11 3.0585418e-10
7.1443233e-12 9.710361e-12 2.1820188e-11 1.4434063e-11 5.8606493e-15 8.930097e-08 7.154843e-14 1.9004057e-10
3.3310257e-10 5.512185e-13 1.3030792e-10 3.4724472e-09 3.4590192e-11 3.1794997e-10 9.2459734e-11 9.579148e-11
4.5120127e-12 1.4085393e-11 2.0794168e-10 4.2524225e-06 1.4787245e-09 1.326879e-11 8.104592e-14 5.6026654e-09
1.13217335e-11 1.7462003e-10 2.3127713e-08 2.0027107e-09 2.4121525e-13 1.0239497e-09 5.601042e-11 2.3342423e-11
0.0 9.171375e-11 7.0381916e-11 2.429031e-09 4.8200965e-10 5.5002386e-16 5.9550626e-15 7.993107e-12
1.2467514e-09 5.1887633e-11 3.0597587e-13 4.7624873e-12 6.9047945e-10 3.886429e-10 2.4362882e-12 7.347078e-10
2.817939e-11 1.1816243e-08 1.1777389e-12 5.1162536e-11 5.831824e-12 1.3792089e-12 1.6440192e-10 4.8461343e-14
3.655131e-12 6.543634e-10 9.414043e-13 2.4218005e-08 5.308074e-13 1.8295873e-09 2.3761378e-11 1.3443364e-14
2.4274885e-13 1.8423781e-13 1.7034763e-12 4.3631266e-12 3.7430356e-13 7.1373734e-13 6.2237287e-13 1.3314863e-11
6.1189542e-09 1.2012945e-10 9.731483e-13 6.937834e-10 1.7674501e-13 3.0755692e-10 1.5732392e-09 2.4146952e-11
1.6857238e-10 4.438035e-12 2.846827e-12 1.0377841e-11 5.1543388e-12 3.1327024e-15 5.2877414e-08 6.5805e-14
1.2366924e-10 2.360283e-10 4.587663e-13 6.092009e-11 2.7730562e-09 2.2381416e-11 1.5512876e-10 5.70398e-11
5.1221482e-11 1.8630956e-12 4.6336147e-12 1.0912082e-10 3.4529305e-06 6.276065e-10 5.3837395e-12 3.7244466e-14
2.4427127e-09 3.9181345e-12 5.927333e-11 9.973496e-09 1.101545e-09 3.0523655e-13 3.476166e-10 2.756627e-11
8.936307e-12 0.0 3.754675e-11 1.2177777e-10 1.1806675e-09 4.6464033e-10 4.489775e-16 3.399807e-15
4.569524e-12 1.4488486e-09 4.6588594e-11 1.9303125e-13 5.6241743e-12 7.4663664e-10 2.6644606e-10 7.170753e-13
6.57822e-10 1.7425828e-11 5.6434697e-09 1.2443624e-12 4.138948e-11 1.27424234e-11 8.229219e-13 9.9100846e-11
5.501941e-14 1.9360774e-12 1.1822976e-09 3.6526576e-13 3.1584158e-08 2.1099551e-13 1.3507323e-09 1.256635e-11
2.0727184e-14 1.2348801e-13 1.3408973e-13 2.3440334e-12 3.3770636e-12 1.4389607e-13 7.270589e-13 6.655369e-13
1.5085004e-11 4.716621e-09 7.4152885e-11 3.0890533e-13 7.7890466e-10 1.9139501e-13 1.8171126e-10 8.965194e-10
1.5137006e-11 1.6075222e-10 7.13926e-12 2.4315498e-12 4.413336e-12 7.2142748e-12 3.1678596e-15 6.701954e-08
5.4895768e-14 6.5936666e-11 2.0179622e-10 2.0698582e-13 7.792628e-11 1.3980326e-09 9.172693e-12 1.0639289e-10
3.592185e-11 8.1789096e-11 1.3329346e-12 6.4396444e-12 8.5553176e-11 2.7140873e-06 7.5068535e-10 4.0790127e-12
3.873885e-14 1.990796e-09 3.1545634e-12 7.54482e-11 1.4218707e-08 9.90694e-10 1.2489823e-13 5.17935e-10
3.8925824e-11 1.0303148e-11 0.0 1.5381394e-11 2.3447867e-11 3.976819e-10 9.172144e-11 2.9630353e-16
2.3604718e-15 1.1669548e-12 4.009904e-10 1.2812623e-11 8.3724945e-14 1.7968943e-12 1.7316618e-10 8.628661e-11

exp_avg f4 [128]
00000000: a859 543a c151 3cba 3615 1dba 108b 7bb9
00000010: d056 813a a0ed 2fba 8338 0fba 790e c9b9
00000020: a708 853a b59d 893a a2e7 cd38 fee1 7c3a
00000030: 23c4 6c3a 9705 ecb9 7c87 1eb9 f226 d6b9
00000040: 1a13 cd39 f6f4 ea38 bcff cdb9 aea9 e3b9
00000050: cf14 a33a ed4e 683a 1cde 26ba be13 873a
00000060: 8eba ebb9 fd51 0e3a 3799 5a3a 0ffd 843a
00000070: 6e07 23ba 660a 05ba 90cd 25ba 129f 9939
00000080: df7d 8db9 c863 983a d840 e4b9 e29c 8c3a
00000090: 9e07 09ba dda3 c8b9 580f aab9 5459 a1b9
000000a0: a1c9 0cba 68b5 443a c78a a939 8656 633a
000000b0: e80c f8b9 036e 043a 1834 71b9 bbca 23ba
000000c0: 8f36 5cba ae38 193a 96e1 553a a835 1dba
000000d0: 3c62 853a 6dd9 c7b9 58ee 05ba 6a43 fb39
000000e0: fcdb 34ba 167c 1cba d07e 7f39 e2fd 523a
000000f0: 4cdf 4cba 3b06 893a 425e 5f3a c294 11ba
00000100: cb40 05ba b84a 7d3a 5e31 353a f6b6 82b9
00000110: 9e4f 3f3a 3254 94b9 387b 383a 8352 783a
00000120: de53 593a acd2 ceb9 c6d2 4f3a 2acd 1d3a
00000130: 5223 173a 24ba 463a a0b4 323a 4f8f 603a
00000140: 4261 ca39 b99b 6c3a 9064 7139 74eb 3aba
00000150: 94c1 fbb9 cb08 763a 6887 5339 1ded d3b9
00000160: d498 333a 3cb9 863a 2068 ac39 9ae0 7f3a
00000170: 38ab 823a b793 14ba 38f0 c4b9 a06c 2239
00000180: 6cfe 9739 dc12 4bba 4ccd ff39 8381 0d3a
00000190: 6766 99b9 d6a7 e039 4833 313a 7ec1 983a
000001a0: 18df e439 6e42 3a3a 6028 513a 6eef 1f3a
000001b0: 82ae 373a bfbd 07ba 7512 e339 08b8 273a
000001c0: d32e 383a 8afd 923a e4a7 5b3a 0777 1cba
000001d0: fa68 373a 0927 26ba c4fd 2bba 17e1 3cba
000001e0: cb6f 8639 8c2d 5a3a 689e 763a caaf 1cba
000001f0: dc00 733a 8265 693a 425e 483a 00f7 4e3a
0.0008100518 -0.0007183813 -0.00059922354 -0.0002398903 0.0009867791 -0.0006711129 -0.0005463438 -0.0003834849
0.0010149673 0.0010499271 9.818307e-05 0.00096467126 0.0009031912 -0.00045017592 -0.00015118526 -0.00040846277
0.0003911488 0.00011203617 -0.00039291184 -0.00043423235 0.0012442115 0.00088618585 -0.00063654943 0.0010305566
-0.00044961687 0.00054290873 0.0008338871 0.0010146218 -0.00062190637 -0.0005075097 -0.00063248817 0.0002930095
-0.00026987397 0.0011626417 -0.0004353586 0.0010727907 -0.00052272703 -0.0003826906 -0.0003243636 -0.00030774868
-0.0005370621 0.0007503838 0.0003233759 0.0008672256 -0.00047311862 0.00050517934 -0.00023002957 -0.0006248166
-0.0008400464 0.0005844933 0.000815892 -0.000599707 0.0010176371 -0.00038118233 -0.00051090633 0.00047924678
-0.00068992353 -0.0005969418 0.00024365936 0.0008048696 -0.0007815256 0.0010454127 0.00085208204 -0.00055534777
-0.0005083202 0.0009662318 0.00069119583 -0.0002493185 0.00072979357 -0.0002829149 0.0007037404 0.00094727444
0.000829039 -0.00039448345 0.0007927831 0.00060196465 0.0005765456 0.00075808377 0.00068170764 0.00085662765
0.00038600905 0.000902589 0.00023021013 -0.0007130422 -0.00048018678 0.00093854655 0.00020172971 -0.0004042172
0.0006851081 0.0010278593 0.00032883976 0.0009760946 0.000996924 -0.0005667763 -0.0003756301 0.0001548999
0.00028990523 -0.0007746646 0.00048790348 0.0005398022 -0.0002925873 0.00042849657 0.00067596557 0.0011654345
0.00043653767 0.00071052357 0.00079787336 0.00061010465 0.00070068997 -0.00051781157 0.00043310566 0.0006397967
0.00070260203 0.0011214477 0.00083792047 -0.0005968664 0.0006996539 -0.0006338214 -0.00065609463 -0.0007205172
0.00025641764 0.0008322827 0.00094077596 -0.00059771223 0.00092698424 0.00089033705 0.000764344 0.0007895082

exp_avg_sq f4 [128]
00000000: b29e 9e36 dc82 7a36 f4f9 4736 1177 f234
00000010: a8b7 e536 82a5 6136 bd43 fd35 754e c935
00000020: 64c7 f936 5bf7 1137 798f b833 9874 ea36
00000030: a567 d136 dbc3 e035 2132 4334 67ab 9e35
00000040: ef65 8235 ec06 d433 75a6 b435 0d91 c335
00000050: 315a 5437 0fde cc36 26b9 6536 b7f8 1637
00000060: 1f81 f335 125a 0736 7d15 ab36 5f8e ef36
00000070: 0d61 3536 9af0 0936 cc2e 6f36 d0c4 3835
00000080: 5a7a 2035 2f8c 3937 7eed dd35 5595 1b37
00000090: 6852 1636 318f 8b35 0991 4435 e07d 2c35
000000a0: 7532 1636 fcbd 9436 cd76 5335 3f0c c536
000000b0: 501f f735 8dab 1f36 9736 f534 991b 2e36
000000c0: 429a c036 dbf2 4736 bb21 ab36 1547 5736
000000d0: e88b 0337 a273 a435 578b 1036 f725 e235
000000e0: c7c7 7336 9421 4236 c958 c134 3f49 a436
000000f0: 20de ad36 6de0 1e37 c125 a436 8569 1536
00000100: f783 1436 9fbf 0037 cb53 8d36 5be7 2335
00000110: be73 9a36 39b7 e734 aaab 8136 5dca ea36
00000120: 7fc8 d736 1a3d a835 1775 c436 7521 2736
00000130: b5bd 1a36 133d 9836 9f36 6636 eb70 c536
00000140: 147b a235 29f6 e236 4a48 2035 97c1 8236
00000150: 6e5b 0a36 6653 f136 4ca1 cb34 e7e5 8e35
00000160: 839b 5d36 0d75 0937 6a4b 6e35 d09c 0637
00000170: 15c8 0537 2639 0a36 736f 9c35 cfd4 f333
00000180: 6486 2d35 503b 9e36 cabe e735 8ae4 3136
00000190: 5d90 4335 7ded dd35 410f 6d36 06fe 3e37
000001a0: deb7 a735 dfd3 a436 f861 b536 a794 4236
000001b0: fa16 6d36 4545 0d36 594f d435 42bf 6436
000001c0: d644 6136 394a 2637 4273 ac36 cd4d 3736
000001d0: 8fef 6536 c521 4436 a810 6136 ff2c 9136
000001e0: 3bc5 4e35 a315 ba36 e802 ec36 1456 2236
000001f0: 3143 f136 cd29 cd36 2b6d 9836 a49b b936
4.7272415e-06 3.7329073e-06 2.9798803e-06 4.5162645e-07 6.8461122e-06 3.362395e-06 1.8869683e-06 1.4998501e-06
7.4439904e-06 8.700265e-06 8.594265e-08 6.9873167e-06 6.240751e-06 1.6746302e-06 1.8179027e-07 1.1821802e-06
9.715421e-07 9.8732784e-08 1.345949e-06 1.4570847e-06 1.2657184e-05 6.105525e-06 3.423143e-06 8.998605e-06
1.814249e-06 2.0168995e-06 5.0986987e-06 7.139329e-06 2.7027593e-06 2.055464e-06 3.5641015e-06 6.883174e-07
5.978269e-07 1.1059498e-05 1.6534902e-06 9.273489e-06 2.2399709e-06 1.0397981e-06 7.3226744e-07 6.4258165e-07
2.2381112e-06 4.432861e-06 7.8776503e-07 5.872483e-06 1.8412047e-06 2.3792702e-06 4.5674525e-07 2.5944084e-06
5.740004e-06 2.9794671e-06 5.100124e-06 3.2078872e-06 7.840783e-06 1.2252606e-06 2.1538779e-06 1.6849361e-06
3.6326107e-06 2.8927798e-06 3.601365e-07 4.896108e-06 5.1816605e-06 9.469787e-06 4.891976e-06 2.226415e-06
2.2130532e-06 7.67401e-06 4.2118822e-06 6.10589e-07 4.603032e-06 4.3160415e-07 3.864484e-06 6.9973016e-06
6.43084e-06 1.2534758e-06 5.8548862e-06 2.4904414e-06 2.3058212e-06 4.537063e-06 3.4304464e-06 5.884203e-06
1.2105761e-06 6.7639817e-06 5.970984e-07 3.8968387e-06 2.0616822e-06 7.1920686e-06 3.7929055e-07 1.0646735e-06
3.3022086e-06 8.193089e-06 8.877165e-07 8.023533e-06 7.974003e-06 2.0596867e-06 1.1655342e-06 1.1354279e-07
6.4643086e-07 4.715672e-06 1.7266368e-06 2.6508083e-06 7.2853237e-07 1.6534901e-06 3.532463e-06 1.1384027e-05
1.2495982e-06 4.912246e-06 5.4056254e-06 2.899478e-06 3.5329126e-06 2.1050957e-06 1.5818324e-06 3.4085974e-06
3.356768e-06 9.911652e-06 5.139417e-06 2.731441e-06 3.42631e-06 2.9225932e-06 3.3537308e-06 4.326575e-06
7.702799e-07 5.545751e-06 7.0336864e-06 2.4189985e-06 7.190182e-06 6.1143423e-06 4.542662e-06 5.5315486e-06
