results/Bigmap2/BigMapAgent/BigMapAgent-3999971.onnx (onnx, 154253 bytes, 6 tensors)

network_body._body_endoder.seq_layers.0.weight f4 [128, 81]
00000000: 432b 943e 9194 0e3b 526b 4abd d897 953d
00000010: 6d4e 76bd bbd6 c23c 48e7 073e 175a 753e
00000020: 70ea a4bd fcff f9bd e2d4 38bc 5af2 0d3e
00000030: bdac bd3e 4d47 8b3d d6f3 953d a478 df3d
00000040: 7afa 1dbd e6db 2cbd 6c60 663d a2ec de3d
00000050: 4ea8 abbc e53c c43d 88df bb3b 6653 2e3d
00000060: 49f1 e93d a9a3 d93d a07d 8c3e 6d4c b4bd
00000070: ca2b e1bd 44ff a7bd 9170 183d ccc7 823d
00000080: 6506 523c d821 233e 06a9 293e a25c 8a3d
00000090: 18c9 b1b8 b899 bd3d 8fba 853e 8f38 93bd
000000a0: 6ecc 1e3d bd35 773e 19bf bebd 5bc8 bfbd
000000b0: 9633 c63d e0da 0ebd 96de 92ba 2bb0 a33d
000000c0: b45c a0be 9c59 013e 9855 c6bd dc40 2bbd
000000d0: 8caf e63d 7a90 09be 3749 c6bd 49f2 803c
000000e0: 1f15 f2bd a82d 8cbe 2068 0dbe 754d 643d
000000f0: 3d1e f1ba 7e54 d2bd 0c20 5ebc 8376 62be
00000100: 74ad 523d aef2 913d 91f4 0cbd 63d8 5dbc
00000110: a593 293e 8d11 2fbe 61f7 813d 0843 3c3d
00000120: d11f b9bc 6c99 8d3c 925e 873d 05d1 4ebd
00000130: 7605 3cbe 1925 b73d acf1 8bbd 1d99 d23c
00000140: aca5 9bbb 410b 963c 6f03 13be 868e 193b
00000150: 2d42 9abc 1d8f 253d 7bb3 8abc 7503 c23d
00000160: a295 8ebd 8b4c 5b3d ba4c f0bc bb2d 11be
00000170: 7c9d 08be 190a 953d 7a44 5b3e c9da 00bc
00000180: b527 afbc 3583 573d c5e1 1fbd 566b d1bd
00000190: 09b2 b9be 3059 b1bd b589 313e cfd6 a3be
000001a0: 50f4 e23d 0816 4abe c96a 65bd a14b 37bd
000001b0: e466 3d3e 7fb4 f03c 53bc f83d e416 17be
000001c0: 05c9 993d bec7 abbd 536e 9abd 89a0 563d
000001d0: 2052 253e 991b 3dbe fd15 7fbe 63d9 00bd
000001e0: e1cc d03d dca4 04be 3f3c 523e 6428 473c
000001f0: bc61 cbbd c458 773d 851a 11bc 0cc4 0fbc
00000200: 7a59 49bd 7a8f 70bd c8a3 8ebd 8473 413b
00000210: 837c 14be 9e96 b73b 1a1f d4bd 9db8 983d
00000220: db8d c13d 3819 c03d 926e 3ebd cd28 f6bd
00000230: 6bc7 343e cd01 ba3d 93de 10bd 449c 003e
00000240: f69f 19be 59b6 b4bd aea1 15be 70c9 4f3d
00000250: b443 133e 70d1 d7bc 9a39 cebd b29c 2c39
00000260: 89e1 3cbd 62ca 4dbe 8253 1dbe e13a ecbd
00000270: 75ef 0dbc 9726 a03e b82b 33be 08dd 7bbd
00000280: 1f76 30bd cd93 acbd ba3f 61be 9808 293e
00000290: 6f9a 5bbe 3bfc 503d a5f3 aabd a502 30be
000002a0: e39d cdbc 0a47 823d 0f2d 093d a905 11be
000002b0: ecdf 93bb 7c1b 9bbd dabf 43bc 9796 1abe
000002c0: 3724 063d fde3 eebd 5499 2dbe d15c 513d
000002d0: 429b cfbd 939b 4a3c eb5a 0abe 3cb9 843d
000002e0: a6d9 8ebe 254a b1bb 8c7e a03d 2b95 0cbe
000002f0: 3442 8d3d 8cea 5cbe cba0 c5bc dde3 ca3b
00000300: 8ac4 2f3c afc4 b8bd 9317 9cbd 4ac9 2cbc
00000310: ee53 223d 23b7 1fbe a3ca 423d f2fe debc
00000320: cb95 e93d 841a 583d 0f46 3bbe 818a 44be
00000330: 817c a43d 810e c13d ab46 d3bd bafa 1cbe
00000340: 77f7 05be 2321 12bd c231 6a3e f4ff 693c
00000350: 72af 8bbe 6a71 e03d 28e4 283d 3239 3f3d
00000360: 15eb df3d 3067 bfbd b289 d53d 5a8e 6abe
00000370: ab1e 913d 0ca2 46bd f953 25be 300a 9cbd
00000380: 6701 1ebd cfa1 153e 4acb 3bbd 86a0 513d
00000390: 19f0 003d 2be2 fa3d 407c 153e 6b14 1cbe
000003a0: 4316 fa3d 1c5f 99bd 4f23 4cbe 0459 c33b
000003b0: 286c d63d 95d5 d53c 11d4 c23d 1d83 da3c
000003c0: 202b 7a3d 3138 c43d 4331 9cbe e51e 94bd
000003d0: 1e32 36bd d170 3f3c 3250 d5bd f254 76bc
000003e0: ffb5 0e3d 923b 9a3d 0c06 6a3e 6f4d 0e3e
000003f0: 64ee 54be cf4b 14be e366 203d b9e5 c63d
0.28939256 0.0021756033 -0.049418755 0.073043525 -0.060133386 0.023784032 0.1327182 0.23960148
-0.08052528 -0.12207028 -0.011281224 0.13861981 0.3704585 0.06800709 0.07321899 0.10911682
-0.03856895 -0.0422019 0.0562443 0.10884978 -0.020954277 0.09581927 0.005733434 0.042560004
0.114229746 0.10626919 0.27439594 -0.088036396 -0.1099468 -0.08202985 0.037216727 0.063857645
0.012818907 0.15930879 0.16568384 0.067559496 -8.477474e-05 0.09257835 0.26118895 -0.07188522
0.038769178 0.24141593 -0.09313793 -0.09364387 0.09677808 -0.034876704 -0.0011205252 0.07992586
-0.31320727 0.1263184 -0.096842945 -0.0418099 0.11263952 -0.1343402 -0.096819334 0.01574053
-0.11820435 -0.27378583 -0.13809252 0.05573793 -0.0018395853 -0.10270022 -0.013557445 -0.22115521
0.05143495 0.071263656 -0.034412924 -0.01354036 0.16560228 -0.17096539 0.06346012 0.045962363
-0.022598179 0.017285071 0.06609835 -0.050492305 -0.18361458 0.08942623 -0.068332046 0.025707776
-0.0047499742 0.018315913 -0.14356779 0.0023430898 -0.018830383 0.040419687 -0.016931286 0.094733156
-0.06962134 0.053539794 -0.029333461 -0.14177601 -0.13341326 0.072773166 0.2141284 -0.007864662
-0.021381238 0.052615363 -0.03903367 -0.10225551 -0.36268643 -0.08659589 0.17337687 -0.31999823
0.11081755 -0.19734967 -0.05601004 -0.04474986 0.18496281 0.029382942 0.12145295 -0.14754826
0.075090446 -0.08387707 -0.07540574 0.052399192 0.1614461 -0.18467559 -0.24910732 -0.031457316
0.101953276 -0.12953514 0.20530795 0.012155626 -0.09930751 0.060387388 -0.00885642 -0.008774769
-0.049157597 -0.05873058 -0.069648325 0.0029518316 -0.14500622 0.0056026718 -0.10357495 0.07457087
0.09450885 0.0937981 -0.046492167 -0.12019501 0.17654197 0.09082375 -0.035368513 0.1255961
-0.15002427 -0.088238426 -0.14612457 0.050729215 0.14381295 -0.026344985 -0.100695804 0.00016461572
-0.046113525 -0.20096734 -0.15363887 -0.11534668 -0.008663048 0.31279442 -0.17497146 -0.06149009
-0.0430814 -0.08426628 -0.21996966 0.16507185 -0.2144563 0.051021796 -0.08347253 -0.17188509
-0.0250997 0.06361206 0.033490237 -0.14162315 -0.0045127776 -0.075736016 -0.011947596 -0.15096508
0.03274938 -0.11664579 -0.16953021 0.051113907 -0.10137035 0.012366193 -0.13511245 0.06480643
-0.27900428 -0.00541045 0.07836637 -0.13728778 0.06897393 -0.21573848 -0.024124524 0.006191714
0.010728011 -0.090218894 -0.07621684 -0.010546038 0.039630823 -0.15597205 0.04755653 -0.027221177
0.11405524 0.052759662 -0.18288444 -0.1919346 0.0803156 0.094265945 -0.10316213 -0.1533002
-0.13082682 -0.035676133 0.22870544 0.014282215 -0.27282292 0.10959132 0.04123321 0.046685405
0.1093351 -0.09345853 0.10426654 -0.22905865 0.070859276 -0.048494384 -0.16145314 -0.076191306
-0.038575556 0.14612506 -0.04584817 0.051178478 0.031478975 0.12250169 0.14598179 -0.15242164
0.12211277 -0.07488844 -0.19935344 0.005961539 0.10469848 0.02610282 0.09513105 0.026673848
0.061076283 0.0958103 -0.30506334 -0.07232455 -0.04448139 0.011684612 -0.10415687 -0.015034901
0.034841534 0.075308934 0.22853869 0.13896726 -0.20794064 -0.14482044 0.03916062 0.09711785

network_body._body_endoder.seq_layers.0.bias f4 [128]
00000000: 8e50 443e f821 37be cb83 51be cbca 5cbd
00000010: 9472 453e ba00 23be 1fb5 1cbe 0f79 2dbe
00000020: 3c3b 6a3e a866 603e 84d0 213d da7a 583e
00000030: d2fa 3a3e 9e74 c6bd ca54 84bd 52be 26be
00000040: ba14 143e 8c51 b83c b4ce 16be 3e8a 29be
00000050: 4f9b 5f3e 0328 453e 1400 25be 0eaa 543e
00000060: 43a5 34be f179 233e f3b7 423e 9b47 5e3e
00000070: fc3b 39be e75a 35be 28eb 20be c917 ee3d
00000080: 596c 64bd 3d34 583e c401 eabd 41e5 5f3e
00000090: f3c9 23be 1101 ccbd 7d4a 2fbe d3fa edbd
000000a0: 2699 4cbe 226f 2b3e 5902 c03d 57e9 3d3e
000000b0: e15b f4bd 9a4e e33d f01c b5bd 7356 2bbe
000000c0: 9d31 36be 2e32 323e d47a 4e3e 601c 4cbe
000000d0: a10b 5d3e dae9 31be cac3 0bbe 2b62 f03d
000000e0: 1f47 5cbe 69ca 42be dd67 dc3d 5bbc 643e
000000f0: c63e 1cbe dfb9 643e 2d2d 4c3e fff7 e0bd
00000100: 7f7c 3abe 2e33 563e eadb 273e c7c7 2abe
00000110: 25a4 443e dec1 96bd b890 3d3e 3c75 3f3e
00000120: 0596 583e af60 25be 2c80 573e 7225 453e
00000130: 44d3 133e 9b82 3e3e f7ac 343e 1ae0 313e
00000140: 3aa9 d13d 9192 323e f93d 4c3d ba2d 26be
00000150: 01ca 0cbe 16b5 4f3e ae1e 423d cefd 2cbe
00000160: abd1 463e dbac 5a3e ee22 6c3d afd3 533e
00000170: b1a2 6e3e 7df2 fabd eaeb 41be be76 9c3d
00000180: c557 e93d 93da 36be 890c e53d 8366 ee3d
00000190: 055f a3bd 6738 c93d 1a11 2a3e 5f5a 5a3e
000001a0: 36e4 143e 3811 243e 3095 1b3e e6da 333e
000001b0: b156 393e feee 35be 3612 da3d 3c05 373e
000001c0: 150b 523e ec0b 573e af74 4c3e 7b2b 3fbe
000001d0: 1651 453e 7fed 32be c074 24be 6e55 5ebe
000001e0: 0d8f d83d d67e 3d3e d4d6 363e 7269 35be
000001f0: 6760 3f3e 7444 4f3e 1896 433e 6cca 3a3e
0.19171354 -0.17884052 -0.20460431 -0.053904336 0.1928199 -0.15918246 -0.15303467 -0.16940711
0.22874159 0.2191416 0.039505497 0.21140614 0.18259743 -0.09690212 -0.06461485 -0.16283539
0.14461032 0.022499822 -0.14727288 -0.16556641 0.2183659 0.19253545 -0.16113311 0.20767996
-0.17641167 0.15964486 0.19015484 0.21707003 -0.18089288 -0.17710458 -0.15714705 0.116256304
-0.05576739 0.21113677 -0.11426118 0.21864797 -0.15995006 -0.09961141 -0.17118259 -0.116201065
-0.19980296 0.16741613 0.09375448 0.18546043 -0.11931587 0.110989764 -0.0884341 -0.16732197
-0.17792363 0.17401955 0.20164043 -0.19932699 0.21586467 -0.17374364 -0.13648906 0.11737474
-0.21511506 -0.19022526 0.10761998 0.22337477 -0.15258321 0.22336529 0.19939108 -0.109848015
-0.18211554 0.20917961 0.16392484 -0.16677772 0.19203241 -0.07361196 0.18512237 0.18697065
0.21150978 -0.16150163 0.21044987 0.19252566 0.1443606 0.1860451 0.17644106 0.17370644
0.102373555 0.17438723 0.04986379 -0.16228381 -0.13748933 0.20283923 0.04739254 -0.16893694
0.1941592 0.21355002 0.0576505 0.2068622 0.2330425 -0.12253282 -0.1893765 0.07639836
0.11393694 -0.17856817 0.111840315 0.11640646 -0.07977108 0.09825211 0.16608086 0.21323536
0.1454018 0.16022193 0.1519363 0.17563972 0.18099476 -0.1776695 0.10648005 0.1787309
0.2051204 0.21000642 0.19966386 -0.1866893 0.19269213 -0.1747341 -0.16060162 -0.21712276
0.1057416 0.18505415 0.17855388 -0.17716005 0.18689118 0.20240957 0.19100225 0.1824128

network_body._body_endoder.seq_layers.2.weight f4 [128, 128]
00000000: 8e5b 36bc 25c5 46be f089 47be ef2c 3abe
00000010: a036 873e d1f5 9abd 018a 9fbe 57b5 0fbd
00000020: 34e5 633e 4907 973e b583 0cbe 539b c13d
00000030: d3e7 4b3e 61d0 1c3c 2b0f 9cbd 3adb 94be
00000040: bbd1 e33d ce2f 3b3e b7ca 5abe 4ca3 d1bd
00000050: 5910 853d c111 9f3e 5897 8a3d bba8 203e
00000060: 285b 32bc 88f7 12be c15e ca3d aea5 c23d
00000070: 8004 76bd e13b 49be 14f2 c7bd 9256 a33c
00000080: d39e 183e 11ff 203e 67df 15be 5831 4e3e
00000090: 168b e4bd f8ea 5dbe 70cd b5bc 7237 41bd
000000a0: b085 98bd 4ee1 843e 4903 ce3d c583 b93e
000000b0: 8d85 53bd 227c 3e3e ad30 973d b064 e6bd
000000c0: a6ff 03be 9794 863d 3ea2 d43c 7e26 fbbd
000000d0: d1d9 d7bc e7f2 a23c b9f2 cdbc c619 36bc
000000e0: 4863 90be f3ee a1be 9d12 c038 aa88 603e
000000f0: ba57 31be c643 163e 3908 863d a21f 82bc
00000100: a30d 23be 4898 8d3d 7776 9dbd 8142 8cbd
00000110: a1ca 24bb 9653 bebd a72b 0b3e 2dac 753d
00000120: 8d59 283e 6c96 85bc ba3e 873d 571d 143c
00000130: 0da6 e33c 15b4 203e 9afe b03d 0d27 be3d
00000140: da0b ab3e 97f7 403e e0ff 67bd 397b 0cbd
00000150: 22b8 7ebd 42d3 2d3e 2ac9 893d 0aff e2bd
00000160: b6df 533e bbd6 053e a460 f7bc 32f7 823e
00000170: 8c5a e33d 1491 8e3d d6bb 47bc b991 5fbd
00000180: a046 36be 2e04 1ebe 0250 29be 1b76 a03d
00000190: 840d a63c 1693 553e dae6 da3d 7c73 123e
000001a0: 292b 9b3d e8df 13bc 3b4c 99bc 11fb dc3d
000001b0: 3d59 5abd 1348 3dbe 3dff 033e e1f4 f03d
000001c0: a62b 08be 4132 3e3e 8a10 333e 1c18 4fbd
000001d0: 577d a23d a4cc 1dbe e543 37bd 2765 8abe
000001e0: a4d0 09be 06fe 8f3e 1efc c73d 58a0 3cbd
000001f0: 9ed2 143e f80c 913d 7646 ef3d 3455 223e
00000200: 7019 04be 8fd7 61bd 0051 2e3e 82ca 25bd
00000210: c3a9 7dbd f2fc 483e fe7c 963d 01d2 1a3e
00000220: c342 67bd d0e6 c1bd 6810 3dbe 0e9c e13c
00000230: d8b5 b9bd bc28 c03d 1de1 4a3b 2ee1 7b3d
00000240: bd39 043d d816 d83d 85e1 88bd 7f38 8c3d
00000250: dd55 7e3c 637f 5c3c 3596 163d bd4f eebd
00000260: 3fcb 713e 7f4b 48bc 783a 1c3d d16f 743d
00000270: cdeb 133e 90ff 4d3e 049a 343e 6092 213d
00000280: 11a7 3ebc 2271 6dbe a381 4c3d 12a3 2ebd
00000290: e4ec b43d 9671 94bd 3485 503d c14c 1c3d
000002a0: 213b a43a 9764 05be ca79 f0bd adf9 34bd
000002b0: e603 423e 1ea7 00be 6fb0 f83b 57f7 293e
000002c0: cf13 80bd fae6 0ebe 881f 0abe bbb2 843d
000002d0: eabe 64be 0167 853c a0bb 063e c8ef 21bd
000002e0: d193 883c 8220 563d b418 123d f927 c6bd
000002f0: 2db0 043e 4aa5 0bbe e2f1 9dbc 05ea 7b3e
00000300: 9001 233e 72a5 28be 831f 41bb 4f9e b53d
00000310: 36ec 33be e817 4d3e 9b15 e13d 8b27 0b3d
00000320: 6e57 1ebd e177 2f3d ce1c aabd 035a 9d3d
00000330: 0b51 d4bd b625 85bd 71b1 14be 3c1a 033c
00000340: 88ff f3bd dfa0 21be b28e 58be 9513 343e
00000350: d9f6 1638 d230 58be 0206 073e 5ad6 93bd
00000360: e8be c3bd 1545 21be e96b 913b 1151 70bd
00000370: 65dd e8bd 22da b23d 01a5 3abc be53 06be
00000380: d801 77bd 36bf 823d a847 643d a8fb 20bd
00000390: 3ce8 773e 9f53 20be e4b2 d4bd 7074 44be
000003a0: 259d a13c ca69 9ebd aabe fcbd ec54 0abe
000003b0: 86b8 893c 9e41 6f3e 0ea2 243d 5559 7fbe
000003c0: 14f1 8c3d 4ab9 7abe 56c0 193d a858 953d
000003d0: a48c 37be fd7c 8a3d d7b0 333e 0584 f93d
000003e0: 1bd4 65be 1d33 19be a9b4 afbd 578b d73d
000003f0: 021e 663d 8cf3 3e3d 452b 1f3e e16b abbd
-0.011130227 -0.19411142 -0.19486213 -0.18181203 0.26408863 -0.07566417 -0.31159976 -0.03508505
0.22255403 0.29497746 -0.13722117 0.09453454 0.19912653 0.009571166 -0.076200806 -0.29073507
0.11123987 0.18279955 -0.21366392 -0.102362245 0.06497259 0.31068233 0.06767148 0.15689366
-0.010885991 -0.14352238 0.09881354 0.09504257 -0.060062885 -0.19651748 -0.097629696 0.01993874
0.14904337 0.157223 -0.14636002 0.2013601 -0.11159341 -0.21671665 -0.022192687 -0.047172017
-0.07447374 0.25953144 0.1005922 0.36233345 -0.051641036 0.1860204 0.07382331 -0.11249673
-0.12890491 0.0657131 0.02595627 -0.12263201 -0.02634898 0.019891215 -0.025140153 -0.011114543
-0.28200746 -0.31627616 9.1587404e-05 0.21927133 -0.17318621 0.14674291 0.06544537 -0.015884224
-0.15923171 0.06913811 -0.07688611 -0.06848622 -0.002514519 -0.092932865 0.13590871 0.059978653
0.16440411 -0.016307078 0.06603761 0.009040198 0.02778914 0.15693696 0.086423114 0.09284792
0.3340748 0.18844448 -0.056640506 -0.0342972 -0.06218732 0.1697512 0.06727822 -0.11083801
0.20690808 0.13070194 -0.030197449 0.2557922 0.11101255 0.06961265 -0.01219078 -0.05458233
-0.17800379 -0.15431282 -0.16534427 0.07835027 0.020270117 0.2085689 0.10688563 0.14301866
0.075765915 -0.009025551 -0.018713107 0.107900746 -0.05330776 -0.18484525 0.12890334 0.11765457
-0.132979 0.18573858 0.17486778 -0.050560102 0.07934063 -0.15410095 -0.044742484 -0.27030298
-0.13458496 0.28123492 0.097648844 -0.046051353 0.14533469 0.07082552 0.11683361 0.15852815
-0.12900329 -0.055137213 0.17023087 -0.04047633 -0.061929476 0.19627741 0.07348059 0.15119173
-0.056460153 -0.09467852 -0.1846329 0.027540233 -0.09067887 0.093827695 0.0030956932 0.061494045
0.032281626 0.10551232 -0.066836394 0.06846713 0.015523401 0.013458106 0.036764342 -0.116363026
0.23612688 -0.012225031 0.038141698 0.05967695 0.1444542 0.2011702 0.17636877 0.039446235
-0.011636511 -0.23187688 0.04992832 -0.042635985 0.08834246 -0.07248227 0.050908282 0.038159136
0.0012529829 -0.13026653 -0.117419794 -0.044183422 0.189468 -0.1256375 0.007589392 0.16598259
-0.06253778 -0.13955298 -0.1348859 0.06479403 -0.22338453 0.016284468 0.13157511 -0.039535314
0.016672047 0.052277096 0.03566809 -0.09675593 0.1295783 -0.13637272 -0.019280378 0.2460099
0.15918565 -0.16469362 -0.0029468245 0.088680856 -0.17570576 0.20028651 0.10990449 0.033973258
-0.0386576 0.042838935 -0.08306275 0.07683184 -0.1036702 -0.065013334 -0.14520814 0.00800186
-0.11913973 -0.15784024 -0.21148184 0.17585595 3.599268e-05 -0.21112373 0.13185886 -0.07218619
-0.09557897 -0.15749009 0.0044379127 -0.05867106 -0.11370353 0.08733012 -0.011391879 -0.13117883
-0.060304493 0.06384127 0.0557324 -0.039302498 0.24209684 -0.15656899 -0.10385683 -0.19185042
0.019728253 -0.077350214 -0.12341054 -0.13508958 0.01681162 0.23364875 0.04019361 -0.24936421
0.068819195 -0.24484745 0.03753694 0.072923005 -0.17924744 0.06762121 0.17547928 0.12183384
-0.22444193 -0.14960904 -0.0857938 0.10524624 0.05618096 0.046618983 0.1554385 -0.08370186

network_body._body_endoder.seq_layers.2.bias f4 [128]
00000000: e283 0b3e 0dfc 7bbd 09bc 0b3e 8651 283e
00000010: c96c e7bd 9c8b d2bd 2c5f 0a3e c285 153e
00000020: b006 0e3e 4fc7 d93d dbe4 263e 021b 6fbd
00000030: 30c2 c3bd 6ab9 1c3e a180 193e c035 143e
00000040: aafe 0abd 8426 c8bd 1291 bfbd 5a3f b5bd
00000050: ff81 1f3e 195c c53d 96a3 133e 2d9f afbd
00000060: 2d28 ec3d bc8a f2bd 9008 8a3d cd78 033e
00000070: 353e b6bd fe71 103e 3be4 963d c5ce a3bd
00000080: f513 293e 3f17 cbbd bd09 6ebd 9ce1 f03d
00000090: 7350 2d3e 8cc1 b5bd 1ab8 1e3e 8136 e4bd
000000a0: c375 093e fc6b fb3d d806 d7bd 7aef a23d
000000b0: 073a d53d 28ab 083e 20c4 8cbd a3df b7bd
000000c0: 29a1 c2bd 490e 043e e8b8 85bd f650 083e
000000d0: 2d4e c0bd 2df1 243e 0a5a 033e 73e5 dc3d
000000e0: 12f6 d23d 6b46 0d3e dfce fa3d 34b6 88bd
000000f0: 13cd e73a c31d 0d3e c842 1c3e d6cf cbbd
00000100: a960 ee3d 84fc 8cbd efe3 bfbd 1767 ab3d
00000110: 9d1b ee3d 0f37 0d3e 6aeb 84bd ef44 d03d
00000120: aff4 c63d 05fd 5dbd 83ca 603d 375d a03d
00000130: 23e2 3b3e ef76 293e bd59 d03d 79e2 c7bd
00000140: c031 053e cf2a 153e 4ba8 2d3e 436b e23d
00000150: 692f 153e f565 183e 06a6 113e 6c3e f93d
00000160: 93ec 943d 2df2 bbbd 8312 c63d 7af9 263e
00000170: 503e 053e 5e18 d6bd f87e d1bd 5718 0a3e
00000180: 31dd 1c3e e54c 0c3e a1bd bb3d 8474 b9bd
00000190: 7871 bdbd 2573 fe3d 6765 cb3d 8b1e b8bd
000001a0: 05f6 103e f7e3 003e a6bd f53d 9d4a 013e
000001b0: 70f5 1f3e b201 cfbd 704f 0a3e 49cb 9bbd
000001c0: d09f dbbd 9005 b7bd a489 013e 0a28 e83d
000001d0: edf5 06be 5020 1a3e fae9 c43d 56c3 5a3d
000001e0: ef93 1dbc 4f81 be3d 9253 c9bd 8218 e63d
000001f0: a141 d73d bf1c 1b3e 8556 033d b0a1 d9bd
0.13624528 -0.06151967 0.13645948 0.16437349 -0.11300046 -0.102805346 0.13512868 0.14601806
0.13869739 0.10633718 0.16298239 -0.058375366 -0.09558523 0.15305105 0.14990474 0.14473629
-0.033934273 -0.09772971 -0.09353842 -0.08849974 0.15576933 0.09636707 0.14417872 -0.08575282
0.115311004 -0.11842868 0.067399144 0.1283905 -0.08898584 0.14105985 0.0736775 -0.079984225
0.16511519 -0.09916543 -0.058114756 0.117617816 0.1692522 -0.08874807 0.15499917 -0.11143208
0.13423829 0.12276456 -0.10499352 0.07955833 0.104114585 0.13346541 -0.068733454 -0.08978202
-0.09503395 0.12896074 -0.06529409 0.13312134 -0.09389911 0.16107626 0.12827316 0.107859515
0.103008404 0.13796394 0.12246489 -0.066753775 0.0017685018 0.13780884 0.1525985 -0.09951751
0.1163953 -0.06884101 -0.09369647 0.08369272 0.116263606 0.13790534 -0.06490214 0.10169398
0.097146384 -0.054196376 0.05488063 0.07830279 0.18347983 0.16549276 0.10173366 -0.09759993
0.1300726 0.14567111 0.1695873 0.11055615 0.14568867 0.14882644 0.14223489 0.12170109
0.072716855 -0.09177051 0.096714996 0.16306105 0.13012052 -0.104538664 -0.102292955 0.13485847
0.15318753 0.13701208 0.09167028 -0.09055427 -0.09250158 0.12424306 0.0993145 -0.089902006
0.14156349 0.12586962 0.11999063 0.12626119 0.1562097 -0.10107745 0.13506866 -0.07607133
-0.10723841 -0.08936608 0.12650162 0.11335762 -0.1317975 0.15051389 0.0961494 0.053408943
-0.00961779 0.093020074 -0.09830393 0.11235143 0.105105646 0.15147685 0.032064933 -0.106265426

action_model._discrete_distribution.branches.0.weight f4 [80, 128]
00000000: ba3d 1fbd ed44 b8bb 4f47 11bd 416f 68bc
00000010: 224c 2cbb ace5 353c d259 c6bc 78b3 13ba
00000020: 05c8 98bc 1376 bfbc 682c bc3c b349 343d
00000030: 9805 013d 151a d5bc 0886 5dbc be3d 25bd
00000040: 2f0a 113d 34ff b13c 7304 483b ec18 de3b
00000050: 11b9 38bc 6bf9 12bd 61fc 2cbc 159f f13b
00000060: 23ac 82bc 9051 813c 125b 76bc dc47 613c
00000070: 6503 4abc 15bd 613c d608 9d3c d77a d83b
00000080: 85d6 293c ae65 973c e8fc 10bb 7225 38bd
00000090: 115b 2abc af50 a03c 30e2 e43b c050 a63c
000000a0: 2cf2 96bb 2e6d 05bd 301d 7abb d8b6 2cbd
000000b0: 2c92 7cbc 5920 aa3c 94af 213c c5a0 e3b7
000000c0: 0fb8 ed3a 3821 bbbc 4d51 23bd 94ba acbc
000000d0: 0add 91bc 8805 8e3c 5c84 1cbd 46b7 60bb
000000e0: 9b97 ccbc 25ba 48bc fd9c 43bc dcf7 543c
000000f0: b9c3 8d3c 036e 2ebc 1f7e 4e3c 9975 873b
00000100: ea02 4f3c 8844 9e3c efea 9f3b d372 b7bb
00000110: 3d84 e03b ea5c 67bc 0238 82bc a739 55bd
00000120: 250f 36bd 79f8 53bc 3783 89bc b1d3 a9bc
00000130: 230d 53ba 2c21 d3bc a9e0 023d 52ba 8bbc
00000140: fbba d2bc 2fe2 41bb 4722 87bc 406f 21bd
00000150: 41c6 05bd 09bd 783b 8ee5 33bc cd1a 63bd
00000160: 0053 1fbd 98a1 943c 2878 ff3b fac1 39bc
00000170: 91bf 0ebc e626 c93c 04cd 37bc 1e62 01bb
00000180: 000c 06bd 6171 dfbc c622 bcbc 3710 ad3c
00000190: b2c2 5bbb 6acf c4bc 1058 8abc 857a e7bc
000001a0: 688e c33c e431 42bc 4572 3b3b 55d5 57bd
000001b0: 566c 22bc 8299 823b 7f92 113c 4460 3cbc
000001c0: 9ee2 4b3c ec1f 443d d574 25bd fe6a 40bc
000001d0: 5ce0 35bc 6f69 2cbc 2aa0 3abb 9e7d fe3c
000001e0: bf80 50bd 5801 46bc ed94 043d 062c f6bc
000001f0: cb8c fcbc ee5c dabc 6054 96bd acc4 cfbb
00000200: 8808 093c b1b2 8f3c b27a 213d c451 973c
00000210: c03e 1abb ac0e c3bc aa77 d73c 8229 aabc
00000220: cb0c 4bbb de1b 04bd ac1a a8bb b1de 9c3b
00000230: 0e68 01bd ee54 343d 5d00 2e3d 2d6f 163c
00000240: 5750 4fbb a838 1fbd 9aa8 c3b9 66e5 0abd
00000250: f554 463d 8ad4 1b3d 042a 913c 3221 0cbc
00000260: ba81 0f3d a05f 9bbc 2311 043d 5754 40bc
00000270: 63d6 8cbc 5994 3fbb 3ba4 69bc 0fc8 cfbc
00000280: 5a63 ec3c 646d 50bb d648 f03c 8625 9e3b
00000290: 64cd fbbb c1ae 36bd de1d 303b 6136 35bb
000002a0: f2c6 6abb 5a4c fa3c ad56 d4bc 7fe2 5a3d
000002b0: f9b8 fc3c 06cd 5b3b d614 aabc f728 60bc
000002c0: 66f0 03bd 1722 3c3d 1f91 403c c608 b3ba
000002d0: f9ee 4fbb 36fd 123d 8c39 cb3c eb84 073d
000002e0: 9d4f e5bc 187f 003c fe29 95bb 54de af3c
000002f0: 8237 723c 55b0 613c 22f9 00bc d689 d0bc
00000300: 4cc3 233c 85af 29bd 026f afbc 68f7 b83c
00000310: 7655 533b 8d0f d23c 035d 11bc ed91 043c
00000320: 0721 5b3d 5d15 d538 f112 a53c ab7b 653c
00000330: da5e 823c df29 8a3c dc46 e6b9 c561 02bc
00000340: c133 023c 2125 043c 2c18 643c 7388 103d
00000350: 8ed6 e93c f143 253c 31f7 9f3a 5063 c83c
00000360: 2f76 093d b1f0 d5bc 74b9 14bb c11c 1a3d
00000370: 988c c83c 5b3f b1bc f56c bf3c 755f 91bc
00000380: 72a2 723b 2fee 993a c0a3 4d3c b62a 2cbd
00000390: e04d 6fbd 51f0 e5bb 21e0 3c3d 3d24 11bd
000003a0: 91e0 fb3c 0b61 16bd 0fcb 523c c628 5f3c
000003b0: 50e5 af3c 95f4 a5bc 3040 40ba 5036 8d3b
000003c0: 1b64 4fbc d801 c7bc 5a5f 4b3d 3233 82bc
000003d0: 918c 81bc bc6d 2b3c 41ab 3bbc 2db4 e0bc
000003e0: bb73 f83c b514 473a 3dec 8cbc 69cf cb3c
000003f0: 470d 0bbc 317d 843c 57f1 833d baf5 00bc
-0.038877226 -0.005623451 -0.035468396 -0.014186681 -0.0026290496 0.011102121 -0.024212752 -0.0005634348
-0.018650064 -0.023371732 0.022970393 0.044015598 0.031499475 -0.026013413 -0.013520725 -0.040342085
0.035410102 0.021728136 0.003052023 0.0067778733 -0.011274592 -0.035882395 -0.010558219 0.0073737004
-0.015951222 0.015785962 -0.015036361 0.013750043 -0.012329911 0.013777991 0.019169252 0.0066064405
0.010366087 0.018481102 -0.00221234 -0.044957586 -0.0103976885 0.019569723 0.0069849715 0.020302176
-0.004606506 -0.032574825 -0.003816437 -0.04216656 -0.0154157095 0.020767378 0.009868521 -2.7135373e-05
0.0018136519 -0.022842988 -0.039872456 -0.021085061 -0.017805595 0.017336622 -0.038212165 -0.0034288927
-0.024974635 -0.012251412 -0.011939284 0.012998547 0.017305242 -0.010646346 0.012603312 0.004133892
0.012634972 0.019319788 0.004880301 -0.005598405 0.0068517015 -0.0141212735 -0.015895847 -0.052056935
-0.044448037 -0.0129376585 -0.0167862 -0.020730825 -0.0008050969 -0.025772654 0.031952534 -0.017056618
-0.025723925 -0.0029584279 -0.016495837 -0.039412737 -0.032659773 0.003795447 -0.010980023 -0.05544548
-0.038897514 0.01814346 0.007796306 -0.0113377515 -0.008712665 0.024554681 -0.011218313 -0.001974232
-0.032726288 -0.027275743 -0.0229658 0.021125896 -0.0033532795 -0.024024684 -0.016887695 -0.028256664
0.023871616 -0.011852715 0.0028602045 -0.052693684 -0.009913525 0.0039855847 0.008885025 -0.011497561
0.0124441665 0.047882006 -0.040394623 -0.011744259 -0.011100855 -0.010523184 -0.0028476813 0.031065758
-0.05090403 -0.012085281 0.03236859 -0.030050289 -0.030828854 -0.02665564 -0.07340312 -0.006340584
0.00836385 0.017541261 0.039423652 0.018471606 -0.0023535937 -0.023810707 0.026302177 -0.020771746
-0.0030982967 -0.03225314 -0.0051301327 0.004787289 -0.031593375 0.044026308 0.042480815 0.00918178
-0.003163358 -0.03887239 -0.00037318916 -0.033910178 0.048420865 0.03804449 0.01772023 -0.008552836
0.035035826 -0.018966496 0.032242905 -0.011738858 -0.017192071 -0.002923271 -0.014260347 -0.02536395
0.028855968 -0.0031803483 0.029331606 0.0048262505 -0.0076843966 -0.044600252 0.002687327 -0.002765082
-0.0035824147 0.030553985 -0.025920236 0.05343866 0.03084992 0.0033538952 -0.020761888 -0.013681642
-0.032211684 0.045930948 0.01175335 -0.0013659231 -0.0031728132 0.035886012 0.024807714 0.033085745
-0.027992064 0.0078428015 -0.004552125 0.021468319 0.014783742 0.013774951 -0.007871898 -0.02545635
0.009995293 -0.041427154 -0.021415237 0.02257891 0.0032246984 0.02564218 -0.008872273 0.008091432
0.053498294 0.00010160611 0.020150634 0.0140065355 0.01591437 0.016865669 -0.00043921813 -0.00795788
0.007946909 0.008065493 0.013921779 0.035286378 0.02854469 0.010086999 0.0012204406 0.024461418
0.033559974 -0.026115747 -0.0022693546 0.037625078 0.024481103 -0.021636656 0.023367384 -0.017745713
0.0037023094 0.0011743958 0.012551248 -0.04203292 -0.058423877 -0.0070171733 0.046112183 -0.03543495
0.03074673 -0.03671364 0.012865796 0.013620561 0.02147165 -0.020258227 -0.00073337834 0.004309453
-0.012658144 -0.024292871 0.04965148 -0.015893552 -0.015814098 0.010463174 -0.011454404 -0.027429665
0.030328622 0.0007594333 -0.017202491 0.024879174 -0.008487052 0.016172977 0.06442516 -0.007871086

action_model._discrete_distribution.branches.0.bias f4 [80]
00000000: a7e1 81bc 188c 823c 5d14 e63b c10b 023d
00000010: d0eb 62bd 986c b7bd 34eb 103c 43b5 2b3d
00000020: 8916 8139 bd9a 00bd 350e 58bc d5e6 2e3c
00000030: 638d 673c 366c 18bd 1584 97bb 6804 dd3c
00000040: 97a0 5f3c c67d 86bc 44ca 073c d2e2 993c
00000050: 3e8c 71bc 2045 cc3c d687 20bd cec3 04bb
00000060: d61d 15bb 910b 2fbd 26b9 9e3c 323c 4dbd
00000070: 3c91 ff3c de07 c9ba 8b6a 1cbd 14b7 3fbd
00000080: 9926 0ebd df6a e8bc 7d64 14bd e302 cfbc
00000090: 5a8e 67bc d67d 88bc f28b 54bc 183e de3c
000000a0: f22f 8bbc 073e 3ebd f946 eabc e502 88bd
000000b0: 59b3 b23a fc52 ff3c 4487 6f38 fa4a 363c
000000c0: f783 9cbc 9056 8cbc 1c80 29bb a08a 06bd
000000d0: 6589 26bd 8f90 863d d3bd 65bd a2d3 8a3a
000000e0: 0ad0 123b 63e3 c3bc 4366 05bd e6c1 243d
000000f0: a0e0 52bc c874 92bb b729 09bc 95e5 b5bc
00000100: 36cc 97bc 27ac a73a aa65 293c 54bd c43d
00000110: 2ad5 093d e3ea dcba 2fcd 3fbd 0568 603d
00000120: 4179 f9bc 1b05 113c 3964 803c 2957 173d
00000130: 0bf8 0bbd eb5c 103d b8fa a2bb 5e46 ffbb
-0.01585467 0.015935943 0.0070214705 0.03174949 -0.05540067 -0.089562595 0.008845139 0.04192091
0.00024621587 -0.03139757 -0.013186981 0.010675152 0.01413283 -0.037212573 -0.0046238997 0.02697964
0.013649127 -0.016417395 0.00828797 0.018784914 -0.014742909 0.024935305 -0.039192043 -0.002025831
-0.002275338 -0.04273564 0.019375395 -0.050106235 0.031197183 -0.0015337428 -0.038187545 -0.046805456
-0.03470478 -0.028371273 -0.036228646 -0.025269931 -0.01413306 -0.016661566 -0.012972819 0.027129218
-0.016990636 -0.046445873 -0.028598296 -0.06641177 0.0013633772 0.0311675 5.7108016e-05 0.011126274
-0.019105894 -0.01713112 -0.0025863713 -0.032847047 -0.040658373 0.06570541 -0.056089234 0.0010591636
0.0022401833 -0.023912137 -0.032568227 0.04022398 -0.012870938 -0.004469488 -0.008371762 -0.0222042
-0.018529993 0.0012792394 0.01033918 0.09606424 0.033650555 -0.001685467 -0.046826538 0.0547867
-0.030453326 0.008851315 0.01567279 0.036948357 -0.0341721 0.035244863 -0.0049737357 -0.007790371
