results/ofclrun1/TestAgent1/TestAgent1-499937.onnx (onnx, 111077 bytes, 6 tensors)

network_body._body_endoder.seq_layers.0.weight f4 [128, 39]
000000 ac db 54 bd 49 7d 17 bd ef 0f 3d be 59 c5 39 be
       -0.051967308 -0.036984716 -0.1846311 -0.18141688
000010 b1 ed 7b be 22 04 44 be e7 e3 74 3d 3f d8 a0 be
       -0.24602391 -0.19142202 0.059787657 -0.31414983
000020 fb 93 3b 3e 43 fa 07 3e 8a 5d aa be c0 b8 ea 3d
       0.18318169 0.13279061 -0.3327449 0.114610195
000030 83 30 2e 3e 6b ed b4 3d 01 62 a0 bd db c4 2d be
       0.17010693 0.088343464 -0.07831193 -0.16969626
000040 a8 f2 59 bd aa ad d9 bd 44 93 26 be da a7 ee bd
       -0.05320993 -0.10628827 -0.16267115 -0.11653109
000050 31 e4 5a be 9f 08 1d 3c f5 31 a8 bd 45 ef 7d 3e
       -0.2137611 0.009584575 -0.082126535 0.24798305
000060 3d 44 8a 3d eb 33 5e 3e 02 c3 29 be 81 2e fa bd
       0.06751297 0.21699493 -0.16578296 -0.12215901
000070 88 6c 2d 3d fc 31 8f be cc c7 a1 bd 2f ef ad 3e
       0.04233983 -0.27967823 -0.07899436 0.33971545
000080 e9 69 0a 3e 81 38 03 be 2f 84 5f 3e 46 5a 38 3d
       0.13516964 -0.12814523 0.21827768 0.045007966
000090 db 31 14 bd 4e 1d 12 be e8 21 56 be 8b 8d ca bc
       -0.03618036 -0.14268991 -0.20911372 -0.024725696
0000a0 5b d3 c7 3b 81 9b 74 bd 3a e3 90 3c d7 57 b1 3d
       0.0060981936 -0.059718613 0.017686475 0.08659332
0000b0 14 0f 82 3e 29 9c 3e bd 85 f2 25 be 40 76 27 be
       0.2540213 -0.046535645 -0.16205795 -0.16353703
0000c0 89 82 a9 bb d8 94 5b be bc 14 67 bd b3 d2 3c be
       -0.0051730317 -0.21443498 -0.05641626 -0.1843975
0000d0 e8 9f 89 be 07 d6 9c bd f1 f6 87 be d8 99 c2 bc
       -0.2687981 -0.0765801 -0.2655559 -0.023754999
0000e0 2a 83 93 3e e3 ee 7e 3e 7b b5 1f 3d 00 72 b5 3d
       0.28811008 0.24895816 0.038991433 0.088596344
0000f0 d3 f2 f4 bd 24 6c 66 be 8a ce 87 be 41 60 d5 3d
       -0.119603775 -0.2250219 -0.26524764 0.104187496
000100 32 91 48 3d b8 9d 16 3e 9c f6 40 3d 5e e7 5d be
       0.048966594 0.14708602 0.047110185 -0.21670291
000110 21 ff fd bd 11 e7 3f 3d d4 e6 84 3e c0 66 26 3e
       -0.124021776 0.04685122 0.25957358 0.16250134
000120 61 6d 8b 3e 4b f4 e6 bd 51 5b 70 3e da 9d 64 bd
       0.27231887 -0.11277064 0.23472334 -0.0558146
000130 4b 9e d6 bd 82 77 27 be 9f 31 37 3d 37 95 eb bd
       -0.10479411 -0.16354182 0.044725057 -0.1150307
000140 40 cb 8b 3e fd 35 ba bb 02 06 f7 3d 6f c7 09 3f
       0.27303505 -0.0056827054 0.12061693 0.53819937
000150 ce 17 05 3d 03 e3 fb 3d 5e e8 a7 be ab 49 01 bb
       0.032493405 0.122991584 -0.3279447 -0.0019727747
000160 85 47 14 be b3 ac 34 3c e5 a4 b0 3d c5 b7 6e 3e
       -0.14480408 0.011027503 0.08625201 0.2331229
000170 cc 6d fc 3c 6c f1 2d 3d 76 3e 60 be e5 44 4a 3e
       0.030814074 0.042466566 -0.21898827 0.19752844
000180 08 1f 48 3e 8a f6 b1 3d a7 68 e8 bd 43 75 25 3e
       0.19543087 0.08689602 -0.11348086 0.16158013
000190 50 16 41 be fa 93 57 3d 74 fc de be f7 53 9b 3d
       -0.18856168 0.052631356 -0.4355198 0.075843744
0001a0 21 dc 32 3e 60 0b ba 3d 44 58 36 3d af 76 08 be
       0.17466785 0.09084201 0.04451777 -0.13326524
0001b0 5e 74 6b 3d c2 f4 ca 3c b3 a2 f9 bc 18 96 25 3d
       0.057484023 0.024774913 -0.030473089 0.040426344
0001c0 91 c0 79 3e df 53 03 bc 97 b6 9a bc 6d 20 12 bd
       0.24389865 -0.008015602 -0.018885894 -0.035675455
0001d0 13 4f 9a be a4 17 f4 bd db 21 d6 3d d9 66 ab 3d
       -0.30138454 -0.119185716 0.10455676 0.08369226
0001e0 1d 33 b0 3e 61 f6 32 be 71 32 05 be 92 69 c3 bd
       0.34413996 -0.17476799 -0.13007523 -0.0954162
0001f0 a8 f8 63 3e f3 31 79 bd e6 a6 92 3d 5e 0a 9c 3d
       0.22262824 -0.06083865 0.071607396 0.07619165
000200 5b 98 e2 3d 7f ba 7e 3e 85 ce cf bd f9 c0 be 3e
       0.11064216 0.2487583 -0.10146812 0.372566
000210 02 40 28 be 01 c8 61 3d 76 a6 75 bd a2 9d 74 bd
       -0.16430667 0.05512238 -0.059973203 -0.059720643
000220 36 a6 a7 bd 10 f6 c2 3d 39 02 38 3e 3c b6 7e be
       -0.08185999 0.09519589 0.17969598 -0.24874204
000230 4b 14 e8 3e 7e ff 46 3e f2 dc a0 bd 82 78 42 be
       0.45327982 0.194334 -0.07854642 -0.18991283
000240 85 c4 1b 3e c4 10 71 be c5 82 fc bd fd 69 ab be
       0.15211685 -0.23541552 -0.1232963 -0.334793
000250 ed cf 14 be 49 77 ef 3d 33 26 24 3c 76 13 42 be
       -0.14532442 0.11692674 0.010018873 -0.18952736
000260 17 8b 03 be f1 7f bf bd 3f a9 54 3d 69 f5 8a 3e
       -0.12846027 -0.09350575 0.05191922 0.27140358
000270 86 ec 9a 3d c2 c1 99 3d 9d 63 77 bb 2e 90 41 3c
       0.075646445 0.075076595 -0.0037748583 0.01181416
000280 19 cc df bd 0e 6e 5c be 64 90 02 be 69 e8 6d 3e
       -0.109276004 -0.21526358 -0.12750393 0.23233189
000290 fe 5e c9 be cb ef 6d bd ee e4 1c 3d a3 04 bc be
       -0.39330286 -0.058090013 0.038304262 -0.36722288
0002a0 a4 bb cd 3d 54 e3 37 be 74 31 bd bc ae 59 db bd
       0.10045555 -0.17957813 -0.02309487 -0.107104644
0002b0 79 c3 c7 3d 24 40 d6 3c a8 7d 98 3c 4a 66 92 3d
       0.0975408 0.026153632 0.018614605 0.07148416
0002c0 c5 15 ab be 48 f2 1e 3d a4 2f 11 3e da e6 02 be
       -0.33415046 0.038805276 0.1417833 -0.12783375
0002d0 8a d2 55 be 3d fd 95 3d 1a 9d 11 be 7f f0 87 bd
       -0.20881096 0.07323692 -0.14220086 -0.06637668
0002e0 a5 a7 e6 3c 2e 61 14 3d 2e 49 82 3d 47 36 bb be
       0.028156111 0.03622549 0.06361614 -0.36564848
0002f0 21 c8 ba bd 65 8c 6a bd 6a b8 a2 3e 16 6f 4a be
       -0.09120203 -0.057262797 0.31781322 -0.19768938
000300 be da 9d 3d 17 5b 4f be b5 2a b6 be 8c ed 3e be
       0.077077374 -0.20249592 -0.35579458 -0.18645304
000310 4f cd 73 3e 5f 9c ad 3d e8 5c 79 3e 6b 9f 5b be
       0.23808788 0.08477091 0.24351847 -0.21447532
000320 de c7 26 3e 7d e0 0d 3e 6e cf f8 bc 58 90 40 3d
       0.16287181 0.13855167 -0.030372348 0.047012657
000330 cb 90 91 3d 40 f9 45 be 33 be 59 be 5d 4e f8 3c
       0.07107695 -0.19333363 -0.21263961 0.030310804
000340 27 6e 2f 3e 90 d3 39 be 53 1d 85 3c 58 4a 86 be
       0.17131864 -0.18147111 0.016249334 -0.26228595
000350 92 25 9f bd c4 88 b8 bb 06 d7 b3 bd 32 4c 89 be
       -0.07770838 -0.005631538 -0.08781247 -0.26815945
000360 53 67 21 bb 65 74 d6 3d f4 dd 43 3e d8 ae ba bd
       -0.0024628236 0.10471419 0.19127637 -0.0911538
000370 cb 4f 1f 3d 70 50 42 bd 51 1d 8a 3e 36 12 fe 3d
       0.038894456 -0.047439992 0.26975492 0.12405817
000380 8f cc 7a 3e 54 c0 8f be 26 a8 48 bd 8b cb 69 bb
       0.24492095 -0.28076422 -0.048988484 -0.00356743
000390 29 68 de bd 8d 36 0c bd 1d 71 6b 3e 74 2e 87 bd
       -0.10859711 -0.03423171 0.22992368 -0.06600657
0003a0 7a 62 2e 3e 48 6d 52 3e 27 5b 84 3e d1 72 61 be
       0.17029753 0.205495 0.25850794 -0.22016455
0003b0 6e e6 2e 3d 92 ca 22 bd 7d bf 0f 3e 2b a1 16 3e
       0.042700224 -0.039743967 0.1403789 0.14709918
0003c0 30 b3 ba 3d e1 0f 13 be de 22 77 bd 2a 50 e2 3d
       0.091162086 -0.14361526 -0.060335986 0.11050446
0003d0 7d 76 6f 3d be 5b ef 3d d5 1e b9 3d 5a 66 1a be
       0.05846261 0.1168742 0.09039084 -0.15078107
0003e0 66 2e c7 3d 1f b4 2a 3d fc b2 89 3e 4c 19 8e be
       0.09725647 0.041675683 0.26894367 -0.27753675
0003f0 7f 1f eb bd d4 14 b3 3e 98 a1 7e 3d a7 30 41 bd
       -0.11480617 0.34976828 0.062165827 -0.04716554

network_body._body_endoder.seq_layers.0.bias f4 [128]
000000 b7 f1 98 3c 03 0c 37 3a 89 cb 14 3d cf 0d cd 3c
       0.018669946 0.0006982686 0.03632692 0.025030999
000010 40 e2 71 3c c6 1f 32 3d 32 ad 8f 3c 7b be 05 3c
       0.014763415 0.043487333 0.01753864 0.00816309
000020 74 37 14 bc a9 25 20 3d 50 38 b2 bc b8 7a 5d 3c
       -0.009046424 0.039098416 -0.021755368 0.013518028
000030 3a dd 76 3d dc 62 02 3d db b0 ed 3c e0 2f f4 bb
       0.06026957 0.03183256 0.029014995 -0.007451996
000040 29 0c 99 3c 5e eb e2 bb 63 b1 7e 3c af 4c 82 3c
       0.018682556 -0.0069250306 0.015545222 0.015905706
000050 69 e3 93 bc 48 b9 2f 3b aa 3d 8e 3c 7a 29 f8 bb
       -0.018052774 0.0026813317 0.017363388 -0.0075733038
000060 43 a2 69 bc d5 76 3b 3a 96 ee c3 3c ee 10 52 3d
       -0.014259878 0.0007151191 0.023917478 0.051285677
000070 96 fc 12 3d 93 c5 09 bd 87 70 08 3d c6 3f 9a bc
       0.035885416 -0.033635687 0.03331044 -0.018829238
000080 5f ff d5 bb f0 fa 0b 3c 00 ee 39 3d ab a6 d4 3c
       -0.0065306867 0.008543715 0.04539299 0.02595838
000090 12 6c cb 3c 68 26 28 3d 1d ae 3e bc bc ac 2a 3d
       0.024831805 0.041052252 -0.0116381915 0.04166864
0000a0 8f 10 7c bb 52 6f 2f 3c 8b 6d 2d bc a7 57 28 3c
       -0.0038462018 0.010707693 -0.010585199 0.010274804
0000b0 08 1a 95 3c fe 6a 06 3c 48 1b a9 3c 8d fc 4f ba
       0.01820089 0.00820422 0.020642892 -0.00079340563
0000c0 2b ee a4 3b 42 46 60 ba 27 a9 49 bc 58 0c 1e 3d
       0.0050332746 -0.0008555391 -0.0123083955 0.03858599
0000d0 eb ea 26 3c e2 6e df bc fc 26 25 bc f5 19 be 3b
       0.010187845 -0.027274553 -0.010080095 0.005801434
0000e0 31 77 bd 3c 1c 61 08 3c 2c 8c 2c 3d eb 77 34 3c
       0.023128124 0.008323934 0.042125866 0.011014919
0000f0 57 02 7c bc ce 87 46 bc 68 b2 b6 3c 77 de 6b 3c
       -0.015381417 -0.012117339 0.022301868 0.0143963015
000100 46 0c cd 3c 9e 62 ea 3b 76 27 1f 38 dc ec 94 ba
       0.025030266 0.0071528694 3.7945305e-05 -0.0011362094
000110 77 a6 a4 bc 36 f7 28 3d 28 5c e4 bc d5 fb ec 3b
       -0.020098908 0.041251384 -0.027875975 0.007232169
000120 03 6f 79 3b 1e c1 3f bb e1 4f 33 bc 6b 3b ce bc
       0.0038060553 -0.0029259394 -0.010944338 -0.025174817
000130 97 60 11 bd 9a e2 7b bc 0a 46 4c 3d 2d aa 9a 3c
       -0.035492506 -0.01537385 0.049871482 0.018879974
000140 78 48 2b 3d e9 ad 2c 3d af aa 8b 3c 0b b6 30 3c
       0.04181716 0.04215804 0.017049162 0.01078559
000150 52 68 1a bc a2 d0 94 bb 9e 0f 10 bd 71 22 9c 3b
       -0.009424286 -0.0045414725 -0.035171144 0.004764848
000160 29 97 eb bc d6 6c f6 3c 02 7f bf bc f9 f3 20 3d
       -0.028758602 0.030081194 -0.023375992 0.03929517
000170 d2 d3 b0 3c f8 9d ef 3c 34 68 a0 bb f2 cc 2a bc
       0.021585379 0.02925013 -0.0048952345 -0.010424839
000180 52 77 26 3a 97 82 57 3d 68 81 d5 3b ea 2d 84 bb
       0.00063501776 0.052614775 0.0065156706 -0.0040337937
000190 8f 69 86 3c 1b 79 bd bc 2e d8 ed 3b 92 02 9e bc
       0.016407756 -0.023129037 0.0072584366 -0.019288335
0001a0 ec 23 c3 3c 57 a9 b2 3c c8 07 58 3c b2 28 8e bc
       0.02382084 0.021809263 0.013185449 -0.01735339
0001b0 2a 80 e3 3b a8 e5 32 bc a5 2b 6b bb 5e 5b 58 ba
       0.0069427686 -0.010919012 -0.0035884168 -0.0008253361
0001c0 29 c1 51 bc 13 4a 47 3d a5 6d 28 3c 6a a1 be 3c
       -0.012802401 0.048654627 0.010280048 0.023270328
0001d0 00 91 d5 3c d6 1c 87 bc 49 9f f5 3c 3c a7 0c 3c
       0.026070118 -0.016493242 0.02998318 0.008584794
0001e0 e7 60 29 3b 08 e0 88 3c ab 59 75 3d 69 f5 90 3c
       0.0025845112 0.016708389 0.059899967 0.017695146
0001f0 9b 6d 03 3c fb 09 d1 3c f6 39 19 bd 2b 75 96 bc
       0.008021737 0.025517454 -0.03740879 -0.018366417

network_body._body_endoder.seq_layers.2.weight f4 [128, 128]
000000 c4 2b 2c 3d d8 21 25 3d 3d 8f 09 be 64 c6 0f be
       0.042033926 0.04031548 -0.13433547 -0.14040524
000010 24 1a 82 3d bc a2 d8 ba 38 7a 4d 3c 3c be 61 3d
       0.06352642 -0.0016527991 0.012541346 0.055113062
000020 b3 4c 47 be c5 9d d7 bd 60 a9 83 3d 9f 05 f4 3d
       -0.19462852 -0.10528139 0.0642879 0.11915135
000030 ef c9 00 bd e7 4f dc 3d 76 9b fa 3d d7 cd 0c bd
       -0.03144258 0.10757428 0.12236683 -0.03437599
000040 47 89 22 3e 45 79 d1 bc 31 62 e3 3d 02 9d c3 bd
       0.1587268 -0.025570521 0.11102713 -0.09551431
000050 cd d7 0e 3e 53 57 ec 3c b1 ee a8 3d ec f5 3d 3e
       0.13949509 0.028850233 0.08248652 0.18550843
000060 86 40 b9 bc 49 a4 e8 bd ed 9e 18 be 44 b5 3f bd
       -0.022613775 -0.1135946 -0.14904375 -0.046803728
000070 f0 49 07 3d 47 82 c7 3d 96 17 c0 bb df e9 bf 3d
       0.033029497 0.09741645 -0.0058621867 0.09370779
000080 b8 38 3d 3e a4 8e 96 3d a7 7f 80 3c 50 a4 25 3d
       0.18478668 0.07351425 0.01568587 0.040439904
000090 d3 77 cb 3d b2 d3 b0 bc 1d 58 ae bd c4 49 4d bd
       0.09934964 -0.02158532 -0.085129 -0.050119177
0000a0 95 6b 0f bd b4 b3 a3 bd 8a 95 6d 3c de 37 23 be
       -0.035014708 -0.0799326 0.014500985 -0.1593928
0000b0 52 3e 7a bd db 3d 80 3d c4 85 7b be e7 5d cb 3d
       -0.06109459 0.06261798 -0.24562746 0.0993002
0000c0 0c 5a 98 bc 7f 19 14 be 0e 09 fb bb ee f6 96 3d
       -0.018597625 -0.14462851 -0.0076609915 0.07371317
0000d0 52 bc 13 bd 80 86 43 3e 92 f0 77 3e ca dc 50 3d
       -0.036068268 0.19094276 0.24212864 0.05099181
0000e0 1f 54 c0 bd ca 6b 80 3d cc e2 2c bd 04 9c 24 3d
       -0.09391045 0.06270559 -0.042208478 0.04018785
0000f0 1b 65 07 be 67 2e 8b bb 28 15 db bd 1d b5 f9 bc
       -0.13222162 -0.004247475 -0.106973946 -0.03048187
000100 de 78 da 3d c2 30 05 3e 29 28 91 bc 02 97 a2 3d
       0.10667585 0.13006881 -0.017719345 0.07938959
000110 31 e1 eb bc 1e d3 6a bd f0 30 b7 3d b2 a8 b6 3d
       -0.028793903 -0.057330243 0.08944881 0.08918895
000120 f9 a3 35 3d 0a 91 04 be 3a 6a b5 3c 2d b2 4e bd
       0.04434583 -0.12945953 0.02214538 -0.05046289
000130 a8 98 5c bc c2 ee 05 3e 9d 36 d2 bd 9e fd 47 3d
       -0.01346413 0.1307936 -0.10264323 0.048825853
000140 7d dd 8b bd 9c 02 2f 3e a9 40 16 be 21 3f b4 3c
       -0.06829355 0.17090839 -0.14673103 0.022002758
000150 66 82 03 3e 71 8e 63 bc dc d4 28 3d 34 d7 b4 3d
       0.12842712 -0.013888941 0.041218624 0.08830109
000160 b6 95 ff bc 12 cd 7e bd a0 6f 43 3e 53 99 81 bd
       -0.031199317 -0.06220729 0.1908555 -0.063280724
000170 62 7a eb bd 84 47 67 3d bd 28 3d 3b 26 80 58 3e
       -0.11497952 0.056464687 0.0028863393 0.21142635
000180 5c 06 a9 3d de e8 84 bd 10 f8 58 3d bb 87 cc bc
       0.08253166 -0.064897284 0.052970946 -0.024967065
000190 cb 9a 8c 3d 03 8a 8e 3d 2b ae 60 bd 40 d2 73 3c
       0.06865462 0.069599174 -0.0548536 0.0148816705
0001a0 b7 a4 13 be 34 62 86 3d 67 1a 3c bd 00 6b f6 3d
       -0.14418302 0.065616995 -0.045923617 0.120321274
0001b0 eb 9c 09 3e 98 29 1c 3e f2 f7 9e 3b ff 27 54 bd
       0.13438766 0.15250242 0.0048513347 -0.051795956
0001c0 81 ca 1f 3e fd b8 b5 3c 5c c9 1f be fa 1b 94 bd
       0.15604593 0.022182936 -0.15604156 -0.072318986
0001d0 57 dd 1a be 2b f4 78 bd 36 83 13 bd 4e d0 f9 bd
       -0.15123497 -0.06077973 -0.036013804 -0.12197934
0001e0 a3 50 24 3e 93 79 d5 bd c9 18 1d be 1c 70 2c be
       0.16046385 -0.10423579 -0.15341486 -0.16839641
0001f0 19 fc 07 be dd 4c 00 bd d5 c3 af bd 48 90 44 be
       -0.13279761 -0.031323303 -0.08582274 -0.19195664
000200 06 b0 ce 3d 6b d1 95 bd ac 5c 05 be 57 48 f3 3c
       0.100921676 -0.07315334 -0.13023633 0.02969758
000210 49 7b df bd 97 80 8b 3c 6b d3 04 3e 91 4f 88 3d
       -0.10912187 0.01702909 0.12971275 0.06655801
000220 27 72 1b 3e 4c 98 60 be b9 c1 5b 3d af bd 2a 3c
       0.15180264 -0.21933097 0.053651545 0.010421201
000230 83 3f 88 be ac 3f b8 bc 89 30 8c 3d b5 3d 2d 3e
       -0.26610956 -0.022491299 0.06845195 0.1691807
000240 31 33 0d 3e 23 d5 24 3e 1a c9 06 be f8 69 5c bc
       0.13789059 0.1609693 -0.13162652 -0.013452999
000250 ec 32 16 3e 2d b9 7b 3e 62 41 39 3d c9 7e 1f bc
       0.14667863 0.24582358 0.04522837 -0.009734818
000260 6e 66 8e 3c 0f f7 cf bd 5a 7f a9 bb 78 aa a5 3a
       0.017382827 -0.101545446 -0.005172652 0.0012639305
000270 5b 52 fe bd a5 96 b9 bd ff 58 04 bd c7 06 b3 3d
       -0.12418052 -0.09061936 -0.032311436 0.08741527
000280 b4 4c c4 bb ab bc e6 3c 34 09 29 be 7a 48 0b 3d
       -0.005990589 0.028166136 -0.16507417 0.034004666
000290 82 79 13 bc 49 5a 13 bd e1 97 d9 bc d4 cd 03 be
       -0.009001138 -0.035974775 -0.02656168 -0.12871486
0002a0 5b 64 10 3c d1 86 e0 3b 1d 50 90 bd 90 d4 b1 3d
       0.008812989 0.006852009 -0.070465304 0.08683121
0002b0 5d 73 01 3e f8 bc 9d bd ae 1b f7 3d fe be 1e 3e
       0.12641664 -0.077020586 0.12065826 0.15502545
0002c0 4c 61 90 bd 0e 3c c7 3d db b1 9b 3d 93 af a6 bc
       -0.07049808 0.097282514 0.076022826 -0.020347392
0002d0 9e 82 16 bd 64 41 27 3d 83 e6 ee bd cd f5 da bd
       -0.03674566 0.040833846 -0.1166506 -0.10691414
0002e0 05 bd e9 3d 70 ba c2 3c 40 1e a4 bd 2f 10 34 3c
       0.11413006 0.023770541 -0.08013582 0.010990187
0002f0 1e 07 17 3d e2 87 13 3e 81 5e 2d be cf df 28 3d
       0.03687202 0.14407304 -0.16930582 0.041229066
000300 d1 e9 81 3d 35 2d b9 bd c7 0b 77 bd 48 72 3f 3d
       0.06343425 -0.09041826 -0.060313966 0.046739846
000310 e7 85 ed 3d ad d4 d8 3d 85 43 60 3d 9d a9 5e 3e
       0.115978055 0.1058744 0.05475189 0.2174439
000320 14 87 e1 bc 6f eb 18 3e 92 1b 50 3d f2 1f 96 be
       -0.02753023 0.14933561 0.050807543 -0.29321247
000330 76 47 90 bc df 17 e8 bd e0 61 9e bc 96 eb f7 bc
       -0.0176122 -0.11332678 -0.01933378 -0.030263703
000340 d4 41 8f 3c a1 f0 c5 bc 42 5f 0c 3c a0 73 3d bd
       0.017487444 -0.024162592 0.008567633 -0.046252847
000350 58 ec 20 3c a8 d7 15 3e d0 f7 80 3d 26 70 8b bc
       0.009821974 0.14633048 0.062972665 -0.01702125
000360 cc 42 84 3d 5b 02 87 bd a9 f8 52 bd 44 b9 a0 3d
       0.06458053 -0.06592246 -0.051506672 0.078478366
000370 13 a7 63 bd 34 00 c4 3d 9a b0 37 bd 73 1d 1d 3e
       -0.055579256 0.09570351 -0.044846155 0.15343265
000380 9d 06 57 3d c2 17 0d 3d 86 ba 14 3d 45 98 f4 bc
       0.05249654 0.034446485 0.036310695 -0.029857764
000390 9b e4 78 3e c7 ea 6c 3d 48 e3 e4 bb fd 5d 44 bd
       0.24305956 0.05784109 -0.006985102 -0.047941197
0003a0 87 7b 91 bd d8 06 60 bd 28 45 0b be bb 35 9b 3d
       -0.07103639 -0.054694027 -0.136006 0.07578608
0003b0 82 31 ba 3d d0 d7 e5 bb f8 1b 1a ba 82 4e f3 3c
       0.09091474 -0.0070142522 -0.00058788015 0.029700521
0003c0 ea 07 63 3e 2a 73 1e be ef 6c 03 3d e0 ee a5 bd
       0.22170988 -0.15473619 0.03208631 -0.081022024
0003d0 98 3b 1e be 32 de fd bb cd ef 15 3c 47 9c b7 3d
       -0.1545242 -0.007747435 0.009151411 0.089653544
0003e0 e2 59 cd bd 71 17 ef bd 52 43 2f 3e 61 2b 92 3e
       -0.100269094 -0.11674393 0.17115524 0.2854872
0003f0 14 c2 b8 bd 90 d1 c4 bc 4f 8c 07 bd d2 69 97 bb
       -0.090213925 -0.024025708 -0.033092793 -0.004620769

network_body._body_endoder.seq_layers.2.bias f4 [128]
000000 08 54 54 bc 7f 6a 2d bb 78 62 15 3d d7 76 0b 3c
       -0.012959488 -0.0026461182 0.03647086 0.00851222
000010 c0 f0 12 3b c1 9e a5 3b 50 86 0d 3d e7 a4 c9 bc
       0.002242133 0.0050543253 0.03455192 -0.024614764
000020 0b 19 93 3c cb ab 1f bb d2 1b ca bc 0c 2b 6b bc
       0.017956277 -0.0024363871 -0.024671469 -0.014353525
000030 f2 a1 bb 3c 42 6b 32 3d 7f 94 47 3c a4 c6 cb 3c
       0.02290437 0.04355932 0.0121814 0.024874993
000040 96 44 49 3c db 6a 31 3d 47 bc 3e 3c f6 0f 28 3d
       0.012284419 0.043314796 0.0116415685 0.041030847
000050 8b 66 37 bc dc 41 29 ba 95 45 b4 3c 84 2a 37 3d
       -0.011193882 -0.0006456652 0.022005836 0.04471828
000060 e6 bf 5d bc 22 8d 8c 3c ed 6e 3f 3c a7 38 11 3c
       -0.013534522 0.017157141 0.011684162 0.008863605
000070 dc 4c bc bb 6b 4c 83 bc 26 04 93 bc ce 40 c7 bc
       -0.005746467 -0.01602765 -0.017946314 -0.024322893
000080 2e 8f b6 bc fd 5f dc bc 6c 0c bd 3c d8 b8 fb 3c
       -0.02228507 -0.02690124 0.023077212 0.030727789
000090 6f 8b 43 3b 11 0a 18 bd 42 2b d1 3c ae 6b f9 3c
       0.0029837748 -0.037118975 0.025533322 0.030446853
0000a0 ff 68 63 3c 45 2d 2f 3c 3f fc f1 3b 76 ae 0d bc
       0.0138800135 0.010691945 0.0073848064 -0.008647552
0000b0 f0 4a 38 ba 02 8d 44 3c ae 27 19 3a 67 15 f5 bc
       -0.00070302095 0.0119965095 0.00058423996 -0.029917432
0000c0 36 63 8c 3c 53 b3 77 3c 0f 65 3a 3c f3 b9 f8 3c
       0.017137151 0.015118438 0.011376633 0.030362105
0000d0 47 56 38 3c f8 e6 dd 3c 05 26 9a bc 0a 9b 4e 3c
       0.011251039 0.027087674 -0.018816957 0.012610206
0000e0 e5 c2 83 b9 33 98 11 bc 30 a3 75 3b 76 eb f8 3b
       -0.00025131475 -0.008886385 0.00374813 0.0075964285
0000f0 4a f8 52 3b 83 9a 02 bd 51 5f 4c 3c cc 24 ba bb
       0.003219145 -0.031885635 0.012473897 -0.005680656
000100 c8 67 79 bc fd 22 a5 bc db 7a 1b 3c 9d 4f 10 bb
       -0.015222497 -0.020158285 0.00948974 -0.002202011
000110 1c 94 f6 bb 3e dc dd 3c 24 b1 2d 3b af e1 f6 bb
       -0.00752498 0.027082559 0.002650329 -0.007534228
000120 76 69 e2 bc 02 4c ca bc a5 ea a2 bc 9f dd 08 3c
       -0.027638178 -0.024694446 -0.019887278 0.00835362
000130 3f d2 8d ba c0 b0 20 3c f9 06 01 3d 98 51 d4 3c
       -0.0010820105 0.0098077655 0.03150079 0.025917813
000140 2b 22 b6 3c ff aa b5 3c d3 58 e9 3b 8f f0 06 3d
       0.02223309 0.022176264 0.0071211844 0.03294426
000150 c1 5d 8d bc 14 81 53 3c 8d a8 86 3c 44 0f 79 ba
       -0.01725662 0.012909193 0.016437793 -0.0009500871
000160 63 d0 f0 bc cc 88 81 3c 75 7e a2 bc 86 40 e7 3a
       -0.029396242 0.0158123 -0.01983569 0.0017643131
000170 0f f9 a4 3c 8a 00 c1 bc b5 d5 a2 3c 65 54 fa bb
       0.020138292 -0.023559827 0.019877294 -0.007639455
000180 ce 0e 0d bd 50 76 c2 3b 53 b4 24 3b 1c ae 68 3c
       -0.034437947 0.005934514 0.0025131896 0.014201667
000190 c5 5b b7 bb 7b e4 83 bc ea db 15 3d df 2a 70 3c
       -0.0055956566 -0.016100159 0.03658668 0.014658659
0001a0 de a7 ae 3c c4 84 ca bc 89 f0 89 3c dd 93 8a 3c
       0.02132028 -0.02472151 0.016838329 0.01691621
0001b0 20 ad ff 3c ce 17 8a 3c 7e 3b bd 39 9b 8a 99 bc
       0.031210482 0.016857054 0.00036093214 -0.01874285
0001c0 c7 91 e9 3c 29 19 a9 3b b5 21 63 bb 76 35 f0 3b
       0.028511895 0.00516047 -0.0034657542 0.007330592
0001d0 e5 32 22 bc 66 df d0 3a bc e9 68 bc ec 10 fb 3a
       -0.0098998295 0.0015935719 -0.014215883 0.0019154823
0001e0 7c 12 f0 3c 4d 81 60 bc 6d a0 a8 3c 83 53 82 bb
       0.029305689 -0.013702703 0.02058431 -0.0039772405
0001f0 d4 64 90 3c 84 87 3e bc 4a 8b 66 ba 46 1c 43 bb
       0.017626204 -0.011628989 -0.00087945594 -0.002977149

action_model._discrete_distribution.branches.0.weight f4 [38, 128]
000000 19 b1 02 bd 0a 48 b0 bb ae aa 32 3d 3e 39 f6 3c
       -0.031907175 -0.0053796815 0.043619804 0.030056592
000010 f1 82 6b bc 5e 40 38 3b 0e 59 11 3d d6 91 8d bc
       -0.014374481 0.0028114538 0.03548532 -0.017281454
000020 5a 61 a0 3b 2b 76 6e 3c 0d 6a 02 bd 38 fb 83 ba
       0.0048944177 0.014554541 -0.03183942 -0.0010069376
000030 40 40 da bb f9 06 cf 3c da 55 ca 3b 8c 67 4c bb
       -0.006660491 0.02527188 0.006174785 -0.0031189648
000040 46 21 2d bd ae fb 58 3d 8d ab 4c 3b 2e 8d 67 3b
       -0.04226806 0.052974395 0.0031230182 0.0035331952
000050 2a 96 db 3c 50 1c 78 bc 38 d0 f8 ba 57 67 cd 3c
       0.026805002 -0.015143469 -0.0018982952 0.02507369
000060 ce 5b a7 bb e6 a2 2c 3d 61 42 17 3c 0c 76 2c bc
       -0.0051073795 0.04214754 0.009232135 -0.010526191
000070 5f e6 64 3b 8e f2 62 bc e1 b1 02 bc cd d2 3a 3a
       0.003492735 -0.013851775 -0.00797698 0.00071267487
000080 ed f5 68 bb e9 b8 1d bd 89 25 0c 3d 1e e8 fd bb
       -0.0035546974 -0.038506422 0.034215484 -0.007748618
000090 18 88 9c bb f8 31 56 bc ee 50 7e 3b 02 89 60 3a
       -0.004776966 -0.013073437 0.0038805562 0.00085653376
0000a0 46 09 29 bd af 81 9f 3b c9 b5 9d 3c c5 6c 89 bc
       -0.04126861 0.0048677544 0.019251721 -0.016775498
0000b0 98 95 42 bc 13 9d 1e 3d 52 ec ae 3b 46 dc 45 bc
       -0.011876486 0.038724016 0.00533823 -0.012076443
0000c0 fb 90 6e bb 89 3d bc bc 71 39 b6 3c cc d4 5e 3c
       -0.0036402333 -0.022978561 0.022244187 0.013600539
0000d0 e9 b2 54 bc 61 cf 98 bb 69 ed 2e bd b2 84 b4 3c
       -0.012982109 -0.0046633934 -0.04270688 0.02203593
0000e0 66 a3 41 3c ca f0 a4 bc 2b bd a5 bc 78 c1 81 3b
       0.011818742 -0.020134348 -0.020231804 0.003959831
0000f0 db d6 5d bc 03 ca 7a bc e8 82 fe 3b eb bf 8c bc
       -0.013539995 -0.015306952 0.00776707 -0.017181357
000100 9e 2e 3f bd 5c a9 8e 3b 53 30 71 3c ba ec ab bc
       -0.046675317 0.0043536853 0.014720994 -0.020986903
000110 6a a3 c2 3c 1a f9 a7 3c 42 7d 13 3b d8 d7 07 bd
       0.023759563 0.020504523 0.002250508 -0.03316483
000120 24 19 56 bc 9a 01 23 3b 75 27 a9 bc b6 1a 02 bc
       -0.013067517 0.002487278 -0.020648697 -0.007940939
000130 2c da 19 bd bc bc 88 b9 27 ec 0d 3c 47 73 51 3c
       -0.03756158 -0.0002608056 0.00866226 0.012783832
000140 aa 18 c5 3c e0 28 5d b9 c8 3f 88 3c 39 35 17 3c
       0.024059612 -0.0002109143 0.016631976 0.009228998
000150 56 19 3b bd a6 c5 ad 3c 50 5e 98 3b 3a 87 9c 3c
       -0.04567846 0.02121241 0.004649915 0.01910745
000160 af c1 ca 3c e0 61 35 3c 9e 90 3c bc a5 a5 62 bc
       0.024750559 0.0110706985 -0.011509089 -0.013833438
000170 7b e8 8b 3c 07 45 20 3c 54 c8 9e 3c af 39 d4 3c
       0.017078629 0.009782082 0.019382633 0.025906412
000180 4e 2e 98 3a 3d f1 88 3c ec 29 97 bb 6f 6d 12 3c
       0.001161048 0.016716594 -0.004613152 0.008937224
000190 de a2 2c 3d 54 f4 e6 bc 84 3c a2 3c 2a e4 71 3c
       0.04214751 -0.028192677 0.019804247 0.014763871
0001a0 0a 45 0c bd e9 2a f2 bc 5d 57 e0 bc 17 ac 35 bc
       -0.03424553 -0.029561477 -0.027385408 -0.011088393
0001b0 fe 5e 61 3c 3d c7 0a 3c 32 31 f2 ba cc 22 ae bc
       0.013755558 0.008470354 -0.0018477796 -0.021256827
0001c0 13 8b 97 bc 54 ba af b7 b3 65 1d bb 7e 9b 7b 3d
       -0.018498933 -2.0948391e-05 -0.0024016916 0.061427586
0001d0 2e 82 cf bc 99 c9 a4 bb 9f 9a 11 3c 5d 69 77 bc
       -0.02533063 -0.005028915 0.008886962 -0.015100804
0001e0 33 30 ad ba f8 7c d1 bb fe f7 3a bc c2 08 55 3a
       -0.0013213217 -0.0063930713 -0.011411665 0.000812661
0001f0 5e e8 ce ba 48 71 92 3a 33 d7 c5 3c d4 09 d8 bc
       -0.0015785804 0.0011172676 0.024150467 -0.026371874
000200 be 23 25 bc 4c b6 06 3c 5d ca 14 bd 83 dd e9 3b
       -0.010079322 0.008222174 -0.0363258 0.007137002
000210 7c 71 8e bc ea 44 28 bc 5b 99 5e 3c 1d a3 a7 3b
       -0.017388098 -0.010270337 0.0135863675 0.00511588
000220 69 fe 80 3c 3c 5d 86 3c 96 9c 6f bc 65 73 2f bd
       0.015746312 0.01640188 -0.014624735 -0.04283466
000230 1e 04 12 3a 33 e3 58 3c 83 33 e1 3c a7 a2 19 bc
       0.00055700715 0.013237762 0.027490383 -0.009377158
000240 12 b2 3c 3c 9f c7 cd 3c 95 3b 17 3c 3c 8e b7 3c
       0.011517065 0.0251196 0.009230514 0.02240669
000250 4b b8 1d bc ad 72 8e 3c 2c 54 ed 3a 2a 48 6d bc
       -0.009626458 0.017388666 0.001810675 -0.014482537
000260 82 3c 32 bc f4 da 43 3c d7 95 95 3a 9f bd 60 3c
       -0.010878684 0.011954058 0.0011412454 0.013717084
000270 47 82 93 bc d9 02 81 bb cd 67 b4 bc c5 7e d8 3c
       -0.018006457 -0.003937107 -0.022022152 0.026427636
000280 4a d0 d3 bc aa 4d df bc 54 81 b5 3b 73 40 07 ba
       -0.025856156 -0.027258713 0.0055390988 -0.0005159445
000290 ce 6e cb 3c 5b 6a 2f bd cb a8 ae 3c dd f7 0d 3d
       0.02483311 -0.042826038 0.021320721 0.03466021
0002a0 ab 14 91 3c fa 60 82 3c a6 be c2 3c 74 d9 ba 3c
       0.01771005 0.015915383 0.023772549 0.022808768
0002b0 dc ff a1 bc 0a 32 6c 3b 06 60 3d bc 56 c7 fc bc
       -0.019775324 0.0036040568 -0.011558538 -0.03085677
0002c0 3e aa 44 3c a7 79 a9 bc a6 55 25 3c f1 26 97 3c
       0.0120034795 -0.020687891 0.010091221 0.018451186
0002d0 47 dc 1b bc ec 2a 12 ba dc 45 2a bb 58 21 84 bb
       -0.009512967 -0.0005575854 -0.002598158 -0.004032295
0002e0 d9 4c ed 3c 51 97 55 3c 98 b1 d5 3a fc e0 8e bc
       0.028967308 0.013036565 0.0016303537 -0.017441265
0002f0 45 21 94 bc 25 51 77 bc 44 8f 5b 3c 64 a2 3d bc
       -0.01808227 -0.01509503 0.013400856 -0.0115743615
000300 c9 46 cb bc 72 1a ef bb 27 55 39 bc 4f a8 6f 3c
       -0.024814026 -0.0072968537 -0.011311806 0.01462753
000310 70 54 22 3c 45 68 9e 3c 22 a2 86 b9 83 71 b6 3b
       0.009907827 0.019336829 -0.0002567927 0.005567731
000320 fb b3 df bc 89 c4 0c bc f9 89 8c bc 84 1c 36 bc
       -0.027307501 -0.0085917795 -0.017155634 -0.011115197
000330 94 d6 69 bb af 85 33 3b 65 21 80 3d 2c fd 54 3c
       -0.0035680877 0.0027392914 0.062563695 0.012999814
000340 17 4d 1f bc 03 9c b5 3c df b3 8d 3c fd 04 b7 3b
       -0.0097229695 0.022169119 0.017297683 0.0055853114
000350 74 8c e2 bc 69 81 b8 3c bc 82 b2 3c e5 ad 40 3c
       -0.027654864 0.022522645 0.021790855 0.01176021
000360 e3 1b 0d bb fa a9 f2 3b 66 67 8b bc 05 52 3f bc
       -0.0021531514 0.0074055167 -0.017017078 -0.01167727
000370 be ef e7 bb 45 43 34 bc 82 04 47 3c f0 53 08 3d
       -0.00707814 -0.011002366 0.012147071 0.033283174
000380 7b c9 ca b9 2d 63 e6 ba a7 2a 5c bc 77 32 2b bd
       -0.00038678557 -0.0017577164 -0.0134379035 -0.041796174
000390 c6 93 dc bc f8 ad a3 3b 36 c5 ad 3c 76 66 cc bc
       -0.026925933 0.004995104 0.021212202 -0.024951201
0003a0 77 82 0c 3d 88 26 c8 bc 70 91 37 bc 12 8b 8f 3c
       0.03430411 -0.024432436 -0.011204109 0.017522369
0003b0 fb 1a 89 3c 71 5c 6f bc 4d 01 29 bc da fe b1 bc
       0.016736498 -0.014609442 -0.010315252 -0.021727968
0003c0 13 da 8c bb 6f 02 cd 3b 3e 6f 8c bc 1f 73 cf 3b
       -0.0042984574 0.0062563936 -0.017142888 0.006330862
0003d0 aa ed d6 bb 8b 3a 88 bc b9 3d af bc 23 95 b8 3c
       -0.0065590935 -0.016629478 -0.021391736 0.022532051
0003e0 63 c8 60 3c c4 bc a1 3c 28 ae 5f bc 1e 31 99 3c
       0.013719651 0.01974333 -0.013652362 0.018700179
0003f0 49 ae f9 3b c2 22 a9 3b 1d 6e f9 bc fc fb cb bc
       0.0076196534 0.005161614 -0.030448014 -0.024900429

action_model._discrete_distribution.branches.0.bias f4 [38]
000000 72 d9 a7 3c de 1f a7 bb 55 d2 44 bb e6 0b 4c 39
       0.020489428 -0.0051002344 -0.0030032594 0.00019459389
000010 2a 05 97 3a 10 00 68 b9 79 11 3e bc c6 63 6f bc
       0.0011521925 -0.00022125267 -0.0116008455 -0.01461119
000020 26 bb 80 3b f8 29 76 3a 2f c1 ec bc e9 a2 69 bb
       0.00392856 0.0009390409 -0.02890071 -0.003565008
000030 a9 04 52 3c 75 1e 8c 3a 38 47 36 3c 98 02 a7 3a
       0.012818494 0.0010690229 0.011125378 0.0012741862
000040 7f 29 d2 3c b8 30 bc bb 80 c8 d4 3c 5b 8f 01 3c
       0.025654553 -0.0057431124 0.025974512 0.007907714
000050 e7 51 c8 bb d0 ec c6 3a 46 59 bc 3c bd 28 11 3c
       -0.006113279 0.0015176777 0.022991788 0.00885981
000060 71 ea d8 bb 3e da 15 bc 5a b7 f4 3a 16 52 0f 3b
       -0.0066197445 -0.009146271 0.0018670366 0.0021868995
000070 e7 09 2f 3b 64 21 33 bc 14 80 cb bc 88 81 07 bc
       0.0026708783 -0.010933254 -0.024841346 -0.008270629
000080 a8 fb 1e 3b ec a6 cd bc a0 25 0e bc 59 e8 a0 bc
       0.0024258886 -0.025104009 -0.008675963 -0.019642042
000090 31 a2 63 bc c1 67 a3 3c
       -0.01389365 0.019946935
