results/ofclrun1/TestAgent1/TestAgent1-999985.pt (torch, 597434 bytes, 33 tensors)

network_body._body_endoder.seq_layers.0.weight f4 [128, 39]
00000000: 278e 3dbd a1a4 33bd 74dd 3abe 9e63 3abe
00000010: e946 85be cb47 45be 11b5 6c3d 7cf1 9bbe
00000020: dc34 3d3e df3d 0a3e a9d4 a4be 24e3 ef3d
00000030: 0cdd 293e f835 c53d 1639 afbd ba44 39be
00000040: e039 8abd 5eaa eebd 40e8 2bbe f727 05be
00000050: 647e 5abe 24d8 5abc 2ab8 afbd a20b 843e
00000060: 9812 8f3d eaa8 583e 3ed6 1cbe e40b 0abe
00000070: 3048 173d 0ec3 8fbe 4202 8fbd 0d38 ae3e
00000080: 77b0 113e c53b edbd 1482 553e d069 203d
00000090: 4980 25bd ad1d 1bbe e821 56be eb5f e5bc
000000a0: ed51 093c e259 68bd a8c1 163c 7756 cb3d
000000b0: 9033 853e 2235 5ebd 80a0 21be 6c32 26be
000000c0: e434 fbbb 7ae7 5bbe a391 51bd 71d6 32be
000000d0: 9c2c 8abe 5b3e a3bd 77d0 84be 2fcf e1bc
000000e0: b48c 8f3e fc41 833e 719e 3c3d 3065 c13d
000000f0: 1a68 fdbd fa70 6cbe d8be 8bbe aed7 e43d
00000100: 4d36 1e3d 596d 1d3e 9574 543d cd8a 5abe
00000110: 2c20 eabd 8199 383d c879 813e 542b 293e
00000120: 74df 883e 7dfe eabd 67f3 763e 0c16 6bbd
00000130: 9771 ddbd 8277 27be 6e7f 513d 4674 f1bd
00000140: 442a 883e ec96 76bc b182 f73d 6b86 0c3f
00000150: 85ec 0f3d 9246 053e af96 a7be 4f14 64bb
00000160: 7010 0bbe cac9 383c 55ef a53d 9404 793e
00000170: 70bd 123d 6980 443d 7c52 6bbe c387 583e
00000180: b19c 433e bf5a a93d e495 e3bd 4e18 353e
00000190: b5bf 43be e1c4 8b3d 59ea dbbe fac2 a53d
000001a0: e8c6 2d3e 00b0 c83d c3a6 763d 5f84 09be
000001b0: 58a4 423d ed4a 1b3d 3810 febc 366a 033d
000001c0: b92b 743e 7f52 7fbc 713e b3bc 6478 20bd
000001d0: 134f 9abe 357c fbbd 8b78 da3d 7a94 b83d
000001e0: 6fe7 af3e 2c18 3fbe 9841 ffbd 9d31 bebd
000001f0: f84f 6b3e 1692 88bd f8b2 9f3d d371 b53d
00000200: 9bdb e63d 37cf 7d3e 42d7 c7bd 8dd9 c53e
00000210: 6651 20be dd9c 243d 6a51 71bd 498b 83bd
00000220: 8a53 a8bd 2e68 ca3d 5cf5 2b3e bdb7 76be
00000230: fd31 ee3e 4f3a 4a3e 2b47 99bd 237f 3ebe
00000240: 372a 113e 8874 68be b89d f0bd 2cd1 abbe
00000250: 18b4 13be 8bc9 cd3d 14c0 ceb9 e7bc 47be
00000260: 72c3 f7bd ecd7 b9bd 8bd9 4d3d 69f5 8a3e
00000270: c477 9a3d 1440 9a3d fc4c a4bb 31e0 b43c
00000280: cce4 ebbd 4a2a 68be a72a 00be f8e3 603e
00000290: 8ebd cabe 52b7 52bd f605 013d a05b bcbe
000002a0: c579 d13d d0bb 41be 4207 a4bc e250 f8bd
000002b0: 106e d73d 2e0e 143d 191c a13c d3e2 a83d
000002c0: cd68 adbe 0c5c 333d 8697 1a3e e7fa f6bd
000002d0: 932c 5ebe 15fc 9a3d dadd 18be 7e5a 82bd
000002e0: d9fe 873c b25a 1d3d b84d 993d 75e5 b9be
000002f0: 246e d4bd 497a 60bd 5d0c a33e 335f 44be
00000300: 17df a63d f870 46be b52a b6be 327e 3cbe
00000310: 75e3 6d3e 66e4 a83d c727 793e aa93 68be
00000320: ac67 203e d9bb 143e 5495 0ebd 7caa 163d
00000330: 2288 953d 0f4c 3dbe 46b8 5abe d8d7 df3c
00000340: 0cd4 323e 3e14 2cbe 3fb2 8e3c c1cc 87be
00000350: 795b 86bd c82a f7bb d484 bfbd 6ab5 8abe
00000360: 4fbc 1a3c a859 d03d 2104 4e3e fbfb cebd
00000370: 93fd 373d a3a9 68bd b03e 8c3e 04d2 fd3d
00000380: fda0 773e c9cc 92be 4f2d 1cbd bb62 88bc
00000390: 188e d7bd 5a20 12bd e9b6 673e dbe2 79bd
000003a0: feb2 353e 486d 523e 0245 853e 17c9 63be
000003b0: c68c 2c3d fb1d 27bd 9235 203e 474b 1b3e
000003c0: b8e2 bc3d 6466 19be df7e 7cbd 11f0 db3d
000003d0: afd8 6e3d 52bd f83d 3b5c ad3d 8c83 19be
000003e0: 6e21 c53d e26f 013d deb4 8e3e 13fc 8abe
000003f0: 88ea ddbd a163 b33e 1784 783d 0a2f 46bd
-0.046278145 -0.043858174 -0.1824854 -0.18202063 -0.26030663 -0.19265668 0.057789866 -0.30457675
0.18477196 0.13500164 -0.32193497 0.117132455 0.16588229 0.09629434 -0.0855581 -0.18092623
-0.0674932 -0.11653589 -0.16787815 -0.13003527 -0.21337277 -0.013357196 -0.085800484 0.25790125
0.06985968 0.21158186 -0.15316102 -0.13481098 0.036934078 -0.28078502 -0.069828525 0.34027138
0.14227472 -0.11583666 0.20850402 0.03916341 -0.040405545 -0.15148039 -0.20911372 -0.027999839
0.008381349 -0.056726344 0.009201445 0.09928601 0.26015902 -0.05424989 -0.15783882 -0.16230172
-0.007666217 -0.2147502 -0.05116428 -0.17464615 -0.2698716 -0.07970878 -0.25940296 -0.027564613
0.28037035 0.2563628 0.04604954 0.09443128 -0.123733714 -0.23089972 -0.2729404 0.1117395
0.038626004 0.15373744 0.051868994 -0.21342011 -0.114319175 0.045068268 0.25288224 0.16520435
0.2673298 -0.11474321 0.24116288 -0.057394072 -0.10812681 -0.16354182 0.051146917 -0.117897555
0.26594746 -0.015050631 0.12085474 0.54892606 0.035137672 0.13015202 -0.3273215 -0.0034802144
-0.13580489 0.011278579 0.081022896 0.24318153 0.035825193 0.047974024 -0.22980684 0.21145539
0.19102742 0.082692616 -0.11112574 0.17685053 -0.19116099 0.06824661 -0.4295223 0.080938295
0.16970408 0.09799194 0.06021763 -0.13429402 0.04752001 0.03791325 -0.031013593 0.032083713
0.23844804 -0.015583633 -0.02188036 -0.039177313 -0.30138454 -0.1227955 0.10667523 0.09012695
0.34356257 -0.18661565 -0.12463683 -0.09286807 0.22979724 -0.06668489 0.077978075 0.08859601
0.11272355 0.24786077 -0.09757854 0.3864254 -0.15656051 0.04018866 -0.058915533 -0.06423051
-0.08219059 0.09883152 0.16792816 -0.24093528 0.46522513 0.19748805 -0.07484277 -0.18603186
0.1417626 -0.22700703 -0.117488325 -0.33558023 -0.14424169 0.10048207 -0.0003943449 -0.19505654
-0.12097825 -0.09074387 0.050256293 0.27140358 0.07542375 0.07531753 -0.00501406 0.022079559
-0.11518249 -0.22672382 -0.1251627 0.21961963 -0.39597744 -0.05144436 0.031499825 -0.36788654
0.10228304 -0.18919301 -0.020022992 -0.12124802 0.1051904 0.036146335 0.019666718 0.08246388
-0.3386902 0.043788955 0.15096864 -0.120595746 -0.21696691 0.07567612 -0.1492838 -0.06364916
0.016601013 0.038416572 0.07485527 -0.36307874 -0.1037257 -0.05480412 0.3184537 -0.1917694
0.0814802 -0.19379032 -0.35579458 -0.18407515 0.23231299 0.082466885 0.2433158 -0.2271258
0.15664548 0.14524783 -0.03481038 0.03678368 0.07301356 -0.18486045 -0.21359357 0.027324602
0.17463702 -0.16804597 0.017418979 -0.26523402 -0.06560416 -0.0075429417 -0.09351507 -0.27091533
0.00944431 0.101733506 0.20118763 -0.10106655 0.04491956 -0.056802403 0.27391577 0.12393573
0.24182506 -0.28671864 -0.038129147 -0.01664864 -0.10525149 -0.035675384 0.22628368 -0.06100736
0.17744061 0.205495 0.2602921 -0.22244678 0.04212644 -0.040800076 0.15645435 0.15165435
0.09222931 -0.14980465 -0.06164443 0.107391484 0.058312114 0.12145485 0.08464857 -0.14991587
0.09625517 0.03160084 0.27872366 -0.27145442 -0.10835749 0.35036948 0.060672846 -0.048384704

network_body._body_endoder.seq_layers.0.bias f4 [128]
00000000: f57f ac3b a6e9 b93b 7973 3d3d 8f89 f63c
00000010: 1a2c b23c 7ae2 373d f315 df3c 0d60 703c
00000020: c850 44bc e603 2c3d 4f90 05bd 40d0 a33c
00000030: 55fb 863d ab6d 1e3d fae8 023d 64bb ffbb
00000040: 88e8 8a3c 7b79 16bc f282 db3c 2734 c23c
00000050: ee6d 9abc f0d3 4c3c 347b 943c 44bc 54bb
00000060: bc90 07bc fa2f ea3b be4e c03c 42a9 7e3d
00000070: fc73 363d 987e 1bbd e29b 343d 4f38 8bbc
00000080: b956 5fbc 2891 d13b 817a 523d bcef d23c
00000090: f7a0 173d 1d01 333d 2876 60bc 5b07 383d
000000a0: 49ce e73a d023 8a3c 3ca3 0ebc 58c6 b13b
000000b0: 2c75 a33c 205c 883c 52d2 0c3d b19b 033b
000000c0: d858 9bba 3a24 bbb9 a8be bfbc 0018 3e3d
000000d0: 6da6 9c3a 7734 ebbc c9c9 29bc e0ab df3a
000000e0: fad5 023d e6ca 863b 519a 543d d285 b33c
000000f0: 7be8 4dbc 8d49 46bc f20d ac3c f180 d93c
00000100: 4524 bc3c ff0c 33bb 7ba5 363c 2a08 b9ba
00000110: e5f6 92bc c569 2d3d a109 ddbc b707 4c3b
00000120: 3481 a33b efb2 c23b d249 8bbc 547d 0ebd
00000130: dd10 fbbc fb65 a2bc fdbd 663d 9206 fb3c
00000140: 0fc6 263d 9b64 403d 3f49 d03c e232 423c
00000150: 5112 f4bb 42f9 183b 961d 21bd 99c8 2539
00000160: bc54 e3bc a6e4 1d3d 5ec5 f7bc f744 523d
00000170: 4d21 ce3c 6e9d 1c3d 9a0f 63ba 9076 56bb
00000180: 4ac9 03bb e0e4 843d cee1 603c 89c0 7cbb
00000190: 9fb4 943c 40ab abbc 813a 943c 81d3 6ebc
000001a0: 2c5a 0b3d 933b c23c 96bd 663c 3413 b8bc
000001b0: 6ddb 863b 31be 58bc 8c0a 5ebc 2526 993a
000001c0: e075 73bc 58f6 4b3d acb0 bd3c bbf3 ed3c
000001d0: af23 003d 16f6 91bc d280 063d 7a0a 3b3c
000001e0: 8a9d 1f3c 2970 2d3c af0f 853d 79be ee3c
000001f0: 787c 153c 2255 e03c a895 3abd b194 babc
0.005264277 0.005673605 0.0462527 0.03009489 0.021749545 0.04489372 0.027232146 0.014671338
-0.01198215 0.041995905 -0.032608327 0.019996762 0.065909065 0.038678806 0.031960465 -0.007804321
0.016956583 -0.009184237 0.026795838 0.023706509 -0.018851247 0.012501702 0.018125154 -0.0032460848
-0.008274253 0.0071468325 0.023475047 0.062173136 0.044544205 -0.037962526 0.044093974 -0.016994623
-0.013631516 0.006395478 0.05138636 0.02574908 0.037018742 0.043702234 -0.013700046 0.04492889
0.0017685379 0.01686278 -0.00870591 0.0054252557 0.019953333 0.016645491 0.034380265 0.0020081813
-0.0011852039 -0.0003569441 -0.023406342 0.046409607 0.0011951454 -0.02871154 -0.010363051 0.0017064773
0.031942345 0.004113543 0.05190498 0.021914396 -0.012567635 -0.012102497 0.021002743 0.026550742
0.022966513 -0.0027320979 0.011147852 -0.0014116813 -0.017939994 0.042337198 -0.02698213 0.0031132528
0.0049897674 0.0059417407 -0.017002974 -0.03478749 -0.03064769 -0.019824019 0.05633353 0.030642781
0.040716227 0.046970945 0.025425551 0.011852952 -0.0074484725 0.0023341929 -0.039334856 0.00015810355
-0.027750365 0.038548134 -0.03024548 0.0513353 0.025162363 0.038236074 -0.00086616876 -0.0032724477
-0.0020108991 0.06488967 0.013725711 -0.0038566908 0.018152533 -0.020955682 0.018094303 -0.014576794
0.03402154 0.023710048 0.014083287 -0.022470094 0.004115513 -0.013228939 -0.013552319 0.0011684342
-0.014859647 0.04979548 0.023155533 0.029046884 0.03128403 -0.017817538 0.032837696 0.011416072
0.00974215 0.010585823 0.06497132 0.029143559 0.009123914 0.027384344 -0.04555288 -0.02277598

network_body._body_endoder.seq_layers.2.weight f4 [128, 128]
00000000: 705c 2d3d e96c 483d 9288 0ebe 9bf9 0ebe
00000010: 1927 883d 0887 e8bb cdc4 473c 753d 3d3d
00000020: d9ba 50be afab ddbd 0247 843d 2897 dd3d
00000030: 83ae d4bc 9b2b d53d c30f f13d f81f f4bc
00000040: 406a 1b3e 60de c3bc 1e3d f83d 1581 bfbd
00000050: 154a 0a3e bdd4 dc3c 1209 a73d 83af 343e
00000060: acf5 62bc 3996 e3bd ce3c 20be 68ce 50bd
00000070: bba1 063d 26ef d03d cfc5 4cbc bd60 b33d
00000080: 5199 433e 1386 8f3d dbc1 533c c4ca 133d
00000090: bd3b c03d 3b96 91bc 983a aebd 6edb 5ebd
000000a0: 28f3 efbc 7487 9abd 2310 8c3c c958 23be
000000b0: 7598 84bd ee39 823d 5967 7cbe 3688 ce3d
000000c0: fe03 24bc 5719 14be 1c54 12bc 40fe a73d
000000d0: 4a85 08bd 99c4 443e c2b2 723e aed4 483d
000000e0: 21c7 c3bd 036c 843d c518 21bd aedc 223d
000000f0: 9160 04be b6da 4fba c0db e5bd 111a f7bc
00000100: 3d27 cb3d f824 f93d 49b4 a6bc 179e 9e3d
00000110: 164c e7bc 07ab 7cbd acb5 b73d 7059 a13d
00000120: dc41 2a3d c3c6 07be 325a 743c a139 53bd
00000130: 7a25 babc e96b 003e 725e d5bd b217 2d3d
00000140: bbbb 88bd dbc8 313e f37e 12be 96aa ad3c
00000150: 7843 fe3d 6fe7 a4bc d088 253d 249e be3d
00000160: d87b dabc aa0c 89bd e455 3e3e 8336 83bd
00000170: 3f0f ecbd 2240 453d d9d3 e33b a62d 573e
00000180: 09b0 a83d 45e6 94bd 44d0 4f3d 4264 9abc
00000190: eca4 803d b3f2 9b3d 48aa 3bbd d903 8f3c
000001a0: e5ad 18be 051d 653d 5fdb 4cbd de83 f23d
000001b0: 4dec 003e 0fdb 1a3e fd79 3eba edfd 39bd
000001c0: 3c53 1c3e 20a5 a43c 7c7c 25be 9385 87bd
000001d0: 95e6 1fbe 47d4 7bbd 7787 39bd c355 febd
000001e0: 2c8e 273e 4cfb dbbd 1458 1dbe 4556 31be
000001f0: e23a 05be 0682 f0bc ebc1 acbd 540e 41be
00000200: b5b0 cc3d 7ac1 87bd f46d 02be 4220 dc3c
00000210: e857 efbd e4bf 9f3b a8e4 053e 1d3a 8d3d
00000220: a537 1e3e 6e8a 6abe 3cc6 633d daeb a33c
00000230: 1dbc 87be bddd b6bc 212e 8d3d 073a 273e
00000240: 7d4d 0a3e 7349 2a3e 887f 01be bc2a 8abc
00000250: 7ac5 1f3e 02bd 7f3e 1cee 1a3d f34a 033b
00000260: b3ec 873c 7b65 c2bd 2584 08bc e0e6 633a
00000270: a07e 02be e171 c9bd 7ae1 dfbc e70f a73d
00000280: 4079 52bc a9ea 003d a5cd 2bbe 74a2 d33c
00000290: 2616 95bc f5a4 e3bc 86cb f8bc e6e8 09be
000002a0: d4a2 013c 273e dfba 8ba1 9dbd 6e18 b33d
000002b0: 02f3 f23d 2541 a1bd deb3 003e bcf9 253e
000002c0: c585 8abd c5a8 d63d b331 8e3d c2b0 bfbc
000002d0: f233 23bd 2a0f 3a3d 99f9 fcbd 357b e8bd
000002e0: 90ad e03d b477 a83c 4f79 a0bd fcb3 a73c
000002f0: 2222 193d 30b8 1d3e 77c0 2ebe 1d56 373d
00000300: a17c 793d e53f bcbd eedc 78bd 6fd0 583d
00000310: 38ba f53d fb8b c73d 9671 453d c89c 633e
00000320: e992 cbbc 285e 133e 990d 743d d1fb 94be
00000330: 1908 adbc 134b e7bd d3d7 acbc e332 04bd
00000340: 1254 743c 266b 8cbc 60b3 f23b 4c7f 46bd
00000350: b84e 513c 6c6f 1b3e 787e 6e3d 2743 5cbc
00000360: 192d 923d a55f 82bd 8c2a 34bd 66fe aa3d
00000370: bacd 89bd ebf4 d33d 9ed9 32bd 0983 1d3e
00000380: 2820 683d e645 033d dad4 1f3d 67e0 b5bc
00000390: 750f 7e3e 9ec4 7b3d c022 01bc b266 63bd
000003a0: 5183 9abd 3007 5fbd 9313 05be 4d1b a23d
000003b0: 788c a53d a31d 50bc 1a7a b3bb ab82 253d
000003c0: da69 633e 3b80 1dbe b689 cc3c 883f a3bd
000003d0: ad10 18be 6e59 c1ba f870 243c 34c4 b63d
000003e0: 57aa cabd d6ed e5bd 0e37 2e3e 36ad 923e
000003f0: 1340 c7bd b6f5 66bc 97e5 24bd 9508 7bbc
0.042324483 0.04893199 -0.13919285 -0.13962404 0.06648082 -0.007096175 0.012192917 0.046201188
-0.20383777 -0.10823762 0.06458856 0.108198464 -0.02596212 0.10408708 0.117705844 -0.0298004
0.1517725 -0.023909748 0.12121032 -0.09350792 0.13504823 0.02695691 0.08156027 0.17645077
-0.013852518 -0.11112637 -0.15648195 -0.050978094 0.032869082 0.10201864 -0.012498333 0.08758686
0.19101454 0.070079945 0.012924637 0.036082044 0.09386394 -0.01777183 -0.085072696 -0.054408483
-0.02929075 -0.07545367 0.017097538 -0.15951838 -0.06474391 0.063587055 -0.24648799 0.10084574
-0.010010717 -0.14462791 -0.008931186 0.08202791 -0.03333024 0.19215621 0.23701003 0.049030952
-0.09559465 0.06465914 -0.039330263 0.039761238 -0.12927462 -0.0007929014 -0.112235546 -0.030163797
0.099195935 0.12165254 -0.020349639 0.07744997 -0.028234523 -0.061686542 0.08970198 0.07878387
0.041566715 -0.13259415 0.014914082 -0.05156863 -0.022722948 0.12541164 -0.10418405 0.042258926
-0.06676432 0.17361777 -0.1430624 0.021199506 0.124152124 -0.020129887 0.040413678 0.09307507
-0.026670381 -0.066918686 0.18587452 -0.06406882 -0.115263455 0.048156865 0.0069527444 0.21013507
0.08236701 -0.07270483 0.050735727 -0.018846635 0.06281456 0.076146506 -0.04581669 0.01745789
-0.14910085 0.05593588 -0.050013896 0.11841558 0.12590142 0.15122627 -0.00072661025 -0.045408178
0.15266126 0.020098269 -0.16160768 -0.06617274 -0.15615304 -0.06148174 -0.045295205 -0.124187015
0.16362828 -0.107412905 -0.1536563 -0.17318065 -0.13010743 -0.029358875 -0.084354244 -0.18853122
0.09994642 -0.066286996 -0.12737256 0.02687085 -0.11686689 0.00487517 0.13075507 0.0689585
0.15450914 -0.22904369 0.055608973 0.020009924 -0.26510707 -0.02232253 0.06893564 0.1633073
0.13506122 0.16629581 -0.12646306 -0.01686608 0.15602675 0.24974445 0.037824735 0.0020033687
0.01659236 -0.09492012 -0.008332287 0.0008693766 -0.12743616 -0.09836174 -0.027329195 0.0815733
-0.012846291 0.03147379 -0.16777666 0.0258343 -0.018199038 -0.027788619 -0.030370485 -0.1346775
0.007912356 -0.0017032073 -0.076968275 0.08744894 0.11862756 -0.078737535 0.12568614 0.16208547
-0.06763796 0.10481409 0.06943073 -0.023399714 -0.03984446 0.045424618 -0.123522945 -0.11351625
0.109706044 0.020564891 -0.07835638 0.020471565 0.037386067 0.15402293 -0.17065607 0.04475986
0.06090987 -0.091918744 -0.06075757 0.052933153 0.11998409 0.09743496 0.048204027 0.22227776
-0.024850326 0.14391387 0.05958328 -0.2909837 -0.021122025 -0.11293616 -0.021099007 -0.03227509
0.014912622 -0.017140936 0.007406637 -0.048461244 0.012775116 0.15179223 0.05822608 -0.013443745
0.07137508 -0.06365899 -0.04398589 0.08349304 -0.06728692 0.10349449 -0.043664567 0.15382017
0.05667129 0.032049082 0.03902135 -0.02220173 0.24810584 0.061466806 -0.00788182 -0.05551786
-0.07544578 -0.054450214 -0.12995748 0.079153635 0.08083433 -0.012702378 -0.005477202 0.040407818
0.22208348 -0.15380947 0.02496801 -0.07971102 -0.14850111 -0.0014751384 0.0100366995 0.089241415
-0.09895771 -0.11227004 0.17013189 0.28647774 -0.09729018 -0.014096668 -0.040258016 -0.01532187

network_body._body_endoder.seq_layers.2.bias f4 [128]
00000000: c8b5 a2bc b726 1abb 126c 443d 6a32 d83b
00000010: 7b39 743b 23ce bf3b 9c40 0b3d d380 afbc
00000020: 1b53 d53c 0d9f a33b 3319 f3bc 2afb 43bc
00000030: 3452 933c 9aea 3f3d f81c c63c 5bab 193d
00000040: f2f0 973c 7c88 593d 029c d13c 9371 303d
00000050: 573b 0dbc a983 fcba 4796 043d 9275 543d
00000060: 9bd5 88bc a9eb d53c 630e 3f3c 70bd 0a3c
00000070: 7787 64bc 8634 89bc b773 6ebc d263 adbc
00000080: 5d71 cabc 382f f8bc 337e b93c f971 283d
00000090: 19c7 b4bb 32c4 30bd 8fcd fc3c c969 063d
000000a0: 7a3b 3c3c 4fff 5e3c ab8c da3b 717e e4bb
000000b0: 2961 c13b 245d 5a3c 4942 cdb9 ec22 19bd
000000c0: 536d a83c 9008 823c ea28 503c e43f 073d
000000d0: a872 af3c 27b5 153d fea6 97bc f2ba d73c
000000e0: 5fac 5cbb b943 66bb f9f1 dc3b b272 be3a
000000f0: 880f 3b3c 2a5c 18bd cf6a 3c3c 9198 15bb
00000100: d3c0 c4bc 31e3 77bc 2ee4 403c 4585 acbb
00000110: 657d 5dbb abf6 013d 00ca 353b ec3a 02ba
00000120: 30c3 dfbc d60d d2bc a76a cebc 2641 923c
00000130: 5219 53ba 3288 763c b3bc 2c3d 1505 073d
00000140: 1329 b93c ebb9 8b3c a0b9 e53b 5891 243d
00000150: 5fee 9fbc cfa3 dd3c 068a f13c d1ce 5dbb
00000160: 0c41 07bd 0a0a d03c aaa3 f2bc b0f1 aebb
00000170: fef0 1b3d 83d6 0dbd 724e bb3b f438 23bc
00000180: 2749 3cbd d378 5f3c d5a5 99ba 890c 6b3c
00000190: 89e6 303b a7b5 95bc be06 3b3d edcc 773c
000001a0: ecae c13c 83f0 16bd a04c 873c c149 2e3c
000001b0: 2994 ea3c e7e8 033d 4119 8abb 5285 bcbc
000001c0: d1df ef3c ad05 87bb 66bf 0abc 7143 9c3c
000001d0: 1759 ecbb 1eea 5fbb 5db1 8cbc c533 d0bb
000001e0: 689d dc3c 8fb2 20bb 3259 b63c afdf 5dbb
000001f0: e20e ac3c 67eb 76bc bc94 d9b8 e9d7 a8bb
-0.01986207 -0.002352161 0.047954626 0.0065978067 0.0037265706 0.005853431 0.033997163 -0.021423733
0.026040604 0.0049933256 -0.029675102 -0.011961738 0.017983533 0.046854593 0.024183735 0.037516933
0.018547509 0.053108677 0.025587086 0.043077063 -0.008620105 -0.0019265312 0.03236988 0.051869936
-0.016703418 0.026113348 0.011661145 0.008468017 -0.013948313 -0.016748678 -0.014553956 -0.021165762
-0.024712259 -0.030295953 0.022643184 0.041124318 -0.0055168984 -0.043155856 0.030859737 0.03281573
0.01148879 0.013610675 0.006669601 -0.006973081 0.005901475 0.0133278705 -0.00039150033 -0.03738682
0.020559942 0.015873224 0.012705067 0.033019915 0.021416977 0.036549713 -0.018512245 0.02633426
-0.0033672077 -0.003513558 0.0067427126 0.0014530031 0.011417277 -0.03719727 0.0115000745 -0.0022826532
-0.024017727 -0.01512985 0.011773152 -0.0052649104 -0.0033796665 0.03172938 0.002773881 -0.00049678865
-0.027314752 -0.025641363 -0.02519734 0.01785333 -0.0008052784 0.01504712 0.042172145 0.03296383
0.022602594 0.017056426 0.0070106536 0.040177673 -0.019522844 0.02705565 0.02948476 -0.0033845196
-0.033021018 0.025395412 -0.029619057 -0.00533887 0.038071625 -0.034628402 0.0057161385 -0.009962309
-0.0459682 0.013639647 -0.0011722395 0.01434625 0.0026992878 -0.018275095 0.045660727 0.015124542
0.02364298 -0.036850464 0.01651603 0.0106377015 0.028635101 0.032204535 -0.0042144363 -0.02301279
0.029281529 -0.0041205497 -0.0084684845 0.019075127 -0.007212769 -0.0034166644 -0.017174417 -0.0063538277
0.026930526 -0.0024520492 0.022259329 -0.003385525 0.02100319 -0.015070773 -0.0001037507 -0.0051526916

action_model._discrete_distribution.branches.0.weight f4 [38, 128]
00000000: f4b3 e6bc 28ff b93b 0a17 2f3d 0c7f bf3c
00000010: 2d15 84bc 8426 123c 1fba 203d 6c91 8dbc
00000020: 0f14 0d3c c017 c93b 18a6 e6bc 1479 383a
00000030: 4f67 cabb f080 ff3c 8978 ff3b 45a5 03bb
00000040: 1d90 06bd c9d6 7f3d d32f d43b e186 2f3c
00000050: 8483 003d 09f0 16bc d467 923b 7df4 c53c
00000060: 3800 3ebc 917b 1f3d b8c0 593c 5733 8ebc
00000070: 59c0 403a fa94 29bc 32d2 5dbb 3934 c63b
00000080: 56b8 e6bb 39a2 25bd 6673 0c3d ac08 f037
00000090: 634c 18bc b109 7dbc 0554 1b3c c7bd 4ab9
000000a0: 443b debc 26e0 363c 05ee ba3c 9f26 83bc
000000b0: 6251 febb d288 153d df0b be3b 1799 66bc
000000c0: 3de4 56bb 0703 a3bc 900c b83c b1ef 403c
000000d0: cee2 6fbb 4266 feb8 91da 29bd 884b b53c
000000e0: af14 843c 45ea c3bb 1d5d 57bc dab9 133c
000000f0: e16a 97bc ccec 63bc da29 6b3b d42f bfbb
00000100: 2743 23bd 4b7f 87bb 0363 963c 577b d0bc
00000110: db2f b53c 8fcb dd3c ca4c 30ba 0db9 c3bc
00000120: 83c2 62bc c1ea 3e3b d6fb c5bc 6c1f a2bb
00000130: 51f5 10bd eeb2 a8ba b01e 6b3c f7ab 5b3c
00000140: fe03 e63c 86a5 7b3b 4178 823c fa80 6c3c
00000150: 1155 44bd 22ed d83c 1ccc 5e3c 4335 6f3c
00000160: 9d57 ba3c ff23 613c c99f a8bc 2f7b 52bc
00000170: 2874 c23c 9412 d83b f2dc 883c 12bd f93c
00000180: 4c97 7cbb 9650 743c 556c 1dbb f77d f53b
00000190: 2163 1d3d 45b6 c8bc 1b58 aa3c c40f 983c
000001a0: aa0c b2bc fd62 24bd 75a9 cabc 9043 b5bb
000001b0: 7956 863c d5de 973c 6ffd 56bc db37 b8bc
000001c0: 7b0e 02bc 1f51 103b 3892 9bbb 2125 7a3d
000001d0: 9fd8 9bbc 11ed c9bb 66ca 523b ccf2 c6bb
000001e0: a3f4 01bc d72b d2bb 322f 5837 2836 32bb
000001f0: 072e 32bb 9f85 f2bb 1d2f c63c b654 b8bc
00000200: 7cec f0bb 8ce8 50bb 86e0 35bd 06ba 003c
00000210: 60d8 b3bc 5e48 aabb 8ef2 4a3c cd34 2c3c
00000220: 3996 a13c 7a74 603c 039f 8cbb 33ac 3ebd
00000230: 1fcb e63a 6eb9 ff3b 20c6 8e3c 4c19 3ebc
00000240: 7a0d 213c ea1a 833c edaa 393c 4a08 df3c
00000250: 3888 04bb ed70 963c 9d3c 22ba 2968 6ebc
00000260: 458d 18bc ad71 7d3b 934c 9438 8b38 0d3c
00000270: 1701 b1bc 1d32 103a 0cee b7bc cb7e a03c
00000280: 3cfb d7bc e35d fcbc 5774 403c 613e 84bb
00000290: 127f b93c 1ff7 17bd f89f aa3c 0456 0c3d
000002a0: ff71 a23c 20af ce3c dabf c83c 60dc 9b3c
000002b0: 7d29 c9bc 8bfc 0e3c 12e3 7cbc 6f67 debc
000002c0: e0da ce3b 1925 3dbc 65be 853a 9317 573c
000002d0: 22a5 06bb b931 883b fd3e 453b 95c1 b1bb
000002e0: 4711 1b3d cf4e 3e3c 4a86 6c3c 447d b1bc
000002f0: f8b6 f0bc d94c 92bc ee34 893c cda9 94bc
00000300: 73d8 c2bc e2cf 14bc b49b 8dbc 0e15 633c
00000310: c907 e33b db36 783c 1089 ff3b 543f 9f3a
00000320: ec46 c6bc 7d0f 63bc b854 5fbc 5a23 85bc
00000330: f619 a0bb e991 0dbc 8d99 5a3d 4ea5 f93b
00000340: 354c efbb 4f2d d23c a1eb a73c 60c5 a63b
00000350: 7ae9 89bc 3742 1a3c f7df a03c 4833 933c
00000360: 1487 9cba b620 113c 691b 8bbc 120b ffbb
00000370: f9a5 98bc 6936 36bc 1184 9f3c 3bd1 e23c
00000380: 3f8f 173c 492a 4bbc 7713 bfbc fc6d 0cbd
00000390: edd5 d8bc 8c41 933b 6d78 843c 3ef3 aabc
000003a0: c3e6 013d cca2 b3bc bdbe 51bc 075e fb3c
000003b0: df4e 4d3c d7fe a4bc a4ff 43bc 4b62 cebc
000003c0: ea18 cdbb 8c5d 223c 12d7 43bc a1b6 99b9
000003d0: 1c40 23bc 58f9 84bc 74bc c7bc 9481 d03c
000003e0: 80e4 553c 0197 c93c b4be 9dbc 42cb 613c
000003f0: ecc6 f73a 044b 453c efc2 e7bc 28e1 93bc
-0.02816198 0.005676169 0.04274658 0.02337601 -0.016123379 0.008920316 0.03924 -0.017281257
0.008610739 0.0061368644 -0.028155372 0.0007037085 -0.006176866 0.031189412 0.0077963513 -0.0020087522
-0.03285228 0.062460694 0.0064754277 0.01071331 0.031375423 -0.009212502 0.0044679437 0.024164433
-0.011596732 0.0389362 0.013290577 -0.017358465 0.0007352881 -0.01035046 -0.003384721 0.006048706
-0.0070410175 -0.04043791 0.03428974 2.8614268e-05 -0.009295556 -0.015444205 0.009480481 -0.00019334919
-0.02712787 0.01116184 0.022818575 -0.016009627 -0.0077611664 0.036507435 0.005799755 -0.014074585
-0.003278985 -0.019898904 0.022466928 0.011775897 -0.0036603692 -0.00012130711 -0.041468207 0.022130743
0.016123144 -0.005978855 -0.0131447585 0.009016478 -0.018483581 -0.013911437 0.00358831 -0.005834559
-0.039858963 -0.0041350476 0.01835776 -0.025449438 0.022117546 0.027074603 -0.00067253096 -0.02389195
-0.0138403205 0.0029131623 -0.024167936 -0.0049475934 -0.035390202 -0.0012870708 0.014350578 0.013407699
0.028078075 0.003839822 0.015926482 0.014435047 -0.04793269 0.026480261 0.013598468 0.014600101
0.022746855 0.013741492 -0.020584004 -0.012846752 0.023737028 0.0065940116 0.016706917 0.030485664
-0.0038542328 0.014911791 -0.002402087 0.007491823 0.038424615 -0.024500975 0.020793965 0.018562205
-0.021734554 -0.040133465 -0.024739007 -0.0055317357 0.016398655 0.018538872 -0.013121947 -0.022487571
-0.007938023 0.0022021008 -0.0047476552 0.061070565 -0.019024191 -0.0061622937 0.0032164096 -0.006071424
-0.007931861 -0.0064139175 1.2885592e-05 -0.0027192924 -0.002718808 -0.007401183 0.024192387 -0.02250133
-0.00735241 -0.003187689 -0.044403575 0.007856851 -0.021953762 -0.005196615 0.012386931 0.010510636
0.019724952 0.013699645 -0.0042914166 -0.04655094 0.0017608142 0.0078040874 0.017428458 -0.011602711
0.009829873 0.016004045 0.011332256 0.027225632 -0.0020222794 0.018364394 -0.00061888417 -0.014551201
-0.009311025 0.0038672492 7.071453e-05 0.008619438 -0.021606965 0.00055006315 -0.022452377 0.01959171
-0.026364915 -0.030806487 0.011746488 -0.0040357565 0.0226436 -0.037100907 0.020828232 0.03426172
0.019829748 0.02522999 0.024505544 0.019025981 -0.024555916 0.008727203 -0.015434997 -0.02714893
0.006312713 -0.011544489 0.0010203837 0.013128179 -0.0020545204 0.004156318 0.0030097358 -0.005424688
0.037858274 0.011615469 0.014436314 -0.021666177 -0.029384121 -0.01785891 0.016748872 -0.018147374
-0.023784852 -0.009082766 -0.01728616 0.01386 0.0069284183 0.015149797 0.0077983215 0.001214961
-0.02420374 -0.013858673 -0.013631038 -0.016252209 -0.0048859073 -0.008640745 0.053369094 0.007618583
-0.0073027858 0.02565637 0.020498099 0.005089447 -0.016834963 0.009415201 0.019638045 0.017968789
-0.0011942112 0.008857897 -0.016980844 -0.007783302 -0.01863383 -0.011121371 0.019472154 0.02768766
0.009250461 -0.012400218 -0.023324711 -0.034284577 -0.026469195 0.004493898 0.016170705 -0.02086794
0.031714212 -0.021928214 -0.012801823 0.030684484 0.012531011 -0.020141048 -0.011962805 -0.025193354
-0.0062590735 0.009909999 -0.011953132 -0.00029318503 -0.009964015 -0.016232178 -0.024381854 0.025452413
0.013054967 0.024608137 -0.019255973 0.013781371 0.0018903888 0.012041811 -0.028291194 -0.018051699

action_model._discrete_distribution.branches.0.bias f4 [38]
00000000: 6e55 d93c fd70 c9bb 8828 68bc 587b ffbb
00000010: b066 c5bb 4059 a4bb c57c 3cbc 0e52 afbc
00000020: 3ff7 913b db29 bcba 470a 18bd 859a 4c3b
00000030: 0021 bc3c b8a1 783b 5580 113c d815 18bb
00000040: 0a38 043d a9fc 6f3b 5379 083d d4fd 743c
00000050: f1c6 7dbb a603 b23b ef2f 803c 1eca ad3c
00000060: ea8d 6ebb 90b4 34bc b66d 66bb 29db 333c
00000070: b837 98b9 25fa 83bc f1f6 07bd 8603 f8bb
00000080: 950a a2bb cd70 bdbc 6823 64bc 9364 8bbc
00000090: 8d77 71bb 7db3 633c
0.026529994 -0.0061475025 -0.01416982 -0.007796686 -0.006024204 -0.0050155222 -0.011504357 -0.021401431
0.004454523 -0.0014355736 -0.037119176 0.003122003 0.022964954 0.0037938189 0.008880694 -0.002320638
0.032280006 0.0036619103 0.03331883 0.0149530955 -0.0038723315 0.005432564 0.015647857 0.021214541
-0.0036400505 -0.011029378 -0.0035160608 0.010977545 -0.00029033213 -0.01611049 -0.033194486 -0.0075687794
-0.004945109 -0.023125077 -0.013924457 -0.017015731 -0.003684494 0.013897774

exp_avg f4 [128, 39]
00000000: 9e45 d833 1808 d9b6 b581 9db7 b1bc 8eb6
00000010: 4c82 12b5 94d2 b336 4538 2536 4e8d 7635
00000020: fb83 b1b7 409f cfb7 3cb4 09b6 82d7 b937
00000030: 5054 a637 5722 01b6 eb5f a4b6 7cf1 8436
00000040: b2e8 8137 a13e 8cb7 40b0 84b6 e94f 9237
00000050: ebc8 a637 1071 dbb6 5cab 24b6 3cc8 c736
00000060: ee15 b8b5 a0da d9b5 f928 2537 6e71 9636
00000070: 6765 2a37 f43b e8b3 e8fe 94b6 4538 d936
00000080: 1f4e da34 955b d235 3f88 49b5 df1c 26b6
00000090: a1e1 8335 0407 d135 0000 0000 72ea 0cb4
000000a0: 9507 9536 a9c8 f5b7 d99a e5b7 9b6f 2c37
000000b0: 731e 7ab7 ebf0 af36 c1af be35 b8d8 3537
000000c0: e2b8 5637 88b5 0a36 1eba ceb7 918d acb6
000000d0: 9ab9 d636 fbc1 0537 5cab 0eb6 6fe7 1fb7
000000e0: ec93 bcb5 c1de f737 6a2c 4d37 4400 edb7
000000f0: 1e78 3537 808c c9b5 10ae c634 a048 c536
00000100: b097 c736 a15d aeb7 00ec 1737 3e89 c7b7
00000110: 2b0e 1934 8010 6cb7 34c8 5836 022d c3b5
00000120: 2cff 74b6 49a7 e7b5 c9cb 9036 0081 9233
00000130: 5e7b 13b6 0000 0000 cfa0 adb2 7e99 ccb6
00000140: 66a6 44b8 9442 e537 010c 6837 5f51 13b6
00000150: d886 d5b3 ac98 e636 1aa0 ac36 8e0a fdb7
00000160: a34f dcb7 3070 c037 a6c5 59b7 e9dc 83b8
00000170: 2097 a436 7cea c336 44e3 9cb6 9299 80b8
00000180: b405 abb6 793a 39b8 e07a afb4 f143 83b8
00000190: 0650 8437 dd7d 8e37 82ed 90b5 c5dc 1235
000001a0: 5c49 0bb8 fcc1 d436 af9c 9837 5917 cdb3
000001b0: 4ee4 22b7 c62f b436 99cf e8b6 7962 b5b4
000001c0: cbef 5236 95c6 f836 cfe0 bcb5 225d 4436
000001d0: 0000 0000 c0b1 74b3 4858 86b7 ed9c a6b7
000001e0: 8cd3 bc37 c8c0 8c36 3b77 bf36 8792 8135
000001f0: 28be 27b7 f04c 30b7 dc8d 35b7 4483 03b5
00000200: c77f 6737 3e2c 8e36 7925 d1b7 b86c aab6
00000210: 6ef9 ae36 60d3 9c37 c028 68b7 943b 9b37
00000220: 8e97 02b8 f384 9e37 fcf7 b9b7 9499 1337
00000230: 20b1 8037 08ac a5b6 198e adb5 d84b e4b6
00000240: 7482 6436 b4fe 3236 3f5d 79b4 3c99 7c36
00000250: aa95 a7b5 1eaa 5836 e5f3 d435 c826 3a35
00000260: cc98 87b5 2038 52b6 64b7 a336 0000 0000
00000270: 57e7 22b4 61f0 88b4 2def e538 580e 9337
00000280: 1010 1ab6 b9b9 4137 2219 bbb6 68c7 82b7
00000290: e215 2eb6 00b4 8535 4400 b837 7e25 3736
000002a0: 4a90 5537 8a22 d637 4182 2ab7 8846 93b5
000002b0: 203a 1ab7 7892 3c38 e9f5 eab7 2f86 31b6
000002c0: ceb5 6437 8fe6 6a38 fc86 0637 6710 12b7
000002d0: e055 0eb6 8ffc 4a36 7894 ee37 1b16 9eb7
000002e0: 0462 7437 4065 59b4 6ebc f237 d225 69b6
000002f0: ef29 3237 14a0 2f36 bcc9 7bb5 3029 77b7
00000300: 2103 3435 8958 7e35 0000 0000 d25e 8133
00000310: 2613 0136 fb39 2e38 b0d7 2a38 4b11 c035
00000320: ad35 f336 7686 53b7 402d e1b6 bc75 5337
00000330: df0e c2b7 3209 f6b5 243b 7b37 a5b2 46b7
00000340: e646 bcb7 2aa2 abb6 913a cb36 d48b f1b6
00000350: 5a4a b7b7 b4ed e4b7 9804 1fb8 5626 fcb6
00000360: 9362 89b7 814d 7737 80a5 2f36 4e68 73b6
00000370: a46e 0f35 4ae3 b6b7 c2f5 b6b7 30bf 4537
00000380: 64de 08b4 98df 9e36 7e22 25b6 6302 bdb5
00000390: 9ac4 4435 e675 3a36 e8e2 0834 8005 9334
000003a0: 80bb 7bb5 0000 0000 7653 3fb5 8458 f836
000003b0: b083 1538 3c57 9337 f654 b537 0c59 75b4
000003c0: 82d4 65b7 b954 76b5 d280 d336 9f67 21b8
000003d0: 6c12 9336 4d6a 33b8 aa4e edb7 343d 11b7
000003e0: 452c e6b6 bcea ce35 5235 95b7 92bf 3eb7
000003f0: a8ef 89b7 4488 88b8 e6f4 92b7 d997 99b7
1.0070947e-07 -6.468046e-06 -1.8776258e-05 -4.2538963e-06 -5.4578845e-07 5.3591302e-06 2.461967e-06 9.1847767e-07
-2.1161502e-05 -2.475048e-05 -2.05195e-06 2.2154072e-05 1.9828003e-05 -1.9242486e-06 -4.898747e-06 3.962019e-06
1.5486356e-05 -1.6718464e-05 -3.9544248e-06 1.7441767e-05 1.9882302e-05 -6.539871e-06 -2.4537649e-06 5.9539725e-06
-1.3715451e-06 -1.6231388e-06 9.844306e-06 4.4835533e-06 1.0156399e-05 -1.0814247e-07 -4.4404187e-06 6.4736546e-06
4.0662505e-07 1.5672873e-06 -7.50766e-07 -2.4752733e-06 9.825927e-07 1.5573755e-06 0.0 -1.3123807e-07
4.4414287e-06 -2.9299716e-05 -2.7371034e-05 1.0277984e-05 -1.4908251e-05 5.243453e-06 1.4207254e-06 1.08388995e-05
1.279844e-05 2.0669268e-06 -2.4643781e-05 -5.14248e-06 6.399304e-06 7.972582e-06 -2.1259393e-06 -9.531023e-06
-1.4050142e-06 2.9548422e-05 1.2229293e-05 -2.8252725e-05 1.0816408e-05 -1.5016558e-06 3.700702e-07 5.879512e-06
5.948321e-06 -2.0786016e-05 9.055249e-06 -2.3786557e-05 1.425439e-07 -1.4070538e-05 3.2303042e-06 -1.4541731e-06
-3.6507363e-06 -1.7259528e-06 4.315258e-06 6.82212e-08 -2.1976516e-06 0.0 -2.0212978e-08 -6.0975426e-06
-4.6885012e-05 2.732993e-05 1.38310725e-05 -2.1952071e-06 -9.943113e-08 6.8723075e-06 5.1446377e-06 -3.0164865e-05
-2.6263127e-05 2.2940425e-05 -1.29802265e-05 -6.2877145e-05 4.905174e-06 5.8387504e-06 -4.6756195e-06 -6.13212e-05
-5.096861e-06 -4.4161894e-05 -3.2685693e-07 -6.259222e-05 1.577289e-05 1.6986329e-05 -1.079796e-06 5.47105e-07
-3.3208504e-05 6.340675e-06 1.8192773e-05 -9.550303e-08 -9.709109e-06 5.3699796e-06 -6.9383063e-06 -3.3785525e-07
3.1432016e-06 7.414094e-06 -1.407252e-06 2.9260486e-06 0.0 -5.697234e-08 -1.6015154e-05 -1.9861816e-05
2.2509856e-05 4.194768e-06 5.706124e-06 9.653894e-07 -9.99825e-06 -1.0508331e-05 -1.082147e-05 -4.899232e-07
1.3798423e-05 4.2370802e-06 -2.4932191e-05 -5.0790513e-06 5.2146415e-06 1.8695078e-05 -1.3837765e-05 1.8505183e-05
-3.113556e-05 1.8896977e-05 -2.2169195e-05 8.7976405e-06 1.534127e-05 -4.9374103e-06 -1.293086e-06 -6.803759e-06
3.4050581e-06 2.6672324e-06 -2.3223855e-07 3.764012e-06 -1.2486028e-06 3.228553e-06 1.5866214e-06 6.9346834e-07
-1.0102754e-06 -3.1325108e-06 4.879128e-06 0.0 -1.5171587e-07 -2.5506873e-07 0.00010964121 1.7530445e-05
-2.2957138e-06 1.1546938e-05 -5.57596e-06 -1.5590063e-05 -2.5940758e-06 9.961659e-07 2.1934633e-05 2.7290948e-06
1.2729384e-05 2.5526871e-05 -1.0163117e-05 -1.0972881e-06 -9.192649e-06 4.4959103e-05 -2.8009485e-05 -2.645316e-06
1.3632189e-05 5.6004672e-05 8.018451e-06 -8.706097e-06 -2.1209635e-06 3.0247354e-06 2.8440947e-05 -1.8845361e-05
1.4566354e-05 -2.0246534e-07 2.8936392e-05 -3.474172e-06 1.061939e-05 2.617021e-06 -9.379835e-07 -1.4731937e-05
6.705978e-07 9.475121e-07 0.0 6.024278e-08 1.9233644e-06 4.153883e-05 4.0732033e-05 1.4310148e-06
7.248213e-06 -1.2607887e-05 -6.7107903e-06 1.2603992e-05 -2.3133527e-05 -1.8331104e-06 1.4974536e-05 -1.1843314e-05
-2.2444361e-05 -5.1150755e-06 6.0566895e-06 -7.198638e-06 -2.1849923e-05 -2.7290407e-05 -3.7912832e-05 -7.514648e-06
-1.6377575e-05 1.47403925e-05 2.6173366e-06 -3.6270535e-06 5.3432655e-07 -2.180193e-05 -2.181053e-05 1.1786629e-05
-1.2746892e-07 4.7347967e-06 -2.4606993e-06 -1.4082292e-06 7.330178e-07 2.7784786e-06 1.2748535e-07 2.7384885e-07
-9.3777635e-07 0.0 -7.1274496e-07 7.4012805e-06 3.5647012e-05 1.7564387e-05 2.1616444e-05 -2.2849798e-07
-1.3698942e-05 -9.176543e-07 6.3032867e-06 -3.8481896e-05 4.383086e-06 -4.2775926e-05 -2.8289232e-05 -8.6569235e-06
-6.859688e-06 1.5416513e-06 -1.7787013e-05 -1.1369486e-05 -1.6443271e-05 -6.510367e-05 -1.7518596e-05 -1.830973e-05

exp_avg_sq f4 [128, 39]
00000000: 0be9 3330 f015 4a30 a73f 1c30 e52b 0030
00000010: e73b f82f 782d 972f 14ea 1930 798d f22e
00000020: b033 8e30 285e cc30 8429 1d30 a9a7 d330
00000030: fb39 fb30 a5a0 8030 06e6 1930 c8f6 842f
00000040: 2079 8030 68a2 1e30 dcad 5f30 887d 8630
00000050: f911 2730 c454 8e30 474d 4830 ccd6 a130
00000060: b266 3730 69e4 2830 02b8 e32f 099d 8e30
00000070: f153 2a30 e04b b52f e7da 0230 4e32 4d30
00000080: 63ce 912f 0366 182e f198 f32f 1614 9d2f
00000090: 90d2 982f 695f 682e 0000 0000 5717 e630
000000a0: 8ac8 0d31 f6b3 df30 dc63 db30 4bf0 1431
000000b0: aa36 e530 d1da 8d30 74b8 e82f 850f 9030
000000c0: e6b6 3731 2920 0131 ccb1 2a31 86de 2931
000000d0: 0725 9130 e42b d130 0da2 f72f 6bb2 2131
000000e0: b681 4c31 6938 8831 8849 5a31 4350 4731
000000f0: f5e4 0331 3473 b730 73fd 8a30 1945 de30
00000100: c0ea 9030 3d2b f630 8af9 7e31 d75d 6e30
00000110: 5b62 b930 9dcc c230 4a43 d930 39bf 4330
00000120: cd7b 2b2f d0c8 0e30 161d 7330 6fd0 2c30
00000130: fb8d 172f 0000 0000 cef8 4c31 9ff0 1131
00000140: cb55 9531 0522 2a31 dd21 5931 fc41 7831
00000150: 96f7 d830 2417 9d30 d5d7 ad30 a139 7931
00000160: 1518 6531 a2d8 a931 cbf9 a031 9ec2 8d31
00000170: b03a 4431 6b4b 9930 02dd 1d31 e479 5b31
00000180: 65ea bf31 874e a731 38e8 2331 472b 9a31
00000190: c1f9 0931 0287 3731 bfcc 2d30 0691 0031
000001a0: 6490 3c31 55d9 ba31 7f34 fd30 f718 cd30
000001b0: 28eb 2a31 a50b e230 efaa 5a30 9794 1f2f
000001c0: 902b d930 61b3 8030 52ca 8a30 9692 632f
000001d0: 0000 0000 5fb5 c130 d706 2631 1336 1831
000001e0: a34d 5c31 3d79 ac30 9f72 7030 ee04 7b30
000001f0: 6ccd 9330 142b e930 39b4 5031 2e0a 7631
00000200: 0a58 8031 ffdf ba31 828a f130 dfcc 7031
00000210: 14f1 1930 bbe4 6331 bd0e d330 9f99 3e31
00000220: e686 6731 cfb5 3531 5a57 6231 ac08 bb30
00000230: 6af5 7831 7cd3 ec30 2e79 6530 0efe 8230
00000240: 5a63 9a31 9919 7b30 fd34 a630 de1f 4f30
00000250: 66df 5730 c0b3 3c30 c156 0d2f 4d4d 0a30
00000260: 562c 0b30 4b8f 3430 92bd 582f 0000 0000
00000270: 256a 6a31 14e0 8a31 78c1 8331 1ec0 6531
00000280: dc3a 3431 8676 9f30 ab47 e530 ad94 e030
00000290: 6f9e b930 2445 9131 e16b ce31 648e 1931
000002a0: e155 0b32 7a4f 2431 0a87 5231 444e a330
000002b0: 7c6e c431 b35c 8231 b4a9 b631 6975 eb31
000002c0: c19a 1231 2961 a431 06ab b331 1144 3d31
000002d0: 704f db30 5d14 2931 6311 e930 10b0 9f31
000002e0: d087 4031 4647 4f31 0a77 5931 9e6f 5e30
000002f0: 0128 5e30 1275 452f 1a7f 1c31 a5e0 3630
00000300: e38a b830 5873 702f 0000 0000 491b fa30
00000310: 1cfd 9631 4873 7331 1e72 9731 dad4 f930
00000320: c3fd 0f31 f9f0 2231 903d 8030 d583 4331
00000330: b139 9d31 0680 6331 59f0 3a31 d377 c731
00000340: 1c1b 8c31 44a3 ef30 f0c6 a630 c31d 1a31
00000350: 24bd 1631 b20b 9931 8210 8731 da16 0b31
00000360: 3127 7b31 8366 8f31 3019 8831 85a2 d930
00000370: 8fd1 f730 6e46 0831 3eeb fb31 5d91 3b31
00000380: 4f89 8231 b439 9430 361f c330 3501 7130
00000390: e106 0c2f e5a3 a130 0f81 c130 d105 8630
000003a0: 7128 d12f 0000 0000 1354 ab31 7818 0731
000003b0: ccc7 5331 3ffd 3331 0508 9231 d263 2431
000003c0: 89e4 2131 4c92 4f30 c142 3531 feb7 c631
000003d0: 2934 bb31 616c d331 7b5b e731 5761 1b31
000003e0: d7e4 6331 ac5c af30 2b2f 0a32 8c42 da30
000003f0: 657f 8831 beca 1a32 0510 8831 60f3 8a31
6.5450995e-10 7.3518347e-10 5.6842925e-10 4.6628507e-10 4.51535e-10 2.7499047e-10 5.599372e-10 1.10300165e-10
1.034655e-09 1.4869714e-09 5.7175265e-10 1.5399922e-09 1.8279133e-09 9.358884e-10 5.598796e-10 2.418601e-10
9.347652e-10 5.771086e-10 8.1373996e-10 9.785461e-10 6.0779787e-10 1.0355952e-09 7.2869394e-10 1.1775341e-09
6.672095e-10 6.1442634e-10 4.1421805e-10 1.0376492e-09 6.196493e-10 3.297762e-10 4.7604803e-10 7.4650053e-10
2.6521993e-10 3.4651403e-11 4.4310114e-10 2.8572406e-10 2.7798253e-10 5.2835434e-11 0.0 1.6741336e-09
2.0632194e-09 1.6276533e-09 1.5962729e-09 2.1673425e-09 1.6677479e-09 1.0321292e-09 4.2331616e-10 1.048179e-09
2.673397e-09 1.8790252e-09 2.4839322e-09 2.4719227e-09 1.0560662e-09 1.5219226e-09 4.5044182e-10 2.3530002e-09
2.975964e-09 3.964534e-09 3.1764973e-09 2.9003935e-09 1.9193156e-09 1.3347745e-09 1.0112856e-09 1.6172265e-09
1.0544099e-09 1.7911145e-09 3.7103711e-09 8.671725e-10 1.3488476e-09 1.4173512e-09 1.5807953e-09 7.121233e-10
1.5596342e-10 5.194467e-10 8.844422e-10 6.286944e-10 1.3783812e-10 0.0 2.9827336e-09 2.1237054e-09
4.3462243e-09 2.4757594e-09 3.1596905e-09 3.6126258e-09 1.5786437e-09 1.142983e-09 1.264875e-09 3.6267027e-09
3.3337575e-09 4.9431756e-09 4.685011e-09 4.1257655e-09 2.8555114e-09 1.115365e-09 2.2972135e-09 3.1937981e-09
5.585479e-09 4.869267e-09 2.3851623e-09 4.48691e-09 2.0078093e-09 2.6706748e-09 6.3227995e-10 1.8708888e-09
2.7439677e-09 5.4380203e-09 1.8423093e-09 1.4922809e-09 2.4871927e-09 1.6446974e-09 7.955085e-10 1.4513755e-10
1.5801209e-09 9.364208e-10 1.0098324e-09 2.0697608e-10 0.0 1.4094147e-09 2.4160067e-09 2.2149649e-09
3.2058345e-09 1.2549105e-09 8.747438e-10 9.1320274e-10 1.0754042e-09 1.6965225e-09 3.0370428e-09 3.5803498e-09
3.735299e-09 5.438778e-09 1.7574424e-09 3.5041052e-09 5.600367e-10 3.3162866e-09 1.5356459e-09 2.7735962e-09
3.3691605e-09 2.6442313e-09 3.2936982e-09 1.3608505e-09 3.6228252e-09 1.7231367e-09 8.348192e-10 9.530952e-10
4.493285e-09 9.1349645e-10 1.209315e-09 7.535145e-10 7.853401e-10 6.864944e-10 1.2854696e-10 5.031396e-10
5.063091e-10 6.568725e-10 1.9712434e-10 0.0 3.4111818e-09 4.0418033e-09 3.8345966e-09 3.3433092e-09
2.6226905e-09 1.1602459e-09 1.6682312e-09 1.6340401e-09 1.3505551e-09 4.227916e-09 6.0076535e-09 2.234537e-09
8.1103915e-09 2.3910318e-09 3.0635783e-09 1.1882055e-09 5.7169114e-09 3.7940366e-09 5.31619e-09 6.852748e-09
2.1333764e-09 4.784074e-09 5.2290288e-09 2.754181e-09 1.5956925e-09 2.4604312e-09 1.6957923e-09 4.647525e-09
2.8016878e-09 3.0162979e-09 3.1645322e-09 8.0921747e-10 8.081998e-10 1.7958637e-10 2.2773237e-09 6.6530453e-10
1.3427236e-09 2.1868851e-10 0.0 1.8197649e-09 4.3943498e-09 3.5426684e-09 4.407652e-09 1.817763e-09
2.0953486e-09 2.371108e-09 9.330723e-10 2.8451173e-09 4.57586e-09 3.310562e-09 2.7203184e-09 5.8052847e-09
4.0776182e-09 1.7435942e-09 1.2134631e-09 2.2426867e-09 2.1935387e-09 4.4542157e-09 3.930894e-09 2.0240152e-09
3.6547585e-09 4.173502e-09 3.9609844e-09 1.5835019e-09 1.8031175e-09 1.983064e-09 7.3318054e-09 2.729471e-09
3.799108e-09 1.0784817e-09 1.4196988e-09 8.7677005e-10 1.273537e-10 1.1760873e-09 1.4079279e-09 9.751436e-10
3.8045614e-10 0.0 4.986313e-09 1.9658994e-09 3.0818113e-09 2.6191882e-09 4.250071e-09 2.3921882e-09
2.355849e-09 7.551406e-10 2.6376912e-09 5.783476e-09 5.448346e-09 6.1532295e-09 6.733385e-09 2.26108e-09
3.3162928e-09 1.2759265e-09 8.043382e-09 1.5880501e-09 3.972604e-09 9.010078e-09 3.959942e-09 4.043997e-09

exp_avg f4 [128]
00000000: e2e2 c637 d8ec 8eb8 7387 85b9 ae83 dcb7
00000010: 487f 9639 1646 bdb8 152a 73b9 6bd6 02b8
00000020: b080 18b6 cab7 b037 7505 7938 c6f1 2ab9
00000030: daa9 8ab8 dc2b 21b7 1fe1 8438 b279 b838
00000040: e46a fcb8 e1ce 0fb8 0662 5f38 9c54 3fb9
00000050: b4e5 05b8 9e1c abb8 e615 0c37 8ae6 bcb8
00000060: babd 2bb8 3832 8ab8 1243 98b8 e70e 5ab9
00000070: 6e46 18b8 c16a f138 8a1c 41b9 41ea 6a39
00000080: 8ad9 3639 b3ee e6b8 b213 d237 7a9c 6e38
00000090: 00ea 2d35 eeab 82b8 e589 bb38 b8a0 7bb8
000000a0: 2533 0039 fd37 2739 326c 3ab7 adcd 33b9
000000b0: 933d 3c38 0bbe dbb8 d6e6 68b9 0b89 70b8
000000c0: dd23 9738 c9a6 a7b8 caad a438 babe aeb8
000000d0: f3a0 2338 2462 0b39 8735 2e39 68de 1439
000000e0: 6f33 9638 c21f 8038 b097 c837 bec1 bcb7
000000f0: 7528 eeb6 e859 bcb8 70c2 49b8 f8b5 a238
00000100: 4826 3237 4249 90b8 e63d f738 f5f0 a638
00000110: 8c8f e138 96a4 99b8 1e23 bab6 595e 06b9
00000120: 7abe b7b7 9d2e 22b8 2217 1fb9 ac79 0638
00000130: 5f0b 7a37 9a39 c538 63e0 95b8 4932 e1b8
00000140: 7a6f 07b8 fa62 dcb7 6ca1 d1b8 ee1d 40b8
00000150: f8eb 22b8 5f14 2b38 4c2f b138 ecb3 94b8
00000160: 8125 3239 b64b ccb8 e8b3 d6b8 ec74 79b9
00000170: 605e c538 8517 b7b9 9f60 e9b6 db1b 1db9
00000180: f414 5137 2450 75b9 e036 19b5 d017 16b9
00000190: c0b9 3837 07ff 1238 35b7 17b9 3467 ae38
000001a0: 80f4 96b8 629c b1b7 6ca5 d0b8 08c6 b1b7
000001b0: 068d 8db8 5236 17b8 883a 2836 19ed a9b8
000001c0: 4151 bb38 4ecd 08b9 dafd a238 0011 6fb7
000001d0: 094f 13b9 bfc9 8fb8 8323 2eb9 09f5 ecb7
000001e0: fcf8 7f36 ada1 03b9 94cc 3fb9 514f 29b8
000001f0: 0868 6a36 e9a2 09b9 014e 4d39 cb14 8939
2.370909e-05 -6.815203e-05 -0.00025468654 -2.6287362e-05 0.0002870506 -9.025277e-05 -0.00023189963 -3.1194108e-05
-2.272467e-06 2.1066418e-05 5.937131e-05 -0.00016302531 -6.61199e-05 -9.60656e-06 6.3361826e-05 8.796471e-05
-0.00012036206 -3.4286528e-05 5.3258635e-05 -0.00018246699 -3.19236e-05 -8.159246e-05 8.349749e-06 -9.00748e-05
-4.0946274e-05 -6.589707e-05 -7.2604176e-05 -0.00020795652 -3.6305217e-05 0.0001151166 -0.00018416546 0.00022403245
0.00017437912 -0.00011011716 2.5043122e-05 5.6889352e-05 6.4788037e-07 -6.2309075e-05 8.94254e-05 -5.9992744e-05
0.00012226084 0.00015947218 -1.1111655e-05 -0.0001714739 4.488004e-05 -0.00010478132 -0.00022211237 -5.734809e-05
7.206921e-05 -7.994247e-05 7.8525e-05 -8.332492e-05 3.9012124e-05 0.00013292633 0.00016613874 0.00014197233
7.1621376e-05 6.109431e-05 2.3912493e-05 -2.2501565e-05 -7.0976625e-06 -8.981285e-05 -4.810322e-05 7.758656e-05
1.061854e-05 -6.8801004e-05 0.00011789407 7.9603786e-05 0.00010755574 -7.326265e-05 -5.54732e-06 -0.00012814383
-2.1903998e-05 -3.866722e-05 -0.0001517204 3.2061405e-05 1.4903809e-05 9.404421e-05 -7.146669e-05 -0.000107382024
-3.229033e-05 -2.6272133e-05 -9.995964e-05 -4.580424e-05 -3.8843573e-05 4.078855e-05 8.4488274e-05 -7.090703e-05
0.00016989374 -9.74158e-05 -0.00010237825 -0.00023790047 9.411271e-05 -0.00034922003 -6.9551893e-06 -0.00014983064
1.2462249e-05 -0.00023394875 -5.7076795e-07 -0.00014313986 1.1010503e-05 3.5046625e-05 -0.00014468732 8.3161896e-05
-7.198099e-05 -2.1172866e-05 -9.949025e-05 -2.119226e-05 -6.7496716e-05 -3.6051795e-05 2.506802e-06 -8.102711e-05
8.9319896e-05 -0.00013046453 7.7720455e-05 -1.4249468e-05 -0.00014048455 -6.8563495e-05 -0.00016607162 -2.8247496e-05
3.814289e-06 -0.00012553362 -0.00018291391 -4.036661e-05 3.4929271e-06 -0.00013126027 0.00019579382 0.00026146168

exp_avg_sq f4 [128]
00000000: 6744 d932 2bb9 9133 44d4 e333 db32 b833
00000010: b4dc 0334 c4ba e733 ba04 0e34 3af7 c933
00000020: 1497 1334 68f1 df33 2884 c833 8e16 8933
00000030: 0f43 8334 2869 7134 8f1a e433 3eb7 4233
00000040: db68 b033 07c6 6a33 7295 9233 92e6 c433
00000050: f3e8 8e33 61d7 e233 be24 c733 4676 4b33
00000060: f0f3 1633 6bbe 4233 7d91 7933 3325 3934
00000070: 8670 7833 14ee 9633 d059 6c34 6c74 8633
00000080: 29fc bb33 9541 8633 a54a c633 0c03 c733
00000090: 50e7 4d34 c49d 7133 01ff 9233 895c f033
000000a0: 63cc 2333 58e9 2234 ea90 d932 2858 b833
000000b0: 43f2 d433 d0dd a533 9001 0634 8e2d 8533
000000c0: 2a75 f033 7148 0b33 1e8f 6933 8e39 c133
000000d0: 86a7 f732 e93b 8533 de11 e533 619f e133
000000e0: 4c30 8333 e52b 3e33 daa1 1734 0e41 ae33
000000f0: 6054 ab33 145f 0a34 7236 ff33 f694 ae33
00000100: 1bf4 3533 11ee 8433 3ea9 5733 bf56 f033
00000110: f5a1 5e33 5008 b933 2053 4e33 ac91 9f33
00000120: 1968 5433 e4ed 8b33 8cf5 8b33 a17e 6333
00000130: d30a 4833 e640 f033 a9cf c933 45f0 bf33
00000140: cb0c 0334 868d 8333 751e f733 b06d b933
00000150: 74a4 0f33 38de 1833 49b8 ac33 9dfa 4033
00000160: 58b0 0434 84ae ca33 fe13 2533 c196 f933
00000170: d17a 3c34 b780 4434 d7c2 4533 a82d 0934
00000180: 17de 5e33 4a04 fb33 f150 c133 f3ba 9633
00000190: 011d 7f33 adec dc32 90b9 bb32 9d0f 8033
000001a0: 4383 b733 9667 8533 1640 c733 c2a2 2433
000001b0: 8b79 8633 722f 4e33 0eb2 bd33 64fb 1933
000001c0: 8d50 9b33 31b0 6c34 89a8 7333 cad7 3333
000001d0: 6282 9933 ec5a 3f33 f87a 7233 2dcf 1833
000001e0: 09cd 8b33 6954 9433 d7a9 8234 704b 9133
000001f0: c0d7 d333 143e 0533 6a74 0934 467a 2534
2.529323e-08 6.7857705e-08 1.0609122e-07 8.577418e-08 1.2280617e-07 1.0790748e-07 1.32265e-07 9.404762e-08
1.3745404e-07 1.0428158e-07 9.337265e-08 6.383662e-08 2.4449443e-07 2.248313e-07 1.0621908e-07 4.5335803e-08
8.214712e-08 5.4662475e-08 6.825839e-08 9.168902e-08 6.6547635e-08 1.0563122e-07 9.273343e-08 4.737219e-08
3.5146456e-08 4.534233e-08 5.810715e-08 1.7243e-07 5.784434e-08 7.0282255e-08 2.2011886e-07 6.261038e-08
8.753734e-08 6.2517906e-08 9.233671e-08 9.267214e-08 1.9176264e-07 5.6255672e-08 6.84504e-08 1.1192703e-07
3.8137284e-08 1.5172316e-07 2.5328024e-08 8.584203e-08 9.9160864e-08 7.723759e-08 1.2480291e-07 6.2015815e-08
1.1197183e-07 3.2429345e-08 5.4379704e-08 8.997732e-08 2.8830765e-08 6.204193e-08 1.06668935e-07 1.050637e-07
6.108948e-08 4.4277744e-08 1.4121852e-07 8.11434e-08 7.978156e-08 1.2886841e-07 1.18842664e-07 8.129602e-08
4.236436e-08 6.190033e-08 5.0212513e-08 1.119165e-07 5.1835702e-08 8.616246e-08 4.8038714e-08 7.430512e-08
4.9454773e-08 6.515964e-08 6.5173566e-08 5.2967724e-08 4.6575973e-08 1.1187676e-07 9.397565e-08 8.9378354e-08
1.220498e-07 6.125906e-08 1.1507374e-07 8.634686e-08 3.344435e-08 3.5592365e-08 8.0428954e-08 4.4931415e-08
1.2357611e-07 9.438102e-08 3.843524e-08 1.1622388e-07 1.7553545e-07 1.8300749e-07 4.6044843e-08 1.2775729e-07
5.1890392e-08 1.16888785e-07 9.001986e-08 7.018925e-08 5.9398193e-08 2.5718998e-08 2.185405e-08 5.9633045e-08
8.545478e-08 6.212137e-08 9.278317e-08 3.8332253e-08 6.26197e-08 4.8006264e-08 8.833386e-08 3.5851727e-08
7.232402e-08 2.2043311e-07 5.673113e-08 4.1872944e-08 7.148334e-08 4.4553346e-08 5.6456855e-08 3.5578683e-08
6.5099876e-08 6.907141e-08 2.4337962e-07 6.765811e-08 9.864698e-08 3.1022935e-08 1.280147e-07 1.5411305e-07
