results/BigMapRun1/BigMapAgent/BigMapAgent-500511.pt (torch, 791603 bytes, 33 tensors)

network_body._body_endoder.seq_layers.0.weight f4 [128, 81]
00000000: bbf9 06be 4e4f 6a3c d9f0 67bd 5b98 ac3d
00000010: 32a0 233e 3b88 243e 64b6 82bd f28a fe3d
00000020: 52a1 2bbe b29d b4bd d3df 3c3b c10d 88bd
00000030: ebf5 b93c c0b8 383d e7c6 593e d419 00be
00000040: e14f 033d ad66 0b3e 8bec f3bd d742 3dbd
00000050: 195e 91bd 17f6 1bbc 251d 00be baf1 40bd
00000060: bdd8 2dbd 251b 1dbe 0f8e c8bc ff9b 033e
00000070: 24f2 42bd 89a4 d6bd 11b0 d3bd 79d1 9b3d
00000080: 6c45 44be c401 08bd 473f b43b b6e1 503d
00000090: d1d2 ad3c 81d8 3a3d 1e48 893d 3b3f e03d
000000a0: e69e 683e 8e2c 7fbd 7080 733e 607b 213d
000000b0: 29fa b53c 52b6 2fbe 4ec0 db3c f3d1 af3d
000000c0: adf7 373e 5c90 973e b3d2 9d3c 4355 00bc
000000d0: 611d f63d 02f3 073e 653e 0c3e 3e57 2d3e
000000e0: 5e70 973d 37e6 70bd 8607 973d f407 32be
000000f0: 6f24 10be 1489 573c b3af b73d fd4d efbc
00000100: 9d76 a6be c6e6 ebbb a184 163d 731f de3d
00000110: c3de 083e 8f25 10bd 0b7d 703c ff74 383d
00000120: 8cc8 70bc f9e1 363e 99bd 623c d52a 44bd
00000130: aa4b 2d3e 8d7a da3b e8fa 91bd eb0a f9bd
00000140: 73c6 98bb 8ab4 75bc cf5b 8d3d d898 24be
00000150: efde 063d fbc5 73bd a111 a8bc 7e33 a0bc
00000160: 03a9 8bbd 1a2c 58ba f759 4a3e 7890 0fbe
00000170: 35c3 eebb d86c 15be 338a 063d c1dd 5dbd
00000180: 4288 bfbd 8415 08be 6d5e e63d 41fd 2cbe
00000190: 55b2 bbbe 91e3 dd3d a803 663c 5a21 94bd
000001a0: e26a dd3d 6790 3cbb 4d3b ef3d 2de1 873d
000001b0: 7866 d1bc 0dcb f93c 8a75 aabc 59f0 82bd
000001c0: 3493 1f3e 1ba6 5a3d 0a2b a5bd 2cb1 08be
000001d0: 9a8a 86bd 2843 ebbd 8e07 b93d 5e49 0a3e
000001e0: 5a45 95bd 12db d9bd 1c8a 1fbe b1b4 4dbe
000001f0: 3b28 8bbc 6a9d f7bd f210 0b3e ee32 04bc
00000200: ac45 31bd 5253 ff3d e315 d23d c2ee fdbb
00000210: 0839 ed3c 1c92 9dbb 87d3 c4bc 6ecb 5fbd
00000220: eaf7 2d3b c41c 27be e0f1 e8bd 639c 4d3e
00000230: fde9 02be 1d37 b7bc b0cb 0f3e a99a 8d3d
00000240: 1ef0 aebd 63cf bebd 1e9a c73d ae5f 23be
00000250: 6b86 1d3e 3e73 bc3d 616e c4bd 8fa5 e0bd
00000260: 5295 c3bd b5c5 3a3e ae0c a3be d346 213e
00000270: 3c93 563e d167 da3d c9e2 983d 54a4 d339
00000280: 329d 0f3e 3fdd dcbd f6bd b6bd 56ec 24be
00000290: 376e 233e 61bf 9cbd 95f0 87bd d474 0a3d
000002a0: ed56 393e 98c6 7dbc db55 143e 90ad 1ebe
000002b0: bde8 463e 85fc da3d 92f0 a4bb 4f89 73bd
000002c0: f5bb d5bd 614d ad3c 17ab 12be 709b 02be
000002d0: 7f9c 66bd 80a7 a93d 4196 c53d 2932 093e
000002e0: 2d24 533d 3be3 0c3b 23a5 efbc 8a02 61bc
000002f0: 424e 263d e9d4 f53d b7b1 593e 9a3e 113e
00000300: d727 b03a b846 50bd 7ae6 433a 290d 38be
00000310: 6ce7 7cbd 3243 56bc 8f0f 70be 2376 70bd
00000320: 8cd3 a63d 6ba0 39ba 4682 8d3d fd21 8ebe
00000330: 6dc2 dc3d c948 97bc dafe 6b3d 5fee 03be
00000340: 2d58 f2b9 8b8c 10be 401b c03d 5a05 993d
00000350: 9c75 5cbe b7a7 9fbd 9499 5f3e 41b4 ec3c
00000360: 045e ebbd d93e 613c 3e1b c1bd ff7a 233e
00000370: 1a86 aebd 5f9c 4e3d 01af 013e 6633 0cbd
00000380: a3ae 643d c6c9 f2bc 05da 73bd 18cc 303d
00000390: ae9d a4b9 2f42 66be e77f 6cbe 506f f6bc
000003a0: b0ef 893d 8680 c63d 76b1 2fbe 0902 c43d
000003b0: ca13 3bbb 8612 b7bc cb8c bc3d a96e ae3d
000003c0: 88f7 50bb 97a4 bb3d cd8d 4c3d 9ded c4bd
000003d0: 3941 db3b 67ca 073e 8ca7 e13c 8f83 90bd
000003e0: 3672 d2bd 9a00 e6bc 575c 85bc 1ea0 61bd
000003f0: eda4 133d de3d 0a3e f4fe c53d d1a5 edbd
-0.13181202 0.014301134 -0.056626175 0.08427497 0.15979078 0.16067593 -0.063824445 0.124288455
-0.16760758 -0.088191405 0.0028819933 -0.06643248 0.02270027 0.045098066 0.21267281 -0.12509853
0.0320586 0.13613386 -0.11910351 -0.04620632 -0.07098026 -0.009519122 -0.12511118 -0.04710553
-0.042443026 -0.15342386 -0.024481801 0.12852477 -0.047594205 -0.10480601 -0.103363164 0.07608313
-0.19167107 -0.03320481 0.0055007073 0.050996505 0.02121869 0.04561663 0.067032084 0.1094956
0.22716865 -0.06229835 0.23779464 0.0394243 0.022214012 -0.17159393 0.026825096 0.085849665
0.17965575 0.29602325 0.019265508 -0.007832828 0.12017322 0.13276294 0.13695677 0.16927812
0.07394479 -0.0588133 0.07374482 -0.17385846 -0.14076398 0.013155241 0.08969059 -0.029211992
-0.3251237 -0.007199141 0.03674758 0.10845842 0.13366227 -0.03519207 0.01467825 0.04503345
-0.014696252 0.17859639 0.013839149 -0.04789241 0.16923395 0.006667441 -0.07127935 -0.121602856
-0.004662329 -0.014996657 0.06902277 -0.1607393 0.03292745 -0.05951498 -0.020516219 -0.019555803
-0.06819346 -0.0008246318 0.19760881 -0.14019954 -0.007286454 -0.14592302 0.03284664 -0.05416656
-0.09352161 -0.13289458 0.11248479 -0.16893484 -0.36659494 0.108344205 0.014038958 -0.07232924
0.10811402 -0.0028772594 0.116812326 0.06634746 -0.025561556 0.03049233 -0.020808 -0.06393499
0.15583497 0.053381067 -0.0806485 -0.13348836 -0.06569405 -0.114874184 0.09034644 0.1350455
-0.072886184 -0.106374875 -0.15580028 -0.2008846 -0.016986957 -0.12090571 0.13580683 -0.008068783
-0.043279335 0.12467064 0.10258081 -0.0077494094 0.028957859 -0.0048086774 -0.024026645 -0.054637365
0.0026545473 -0.16319567 -0.11374259 0.20079188 -0.12784572 -0.022365147 0.14042544 0.06914265
-0.085418925 -0.093168996 0.097461924 -0.15954468 0.15383308 0.09201668 -0.095913656 -0.10969078
-0.09549965 0.18239482 -0.3184561 0.15749674 0.20954603 0.10664333 0.07465131 0.0004036749
0.14024809 -0.10784387 -0.08922951 -0.1610578 0.15960012 -0.0765369 -0.06637684 0.033802822
0.18099566 -0.015489243 0.14485876 -0.15495896 0.1942472 0.106926955 -0.005033561 -0.05945712
-0.104362406 0.021155061 -0.14323078 -0.12754607 -0.05630159 0.08283901 0.09647799 0.13398041
0.05154817 0.0021497745 -0.029253548 -0.0137335155 0.040601976 0.120035 0.21259199 0.14184037
0.0013439608 -0.050848693 0.00074730034 -0.1797377 -0.06174414 -0.013077544 -0.23443435 -0.058706414
0.08145818 -0.0007081094 0.06909613 -0.27760306 0.10779271 -0.018467324 0.057616092 -0.128839
-0.00046223533 -0.14116113 0.093801975 0.07471724 -0.2152924 -0.07795661 0.21835929 0.028894546
-0.114925414 0.013747894 -0.09429024 0.15964888 -0.085216716 0.050442096 0.12664415 -0.034228705
0.05583061 -0.029637229 -0.05953409 0.04316339 -0.00031397998 -0.22486185 -0.23095666 -0.030082375
0.0673517 0.09692483 -0.1715754 0.09570701 -0.002854573 -0.0223477 0.09206542 0.085172005
-0.0031885821 0.091622524 0.04993992 -0.09615634 0.0066911248 0.13260804 0.027545713 -0.07056343
-0.1027569 -0.028076459 -0.016279383 -0.05508434 0.036045957 0.13500163 0.09667769 -0.116038926

network_body._body_endoder.seq_layers.0.bias f4 [128]
00000000: fd01 193d d396 45bc c682 863c d143 d53c
00000010: 2586 4c3c 929f 9ebc f79d d63b 4531 3a3c
00000020: 80b0 ba3c d95f 1b3d e35b aa3c f14f 0bbc
00000030: c773 d5bb 53f7 1a3c 53b0 ce3c f8c2 373c
00000040: 76ed 243d 1655 8abb 4e0c e63b 959c 88bb
00000050: 0afd 043d 72ab 1a3c 4dfd a73c 0262 e13c
00000060: d0c8 263c 67f3 293c 2a2d 9b3c c13f 9aba
00000070: 2316 8bb7 2c67 573c ff15 0e3b affc c6ba
00000080: 2e3a fbb9 b571 cc3c d56d 2ebc 71e5 f73c
00000090: 40ce 76bc 965a 8c3b db07 98bc 2911 2fbc
000000a0: 18a6 a63a e01e b0ba 6b1f 993c 35b9 0b3c
000000b0: 3063 fd3c f6f4 f83c 40c5 003d 67b1 e2bc
000000c0: 5e09 a93c 2152 833b fb55 a23b 9569 b23c
000000d0: 268a a63c 388d 623b f41a dfbb 2e22 d73b
000000e0: 59c4 1dbc 57f8 cb3c 2bd8 133c ba3d a3bb
000000f0: 6b92 3dbc 001f f53b f3ab dc3c 731b d83c
00000100: 0592 e03c eeff 653c 1e99 06bb 68c1 f6bb
00000110: 67f7 d2bc f530 0b3d 9554 c73c 5bb6 bcbc
00000120: a204 96bc 0237 15bd 84fe ff3b d6a4 e23a
00000130: e618 123c 8f5b 753c 03ad 8e3c 1176 153d
00000140: 3bae 1e3c 7653 143d 8c05 dcbb 31a1 8d3c
00000150: abac 06bb 31b2 0f3b f98c 4a3c 8c4a 0b3d
00000160: c35e 80bc f8ca 723c 3b76 0dbc 4498 6b3c
00000170: 4187 e93b 1f8b b1bc dba0 ab3c 52e8 d13b
00000180: 8ff0 033d 3f41 3a3b 27a7 463c 1396 4d3c
00000190: f15c b53b 095e 9d3c c555 d03c 4710 1c3c
000001a0: ddc7 98bb f7c9 a03c bb45 09bd ebeb 833b
000001b0: 632d 83bc 28c7 683c 7c1e 23bc 5c61 34bc
000001c0: 33a2 efbb 76e0 df3c ac48 e239 ec39 693c
000001d0: 856b 2f3b 80a7 f23c bb06 7e3a 52b9 093c
000001e0: ef88 163c 9789 f6bb e33c 453c 2939 26bc
000001f0: b6d0 d4bb b676 d0bc 857e 22bb ac57 793b
0.03735541 -0.012059885 0.01641978 0.026033314 0.012483154 -0.019363198 0.0065495926 0.011364286
0.02278924 0.037933204 0.020795768 -0.008502946 -0.006514046 0.009458381 0.025230562 0.011215918
0.040265523 -0.004221569 0.00702051 -0.0041690567 0.03246788 0.00944029 0.020506525 0.027512554
0.010179713 0.010372973 0.018942434 -0.0011768268 -1.65804e-05 0.013147157 0.002168059 -0.0015181507
-0.00047917798 0.024956563 -0.010646303 0.030260773 -0.015063822 0.0042832596 -0.018558433 -0.010685244
0.0012714295 -0.0013436936 0.018691739 0.0085280435 0.030931085 0.030390244 0.031438112 -0.027672483
0.02063435 0.0040075933 0.0049540973 0.021778861 0.020329546 0.0034569036 -0.006808633 0.006565354
-0.009629332 0.024898691 0.009023706 -0.0049817236 -0.011570553 0.007480502 0.02693746 0.026380276
0.027413378 0.014038069 -0.0020538042 -0.00753038 -0.025752736 0.033982236 0.024332324 -0.023036173
-0.018312756 -0.036429413 0.007812323 0.0017291557 0.008917069 0.014975443 0.017416483 0.03648955
0.0096850945 0.036212407 -0.0067145284 0.017288776 -0.0020549695 0.0021926279 0.012362712 0.03400664
-0.015670186 0.014818899 -0.008634145 0.014379565 0.007126719 -0.021672783 0.020950725 0.0064058686
0.032211836 0.0028420237 0.012124813 0.0125479875 0.005534761 0.019209879 0.025431523 0.009525365
-0.0046624974 0.019627554 -0.033513766 0.0040259263 -0.016012853 0.014207639 -0.0099559985 -0.01100954
-0.007313037 0.027328711 0.00043160224 0.014235001 0.0026766967 0.029620886 0.0009690334 0.008406
0.009187921 -0.007523726 0.012038442 -0.010145464 -0.006494607 -0.02544723 -0.002479465 0.0038046641

network_body._body_endoder.seq_layers.2.weight f4 [128, 128]
00000000: 2186 1c3e b8ba 8e3d 1fdf 853d ad83 473e
00000010: d83e 19bb 139d 003d 311f 3c3d a08e b53d
00000020: 8312 adbc 9806 293e fb70 e33c 2408 143e
00000030: 56e0 2a3e 6310 8f3d f44e 1dbd c7c3 8dbc
00000040: 7b26 3fbb ef8b d23d 431d 1bbd 44b9 803d
00000050: 7dc8 053e 4071 34bd 5807 12bd 2dbe e9bc
00000060: 80ac ca3d 93f6 3b3c 290b 48bd b36e c33d
00000070: 4c5a 85bd e47b 5ebd f3c0 203e 0ee2 07be
00000080: b46b 6e3c 2b2f 0c3d 2761 c33b ce5f d8bc
00000090: 19ec a7bd d582 ac3d a713 2abe 62b9 84bd
000000a0: af84 79bd 13b1 113d ab45 a63c 291d e7bd
000000b0: 7bd0 c73b 365a 183e 1a30 a23d 5075 cb3d
000000c0: b08e 3cbd c975 81bd d052 5f3d 59f3 1cbe
000000d0: 9c6a 993d c9f2 913c 47e8 a93d 3309 1ebe
000000e0: caea 71bd 18cb 6f3d bcf4 54bd a62c e63d
000000f0: fdbc 1bbc 9d81 2fbc 66f6 943c bf22 3d3d
00000100: e402 0ebe e884 83bd 208a dcbd 04fa dd3c
00000110: cbcc adbd c9dc b33d a4ac a7bd af3c 1cbe
00000120: de67 c93d deb8 a9bd 39b2 8cbd caff cebd
00000130: 5edd a33b 10cb 403d 7e3b f0bc 8d47 98bd
00000140: 5570 253e 0016 a7bd cdf0 a63b e7c7 5bbd
00000150: b8de e53c 5e48 423e 00cb a8bb e5a1 9abd
00000160: 781d 0d3d da78 24be 5e08 00be ce9c 5e39
00000170: 38d5 1bbc fead 12bd 0f94 0139 f97a fe3d
00000180: 904f 003b 44ef 113e cdd6 833d da8e 34bd
00000190: 7e38 bdbc d912 f33c d957 2fbc cd46 a63b
000001a0: 060f a1bd 4aba 55bd f16d 2c3d ab91 74bd
000001b0: 2533 433d 2dba 16bd b993 413d 6d9c b83d
000001c0: 5836 ec3d 95f3 0e3e 208b 883d e788 cf3d
000001d0: 950a da3d f868 67bd 83bc 1fbd 8f62 48be
000001e0: eaa2 ee3d c904 2dbd 61d1 6bbd d5dc e33d
000001f0: 618a 87bd 84ed ff3a e859 2bbd 5f9c 58bd
00000200: a009 eabc b0a2 b13d 3740 a0bd 119f b13d
00000210: ed62 5dbc ebbc ddbc 94e3 963d 97d2 c5bd
00000220: 50eb f7ba 4dc5 a93d ef55 0a3d 9749 7bbd
00000230: 59ba 6dbe 0bef cd3d 6174 e13c 9641 8fbd
00000240: bf37 353e 4e23 19bd 1440 0fbc dea6 17be
00000250: 0bda 9cbd 8ea3 2a3b 1fc8 8d3d 4523 aa3d
00000260: 9c03 4e3d be6a 133d fc36 2abe e955 0c3e
00000270: c6f7 83bd c85f 813d 5594 e3bc 1d05 93bd
00000280: 8ec4 373d 4459 953d 51c0 0b3e adeb 843e
00000290: 56fe 43bd 443f 4e3d 6453 aebb 706e ebbc
000002a0: 81ef ebbc 9f56 dabb 6489 fe3d 5e25 703d
000002b0: 74c2 5d3e 1402 88bd 8bc8 1bbe d956 023e
000002c0: bc16 6e3e b6e4 c4bc 252a c0bd cdda a0bc
000002d0: 29fe 7a3a b189 af3c 9754 68bd e3d8 5d3d
000002e0: 87d3 583c 1f4b 53bd 0f22 133c 8518 193e
000002f0: 1246 273d f817 393e 28f9 0ebe c915 513e
00000300: 2d3d bfbc 9584 1b3e 4e9f a4bc 1733 cdbd
00000310: 3a5d fc3d 1f6a abbd 517d 333d 3988 4dbe
00000320: 43e4 01be 3785 14bd 47a4 5c3d 238a ba3d
00000330: 5659 1e3e 5aa2 4ebe f15b ccbc 7f7b 84bc
00000340: 4141 c2bc 35ac 18bc 6858 c43c 3a82 223d
00000350: 1ac3 8f3d bc9f f23c 75ea dabc 8a0a db3c
00000360: 7fa5 c6bc d65d 8a3d 2d39 40bd 1d87 06be
00000370: 68dd da3d f5cd 653d d948 0f3e b710 5f3d
00000380: 6eef b33d 819c 89bc 8f57 ae3d 35f8 71bc
00000390: a462 f93c 3dfb a8bd 989f a5bd afa8 39bd
000003a0: b614 25bd 0629 4f3e 9866 113e 526d f0bb
000003b0: 6d16 e6bc 6b93 7c3d a1f7 a83c 7c0a 4fbd
000003c0: 311f 203e 8c36 663c 136d 2fbe e90d a03c
000003d0: 268f c1bb 4ad0 aebc 5cc8 6abc 8da9 3f3e
000003e0: 1dd7 523d cb8b 23be ab5a 91bd 4950 35bd
000003f0: c4d8 efbd 05fd 85bd 1041 27bd 86f9 92bd
0.15285541 0.069692075 0.065366976 0.19483824 -0.0023383405 0.031399798 0.045928184 0.08865094
-0.021126991 0.16506422 0.027763834 0.1445623 0.1668714 0.069855474 -0.038405374 -0.017305268
-0.0029167223 0.102805965 -0.037869703 0.062853366 0.13064761 -0.044053316 -0.035651535 -0.028533066
0.09896183 0.011472362 -0.04883877 0.095425986 -0.065113634 -0.05431737 0.15698604 -0.13269827
0.014552046 0.03422467 0.005962509 -0.02641287 -0.08199329 0.08423392 -0.1660906 -0.064806715
-0.060917553 0.03556926 0.020296892 -0.11284859 0.006097851 0.14878163 0.07919331 0.09934485
-0.046034515 -0.06321294 0.054522336 -0.15327205 0.07491037 0.017815964 0.082962565 -0.15433197
-0.059061803 0.058543295 -0.05199121 0.11238985 -0.009505508 -0.010712055 0.018183898 0.046175715
-0.1386829 -0.06421834 -0.10768533 0.027096756 -0.08486327 0.08782346 -0.081872255 -0.15257524
0.09834264 -0.08287214 -0.06869931 -0.10107382 0.0050007543 0.047068655 -0.029325243 -0.07435522
0.16156133 -0.08158493 0.0050946237 -0.05365744 0.028060302 0.18972918 -0.0051511526 -0.0755041
0.03445193 -0.16061726 -0.12503192 0.00021229984 -0.0095112845 -0.035810463 0.00012357555 0.12425799
0.0019578673 0.14251429 0.064374544 -0.044081546 -0.023098227 0.029672073 -0.010702097 0.005074358
-0.078641936 -0.052179612 0.042097036 -0.059709232 0.047656197 -0.036798645 0.04726002 0.09014211
0.11533803 0.13960107 0.06667161 0.10133534 0.106465496 -0.05649659 -0.03899814 -0.19568847
0.11652167 -0.04224089 -0.057572726 0.11126105 -0.066181906 0.0019525741 -0.04183379 -0.052883502
-0.028569043 0.08673608 -0.07824748 0.08672918 -0.013512355 -0.027067622 0.07367626 -0.096593075
-0.0018914733 0.08289585 0.03377336 -0.061349478 -0.23215617 0.100553595 0.027521314 -0.069949314
0.17697047 -0.037387185 -0.008743305 -0.14809749 -0.07658776 0.0026037428 0.06922936 0.083075084
0.05029641 0.03599047 -0.16622537 0.13704647 -0.064437434 0.06317097 -0.027780691 -0.0717871
0.044865184 0.07292417 0.13647582 0.25961056 -0.047849976 0.050353304 -0.0053199995 -0.028739184
-0.028800728 -0.006663158 0.12428549 0.058629386 0.21656209 -0.06641021 -0.1521322 0.12728442
0.2325086 -0.02403484 -0.093830384 -0.019635582 0.0009574616 0.021427961 -0.056721296 0.054161917
0.013234026 -0.051585313 0.008980288 0.1495076 0.04083831 0.1807555 -0.13962233 0.20418467
-0.0233446 0.15187295 -0.020095494 -0.1001951 0.12322469 -0.0836985 0.043820683 -0.20071496
-0.12684731 -0.036259856 0.053867605 0.09108379 0.15463766 -0.2017912 -0.024946185 -0.016172169
-0.023712756 -0.009318401 0.023967937 0.039674975 0.070196345 0.029617183 -0.026723126 0.026738424
-0.024248837 0.06756179 -0.046929527 -0.13137479 0.10686761 0.05610462 0.13992633 0.0544593
0.08785902 -0.01679826 0.08512794 -0.01476865 0.030442543 -0.08251045 -0.08087081 -0.045326885
-0.040302955 0.20230493 0.14199293 -0.0073372507 -0.028086865 0.061664026 0.020625891 -0.050547108
0.15636899 0.014051091 -0.17131452 0.019537883 -0.005906957 -0.021339554 -0.014329996 0.18717022
0.05147468 -0.15971296 -0.07097372 -0.04426602 -0.11711267 -0.065424 -0.040833533 -0.07176499

network_body._body_endoder.seq_layers.2.bias f4 [128]
00000000: 4081 1bbb 20ac d93c 4b21 30bc 3059 3d3c
00000010: e443 323d b768 753c ae5c 623c 5fac 363c
00000020: 5b66 3f3c 4539 b43c 22ca bdbb 2f2e 8db9
00000030: a350 f53b ce9d 863c edc8 d3bc c25b e6bc
00000040: 22e4 113c ff5f 393c 3f23 70bc 855d 903c
00000050: f90e 1c3c fe18 bcbb e07e cabc 39f1 bcbb
00000060: 2c1f 02bb 8df6 a4bc 09f8 c33c 70ac 953c
00000070: ce67 c6bb 1057 a9bc 02d1 743c ec8d 543c
00000080: 7afb 893c de3b c53c 9a7c c1bc 569d af3c
00000090: ef36 d93c 02ca a63c e2bf 4839 33dd aebb
000000a0: 1347 21bc 5d26 79bc 03a6 2139 6a5b d3bc
000000b0: 67a0 be38 d3f6 d7bb a86a 663c f83d 05bc
000000c0: 630b 343b 9f72 083b 0d86 fb3c 2228 843b
000000d0: 8279 afbb 2995 33bc f070 f9bc 3c48 5cbc
000000e0: 3057 a63c eddd fb38 38bd d03b 9de5 aabb
000000f0: 328e 753c e248 363c d0c0 2fbc 0b05 edba
00000100: 5cd7 4f3c 261a eb3a 2aa0 063c 88c6 a9bc
00000110: 7322 773b 32c1 34bb f2e0 7d3c 8f33 533b
00000120: 3666 4c3c fb6f 8abc 957a 4c3b 23fe 3f3c
00000130: dc83 423c 86ff 81bc 2fea 2dbc ed63 2d3c
00000140: 749f 54bc 5da5 c83a 738e 27bc a34e bcbc
00000150: 2023 473c 0a5e ea3a 4fb7 c8b9 369e 993a
00000160: 3b87 40bb b6ed be3c 455a 32bc 6757 673c
00000170: 1cc4 023d 7573 883c f888 50bc 9d89 17ba
00000180: 752b 183c 2dc9 22bd 93e9 163d 2e45 21bc
00000190: 9b2c b93b 15f4 bd3b 7dda 993c 9de9 86bb
000001a0: 0362 a4bc 2c1b 9d3b 16f7 e13b 5e00 323a
000001b0: a183 be3c 7716 a63c 3542 34bc c852 a03b
000001c0: a5bd ba3b 3d52 b6bb 97e4 933c 03d5 4d3c
000001d0: 995d f73b a139 d93c 93f0 963b e634 2b3c
000001e0: 219b ab3c 801a da3b 73c2 e7ba a81a 0dbc
000001f0: 2b63 82ba 772f 8fbc 6a9b 4b3c 5a7d 273c
-0.0023728162 0.026571333 -0.010750125 0.0115569085 0.043521777 0.014978579 0.013816042 0.011149495
0.011682118 0.021999964 -0.0057919184 -0.00026928025 0.0074864193 0.016432669 -0.025852645 -0.028119925
0.008904489 0.011314391 -0.014656841 0.017622719 0.009525054 -0.005740284 -0.024718702 -0.0057660607
-0.0019855006 -0.020137096 0.023921983 0.018270701 -0.006054855 -0.020671397 0.0149424095 0.01297329
0.016843546 0.024076398 -0.023618985 0.021437328 0.026515452 0.020359997 0.00019144968 -0.0053364276
-0.009843606 -0.0152069 0.00015416 -0.025800426 9.089783e-05 -0.006590703 0.014063515 -0.00813245
0.0027472607 0.0020820273 0.030703569 0.0040331045 -0.005355061 -0.0109608555 -0.03044936 -0.013444956
0.020305246 0.000120099496 0.006370213 -0.0052153603 0.014987515 0.011125775 -0.010727122 -0.0018083168
0.012685623 0.001793687 0.008216897 -0.02072455 0.0037709742 -0.0027580974 0.015495526 0.0032226776
0.012475541 -0.0168991 0.0031200994 0.011718306 0.011872258 -0.015868913 -0.010614916 0.010582906
-0.01297747 0.0015308071 -0.010226834 -0.022986716 0.012154371 0.0017880809 -0.00038283548 0.0011720124
-0.0029377479 0.023306709 -0.01088578 0.014119959 0.031925306 0.016656617 -0.012727968 -0.0005780699
0.009287705 -0.039742637 0.036843847 -0.009843154 0.0056510693 0.005796919 0.018780941 -0.0041172043
-0.020066267 0.004794499 0.00689591 0.0006790216 0.023256125 0.020274384 -0.011002113 0.004892681
0.005698877 -0.005564003 0.018053336 0.012562993 0.0075489995 0.026516737 0.0046063154 0.010449624
0.020947995 0.006655991 -0.0017681852 -0.008612312 -0.0009947767 -0.017478688 0.01242719 0.010222757

action_model._discrete_distribution.branches.0.weight f4 [80, 128]
00000000: 9d10 82ba 79fd 23bc 0f1a 0dbc bb43 f23a
00000010: 2aea 863c c250 bdbc 3bd4 d0bc fb54 58ba
00000020: 803b fabc 56a4 1ebc 5581 43bc f7d4 01bc
00000030: 2ba0 8339 e70d 3ebc 7894 fdb7 79e4 3d3c
00000040: 01b2 9d3c edd3 213c 8a09 f4bb bd89 b7bc
00000050: 439d 873b ebdf 873c 7fcf 233c 0805 bbbc
00000060: c050 493c 04db ab3c 69e3 a73c 73ac d0bc
00000070: f617 48bb 163e 993c 783e 12bc 6deb 0d3a
00000080: 1809 2bbc 86a7 603c 8d9a a8bc cc8e fe3b
00000090: ef2f 983b 30f7 c93b 01ef 343d 1f5a 25bc
000000a0: b9fa 133c a92f 7f3b 81c3 0a3d dcfd a23c
000000b0: 4e43 103c 9479 09bc f866 d93b 4ec6 e13c
000000c0: 3cac 11bb 7b41 a33c 540d 603b 5fa0 86bc
000000d0: c178 a73c b6be 88bb 1ca6 67bc 67db c83c
000000e0: 9ad9 fb3a ba9f 67bc cf69 743c 0c8b 703b
000000f0: 53e0 56ba e203 c73c c4c6 00bd 96f4 4dbb
00000100: 7a53 a3bc 2470 823b 5354 5e3c f64a a0bb
00000110: 02ef 83bc 81d4 52bc 3636 223c 4dbf d03c
00000120: 0b4a 9f3c be1f f33b e364 a3bb 3965 c3bc
00000130: 23a0 a93c 8fdc 0dba 33e5 003d 56fc 303c
00000140: d7ee 05bb 5728 98bc fb5a 403a f699 a63c
00000150: a275 5cbc 1442 7abc dd75 24bd d384 8ebc
00000160: aeaa b1bc ccd7 423b e306 b03b d377 983c
00000170: b7bc 483b 6861 46bc 2eed 583c 5fc8 083c
00000180: 5ba0 ce3c a353 8fbb b823 adba 3054 3fbc
00000190: 385d d2bc 1362 f6b9 34f3 52bc 6ba3 14bb
000001a0: ecc3 ae3c e817 18bd 3aa8 dabb f154 00bc
000001b0: 5cbf 6bbc 1edd 17bc 27d5 a139 3ac3 bb3c
000001c0: 3c08 253b 5a00 2abc f9e5 86bc 9220 adbb
000001d0: bd54 fd3c 0cc3 423c 7712 a53b c2ed aebb
000001e0: bbdf d3bc 6cc7 4fbc 561d b93b 653b e83b
000001f0: 7430 0bbc 4a47 863c 0bbc 673c 50ba 7fbc
00000200: d874 9639 14bb 93ba 3f37 f4bb 9d9f 45bb
00000210: c739 c2bc 5da5 8bbc b73c e7ba 68df 6abc
00000220: a8e8 01bb 3edf acbc 823d e63b 6e92 9dbc
00000230: 4916 63bb 5782 3ebc 0c4f e73c 1de9 2fba
00000240: 41d8 82bc 1cb7 56bb 0c1e 6f3c fcfa 4ebb
00000250: a3bb 2a3c 5dba a33a 7ca4 2fbc bb2a 253b
00000260: 58dd 9a3c fda1 993c 6eb5 7abc da57 63bc
00000270: 2429 9a3c 1852 a03c 682c 5bbc e74a e2bc
00000280: 476e d33c 1136 383c d632 c83b 67a1 b6bc
00000290: dca1 2abd 2d3e 763a cc45 8abc dad9 083b
000002a0: b609 fd3b 8e55 1b3b 3ead 0e3c 544a f13a
000002b0: a135 87bb cd9a 663c d0fd 673c 3c88 383a
000002c0: 9712 54bc 9580 c0bb a2fb c5bc 39fc 383b
000002d0: 1741 ba3b f203 39bc 7072 943c e6cf 8b3c
000002e0: b3b8 e7bc 2e89 b3bb 0a0a f0bc 5b87 e33c
000002f0: 3bce 23bc 46e1 a0bc ad17 883c dae8 ffba
00000300: 9c67 ab3b 891c 293b bb28 d3bc 7160 053c
00000310: 8b94 8ebc b852 b4bc 5b3e 14b9 a25a 0abd
00000320: 01e8 523a 0af1 013b 984b f7bc 834d d5ba
00000330: 6bb7 89bb da99 a43c bc02 14bc 29c9 33bb
00000340: b3d1 70b9 4b14 92bc f565 8f3c 5b3c a33c
00000350: de08 363a b342 083a 24dd 8dbc da82 d7bc
00000360: 091e 3bbc 80e9 94bc cd2c 063c 0ab6 0bbb
00000370: 5ead afbc 59a0 813c 7900 093d 865d 993c
00000380: a5fc 8c3b 19e6 cf3c 8bc4 c7bc f71a 5f3c
00000390: f1e5 aeba 9872 87bb bba0 1cbd 931d 63bc
000003a0: d3f7 8e3a 7074 27bc 4a91 703b fff4 803c
000003b0: 911f b6bc fe50 85bc 7ca9 333d 0044 77bc
000003c0: e925 263c d27d 243c 3ce8 933c 0eba 9a3b
000003d0: 8078 15bc 2d3f 8bbb 4163 bbbc 2ddf 84b9
000003e0: 2bc5 2fbc e92f b4bb 43e9 38bc b567 e43b
000003f0: 660c 97bb 5707 9a39 2d3f 07bc e27c 36bc
-0.0009923164 -0.010009163 -0.00861217 0.001848332 0.01646908 -0.023109797 -0.025491824 -0.0008252409
-0.03054595 -0.009682735 -0.011932691 -0.00792431 0.00025105602 -0.011599994 -3.0229086e-05 0.011590117
0.019249918 0.009877187 -0.007447426 -0.022404546 0.00413862 0.016586265 0.009998201 -0.022829548
0.012287319 0.020978458 0.02049418 -0.025472855 -0.003053186 0.018706363 -0.0089260265 0.00054138043
-0.01043918 0.013711816 -0.020581508 0.0077684876 0.004644386 0.0061635002 0.044173244 -0.010092287
0.009031945 0.003893832 0.033877853 0.01989644 0.008805109 -0.008390803 0.0066345893 0.02756038
-0.0022227904 0.019928684 0.0034187632 -0.016433893 0.020443322 -0.004173125 -0.014138725 0.024518682
0.0019214631 -0.014137203 0.014917805 0.0036703972 -0.0008196879 0.024293844 -0.031439558 -0.0031426302
-0.019937266 0.0039806534 0.013569909 -0.0048917485 -0.016105179 -0.012868048 0.00990062 0.025481844
0.019444486 0.0074195554 -0.004986392 -0.023851978 0.020706242 -0.0005411589 0.03146858 0.010802349
-0.002043655 -0.018573923 0.0007337776 0.020337086 -0.01345578 -0.015274543 -0.040151466 -0.01739732
-0.021687832 0.0029730676 0.0053719147 0.018611824 0.003063006 -0.012108184 0.013240142 0.008348553
0.025222948 -0.004373984 -0.0013209498 -0.011677787 -0.025679216 -0.00046993847 -0.012875367 -0.0022680413
0.021333657 -0.037132174 -0.006672886 -0.007832752 -0.014388885 -0.009269027 0.00030867124 0.02292024
0.002518191 -0.01037606 -0.016467081 -0.0052834237 0.030924195 0.011887323 0.0050376016 -0.0053384015
-0.025863519 -0.012681823 0.005649249 0.0070871585 -0.008495439 0.016391415 0.014143954 -0.015608385
0.00028697285 -0.0011270964 -0.007452875 -0.0030154951 -0.023709191 -0.017046625 -0.0017641996 -0.014335491
-0.0019822512 -0.021102544 0.0070263753 -0.019234862 -0.0034650734 -0.011627755 0.028235935 -0.0006710457
-0.015972259 -0.003276295 0.014594566 -0.0031582704 0.010420713 0.0012491454 -0.0107203685 0.0025202471
0.018904373 0.018754 -0.015302045 -0.013875926 0.018818446 0.019570395 -0.0133772865 -0.027623607
0.02580942 0.011243359 0.0061095757 -0.02229376 -0.041658267 0.000939342 -0.016878985 0.0020881803
0.007722105 0.0023702118 0.008708296 0.0018408992 -0.004126266 0.014074993 0.014159635 0.00070393435
-0.012943885 -0.005874703 -0.02416784 0.0028226508 0.005684029 -0.011292445 0.018120974 0.017066907
-0.028286314 -0.0054789996 -0.029301662 0.027774503 -0.0099979 -0.019638669 0.016612852 -0.0019524351
0.005230857 0.0025804362 -0.025776258 0.008140669 -0.017404815 -0.0220121 -0.00014137609 -0.03377784
0.00080454355 0.0019827508 -0.030187413 -0.0016273711 -0.0042027733 0.020092893 -0.009033855 -0.0027433133
-0.00022966303 -0.017831942 0.017504672 0.01992624 0.00069440703 0.0005197927 -0.017317362 -0.026307512
-0.011420735 -0.018177748 0.008189392 -0.002131822 -0.021444973 0.01582353 0.033447716 0.018721353
0.0043025785 0.025378274 -0.024385711 0.013617269 -0.0013343674 -0.0041335337 -0.038239222 -0.0138620315
0.0010907598 -0.010220632 0.0036707693 0.015741823 -0.022231849 -0.016273972 0.043862805 -0.015091896
0.010140874 0.0100397635 0.018055074 0.0047218865 -0.009122968 -0.0042494745 -0.022874476 -0.0002534328
-0.010728161 -0.0054988754 -0.011286083 0.0069703707 -0.0046096323 0.00029378638 -0.008254808 -0.011138173

action_model._discrete_distribution.branches.0.bias f4 [80]
00000000: 8851 deba a5b5 b1bc fb87 473b 7235 7d3b
00000010: 1acf 84bc a3f6 533b ce86 e23a e951 683c
00000020: a778 c6ba ddce 423b bcde 40bb 56c3 8cbc
00000030: 86ca 50bc 372a b73c 0fa3 6cbc 911d 09bb
00000040: a99e ef3a 5455 c6bc 2078 dbbb 9890 b63b
00000050: 9768 5dbb 140f e4ba 3279 e43b f9cd c73a
00000060: 6144 0e3b e172 443b f941 1f3c 08ea 403c
00000070: b317 663b 8d8b 1fbc 3cff debb 76a3 99bb
00000080: 9bf1 323b 2d7f 5fbc 318b 373c cffe 03ba
00000090: 357e 4ebc 2af0 93bb bc0d 383a 78ff 87ba
000000a0: aedb ed3b 9743 3bbc aa5d 023b 919a 22bb
000000b0: 75f3 2dbc afd2 73bb 7251 0fbc 9397 5abb
000000c0: a0b3 763c da11 03bc 7dce 7dbc 15f4 6cbb
000000d0: ef74 48bc 57e5 8c3c 533f be3b 3c57 3aba
000000e0: 8120 7d3b faeb 89bc ab63 9dbb 9ea6 77bb
000000f0: 6ef3 45bb 173a dfbb 6d11 3c3c 4d0f debb
00000100: e7ee af3b 3d87 9abb dae6 0abc 40e9 4e3a
00000110: fbcc 39bb 6483 1bbc c909 763c 7a5b 2dbd
00000120: 6ff6 21bc aa8b 643a 5c64 3b3c a242 e2bb
00000130: 07d3 80bc 00ec 9e3b 8c53 c63c c967 c53b
-0.0016961554 -0.02169306 0.003044604 0.0038636592 -0.016212035 0.0032343052 0.0017282607 0.014179685
-0.0015142158 0.002972535 -0.0029429635 -0.017182987 -0.012743598 0.022358997 -0.014443173 -0.0020922164
0.0018281537 -0.02421061 -0.0066976696 0.005571436 -0.0033784264 -0.0017399513 0.0069724554 0.001524388
0.0021708237 0.00299757 0.009720319 0.011774547 0.003510934 -0.009737861 -0.0068053287 -0.0046886755
0.0027304653 -0.013641161 0.011202619 -0.0005035223 -0.012603332 -0.004514714 0.00070210896 -0.0010375818
0.007258854 -0.011429689 0.0019892254 -0.0024811367 -0.010617127 -0.0037204435 -0.008747445 -0.0033354505
0.015057474 -0.007999862 -0.015491125 -0.0036156226 -0.01223491 0.017199202 0.0058058887 -0.0007108336
0.003862411 -0.016836155 -0.004803141 -0.003778852 -0.003020491 -0.006812345 0.011478764 -0.0067767263
0.0053690556 -0.0047158287 -0.008477891 0.00078930333 -0.0028350938 -0.009491775 0.015016981 -0.042323567
-0.0098854145 0.00087183213 0.011437502 -0.006904916 -0.015725626 0.0048499107 0.02420976 0.006024335

exp_avg f4 [128, 81]
00000000: 7a3b 6cb5 be9f 2e32 3c53 bf35 3c57 db33
00000010: 0000 0000 7fa3 1931 889d b8b6 41a9 501b
00000020: 4e48 9331 bdc0 0fb6 9c95 9d26 6b67 b9a5
00000030: 645e ed36 528c 1f38 5384 84a7 72be 2736
00000040: d84a 601c 73fb 25b2 ebf1 6e31 0aa7 0db6
00000050: 7a4d 16a7 05b5 b037 65a5 4827 eb0c b426
00000060: d48d bab7 5b0d 13a7 141b 781b 033f 601a
00000070: a640 c7b5 954e c6b5 0400 0080 635d b935
00000080: 0400 0080 0400 0080 03c0 8330 405c 6626
00000090: 6812 9535 5433 64a5 4707 c1a6 74ef 909a
000000a0: 7582 4910 18fc 24a6 aa5b 0b36 06ad 44b6
000000b0: 59f5 a2b1 b03f 3d27 7a1f 0080 7e01 6c36
000000c0: 0400 0000 01b4 46b8 8ba4 3a27 3613 0000
000000d0: 5985 8590 2bc9 b91a 0b55 16b8 aa73 d928
000000e0: e6e6 d134 ecd9 be25 9cee 6933 78d5 4f11
000000f0: 856c 3f35 e8fc 5b9a 2853 4836 e753 d4b1
00000100: f8b0 8c36 3b76 77b1 a3c3 6a8e d016 d435
00000110: 1cb3 87b2 368d 1ab1 426c ccb4 6355 da30
00000120: 0605 b386 e402 f630 7d32 21b8 4837 9125
00000130: 1c55 1c1c e010 adb1 7fef 1d98 e1cc 7a27
00000140: 0000 0000 3916 11b6 3c72 06b2 647c c035
00000150: ed11 9c35 0000 0000 c5fa 5931 73bd 47b5
00000160: 0464 b49b 4732 45b0 6a46 3236 caee 9225
00000170: 8cdf b524 640a 29b5 c3e5 96b6 25bc a4a5
00000180: f370 b4b7 42ed 9b9b f829 1731 a84c 75b1
00000190: 08cb ee34 ee4f 28a7 a45c cdb5 274c 99a6
000001a0: daf3 b425 fb86 9db7 e540 c8a4 0a99 869a
000001b0: f676 721b 2112 3d35 c9b8 8b35 0400 0000
000001c0: 1a71 a3b5 0400 0080 0400 0000 ea36 bc30
000001d0: 3cc0 a1a5 a0bb 0535 8719 1726 c512 e526
000001e0: a779 8019 c48a c98f 60ba 2626 355f 1434
000001f0: 7c0e e8b6 9e47 b7b1 5ed5 c1a6 c411 0000
00000200: 2e52 0d36 0400 0080 21d6 3f37 57a4 22a7
00000210: 2906 0000 1c62 0d8f a73c 211b b954 16b6
00000220: a5fa 5fa8 e4ca 3935 3731 f8a6 65fd ab32
00000230: e190 dc8f 1a25 e4b5 6c97 069a c8f8 eb36
00000240: a3f2 d731 6284 3db7 32bc b431 3186 e38e
00000250: 2cef 2e36 2217 5632 7aab 8db2 60ab 9c35
00000260: d0c9 3a32 390e 8705 30e9 3e30 f89f 42b6
00000270: 1601 81a5 e281 309c 80ce 1233 746e 961a
00000280: 68e1 91a7 0000 0000 3613 1836 72fe f131
00000290: 109b f333 fc38 1536 0000 0000 6687 d731
000002a0: b044 5c36 ac0a f39a eb0b 5eb1 6263 0a35
000002b0: ff9d 4926 4ddd 6ba5 e7c9 ab36 4e81 a035
000002c0: 86df 80a6 0e63 86b7 f784 bd9a 3e96 4db1
000002d0: 67b9 92b1 d093 94b6 4fa7 0aa6 746f 1a36
000002e0: e6bc ca26 4923 b3a5 fb18 26b7 e3f6 8226
000002f0: 4af6 d71a c039 cc1a 3fc4 acb5 1df9 fdb5
00000300: 0400 0000 555e e834 0400 0080 0400 0080
00000310: 0452 9a31 3001 4726 8897 86b5 dc09 47a6
00000320: 783f 9da6 c376 bd1a d409 5f10 f4f9 9224
00000330: 0d6e 0236 dc83 1835 2331 3ab1 5d89 0626
00000340: bc0b 0080 ba9b 7fb5 0400 0000 53dc d0b7
00000350: 4754 bc26 5f1a 0080 510c 9910 d3bf 0b1a
00000360: dce1 96b6 8a2e 1f28 8c1a 66b4 dd03 6326
00000370: d5fb c0b2 5b50 1110 d267 3d35 0911 b61a
00000380: bb1b 0b37 63fe a2b1 c3c2 93b7 10df 64b1
00000390: 5e72 d40e 9c41 e034 0b84 03b3 6b59 c9b0
000003a0: 4b1f a3b5 18e4 c631 8c98 3185 937e a0b1
000003b0: f497 44b7 352a 8125 403c 6b1b b5a3 0b35
000003c0: 6759 cc1a 271a 0f27 0000 0000 b679 0fb6
000003d0: dde9 f0b0 ae61 9ab6 3ed3 79b6 0000 0000
000003e0: 399e 3fb2 241a 97b6 df3e f99a c508 6cb1
000003f0: a3d3 4eb5 5db8 6925 9f34 5626 1c02 9cb5
-8.80034e-07 1.0164454e-08 1.4254833e-06 1.021385e-07 0.0 2.2357367e-09 -5.5019664e-06 1.7260046e-22
4.286483e-09 -2.142085e-06 1.0934615e-15 -3.2162463e-16 7.074139e-06 3.8039238e-05 -3.6780826e-15 2.4995793e-06
7.4212116e-22 -9.661437e-09 3.4771073e-09 -2.1107867e-06 -2.0858682e-15 2.1065129e-05 2.7845236e-15 1.249351e-15
-2.2238972e-05 -2.0407588e-15 2.0522829e-22 4.6373015e-23 -1.484547e-06 -1.477502e-06 -6e-45 1.3810753e-06
-6e-45 -6e-45 9.586077e-10 7.99223e-16 1.1106722e-06 -1.9793238e-16 -1.3394038e-15 -5.994386e-23
3.974076e-29 -5.724058e-16 2.076597e-06 -2.9306989e-06 -4.7427133e-09 2.6263544e-15 -1.1292e-41 3.516761e-06
6e-45 -4.737452e-05 2.5901884e-15 6.892e-42 -5.2664705e-29 7.683921e-23 -3.584199e-05 2.4142001e-14
3.9097284e-07 3.3107416e-16 5.4466554e-08 1.6395201e-28 7.131096e-07 -4.5492435e-23 2.9850726e-06 -6.1795506e-09
4.192927e-06 -3.6010437e-09 -2.8936923e-30 1.580187e-06 -1.5797518e-08 -2.2490219e-09 -3.807673e-07 1.5885856e-09
-6.73397e-35 1.7899677e-09 -3.8432412e-05 2.519095e-16 5.172607e-22 -5.036881e-09 -2.041269e-24 3.4805535e-15
0.0 -2.161962e-06 -7.8258005e-09 1.4341317e-06 1.1628123e-06 0.0 3.1720202e-09 -7.440896e-07
-2.9843136e-22 -7.173963e-10 2.6565053e-06 2.5488773e-16 7.887494e-17 -6.2972526e-07 -4.497096e-06 -2.8576957e-16
-2.1510268e-05 -2.5795923e-22 2.1997248e-09 -3.5695766e-09 4.447868e-07 -2.3358013e-15 -1.5300652e-06 -1.0637149e-15
3.1390263e-16 -1.8778714e-05 -8.684611e-17 -5.566835e-23 2.0056209e-22 7.043437e-07 1.0410087e-06 6e-45
-1.2177363e-06 -6e-45 6e-45 1.3694408e-09 -2.805931e-16 4.981939e-07 5.2423245e-16 1.5895155e-15
1.3284025e-23 -1.9873581e-29 5.7845405e-16 1.381821e-07 -6.915825e-06 -5.334143e-09 -1.3449899e-15 6.373e-42
2.1058472e-06 -6e-45 1.1434343e-05 -2.2571105e-15 2.21e-42 -6.970732e-30 1.3337206e-22 -2.2401057e-06
-1.2433337e-14 6.9213115e-07 -1.7221797e-15 2.002225e-08 -2.174948e-29 -1.6998122e-06 -2.7832868e-23 7.0325077e-06
6.284908e-09 -1.1296101e-05 5.260085e-09 -5.6089042e-30 2.6067237e-06 1.2461699e-08 -1.6492539e-08 1.1672782e-06
1.0872512e-08 1.2700564e-35 6.9452977e-10 -2.9001367e-06 -2.237867e-16 -5.8401385e-22 3.4181085e-08 6.221699e-23
-4.048997e-15 0.0 2.2660947e-06 7.0429502e-09 1.1343775e-07 2.22359e-06 0.0 6.2727166e-09
3.2822536e-06 -1.00519686e-22 -3.2312026e-09 5.1553627e-07 6.995001e-16 -2.045798e-16 5.1197017e-06 1.1958562e-06
-8.94237e-16 -1.602017e-05 -7.8383384e-23 -2.991683e-09 -4.270237e-09 -4.4279514e-06 -4.8105113e-16 2.3012662e-06
1.4067767e-15 -3.107546e-16 -9.900187e-06 9.087481e-16 8.931982e-23 8.446572e-23 -1.2872114e-06 -1.892247e-06
6e-45 4.3282003e-07 -6e-45 -6e-45 4.491314e-09 6.9043604e-16 -1.0027879e-06 -6.9055356e-16
-1.0911267e-15 7.836044e-23 4.3986567e-29 6.3740844e-17 1.9435568e-06 5.6816293e-07 -2.7094493e-09 4.667675e-16
-4.21e-42 -9.5221515e-07 6e-45 -2.4898129e-05 1.3067964e-15 -9.46e-42 6.0366836e-29 2.889948e-23
-4.496642e-06 8.836365e-15 -2.1430077e-07 7.876168e-16 -2.2466262e-08 2.865811e-29 7.0559065e-07 7.530096e-23
8.291502e-06 -4.743741e-09 -1.7614459e-05 -3.3305163e-09 5.2372167e-30 4.1770988e-07 -3.0620907e-08 -1.4650089e-09
-1.2153554e-06 5.7884897e-09 -8.3505184e-36 -4.6710027e-09 -1.171789e-05 2.2406533e-16 1.9458212e-22 5.201976e-07
8.451686e-23 1.9859414e-15 0.0 -2.1379506e-06 -1.7528766e-09 -4.600929e-06 -3.722685e-06 0.0
-1.1153639e-08 -4.503194e-06 -1.0308556e-22 -3.4347505e-09 -7.704895e-07 2.0271993e-16 7.431748e-16 -1.162352e-06

exp_avg_sq f4 [128, 81]
00000000: d7b0 ba2f 85df 6f30 5231 4e30 3110 af30
00000010: 0000 0000 d123 7730 80e9 c730 c4a8 1230
00000020: 45ca 8f2f 74d9 502f ee50 a02f 9187 dc2f
00000030: d493 3d30 21c1 3e30 9d87 ff30 d97a d530
00000040: 16a3 9f30 1a95 f12f 01d4 3c2f 0678 9a30
00000050: 3551 6d30 f44b d430 d901 8c2f 60d2 1530
00000060: 9c61 8330 b9a8 7c30 a8d1 1930 b728 4d30
00000070: 23bf 862c e3a8 732f ee9d 922d a33d fd2f
00000080: 767c 772e 9697 462e 2c12 cc2f f6a4 8030
00000090: 503c b52f b118 3130 27d9 9c30 b3c6 e52f
000000a0: 6640 0030 17aa ed2f c65c f630 a946 9b30
000000b0: 51b0 cc30 0c06 1f30 6e84 382f 258f a230
000000c0: 0f42 8f2f 0961 3531 453b 4f30 f088 3730
000000d0: 41bf 4d2f e1b3 0030 67e9 f230 abd8 a130
000000e0: 9326 5130 3356 f32f ecef 4630 6cf2 d12e
000000f0: 6190 8a2f ad67 542f 7daf d82f cf5f d12f
00000100: 5ed0 1230 df86 2430 22c1 2430 e8c1 6330
00000110: 8d4e 4430 fdf4 8c2f a496 d92f c6a6 652f
00000120: 6aa0 782e f252 7930 56ec b030 1681 232f
00000130: 2e5e 502f 67d7 222f d9c2 242f 3da2 1d2f
00000140: 0000 0000 deda f62e e340 b82f b87b 412f
00000150: a0a9 c02f 0000 0000 5ded 8e2f 217e fe2f
00000160: d621 eb2e d474 f92e 6f93 112f 8fef f32e
00000170: 16d1 122f 2f53 0a2f 8e2a 802f 873b b72f
00000180: 7012 2430 4f37 6b2f dba0 212f 842d c52e
00000190: 4304 5a2f 9268 bb2f 1d0e f12f dbe7 1d2f
000001a0: bdf8 6a2f 3fa2 ec2f a087 1730 8ca3 972f
000001b0: 0842 492f bcf4 eb2b 8735 2b2f 4f4f 122d
000001c0: d66f 8e2f a17b f02d 3396 782d 48b3 da2e
000001d0: c216 592f 823c 6e2e 579c aa2f 44b7 0530
000001e0: 999a 092f 0127 932e d727 272f 5bc1 a12f
000001f0: cb90 ae2f 9a97 512f 6c81 c22f 06c1 a72e
00000200: 3a9b 9a2f 1483 992e 0760 5030 b8a1 802f
00000210: ce52 7b2f 46c6 b22e 40c5 0f2f c932 0e30
00000220: 2983 b22f 382f 4f2f bd5c ef2e 522d 8e2f
00000230: 1216 832d 31e0 9c2e 33a9 c62e d9ec a82e
00000240: 2562 102f 7a5a a02f 40f8 5b2f fae9 eb2e
00000250: 9b14 602f aa9d a02f d19a 9e2e 4662 c72e
00000260: fe06 902e 8757 1a2e e70f d82e cf16 3a30
00000270: 0189 852e 1034 642e 7d8d 9d2e bb3b 952e
00000280: 4367 792e 0000 0000 31f9 172f 6c90 572f
00000290: 9fbf c22f b746 a52f 0000 0000 6ced ba2f
000002a0: ce66 0b30 a408 032f 1eec 1d2f 8d74 752e
000002b0: e81a 3a2f 5202 3d2f 3b5a 842f 5b24 6b2f
000002c0: 4ff4 b52f f176 5830 d698 8a2f ffc9 b82e
000002d0: 4991 bb2e 4481 1630 4d7f ac2f be89 2530
000002e0: 8e2a 2a2f a57b 4a2f 7f55 f22f cf55 0530
000002f0: 9ce5 972f fb34 9d2f 528c 2e2c 7ac7 162f
00000300: d645 a02c 635a 432f 2c58 232e c639 332d
00000310: 2fdf a62e 8bca 762f 130a ab2e a6cb 812f
00000320: 7693 e42f 02ec d82e 07f6 062f 3959 ea2e
00000330: 6bbe 2530 fb64 ab2f 2b1f c02f 2a53 5c2f
00000340: 44cc 5b2e c270 8b2f ed83 c32e 0c49 2730
00000350: b32a 532f 28ee 8e2f 2fe1 fa2e d085 372f
00000360: 744b d22f fc47 902f 5cf8 a72f 2797 882f
00000370: 1c76 3a2f e6b0 412e 2dd5 3c2f d1da 232e
00000380: 8fd1 452f 4391 f72e 6f50 c02f 3d9e 252f
00000390: 4c6d 522f adbc df2e 82a3 2c2f e8fb 1b2f
000003a0: e9e0 112f 2fda e62e 3917 9a2d 9e6d 9c2f
000003b0: 232e 9c2f fdef bc2e 6035 ef2d 7a99 062f
000003c0: fae3 4f2e dec7 4d2e 0000 0000 ce5a 052f
000003d0: 7072 b62f 7c0e 952f f5c6 e82f 0000 0000
000003e0: 16b6 632f a144 4730 8bed 132f b219 de2e
000003f0: 9ee0 f42e 3908 392f 6deb 3c2f a266 282f
3.3958855e-10 8.7265334e-10 7.501245e-10 1.2737528e-09 0.0 8.9908975e-10 1.454552e-09 5.335432e-10
2.615527e-10 1.8994745e-10 2.9161334e-10 4.0114093e-10 6.8967876e-10 6.939605e-10 1.8592236e-09 1.5532705e-09
1.1615124e-09 4.3943588e-10 1.717382e-10 1.1239087e-09 8.63355e-10 1.5446617e-09 2.5467164e-10 5.4504845e-10
9.559247e-10 9.1916835e-10 5.5959015e-10 7.4636425e-10 3.8297295e-12 2.2160722e-10 1.6668413e-11 4.6064227e-10
5.627184e-11 4.5154623e-11 3.7120296e-10 9.36011e-10 3.2966563e-10 6.4427313e-10 1.1412212e-09 4.1796042e-10
4.6657644e-10 4.3230905e-10 1.7925224e-09 1.1297817e-09 1.4893066e-09 5.7852456e-10 1.6781751e-10 1.1827735e-09
2.6058486e-10 2.6394125e-09 7.539039e-10 6.676961e-10 1.8712588e-10 4.682175e-10 1.7674154e-09 1.1775872e-09
7.6088574e-10 4.426269e-10 7.237293e-10 9.5472824e-11 2.520464e-10 1.9318121e-10 3.9414863e-10 3.8084955e-10
5.34106e-10 5.9854516e-10 5.993731e-10 8.2857676e-10 7.141601e-10 2.5639926e-10 3.9579107e-10 2.0886678e-10
5.6531148e-11 9.0703545e-10 1.2872856e-09 1.4870624e-10 1.8950949e-10 1.481034e-10 1.4984937e-10 1.4336705e-10
0.0 1.12256635e-10 3.351551e-10 1.7597201e-10 3.5045122e-10 0.0 2.5998306e-10 4.629195e-10
1.0692573e-10 1.1343962e-10 1.3240052e-10 1.1092915e-10 1.3352905e-10 1.258058e-10 2.33133e-10 3.3329803e-10
5.9689054e-10 2.1392775e-10 1.4700012e-10 8.966608e-11 1.9828499e-10 3.4089404e-10 4.3847673e-10 1.4361438e-10
2.1370546e-10 4.3043433e-10 5.5126215e-10 2.7582947e-10 1.8304303e-10 1.6765682e-12 1.5571376e-10 8.316749e-12
2.5909114e-10 2.7339743e-11 1.4130519e-11 9.945339e-11 1.974412e-10 5.4168676e-11 3.1033906e-10 4.8645554e-10
1.2515002e-10 6.6917145e-11 1.5202715e-10 2.9423117e-10 3.1753297e-10 1.9062299e-10 3.5380354e-10 7.6285686e-11
2.8122732e-10 6.9809186e-11 7.580642e-10 2.3397972e-10 2.2857735e-10 8.129723e-11 1.3075852e-10 5.173147e-10
3.2471206e-10 1.8843316e-10 1.0884935e-10 2.5861852e-10 1.4902777e-11 7.133883e-11 9.0340534e-11 7.681828e-11
1.3131592e-10 2.9168118e-10 2.000613e-10 1.0728125e-10 2.0380002e-10 2.9215858e-10 7.212509e-11 9.066929e-11
6.549604e-11 3.5093286e-11 9.8253676e-11 6.769882e-10 6.0724765e-11 5.188744e-11 7.164667e-11 6.786346e-11
5.670776e-11 0.0 1.38219e-10 1.9605445e-10 3.542455e-10 3.006357e-10 0.0 3.40019e-10
5.0714e-10 1.191745e-10 1.4362952e-10 5.581007e-11 1.692616e-10 1.7190274e-10 2.4074773e-10 2.1386042e-10
3.30973e-10 7.874937e-10 2.521065e-10 8.403233e-11 8.529583e-11 5.475338e-10 3.137707e-10 6.0222394e-10
1.5476528e-10 1.841572e-10 4.4080292e-10 4.850706e-10 2.7629887e-10 2.8595779e-10 2.480478e-12 1.3713289e-10
4.555227e-12 1.7767258e-10 3.714022e-11 1.01878e-11 7.5884514e-11 2.2445527e-10 7.777969e-11 2.3609664e-10
4.1577736e-10 9.864466e-11 1.2274635e-10 1.0656937e-10 6.029725e-10 3.117647e-10 3.4946743e-10 2.0038429e-10
4.997626e-11 2.5364072e-10 8.891008e-11 6.085805e-10 1.9205508e-10 2.599887e-10 1.14086844e-10 1.6691293e-10
3.825239e-10 2.6244595e-10 3.0553593e-10 2.4845656e-10 1.6958562e-10 4.4040237e-11 1.7174236e-10 3.7256257e-11
1.7991496e-10 1.1258063e-10 3.4981748e-10 1.506288e-10 1.9138219e-10 1.01743815e-10 1.5701399e-10 1.4186663e-10
1.3267577e-10 1.0497946e-10 1.7518086e-11 2.8454122e-10 2.8409017e-10 8.591881e-11 2.7194857e-11 1.2241755e-10
4.7268835e-11 4.678912e-11 0.0 1.212854e-10 3.318692e-10 2.7113234e-10 4.2341922e-10 0.0
2.071022e-10 7.2493306e-10 1.3453964e-10 1.00999556e-10 1.11357354e-10 1.6828573e-10 1.718214e-10 1.5315973e-10

exp_avg f4 [128]
00000000: bc57 98b8 3026 34b8 ef06 8ab8 a4f0 da37
00000010: d703 1638 cc02 9838 29f8 56b7 7003 b2b5
00000020: 2a40 d3b8 244d 30b9 de49 1438 8516 95b8
00000030: fce7 8c38 17eb 17b8 071a fbb8 b497 c9b8
00000040: 38bd f736 96b9 fab8 d164 8fb8 9ba0 3e38
00000050: 0b09 08b8 e399 2bb7 6d70 c738 6ced 50b6
00000060: 67d5 5bb8 71b0 9db8 7493 15b6 e6ce 3737
00000070: 9655 0e39 0c0d 1ab8 1847 3d38 a9aa 28b8
00000080: 351e 9537 b28a 72b7 b0a8 96b8 8069 0134
00000090: 91aa aa38 e4ae bdb8 fcab b2b5 1037 ffb7
000000a0: 88db 1138 85dc 0e39 9eca 3337 c5ab bb37
000000b0: 6fb3 6037 7e15 5838 bbe1 63b7 5218 aa37
000000c0: 1a4d fbb8 c453 82b8 f15c 9937 0664 4838
000000d0: 338d 7338 8793 d637 c30d 2c38 0c07 28b7
000000e0: 52ee 13b6 3304 d937 9167 89b7 d66b ccb8
000000f0: 3fe0 c438 aad8 24b8 78c7 b638 e4e9 2fb8
00000100: 9be0 2e38 4202 29b8 602f 9137 504f b937
00000110: 8905 4db7 7eb9 3738 8c2e a0b8 ae92 3e38
00000120: e0bf 7e38 4897 0738 f2f9 1f38 eaf0 2438
00000130: 8bd8 3038 83c8 a2b7 b0b1 e4b7 b490 bab8
00000140: ae5e 90b8 1f68 c3b8 bbcd 11b8 15dc 94b8
00000150: b24c eab8 ada7 c2b7 084e 74b7 b2d5 0bb7
00000160: a777 7b38 bbfc ea38 4a0c 0bb8 e298 8c37
00000170: ccce ceb8 0f00 32b8 7dbc eab8 8b44 7bb7
00000180: d884 1db7 7117 8238 bcea 6b37 f5cd 0739
00000190: d30c 5cb8 a192 2e38 d06d c337 5444 7b38
000001a0: fca0 2337 4c0b a1b8 10b0 90b6 339b dcb7
000001b0: ee55 9038 cf43 cdb8 b6cd 04b8 803d cbb7
000001c0: 22bd b8b8 baec 35b7 2cc0 8e37 96e9 17b6
000001d0: 2f92 1737 13aa 1638 8cec 0538 81c0 09b9
000001e0: ea0e 92b8 046c d9b7 a1ed 7538 9a25 1738
000001f0: d6df 18b7 2c1d 1138 445c 1338 9330 0439
-7.2642666e-05 -4.295091e-05 -6.581644e-05 2.6099682e-05 3.5766363e-05 7.248446e-05 -1.2813173e-05 -1.3263034e-06
-0.000100732155 -0.00016813405 3.5354744e-05 -7.109068e-05 6.718931e-05 -3.622015e-05 -0.00011973461 -9.612684e-05
7.3832016e-06 -0.00011955497 -6.83755e-05 4.5449106e-05 -3.243335e-05 -1.0228224e-05 9.5100004e-05 -3.1132613e-06
-5.2412415e-05 -7.519208e-05 -2.228856e-06 1.0955822e-05 0.00013574059 -3.6728612e-05 4.5127323e-05 -4.021326e-05
1.777625e-05 -1.4456617e-05 -7.183978e-05 1.2052442e-07 8.138002e-05 -9.044798e-05 -1.3312088e-06 -3.042401e-05
3.477515e-05 0.00013624325 1.0716407e-05 2.2372124e-05 1.3393218e-05 5.151843e-05 -1.3582811e-05 2.0276904e-05
-0.00011982974 -6.2144856e-05 1.82823e-05 4.777687e-05 5.8067217e-05 2.5579486e-05 4.1020812e-05 -1.0015221e-05
-2.2043428e-06 2.5870371e-05 -1.63799e-05 -9.747564e-05 9.3877774e-05 -3.930243e-05 8.71559e-05 -4.194108e-05
4.1694013e-05 -4.0294843e-05 1.7307408e-05 2.2090651e-05 -1.2220241e-05 4.3803353e-05 -7.6380646e-05 4.5436136e-05
6.0737017e-05 3.23274e-05 3.8141334e-05 3.9325016e-05 4.216334e-05 -1.9405275e-05 -2.726246e-05 -8.896124e-05
-6.8840905e-05 -9.317719e-05 -3.4762295e-05 -7.0981834e-05 -0.00011172275 -2.3204682e-05 -1.4561701e-05 -8.3348e-06
5.99545e-05 0.00011205064 -3.3151628e-05 1.6760492e-05 -9.8613644e-05 -4.243856e-05 -0.00011193098 -1.4976725e-05
-9.388859e-06 6.203249e-05 1.4061745e-05 0.00012951328 -5.246403e-05 4.162139e-05 2.3296947e-05 5.99067e-05
9.753039e-06 -7.6791825e-05 -4.312031e-06 -2.6298314e-05 6.882461e-05 -9.787792e-05 -3.1662836e-05 -2.4228124e-05
-8.8090324e-05 -1.0843558e-05 1.7017206e-05 -2.2636718e-06 9.034337e-06 3.592118e-05 3.1929972e-05 -0.00013137051
-6.9646005e-05 -2.5918715e-05 5.863386e-05 3.6036225e-05 -9.112022e-06 3.4597862e-05 3.513346e-05 0.00012606596

exp_avg_sq f4 [128]
00000000: bcf8 6533 7b81 8e32 66f9 9332 9aa6 ab32
00000010: 5815 3132 7db1 9e32 7048 8832 8ec2 5532
00000020: c7fc 0533 16b0 7833 1fcf 0733 b141 0233
00000030: 7777 b832 aa45 1333 f759 ef32 09f1 d232
00000040: fb28 b033 727c bd32 235a e132 37d9 ad32
00000050: 0233 dc32 7865 8332 4f13 6e32 59c1 f032
00000060: b78a 9f32 80b5 8d32 a512 8e32 246e 9a32
00000070: 105f 8132 4b31 8732 d546 0133 8d15 3e32
00000080: aaeb c232 0a3e e632 8460 9532 0173 d932
00000090: 5224 d532 f530 8932 5a7d 7832 e31a bf32
000000a0: b226 8332 ec0d d332 5c65 ff32 c1fe 6932
000000b0: 9752 d332 b39e a632 2f04 9b32 11b3 9032
000000c0: a772 bb32 b033 8732 3482 9432 330e 7132
000000d0: 4956 ea32 1424 7a32 b486 a032 8076 5332
000000e0: 8ef9 c432 fe79 e732 aaba ab32 962c 9c32
000000f0: 7dca d332 0f38 ca32 7312 c532 f6a2 6c32
00000100: 98ed 6932 0ac3 8832 c472 3d32 b793 c332
00000110: 44e3 6432 762d fd32 2e51 0f33 7e95 0e33
00000120: 9965 bf32 f296 3b32 d0e7 9f32 33ec 8a32
00000130: 442d ed32 be6b 0233 7aa6 1a33 d340 2a33
00000140: 33e6 ab32 d018 3133 1f81 7d32 102b e632
00000150: b885 db32 87bd 6432 2874 3733 b2f5 0233
00000160: b1b2 e332 a0f4 fa32 915a fa32 1999 b932
00000170: 8dc1 3d32 dd02 af32 af48 8a33 5a37 7232
00000180: e650 c032 7fba 8432 19ea b432 46ad f832
00000190: 5a5f e032 5506 ba32 82af 1633 bf8e c032
000001a0: 94c8 9932 20fc b332 5a32 8a32 6f55 8e32
000001b0: 58dd bf32 e3fa b032 789a ea32 fbcc b532
000001c0: ad2b 6d32 57dc 0e33 112d 6c32 4a50 be32
000001d0: 1671 2432 970c 8732 7635 8932 9f9c e132
000001e0: c78e 9a32 4f8f 8432 56c4 8a32 4255 8f32
000001f0: 064f 4932 8f77 d332 5500 7932 9180 f032
5.354444e-08 1.6589857e-08 1.7226466e-08 1.9982782e-08 1.0307609e-08 1.8474333e-08 1.5865425e-08 1.2442468e-08
3.1196375e-08 5.790215e-08 3.1620512e-08 3.032773e-08 2.1474746e-08 3.4289464e-08 2.7864173e-08 2.4556828e-08
8.203093e-08 2.2059087e-08 2.6234437e-08 2.0238629e-08 2.5634566e-08 1.529655e-08 1.3857814e-08 2.8027602e-08
1.8573116e-08 1.6497097e-08 1.6539454e-08 1.7978046e-08 1.5060806e-08 1.5738484e-08 3.0099574e-08 1.1064356e-08
2.269174e-08 2.6803736e-08 1.7389773e-08 2.5314423e-08 2.481298e-08 1.5971162e-08 1.44640016e-08 2.2247553e-08
1.5268004e-08 2.4569964e-08 2.9732e-08 1.3620309e-08 2.460119e-08 1.9397111e-08 1.8046277e-08 1.6845236e-08
2.1821803e-08 1.5739573e-08 1.7288677e-08 1.4031275e-08 2.7280423e-08 1.45601184e-08 1.8687707e-08 1.230876e-08
2.2930887e-08 2.6947415e-08 1.9991905e-08 1.8181066e-08 2.4655714e-08 2.3541388e-08 2.2942208e-08 1.3774061e-08
1.3616408e-08 1.5921177e-08 1.1027343e-08 2.276816e-08 1.3323021e-08 2.947375e-08 3.3368615e-08 3.3197914e-08
2.2281528e-08 1.0919154e-08 1.8615452e-08 1.6172725e-08 2.7611016e-08 3.0365975e-08 3.600733e-08 3.9640167e-08
2.0011703e-08 4.123359e-08 1.4755897e-08 2.6795107e-08 2.5555764e-08 1.331444e-08 4.271365e-08 3.0491442e-08
2.6507537e-08 2.9215073e-08 2.9145015e-08 2.1606455e-08 1.1045256e-08 2.0373983e-08 6.439347e-08 1.4098839e-08
2.238853e-08 1.5451631e-08 2.1061213e-08 2.8949795e-08 2.6120393e-08 2.165613e-08 3.508422e-08 2.2416655e-08
1.7902757e-08 2.0952996e-08 1.6088212e-08 1.6569826e-08 2.2335982e-08 2.0603187e-08 2.731143e-08 2.1164388e-08
1.3805146e-08 3.326235e-08 1.3747255e-08 2.2155422e-08 9.571769e-09 1.5721794e-08 1.597321e-08 2.626467e-08
1.7992887e-08 1.5431992e-08 1.6154598e-08 1.6686162e-08 1.1717708e-08 2.4618002e-08 1.4493783e-08 2.7998142e-08
