results/BigMapRun1/BigMapAgent/BigMapAgent-4779.pt (torch, 265961 bytes, 11 tensors)

network_body._body_endoder.seq_layers.0.weight f4 [128, 81]
-0.02360576 0.009839107 0.18095995 -0.0471419 0.1522776 0.1036608 -0.078524865 0.02428511
-0.07754205 -0.011517939 -0.0006202984 -0.04816949 -0.3816863 -0.1098871 0.09425532 -0.006968071
-0.09810754 -0.09148607 -0.07128396 -0.19810553 -0.048434082 -0.078451455 0.050395586 0.14026573
-0.13140874 0.042419944 -0.17747852 0.15503472 -0.08829081 -0.03428514 -0.048741393 -0.05408686
0.16944017 0.17100425 0.13840644 -0.03711151 -0.15049446 -0.01745005 -0.11456702 -0.080610834
0.14679922 -0.051667534 -0.100955 0.0446313 0.17923355 0.059080116 0.03164962 -0.109043814
0.07520276 -0.02445599 -0.19764699 0.026829334 -0.14645834 -0.0912844 -0.04709221 0.102893956
-0.06860218 0.15870674 -0.020615418 0.21786906 0.057293832 0.114092566 0.009010282 -0.08968186
0.03764871 0.10047418 -0.029680034 -0.020857217 0.021205802 -0.15323472 0.282848 0.03186031
-0.15786229 -0.104151554 -0.0010594162 -0.085551456 0.008925286 0.011286541 0.17164065 0.111457564
0.15129067 0.3070867 -0.07493973 0.04123823 0.07149636 -0.14395344 -0.07049103 0.04510564
-0.007433007 0.040614974 -0.06197987 -0.19336782 -0.06124007 0.011759731 0.021675447 -0.16080058
0.015580924 0.19209668 0.044829223 0.019370656 0.10740472 0.024354989 0.08677832 0.122914344
0.134362 -0.049584668 0.09514041 0.07146511 -0.20199211 0.07462632 0.11595093 -0.10528589
-0.06584868 0.007851769 -0.035539012 -0.025689462 0.08000955 0.08957738 0.06331003 -0.15556057
-0.028642232 -0.13380101 0.098106354 -0.044495072 -0.06159326 -0.113115974 -0.25006706 0.106563576
-0.13469853 -0.11918643 0.09295252 0.027108302 0.099974915 -0.05831881 -0.022760445 0.08315672
-0.10808461 -0.01017322 -0.015639026 -0.14334135 0.09489081 -0.03433326 0.01882661 -0.18884642
0.087004356 -0.14980777 0.15978493 0.15262435 0.031730503 0.026881069 -0.02531163 0.014914597
-0.115904875 -0.27265254 0.16101003 -0.042776253 -0.036406595 -0.09817212 0.027637202 -0.08492965
0.02847817 -0.11900026 0.040871598 -0.08493491 0.0016596122 -0.19374765 -0.063103445 -0.06699893
-0.0660681 0.11439853 0.0055783577 -0.22340496 -0.034867946 -0.005478862 -0.16381952 -0.0497338
0.27026704 -0.0017554291 0.1099234 0.034693506 0.028567338 0.12719007 -0.053209253 0.13143066
0.026282275 0.008124336 0.053804312 -0.16751122 -0.06500764 0.08780219 0.03571099 -0.027722139
-0.11096686 0.09290335 0.12879129 0.037792612 0.03808844 -0.017401407 -0.10736991 0.00094606634
-0.10180529 0.038764376 -0.027665574 -0.028083626 0.14516342 0.078500904 0.009182105 0.0045328713
-0.0032332374 -0.06469176 -0.014029915 0.117880344 -0.053383518 0.05358522 0.049752116 -0.06334153
0.24536072 0.027036022 0.14061284 -0.19080694 -0.12276101 -0.014670074 9.8472985e-05 0.14549167
-0.06958724 0.007826687 -0.15023968 0.1640447 0.14595027 -0.091566004 0.12234333 0.07407005
-0.16466019 0.018269898 -0.15908833 0.040305387 -0.1865411 -0.004941602 -0.041984748 0.22313425
-0.21723765 0.18644387 0.00026939713 -0.09961724 0.163191 0.0461001 0.047455415 0.09684577
0.20513351 0.10008037 -0.011002642 -0.12950669 -0.08977035 0.043568425 -0.031550195 -0.066212945
00000000: de60 c1bc 3534 213c 914d 393e dd17 41bd
00000010: a9ee 1b3e 1d4c d43d a5d1 a0bd 91f1 c63c
00000020: 5ece 9ebd bdb5 3cbc 859b 22ba 5f4d 45bd
00000030: 636c c3be 7d0c e1bd ef08 c13d 6b54 e4bb
00000040: 9bec c8bd 0c5d bbbd 53fd 91bd 2ddc 4abe
00000050: d162 46bd 28ab a0bd 9a6b 4e3d d2a1 0f3e
00000060: 0390 06be 89c0 2d3d eebc 35be 6cc1 1e3e
00000070: d0d1 b4bd 936e 0cbd 0ea5 47bd 2f8a 5dbd
00000080: b981 2d3e bd1b 2f3e 6bba 0d3e 3d02 18bd
00000090: 381b 1abe 68f3 8ebc 1da2 eabd 4b17 a5bd
000000a0: 8952 163e 56a1 53bd 7fc1 cebd 4fcf 363d
000000b0: 0089 373e fefd 713d 08a3 013d 5d52 dfbd
000000c0: e803 9a3d ee57 c8bc f963 4abe 31c9 db3c
000000d0: 2df9 15be 51f3 babd c3e3 40bd 11ba d23d
000000e0: 4d7f 8cbd 0584 223e aae1 a8bc 1119 5f3e
000000f0: f0ac 6a3d 5da9 e93d dd9f 133c 1fab b7bd
00000100: 8935 1a3d 68c5 cd3d 8b23 f3bc c1dc aabc
00000110: cab7 ad3c 90e9 1cbe 74d1 903e f57f 023d
00000120: a7a6 21be 694d d5bd 1cdc 8aba 9a35 afbd
00000130: 5d3b 123c 2feb 383c 91c2 2f3e dd43 e43d
00000140: f1eb 1a3e 783a 9d3e 007a 99bd 6be9 283d
00000150: af6c 923d 8868 13be 9a5d 90bd b1c0 383d
00000160: 9590 f3bb e35b 263d 9bde 7dbd 3702 46be
00000170: ded6 7abd e3ab 403c b590 b13c e8a8 24be
00000180: 2247 7f3c feb4 443e d99e 373d 36af 9e3c
00000190: 01f7 db3d 1d84 c73c d5b8 b13d 84ba fb3d
000001a0: 3196 093e 4b19 4bbd fad8 c23d 4d5c 923d
000001b0: 05d7 4ebe afd5 983d ae77 ed3d 21a0 d7bd
000001c0: acdb 86bd b5a4 003c 5b91 11bd b572 d2bc
000001d0: 0cdc a33d 5874 b73d b0a8 813d 454b 1fbe
000001e0: 1da3 eabc 2203 09be fceb c83d 7740 36bd
000001f0: 3749 7cbd 59a9 e7bd ca08 80be 013e da3d
00000200: 69ee 09be 0418 f4bd e45d be3d 3b12 de3c
00000210: a6bf cc3d b4df 6ebd 1d74 babc 124e aa3d
00000220: 775b ddbd 94ad 26bc 6a1d 80bc 13c8 12be
00000230: 1d56 c23d 08a1 0cbd 433a 9a3c f560 41be
00000240: 572f b23d 3567 19be a99e 233e 8f49 1c3e
00000250: d8f7 013d b035 dc3c 565a cfbc 5b5c 743c
00000260: 895f edbd 1d99 8bbe d0df 243e 2736 2fbd
00000270: 151f 15bd 770e c9bd 6a67 e23c 99ef adbd
00000280: 0d4b e93c 69b6 f3bd fa68 273d 5bf2 adbd
00000290: 5887 d93a c965 46be 613c 81bd bc36 89bd
000002a0: b64e 87bd c749 ea3d a8ca b63b 45c4 64be
000002b0: b1d1 0ebd 0788 b3bb 4ec0 27be abb5 4bbd
000002c0: 7160 8a3e 6d16 e6ba 851f e13d c71a 0e3d
000002d0: 0d06 ea3c 1d3e 023e f2f1 59bd c295 063e
000002e0: ed4d d73c ef1b 053c e961 5c3d 1088 2bbe
000002f0: ba22 85bd a2d1 b33d b045 123d 8a19 e3bc
00000300: 9842 e3bd 1d44 be3d dde1 033e 6dcc 1a3d
00000310: a002 1c3d 658d 8ebc c1e4 dbbd 7001 783a
00000320: 4b7f d0bd 65c7 1e3d eaa2 e2bc a20f e6bc
00000330: b8a5 143e 15c5 a03d 8a70 163c 7b88 943b
00000340: b9e4 53bb 1d7d 84bd bbdd 65bc 406b f13d
00000350: ada8 5abd 2d7c 5b3d e0c8 4b3d 34b9 81bd
00000360: d73f 7b3e a67a dd3c d0fc 0f3e e562 43be
00000370: 206a fbbd c05a 70bc 4883 ce38 c5fb 143e
00000380: c183 8ebd 813b 003c 6ed8 19be 55fb 273e
00000390: fd73 153e f586 bbbd 248f fa3d 0ab2 973d
000003a0: ae9c 28be c1aa 953c 0de8 22be 4317 253d
000003b0: a104 3fbe 29ed a1bb 33f8 2bbd 4e7d 643e
000003c0: 8c73 5ebe 24eb 3e3e df3d 8d39 2004 ccbd
000003d0: 8b1b 273e 75d3 3c3d 9c60 423d 1357 c63d
000003e0: 850e 523e f0f6 cc3d 6d44 34bc 679d 04be
000003f0: 84d9 b7bd ce74 323d c73a 01bd a79a 87bd

network_body._body_endoder.seq_layers.0.bias f4 [128]
0.0 0.0 0.0 0.0 0.0 0.0 0.0 0.0
0.0 0.0 0.0 0.0 0.0 0.0 0.0 0.0
0.0 0.0 0.0 0.0 0.0 0.0 0.0 0.0
0.0 0.0 0.0 0.0 0.0 0.0 0.0 0.0
0.0 0.0 0.0 0.0 0.0 0.0 0.0 0.0
0.0 0.0 0.0 0.0 0.0 0.0 0.0 0.0
0.0 0.0 0.0 0.0 0.0 0.0 0.0 0.0
0.0 0.0 0.0 0.0 0.0 0.0 0.0 0.0
0.0 0.0 0.0 0.0 0.0 0.0 0.0 0.0
0.0 0.0 0.0 0.0 0.0 0.0 0.0 0.0
0.0 0.0 0.0 0.0 0.0 0.0 0.0 0.0
0.0 0.0 0.0 0.0 0.0 0.0 0.0 0.0
0.0 0.0 0.0 0.0 0.0 0.0 0.0 0.0
0.0 0.0 0.0 0.0 0.0 0.0 0.0 0.0
0.0 0.0 0.0 0.0 0.0 0.0 0.0 0.0
0.0 0.0 0.0 0.0 0.0 0.0 0.0 0.0
00000000: 0000 0000 0000 0000 0000 0000 0000 0000
00000010: 0000 0000 0000 0000 0000 0000 0000 0000
00000020: 0000 0000 0000 0000 0000 0000 0000 0000
00000030: 0000 0000 0000 0000 0000 0000 0000 0000
00000040: 0000 0000 0000 0000 0000 0000 0000 0000
00000050: 0000 0000 0000 0000 0000 0000 0000 0000
00000060: 0000 0000 0000 0000 0000 0000 0000 0000
00000070: 0000 0000 0000 0000 0000 0000 0000 0000
00000080: 0000 0000 0000 0000 0000 0000 0000 0000
00000090: 0000 0000 0000 0000 0000 0000 0000 0000
000000a0: 0000 0000 0000 0000 0000 0000 0000 0000
000000b0: 0000 0000 0000 0000 0000 0000 0000 0000
000000c0: 0000 0000 0000 0000 0000 0000 0000 0000
000000d0: 0000 0000 0000 0000 0000 0000 0000 0000
000000e0: 0000 0000 0000 0000 0000 0000 0000 0000
000000f0: 0000 0000 0000 0000 0000 0000 0000 0000
00000100: 0000 0000 0000 0000 0000 0000 0000 0000
00000110: 0000 0000 0000 0000 0000 0000 0000 0000
00000120: 0000 0000 0000 0000 0000 0000 0000 0000
00000130: 0000 0000 0000 0000 0000 0000 0000 0000
00000140: 0000 0000 0000 0000 0000 0000 0000 0000
00000150: 0000 0000 0000 0000 0000 0000 0000 0000
00000160: 0000 0000 0000 0000 0000 0000 0000 0000
00000170: 0000 0000 0000 0000 0000 0000 0000 0000
00000180: 0000 0000 0000 0000 0000 0000 0000 0000
00000190: 0000 0000 0000 0000 0000 0000 0000 0000
000001a0: 0000 0000 0000 0000 0000 0000 0000 0000
000001b0: 0000 0000 0000 0000 0000 0000 0000 0000
000001c0: 0000 0000 0000 0000 0000 0000 0000 0000
000001d0: 0000 0000 0000 0000 0000 0000 0000 0000
000001e0: 0000 0000 0000 0000 0000 0000 0000 0000
000001f0: 0000 0000 0000 0000 0000 0000 0000 0000

network_body._body_endoder.seq_layers.2.weight f4 [128, 128]
0.03627462 0.11621558 -0.1752502 0.06025158 -0.0547048 0.06445812 0.080253124 0.048485912
-0.04963624 -0.15613244 0.051077645 -0.15020354 0.049825385 -0.17288323 0.1320471 -0.06108496
-0.01912691 -0.07691869 0.0043713693 0.1284082 -0.02882625 -0.11977307 -0.14856885 -0.07796021
0.09217993 0.062300697 0.096555434 0.086100094 0.11351381 0.056900032 0.044255253 0.15906243
0.07920845 0.03957514 0.013565717 -0.09285143 -0.01902878 0.2270516 0.079701155 -0.094438076
-0.03508042 -0.021442581 -0.020525534 0.06800604 0.11967077 -0.05278186 0.046822976 0.106526844
-0.047913186 -0.034980763 -0.16259836 -0.191407 -0.14455622 -0.0011208472 -0.02606774 -0.10829509
-0.09650318 0.030775394 -0.0857977 -0.025753945 0.12249024 0.097820304 -0.058130845 0.11671481
-0.083065055 -0.032637537 0.043687206 -0.017333938 0.085903786 -0.077773996 0.051366717 0.04006005
0.043532226 -0.023876484 -0.011581598 0.046439752 -0.017695295 -0.050504453 0.013814658 0.09399457
-0.0076900823 -0.006595257 -0.03490284 0.0029217522 -0.06588095 -0.14120825 0.054785457 0.009891594
-0.012541415 0.00585832 0.03087553 -0.08931817 -0.07149921 0.07937006 0.10829363 0.11090936
0.000981495 0.0547755 -0.09391635 0.09003421 0.06932685 0.12589566 -0.15448004 0.058596846
0.0019183328 0.01168905 0.17150967 0.022488052 -0.020037498 -0.085402146 0.016407639 0.03494944
0.0015298374 0.14585677 -0.031552475 -0.09492845 0.05150534 0.0117749665 0.006530134 -0.064460665
0.041706946 0.0758961 -0.12810169 0.009668915 0.04418494 0.19005866 0.07035688 0.13031057
-0.15571296 -0.11262896 -0.15882026 0.04662568 0.08068747 0.026490621 -0.025817687 -0.17158432
-0.07190723 -0.059187576 -0.027296523 -0.23272355 -0.21290594 0.11012924 0.21791625 0.057244185
0.05973062 -0.081666164 0.054963548 -0.09451762 -0.0011543736 -0.20130876 -0.07762456 -0.014062031
0.060604706 -0.033847444 0.022437941 0.0013549192 0.037059866 0.0056221774 0.006813285 -0.02390877
0.048242446 -0.07401095 -0.097273484 -0.004998954 0.030683974 0.11288644 -0.10203581 -0.07153028
-0.035264656 -0.046219483 -0.08360223 -0.047490694 0.17240176 0.12929796 0.05474875 -0.02177306
-0.07743341 0.04883947 0.096431084 -0.07128127 -0.04935408 0.057971023 0.0032844928 0.019435527
0.09547654 0.033184487 0.03811662 -0.07687947 -0.026170332 -0.03158917 -0.06808192 -0.09375734
0.024095958 0.0662486 -0.0016010009 -0.0142394565 -0.068112105 0.11748345 0.072454095 0.056418195
0.018439338 -0.0045747766 0.061025184 -0.005935503 0.111947425 0.008613459 0.10471092 0.008482489
0.0537239 0.20974076 -0.011562557 -0.09934264 0.021482607 -0.15056513 0.010656837 0.15416498
-0.049377162 0.10005326 -0.008270192 0.0051868856 0.0054800697 0.03877938 0.08307105 -0.039099254
0.14701623 0.115876675 -0.031999346 -0.14990626 -0.047902446 -0.08006929 0.13001242 -0.059535377
-0.12815934 0.03306973 -0.08494643 0.03435842 -0.04052293 -0.12938282 -0.0044654165 -0.026150994
-0.12110938 -0.021754332 0.14007787 -0.007372744 -0.117843285 -0.108496204 0.06378117 -0.0160492
0.15071712 0.13013822 0.009160237 -0.12575392 0.020666668 -0.0024283396 -0.09663643 0.050706685
00000000: b294 143d 6f02 ee3d ca74 33be 5cca 763d
00000010: 2412 60bd 9e02 843d c05b a43d 2a99 463d
00000020: 5f4f 4bbd 2fe1 1fbe cb36 513d f5ce 19be
00000030: b415 4c3d 4d08 31be 5b37 073e 3934 7abd
00000040: 0ab0 9cbc 8c87 9dbd b43d 8f3b 707d 033e
00000050: 0725 ecbc 954b f5bd 6f22 18be 9aa9 9fbd
00000060: d5c8 bc3d 042f 7f3d dbbe c53d 3f55 b03d
00000070: ee79 e83d 0210 693d ff44 353d 43e1 223e
00000080: 0a38 a23d 8b19 223d be42 5e3c e428 bebd
00000090: 3ee2 9bbc 3780 683e 5c3a a33d c068 c1bd
000000a0: 7db0 0fbd 5aa8 afbc 2a25 a8bc c046 8b3d
000000b0: f315 f53d cb31 58bd 73c9 3f3d bf2a da3d
000000c0: 9e40 44bd fd47 0fbd 2f80 26be 3200 44be
000000d0: 8c06 14be 64e9 92ba 038c d5bc d1c9 ddbd
000000e0: 76a3 c5bd ae1c fc3c b4b6 afbd f0f9 d2bc
000000f0: 2adc fa3d 0356 c83d 9c1a 6ebd 2d08 ef3d
00000100: 031e aabd f0ae 05bd 5bf1 323d e7ff 8dbc
00000110: 53ee af3d f947 9fbd e865 523d 0216 243d
00000120: d94e 323d 9e98 c3bc bec0 3dbc 9c37 3e3d
00000130: b9f5 90bc c2dd 4ebd e056 623c 3a80 c03d
00000140: 16fd fbbb 071d d8bb 48f6 0ebd de7a 3f3b
00000150: 97ec 86bd e598 10be b766 603d 5a10 223c
00000160: 827a 4dbc 26f7 bf3b aeee fc3c 72ec b6bd
00000170: 2e6e 92bd c58c a23d 0dc9 dd3d 7224 e33d
00000180: 82a5 803a 465c 603d 3757 c0bd db63 b83d
00000190: 3cfb 8d3d cbea 003e 0430 1ebe 3f03 703d
000001a0: 9170 fb3a 6e83 3f3c 3ba0 2f3e dd38 b83c
000001b0: ae25 a4bc 52e7 aebd 5069 863c 2527 0f3d
000001c0: d384 c83a 7a5b 153e 2b3d 01bd d969 c2bd
000001d0: 43f7 523d caeb 403c bcfa d53b f403 84bd
000001e0: e7d4 2a3d 6a6f 9b3d 172d 03be 5e6a 1e3c
000001f0: 45fb 343d bd9e 423e 4517 903d 2270 053e
00000200: 3873 1fbe 03aa e6bd c7a1 22be 92fa 3e3d
00000210: 793f a53d dc02 d93c 9d7f d3bc cdb3 2fbe
00000220: 1944 93bd ac6e 72bd f59c dfbc 154f 6ebe
00000230: 0404 5abe 708b e13d 7025 5f3e e178 6a3d
00000240: 18a8 743d 9740 a7bd 7521 613d 7492 c1bd
00000250: 5a4e 97ba e223 4ebe a0f9 9ebd 6f64 66bc
00000260: a43c 783d 9ea3 0abd c6cf b73c 8b97 b13a
00000270: 16cc 173d 3e3a b83b fa41 df3b 53dc c3bc
00000280: df99 453d 0e93 97bd 5237 c7bd 44ce a3bb
00000290: f55c fb3c 0131 e73d 27f8 d0bd 787e 92bd
000002a0: ac71 10bd a450 3dbd a537 abbd 9a85 42bd
000002b0: 168a 303e af66 043e 3a40 603d 6b5d b2bc
000002c0: 6895 9ebd e50b 483d a97d c53d eafb 91bd
000002d0: 8127 4abd 0673 6d3d a540 573b 4137 9f3c
000002e0: 3489 c33d 75ec 073d 2c20 1c3d fc72 9dbd
000002f0: 2a63 d6bc a563 01bd 896e 8bbd d903 c0bd
00000300: e364 c53c 59ad 873d add8 d1ba 9c4c 69bc
00000310: 5c7e 8bbd 2a9b f03d d062 943d c416 673d
00000320: 180e 973c 02e8 95bb 8bf5 793d 9c7e c2bb
00000330: b144 e53d 771f 0d3c ae72 d63d 23fa 0a3c
00000340: 980d 5c3d 48c6 563e e170 3dbc 2774 cbbd
00000350: 4bfc af3c bf2d 1abe 049a 2e3c 6ddd 1d3e
00000360: b53f 4abd b9e8 cc3d b37f 07bc c0f6 a93b
00000370: 2892 b33b 21d7 1e3d 2821 aa3d 8a26 20bd
00000380: 6c8b 163e c050 ed3d bf11 03bd 0781 19be
00000390: 5b35 44bd 5efb a3bd fa21 053e 5edb 73bd
000003a0: 343c 03be 2074 073d 65f8 adbd 6abb 0c3d
000003b0: 5ffb 25bd ee7c 04be a152 92bb 9c3a d6bc
000003c0: 3208 f8bd 2436 b2bc 9370 0f3e 0f97 f1bb
000003d0: d257 f1bd 4233 debd b49f 823d 9d79 83bc
000003e0: 9755 1a3e f442 053e d214 163c a3c5 00be
000003f0: 254d a93c c724 1fbb 52e9 c5bd d0b1 4f3d

network_body._body_endoder.seq_layers.2.bias f4 [128]
0.0 0.0 0.0 0.0 0.0 0.0 0.0 0.0
0.0 0.0 0.0 0.0 0.0 0.0 0.0 0.0
0.0 0.0 0.0 0.0 0.0 0.0 0.0 0.0
0.0 0.0 0.0 0.0 0.0 0.0 0.0 0.0
0.0 0.0 0.0 0.0 0.0 0.0 0.0 0.0
0.0 0.0 0.0 0.0 0.0 0.0 0.0 0.0
0.0 0.0 0.0 0.0 0.0 0.0 0.0 0.0
0.0 0.0 0.0 0.0 0.0 0.0 0.0 0.0
0.0 0.0 0.0 0.0 0.0 0.0 0.0 0.0
0.0 0.0 0.0 0.0 0.0 0.0 0.0 0.0
0.0 0.0 0.0 0.0 0.0 0.0 0.0 0.0
0.0 0.0 0.0 0.0 0.0 0.0 0.0 0.0
0.0 0.0 0.0 0.0 0.0 0.0 0.0 0.0
0.0 0.0 0.0 0.0 0.0 0.0 0.0 0.0
0.0 0.0 0.0 0.0 0.0 0.0 0.0 0.0
0.0 0.0 0.0 0.0 0.0 0.0 0.0 0.0
00000000: 0000 0000 0000 0000 0000 0000 0000 0000
00000010: 0000 0000 0000 0000 0000 0000 0000 0000
00000020: 0000 0000 0000 0000 0000 0000 0000 0000
00000030: 0000 0000 0000 0000 0000 0000 0000 0000
00000040: 0000 0000 0000 0000 0000 0000 0000 0000
00000050: 0000 0000 0000 0000 0000 0000 0000 0000
00000060: 0000 0000 0000 0000 0000 0000 0000 0000
00000070: 0000 0000 0000 0000 0000 0000 0000 0000
00000080: 0000 0000 0000 0000 0000 0000 0000 0000
00000090: 0000 0000 0000 0000 0000 0000 0000 0000
000000a0: 0000 0000 0000 0000 0000 0000 0000 0000
000000b0: 0000 0000 0000 0000 0000 0000 0000 0000
000000c0: 0000 0000 0000 0000 0000 0000 0000 0000
000000d0: 0000 0000 0000 0000 0000 0000 0000 0000
000000e0: 0000 0000 0000 0000 0000 0000 0000 0000
000000f0: 0000 0000 0000 0000 0000 0000 0000 0000
00000100: 0000 0000 0000 0000 0000 0000 0000 0000
00000110: 0000 0000 0000 0000 0000 0000 0000 0000
00000120: 0000 0000 0000 0000 0000 0000 0000 0000
00000130: 0000 0000 0000 0000 0000 0000 0000 0000
00000140: 0000 0000 0000 0000 0000 0000 0000 0000
00000150: 0000 0000 0000 0000 0000 0000 0000 0000
00000160: 0000 0000 0000 0000 0000 0000 0000 0000
00000170: 0000 0000 0000 0000 0000 0000 0000 0000
00000180: 0000 0000 0000 0000 0000 0000 0000 0000
00000190: 0000 0000 0000 0000 0000 0000 0000 0000
000001a0: 0000 0000 0000 0000 0000 0000 0000 0000
000001b0: 0000 0000 0000 0000 0000 0000 0000 0000
000001c0: 0000 0000 0000 0000 0000 0000 0000 0000
000001d0: 0000 0000 0000 0000 0000 0000 0000 0000
000001e0: 0000 0000 0000 0000 0000 0000 0000 0000
000001f0: 0000 0000 0000 0000 0000 0000 0000 0000

action_model._discrete_distribution.branches.0.weight f4 [80, 128]
0.0009975844 0.012877235 0.005657474 -0.0026224514 -0.004187211 0.013595538 0.0061100195 -0.0020281423
-0.0027162803 0.0025508548 -0.0106485365 -0.0025103258 0.012830834 0.0005607323 -0.0020585537 0.0023677435
0.018760255 -0.012668416 0.011518623 0.012116232 0.015528194 -0.0017208016 0.0061823367 -0.0036414494
-0.010323874 -0.009796456 0.01067132 -0.0042135357 0.010125953 -0.0069621154 0.009834698 0.00090346887
0.002744152 -0.0036274444 0.008560843 -0.007865923 -0.0021590458 0.010064628 0.0021950933 -0.017891744
0.0057689133 -0.0068422477 -0.004196252 -0.011673199 0.012610964 -0.0025431493 0.012836434 0.0006021663
0.004389143 -0.007818626 -0.0034309202 0.009717329 -0.009634186 0.0027701184 0.0077627087 0.0040937546
0.01171299 0.011088972 -0.0038784423 -0.013457133 -0.007023272 0.004474047 -0.0062077898 -0.0055975877
0.00441047 -0.00091185374 0.0067100883 0.01607843 0.004964078 -0.0058162813 0.003014839 0.002790735
0.0044945586 -0.0050824773 0.0014579259 -0.0026993528 -0.0050280793 -0.0025457374 0.002549268 -0.003966444
-0.0035102067 -0.011415142 0.007595766 0.004724342 -0.008785692 -0.007999613 0.011639414 0.004005338
-0.009009853 0.0037739556 0.010257393 -3.5901812e-05 0.0060510384 -0.006465328 0.0047330027 -0.0036836842
-0.004284392 0.016309608 -0.0076837256 -0.013955712 -0.00165057 0.0037065854 0.006186055 -0.01219147
0.013740485 0.0057700505 0.009187325 -0.00038999584 -0.0017139079 -0.0061811684 -0.0023859122 -0.0061349506
-0.004799974 0.002187494 0.0027940413 -0.010761462 -0.003547574 0.013040927 0.0065008784 -0.0070721693
-0.016635543 -0.0110325115 0.01331636 0.0013721248 -0.0057280534 -0.0001427281 0.013547755 0.005825173
0.0031948294 0.0049194866 0.0130971 -0.0026441992 -0.008669788 -0.0018081171 -0.00057566946 0.0016754642
0.005008496 0.012459738 -0.008947684 -0.005154519 -0.0015779866 -0.0016524328 0.007022928 -0.01392894
0.008836268 0.0015599997 -0.0021392896 -0.0005291975 0.013576129 -0.00199693 0.003140042 0.013064094
-0.01220656 0.0018274434 -0.0031611081 -0.0068799257 -0.0060095224 0.011047266 0.009223447 0.019007897
-0.0185322 0.0045526763 0.014713751 -0.01021265 0.0020081417 0.0030701652 -0.010156012 -0.0014637078
0.01295982 0.012906647 0.0009969649 -0.0024824848 0.00033927392 0.017234473 -0.015478521 -0.016695328
-0.00023093785 0.0005866214 -0.0056133615 0.0064815204 -0.0029225668 0.0010285423 -0.012110364 -0.0073159845
-0.0020066858 0.0019845832 0.006234935 -0.0030045714 -0.0027561313 0.016181313 0.0015474892 0.002384534
-0.0055376436 -0.0051330044 -0.0005555818 -0.01721236 0.0047266916 -0.0038446386 -0.00068683055 0.004281191
-0.017129637 -0.0021312789 -0.008579166 -0.009713559 0.0019982948 -0.003604764 -0.001145096 -0.0020432773
0.0022977784 0.019759841 -0.015828138 0.0021872877 0.0015631994 -0.02205262 0.019471226 0.012686357
-0.021656867 -0.0028732512 0.012931411 0.0024855768 -0.0004964855 -7.6229146e-05 -0.010054404 0.0048794164
0.0019554486 -0.0059703006 0.009067254 -0.0009496271 0.011759524 -0.0029934489 0.010293302 0.0005617246
0.007145641 -0.0075677927 -0.014053213 -0.0038642518 0.006075104 0.00809108 0.0022157633 -0.012699067
0.0019127959 0.015719382 -0.013865254 0.0009957858 -0.0056379274 -0.0026133289 -2.9441193e-07 -0.00412991
-0.0023866415 -0.020587482 0.0048362697 0.0016230809 -0.0046938783 0.022927709 -0.014709391 -0.010414964
00000000: 61c1 823a 0afb 523c 5562 b93b 6fdd 2bbb
00000010: df34 89bb d2bf 5e3c 8f36 c83b 95ea 04bb
00000020: 9f03 32bb 3e2c 273b 3377 2ebc 4784 24bb
00000030: 6b38 523c 1cfe 123a cde8 06bb 252c 1b3b
00000040: 1baf 993c 308f 4fbc 9bb8 3c3c 2983 463c
00000050: f769 7e3c 858c e1ba 3395 ca3b 62a5 6ebb
00000060: 7725 29bc 5181 20bc c3d6 2e3c b311 8abb
00000070: 53e7 253c 7522 e4bb b721 213c c5d6 6c3a
00000080: 3bd7 333b 6bba 6dbb c742 0c3c 13e0 00bc
00000090: c77e 0dbb 1ce6 243c 8edb 0f3b b591 92bc
000000a0: 2709 bd3b ef34 e0bb b780 89bb f240 3fbc
000000b0: 379e 4e3c f7aa 26bb e84f 523c b2da 1d3a
000000c0: cdd2 8f3b b219 00bc 4ad9 60bb 6f35 1f3c
000000d0: b4d8 1dbc e08a 353b 525e fe3b e724 863b
000000e0: d7e7 3f3c 85ae 353c 772d 7ebb 4f7b 5cbc
000000f0: 7a23 e6bb 079b 923b b76a cbbb f86b b7bb
00000100: b485 903b 7809 6fba 4de0 db3b e9b6 833c
00000110: b4a9 a23b 8196 bebb 9b94 453b c4e4 363b
00000120: 1747 933b e98a a6bb e017 bf3a a0e7 30bb
00000130: 96c2 a4bb 63d6 26bb 9f11 273b f2f8 81bb
00000140: 7f0b 66bb 9306 3bbc e7e5 f83b a7ce 9a3b
00000150: ddf1 0fbc cf10 03bc 3eb3 3e3c 363f 833b
00000160: 109e 13bc 7854 773b a00e 283c 4795 16b8
00000170: ca47 c63b 1adb d3bb 4e17 9b3b f769 71bb
00000180: 1664 8cbb ba9b 853c c3c7 fbbb 80a6 64bc
00000190: f057 d8ba 2fea 723b 64b4 ca3b bbbe 47bc
000001a0: c51f 613c b112 bd3b 6f86 163c 5b78 ccb9
000001b0: 35a5 e0ba 668b cabb f75c 1cbb b207 c9bb
000001c0: 1a49 9dbb 0f5c 0f3b 3c1c 373b d850 30bc
000001d0: 6a7e 68bb 9da9 553c 5205 d53b a8bd e7bb
000001e0: 4347 88bc b5c1 34bc dd2c 5a3c ded8 b33a
000001f0: 65b2 bbbb 48a9 15b9 67f7 5d3c 18e1 be3b
00000200: 5860 513b a533 a13b 3895 563c 4d4a 2dbb
00000210: ba0b 0ebc 58fe ecba 86e8 16ba 409b db3a
00000220: 4f1e a43b ee23 4c3c 4f99 12bc 3de7 a8bb
00000230: 72d4 ceba 7296 d8ba 9720 e63b 3536 64bc
00000240: ffc5 103c e778 cc3a 5333 0cbb d8b9 0aba
00000250: 6a6e 5e3c edde 02bb 2ac9 4d3b c80a 563c
00000260: 06fe 47bc d386 ef3a 982a 4fbb 0071 e1bb
00000270: 87eb c4bb 98ff 343c f11d 173c 73b6 9b3c
00000280: d7d0 97bc 9e2e 953b f211 713c f552 27bc
00000290: 079b 033b d334 493b 6765 26bc e2d9 bfba
000002a0: 6d55 543c 6776 533c 97ac 823a 2fb1 22bb
000002b0: 93e0 b139 4f2f 8d3c 9f99 7dbc a4c4 88bc
000002c0: e827 72b9 7fc7 193a 4af0 b7bb ef62 d43b
000002d0: 8988 3fbb 27d0 863a 8c6a 46bc edba efbb
000002e0: 9a82 03bb c80f 023b 6d4e cc3b 58e8 44bb
000002f0: 36a0 34bb ac8e 843c 1fd5 ca3a d845 1c3b
00000300: 1f75 b5bb c332 a8bb 77a4 11ba ef00 8dbc
00000310: 5de2 9a3b 55f6 7bbb 6b0c 34ba 3c49 8c3b
00000320: 7453 8cbc edac 0bbb a18f 0cbc 9f25 1fbc
00000330: d3f5 023b e73d 6cbb 0c17 96ba 81e8 05bb
00000340: 5396 163b 64df a13c 03aa 81bc 9958 0f3b
00000350: 45e4 cc3a b2a7 b4bc 1f82 9f3c 70da 4f3c
00000360: be69 b1bc 284d 3cbb 45de 533c 0fe5 223b
00000370: 9426 02ba 36dd 9fb8 3abb 24bc 83e3 9f3b
00000380: fc26 003b 83a2 c3bb d28e 143c 65f0 78ba
00000390: 05ab 403c bd2d 44bb 3da5 283c b340 133a
000003a0: fb25 ea3b 3ffb f7bb 733f 66bc 633f 7dbb
000003b0: aa11 c73b 7390 043c 5736 113b bf0f 50bc
000003c0: c8b6 fa3a efc5 803c 172b 63bc 0785 823a
000003d0: 5dbe b8bb 6244 2bbb ab0f 9eb4 3254 87bb
000003e0: 3369 1cbb 14a7 a8bc 9279 9e3b 8fbd d43a
000003f0: 1bcf 99bb e4d2 bb3c a8ff 70bc 86a3 2abc

action_model._discrete_distribution.branches.0.bias f4 [80]
0.0 0.0 0.0 0.0 0.0 0.0 0.0 0.0
0.0 0.0 0.0 0.0 0.0 0.0 0.0 0.0
0.0 0.0 0.0 0.0 0.0 0.0 0.0 0.0
0.0 0.0 0.0 0.0 0.0 0.0 0.0 0.0
0.0 0.0 0.0 0.0 0.0 0.0 0.0 0.0
0.0 0.0 0.0 0.0 0.0 0.0 0.0 0.0
0.0 0.0 0.0 0.0 0.0 0.0 0.0 0.0
0.0 0.0 0.0 0.0 0.0 0.0 0.0 0.0
0.0 0.0 0.0 0.0 0.0 0.0 0.0 0.0
0.0 0.0 0.0 0.0 0.0 0.0 0.0 0.0
00000000: 0000 0000 0000 0000 0000 0000 0000 0000
00000010: 0000 0000 0000 0000 0000 0000 0000 0000
00000020: 0000 0000 0000 0000 0000 0000 0000 0000
00000030: 0000 0000 0000 0000 0000 0000 0000 0000
00000040: 0000 0000 0000 0000 0000 0000 0000 0000
00000050: 0000 0000 0000 0000 0000 0000 0000 0000
00000060: 0000 0000 0000 0000 0000 0000 0000 0000
00000070: 0000 0000 0000 0000 0000 0000 0000 0000
00000080: 0000 0000 0000 0000 0000 0000 0000 0000
00000090: 0000 0000 0000 0000 0000 0000 0000 0000
000000a0: 0000 0000 0000 0000 0000 0000 0000 0000
000000b0: 0000 0000 0000 0000 0000 0000 0000 0000
000000c0: 0000 0000 0000 0000 0000 0000 0000 0000
000000d0: 0000 0000 0000 0000 0000 0000 0000 0000
000000e0: 0000 0000 0000 0000 0000 0000 0000 0000
000000f0: 0000 0000 0000 0000 0000 0000 0000 0000
00000100: 0000 0000 0000 0000 0000 0000 0000 0000
00000110: 0000 0000 0000 0000 0000 0000 0000 0000
00000120: 0000 0000 0000 0000 0000 0000 0000 0000
00000130: 0000 0000 0000 0000 0000 0000 0000 0000

network_body._body_endoder.seq_layers.0.weight f4 [128, 81]
-0.35299042 0.12725879 0.09864741 0.058891065 -0.22573932 -0.0038917512 -0.2959464 -0.011331365
-0.14149939 0.18781455 -0.021584384 0.083547555 0.130304 0.034192506 0.24429284 0.09887133
0.03315249 -0.098392814 0.007070985 0.009614817 0.053694032 0.044630393 -0.2232296 0.0680764
-0.07999249 0.009706877 0.19606906 0.09286855 -0.05513344 0.02085855 -0.008769405 0.08154504
0.0041139 0.026202084 -0.11437566 0.033277106 -0.042155433 0.006306898 -0.085514784 -0.10842892
-0.06347517 -0.09001876 0.10578645 0.0141127985 -0.23126598 0.1296782 0.11762145 -0.034910634
0.0975801 -0.043291707 0.04984254 0.17738852 -0.08793471 0.047403265 -0.2730507 0.08695672
0.22055463 0.08463535 -0.00546213 -0.046201862 0.06969884 0.017475152 -0.06266909 0.2672104
0.08453342 -0.20687944 0.13958924 -0.0918058 0.005934204 -0.15716673 0.01416012 -0.023717962
0.059106324 0.030616462 0.096357204 -0.20578234 0.09111235 -0.16289319 -0.124934964 0.06541345
0.06422006 0.13632801 -0.057845812 -0.10252523 -0.1287367 0.045723308 0.015510569 0.017959783
-0.088900276 -0.03343955 -0.09707661 0.10178143 -0.03392001 -0.07232195 -0.026153954 0.015904982
0.09321803 0.0052880873 -0.064659335 0.15094203 -0.06694502 0.067948446 -0.0955369 -0.16755748
-0.097793035 0.0038438316 -0.13721302 0.08571973 0.011926108 0.031428102 0.063890055 0.033546377
-0.05875665 0.17201436 0.030775938 -0.14456372 -0.07508017 -0.018612072 -0.076310314 0.047039095
0.05385741 0.1918015 -0.07353818 -0.14468446 -0.11837346 0.12085489 0.035335213 -0.10698437
-0.1344843 0.0019882773 0.058034778 -0.18446389 0.013455961 0.078678206 -0.02696936 0.06578223
-0.08340115 0.0015754206 0.28461 0.014394863 0.06508803 0.048287842 -0.025029581 0.12846594
0.081252754 0.16983025 -0.088907845 0.19068979 0.061353862 0.069306545 0.052698795 0.2050044
0.117173105 0.04268758 0.06868279 -0.034101035 0.046976715 -0.0856085 0.12971064 0.059277344
-0.04522596 -0.11101481 0.16376302 0.015765425 0.039658356 -0.0024398328 -0.04359685 -0.13293798
0.06973556 -0.09620898 -0.069264024 0.13009073 -0.17869395 -0.18719505 -0.060056508 0.07322848
0.069458045 0.046355493 0.06544284 -0.07809174 0.06018499 0.002065307 0.14065595 0.12342848
-0.0035799327 0.03797959 -0.118969984 -0.1237763 0.06015592 0.18409443 -0.021647532 -0.1319185
0.052367963 -0.16961697 -0.16993618 -0.31014025 0.13943943 0.15707596 0.10685319 -0.11750773
0.023880387 -0.046665978 -0.06473921 0.024801796 -0.049595773 0.020629393 0.15741688 0.10261763
0.056203347 -0.30220956 0.038552392 -0.020200029 -0.034670576 -0.09770011 0.0043031997 -0.02221477
0.038546886 0.21248803 -0.15615322 0.016640082 -0.059060626 0.031570647 -0.003808532 0.12839109
-0.25456968 0.117342696 -0.010542314 0.07026034 0.008418915 0.027402008 -0.08669231 -0.04487102
-0.051794726 -0.11054353 -0.15364222 -0.10797138 -0.012100332 0.13046509 0.004657878 -0.072008565
0.055606715 -0.14691617 -0.008200388 0.13831176 0.021165488 0.02146684 0.0071012476 -0.041588224
0.049070723 0.35153222 0.0035086155 0.22942948 0.017369047 0.10441516 0.09528722 0.11460829
00000000: 29bb b4be 2150 023e a707 ca3d c237 713d
00000010: 3528 67be c00c 7fbb 4986 97be 31a7 39bc
00000020: 37e5 10be 7552 403e bcd1 b0bc fb1a ab3d
00000030: 696e 053e 710d 0c3d e727 7a3e 0d7d ca3d
00000040: e8ca 073d 2c82 c9bd b9b3 e73b 7787 1d3c
00000050: 46ee 5b3d 5cce 363d 4d96 64be a46b 8b3d
00000060: 1ad3 a3bd 9809 1f3c 54c6 483e de31 be3d
00000070: 9ad3 61bd 8ddf aa3c 8dad 0fbc 1601 a73d
00000080: e5cd 863b c1a5 d63c c93d eabd 934d 083d
00000090: 2dab 2cbd 18aa ce3b 6022 afbd fb0f debd
000000a0: 45ff 81bd c15b b8bd 91a6 d83d 5e39 673c
000000b0: fdd0 6cbe 5dca 043e 84e3 f03d 74fe 0ebd
000000c0: 13d8 c73d a552 31bd b127 4c3d 56a5 353e
000000d0: 1d17 b4bd ed29 423d 4dcd 8bbe 5d16 b23d
000000e0: 13d9 613e 4c55 ad3d abfb b2bb 2a3e 3dbd
000000f0: 44be 8e3d 0d28 8f3c a758 80bd cdcf 883e
00000100: dc1f ad3d 34d8 53be 7bf0 0e3e ae04 bcbd
00000110: b673 c23b 51f0 20be d9ff 673c 2c4c c2bc
00000120: 7919 723d 60cf fa3c ed56 c53d 9bb8 52be
00000130: 1d99 ba3d 79cd 26be e7dd ffbd 7df7 853d
00000140: cf85 833d 9299 0b3e bbef 6cbd bff8 d1bd
00000150: 8ed3 03be 5d48 3b3d 0b20 7e3c 6520 933c
00000160: 5911 b6bd e9f7 08bd 1ad0 c6bd c872 d03d
00000170: b5ef 0abd 881d 94bd d140 d6bc 2a4b 823c
00000180: 18e9 be3d b147 ad3b 1d6c 84bd 8c90 1a3e
00000190: 781a 89bd 8e28 8b3d daa8 c3bd 3094 2bbe
000001a0: b747 c8bd cbe8 7b3b 9281 0cbe d38d af3d
000001b0: b965 433c c1ba 003d cad8 823d ed67 093d
000001c0: d0aa 70bd 8824 303e d21d fc3c 8308 14be
000001d0: a2c3 99bd 5878 98bc 9548 9cbd 11ac 403d
000001e0: 9699 5c3d 9d67 443e 2f9b 96bd 2a28 14be
000001f0: c96d f2bd c582 f73d a8bb 103d 9f1a dbbd
00000200: 41b6 09be c24d 023b e0b5 6d3d 1ae4 3cbe
00000210: 6476 5c3c 0a22 a13d d9ee dcbc d5b8 863d
00000220: 39ce aabd 587e ce3a 67b8 913e 6ed8 6b3c
00000230: e04c 853d 79c9 453d d60a cdbc 938c 033e
00000240: d867 a63d fbe7 2d3e 5115 b6bd 2f44 433e
00000250: 304e 7b3d 97f0 8d3d b1da 573d acec 513e
00000260: 74f8 ef3d 2cd9 2e3d 90a9 8c3d 87ad 0bbd
00000270: a86a 403d 8253 afbd ded2 043e cdcc 723d
00000280: db3e 39bd bc5b e3bd 7eb1 273e 7e26 813c
00000290: cd70 223d 9ae5 1fbb 9c92 32bd e520 08be
000002a0: 84d1 8e3d 3709 c5bd 4cda 8dbd 8136 053e
000002b0: 8cfb 36be 0fb0 3fbe d0fd 75bd d0f8 953d
000002c0: 0540 8e3d 42df 3d3d e506 863d 90ee 9fbd
000002d0: 8984 763d 1a5a 073b 1d08 103e 12c8 fc3d
000002e0: 4e9d 6abb 7d90 1b3d 89a6 f3bd 6e7e fdbd
000002f0: 0e66 763d 4083 3c3e 2a56 b1bc a515 07be
00000300: ca7f 563d 12b0 2dbe c003 2ebe b4ca 9ebe
00000310: 36c9 0e3e 85d8 203e d8d5 da3d e5a7 f0bd
00000320: cda0 c33c d324 3fbd fe95 84bd 232d cb3c
00000330: f024 4bbd f9fe a83c e431 213e 3129 d23d
00000340: 7b35 663d 36bb 9abe 1de9 1d3d 887a a5bc
00000350: bc02 0ebd ff16 c8bd db01 8d3b c0fb b5bc
00000360: 57e3 1d3d 7696 593e a1e6 1fbe c850 883c
00000370: 8ee9 71bd 3950 013d 9098 79bb f478 033e
00000380: f556 82be 5e51 f03d abb9 2cbc a7e4 8f3d
00000390: 7def 093c 2d7a e03c bd8b b1bd adca 37bd
000003a0: b526 54bd a564 e2bd 6354 1dbe 1920 ddbd
000003b0: 7940 46bc a498 053e 1da1 983b 3a79 93bd
000003c0: dec3 633d 3171 16be ec5a 06bc 99a1 0d3e
000003d0: 3f63 ad3c 3adb af3c 95b1 e83b 6a58 2abd
000003e0: 62fe 483d 08fc b33e cdf0 653b 90ef 6a3e
000003f0: 8849 8e3c 9ed7 d53d f225 c33d c0b7 ea3d

network_body._body_endoder.seq_layers.0.bias f4 [128]
0.0 0.0 0.0 0.0 0.0 0.0 0.0 0.0
0.0 0.0 0.0 0.0 0.0 0.0 0.0 0.0
0.0 0.0 0.0 0.0 0.0 0.0 0.0 0.0
0.0 0.0 0.0 0.0 0.0 0.0 0.0 0.0
0.0 0.0 0.0 0.0 0.0 0.0 0.0 0.0
0.0 0.0 0.0 0.0 0.0 0.0 0.0 0.0
0.0 0.0 0.0 0.0 0.0 0.0 0.0 0.0
0.0 0.0 0.0 0.0 0.0 0.0 0.0 0.0
0.0 0.0 0.0 0.0 0.0 0.0 0.0 0.0
0.0 0.0 0.0 0.0 0.0 0.0 0.0 0.0
0.0 0.0 0.0 0.0 0.0 0.0 0.0 0.0
0.0 0.0 0.0 0.0 0.0 0.0 0.0 0.0
0.0 0.0 0.0 0.0 0.0 0.0 0.0 0.0
0.0 0.0 0.0 0.0 0.0 0.0 0.0 0.0
0.0 0.0 0.0 0.0 0.0 0.0 0.0 0.0
0.0 0.0 0.0 0.0 0.0 0.0 0.0 0.0
00000000: 0000 0000 0000 0000 0000 0000 0000 0000
00000010: 0000 0000 0000 0000 0000 0000 0000 0000
00000020: 0000 0000 0000 0000 0000 0000 0000 0000
00000030: 0000 0000 0000 0000 0000 0000 0000 0000
00000040: 0000 0000 0000 0000 0000 0000 0000 0000
00000050: 0000 0000 0000 0000 0000 0000 0000 0000
00000060: 0000 0000 0000 0000 0000 0000 0000 0000
00000070: 0000 0000 0000 0000 0000 0000 0000 0000
00000080: 0000 0000 0000 0000 0000 0000 0000 0000
00000090: 0000 0000 0000 0000 0000 0000 0000 0000
000000a0: 0000 0000 0000 0000 0000 0000 0000 0000
000000b0: 0000 0000 0000 0000 0000 0000 0000 0000
000000c0: 0000 0000 0000 0000 0000 0000 0000 0000
000000d0: 0000 0000 0000 0000 0000 0000 0000 0000
000000e0: 0000 0000 0000 0000 0000 0000 0000 0000
000000f0: 0000 0000 0000 0000 0000 0000 0000 0000
00000100: 0000 0000 0000 0000 0000 0000 0000 0000
00000110: 0000 0000 0000 0000 0000 0000 0000 0000
00000120: 0000 0000 0000 0000 0000 0000 0000 0000
00000130: 0000 0000 0000 0000 0000 0000 0000 0000
00000140: 0000 0000 0000 0000 0000 0000 0000 0000
00000150: 0000 0000 0000 0000 0000 0000 0000 0000
00000160: 0000 0000 0000 0000 0000 0000 0000 0000
00000170: 0000 0000 0000 0000 0000 0000 0000 0000
00000180: 0000 0000 0000 0000 0000 0000 0000 0000
00000190: 0000 0000 0000 0000 0000 0000 0000 0000
000001a0: 0000 0000 0000 0000 0000 0000 0000 0000
000001b0: 0000 0000 0000 0000 0000 0000 0000 0000
000001c0: 0000 0000 0000 0000 0000 0000 0000 0000
000001d0: 0000 0000 0000 0000 0000 0000 0000 0000
000001e0: 0000 0000 0000 0000 0000 0000 0000 0000
000001f0: 0000 0000 0000 0000 0000 0000 0000 0000

network_body._body_endoder.seq_layers.2.weight f4 [128, 128]
-0.048873015 -0.11293968 -0.13005549 -0.055094942 -0.023282608 -0.09242472 0.14392129 0.09705905
-0.103743516 -0.054807525 -0.11092806 0.10621679 -0.076688126 -0.17613356 0.035598904 0.044757813
-0.034353416 0.08259418 -0.071315534 -0.061232463 0.25310418 0.0086919805 0.0011577733 -0.029844617
-0.014225161 -0.004122811 -0.009755225 -0.10638683 0.026350657 0.007123801 0.053153377 -0.022565562
0.13236572 0.18420383 0.09008025 0.12684408 0.030152308 -0.09667789 -0.07980563 -0.14660104
0.038612723 -0.113371015 -0.11674964 0.12834051 0.006353508 0.10569132 -0.16107261 0.17598417
-0.0025743048 0.13192345 -0.012131206 0.11074277 -0.1629455 -0.039009657 -0.052071046 -0.030970987
0.017032487 -0.04810567 -0.04110071 0.08206354 -0.017498823 -0.07146338 0.14062735 0.021163452
0.083325066 -0.033096183 0.2216713 0.103649445 -0.06947626 0.0729541 -0.032523688 0.03894123
0.013012136 -0.036535148 -0.1214459 0.009585597 0.036426794 -0.131797 0.05792108 0.07945408
0.014376452 0.10652453 -0.21735996 0.08017412 0.061210416 -0.020026648 0.018416474 -0.0751124
-0.18541424 -0.1374114 -0.02857366 0.02609548 0.053208414 0.028378759 0.05996554 0.11091058
-0.043371756 -0.069614984 0.07166326 0.030159406 0.046714127 -0.07102803 0.06475777 0.0071312157
-0.004484338 -0.23676322 0.22041969 0.055964977 -0.0011070676 0.082809374 -0.18015155 0.04749955
0.006372027 -0.04181422 -0.007926973 -0.056842696 -0.081566155 0.17458358 -0.07306041 -0.0022409349
0.0066615627 -0.07869459 0.06751326 0.047804013 -0.050469045 -0.043020908 0.025817083 -0.04143617
-0.03912607 0.03930677 -0.12968738 0.009433164 0.13322678 -0.024178553 -0.088607244 -0.081243224
0.059974913 -0.052611932 0.07482225 -0.027791139 -0.09654484 0.10690908 -0.10474839 -0.014970745
-0.031052968 0.092060044 0.03481705 -0.18802638 0.089193024 0.011062833 0.02887701 0.16467716
-0.08638768 0.17547506 -0.09206215 0.10370195 0.006524767 0.048295114 -0.0065554017 0.023185873
0.044033557 0.0980484 -0.13162573 0.014799368 0.14956416 0.07979047 -0.24236505 -0.07240791
0.046130367 -0.017590778 0.01982774 -0.21691054 -0.1743335 -0.057063676 -0.03223894 0.12189768
0.09627179 0.013383297 0.1872406 -0.031929262 -0.025742626 -0.061710887 -0.10888243 0.10776686
-0.16996652 0.06359935 -0.034826703 -0.0050347564 -0.11603934 -0.039984725 0.10446411 0.024564885
0.0777879 -0.03924026 0.08189489 0.002516226 0.07098756 -0.017935386 -0.07530731 0.05630367
0.15628527 0.04494782 -0.1236341 -0.14396246 0.16201071 -0.161033 -0.1888257 0.0141555825
0.06415804 -0.06827918 -0.12860042 -0.08111069 0.0017668449 0.07166003 -0.15122423 -0.10446094
0.14253032 -0.11175178 0.12526248 -0.015251954 -0.08669305 0.019025072 0.021478618 0.10353119
-0.112224326 -0.052422877 0.15529844 0.057068832 -0.015362668 -0.072427526 -0.09778342 0.037808806
-0.024637114 -0.04871096 0.04338307 -0.11865683 0.017785639 -0.107961014 0.023722116 -0.015707918
0.19678846 0.026821796 -0.036525328 0.047024034 0.029041639 0.1377972 -0.0011117212 -0.066905156
0.13152906 -0.08393118 -0.011077753 -0.042681567 0.036240123 -0.039943088 -0.0026904675 -0.06794132
00000000: 122f 48bd eb4c e7bd 442d 05be 3cab 61bd
00000010: 2bbb bebc 2c49 bdbd 1a60 133e e5c6 c63d
00000020: 7b77 d4bd db7d 60bd 402e e3bd 3088 d93d
00000030: aa0e 9dbd 5b5c 34be 28d0 113d f853 373d
00000040: 2bb6 0cbd 2327 a93d e10d 92bd e4ce 7abd
00000050: df96 813e cf68 0e3c 6dc0 973a b37c f4bc
00000060: a610 69bc a518 87bb 61d4 1fbc 57e1 d9bd
00000070: 55dd d73c c66e e93b 5bb7 593d 6adb b8bc
00000080: e18a 073e ee9f 3c3e fe7b b83d 6ae3 013e
00000090: f901 f73c 0fff c5bd 2271 a3bd 951e 16be
000000a0: 6028 1e3d 102f e8bd 6f1a efbd b26b 033e
000000b0: 1731 d03b b174 d83d 38f0 24be 3235 343e
000000c0: abb5 28bb f116 073e f7c1 46bc 1bcd e23d
000000d0: 2fdb 26be 97c8 1fbd 7348 55bd deb6 fdbc
000000e0: b787 8b3c 730a 45bd 3859 28bd ee10 a83d
000000f0: b159 8fbc 645b 92bd 9e00 103e fa5e ad3c
00000100: 55a6 aa3d dd8f 07bd cdfd 623e 2946 d43d
00000110: 9249 8ebd f668 953d 8f37 05bd d780 1f3d
00000120: db30 553c e1a5 15bd a1b8 f8bd e80c 1d3c
00000130: 4334 153d cbf5 06be a83e 6d3d d2b8 a23d
00000140: 368b 6b3c 8829 da3d 9c93 5ebe 5432 a43d
00000150: c6b7 7a3d ed0e a4bc 25de 963c 88d4 99bd
00000160: 3bdd 3dbe 93b5 0cbe 4f13 eabc 30c6 d53c
00000170: 11f1 593d 927a e83c 6d9e 753d 1625 e33d
00000180: 95a6 31bd 4d92 8ebd 30c4 923d dc10 f73c
00000190: 5057 3f3d 2577 91bd b99f 843d f9ac e93b
000001a0: 5bf1 92bb 0f72 72be b3b5 613e 883b 653d
000001b0: 061b 91ba f697 a93d a679 38be e38e 423d
000001c0: 70cc d03b 6345 2bbd 22e0 01bc e3d3 68bd
000001d0: 280c a7bd 0ac6 323e b2a0 95bd a6dc 12bb
000001e0: 3d49 da3b a12a a1bd 6444 8a3d 24ce 433d
000001f0: a1b8 4ebd b136 30bd 597e d33c f9b8 29bd
00000200: a842 20bd 2300 213d c5cc 04be 8f8d 1a3c
00000210: 9a6c 083e 1a12 c6bc b777 b5bd d962 a6bd
00000220: 41a8 753d 9c7f 57bd 683c 993d 3eaa e3bc
00000230: 4db9 c5bd 26f3 da3d 5386 d6bd db47 75bc
00000240: cb62 febc fa89 bc3d 539c 0e3d fd89 40be
00000250: d5aa b63d e240 353c 7b8f ec3c 21a1 283e
00000260: 06ec b0bd bcaf 333e 158b bcbd b061 d43d
00000270: b6cd d53b 19d1 453d b2ce d6bb 4df0 bd3c
00000280: 885c 343d 99cd c83d e5c8 06be 0c79 723c
00000290: 5927 193e 3069 a33d 8b2e 78be 994a 94bd
000002a0: 32f3 3c3d 891a 90bc c96d a23c cc1d 5ebe
000002b0: 7b84 32be 9abb 69bd fb0c 04bd 7ea5 f93d
000002c0: 252a c53d 9e45 5b3c 00bc 3f3e 42c8 02bd
000002d0: 33e2 d2bc 8ec4 7cbd c0fd debd dfb4 dc3d
000002e0: b40b 2ebe 6040 823d 72a6 0ebd 99fa a4bb
000002f0: 09a6 edbd 06c7 23bd 48f1 d53d 4c3c c93c
00000300: 434f 9f3d 65ba 20bd 82b8 a73d 44e7 243b
00000310: ed61 913d 3bed 92bc b83a 9abd ad9e 663d
00000320: 3f09 203e 351b 383d e033 fdbd e56a 13be
00000330: 23e6 253e d6e5 24be 865b 41be d1ec 673c
00000340: 4a65 833d f4d5 8bbd d4af 03be 5d1d a6bd
00000350: 7a95 e73a 7ec2 923d 86da 1abe 9eef d5bd
00000360: 78f3 113e 1ede e4bd cf44 003e 55e3 79bc
00000370: 208c b1bd 78da 9b3c edf3 af3c 2908 d43d
00000380: ded5 e5bd 5fb9 56bd 8e06 1f3e 02c1 693d
00000390: b3b3 7bbc e254 94bd ac42 c8bd 68dd 1a3d
000003a0: c6d3 c9bc 2585 47bd 72b2 313d 5a02 f3bd
000003b0: 30b3 913c aa1a ddbd e254 c23c e4ad 80bc
000003c0: ea82 493e 62b9 db3c 959b 15bd 469c 403d
000003d0: bbe8 ed3c b61a 0d3e 2cb7 91ba 9205 89bd
000003e0: 8eaf 063e 1ce4 abbd 777f 35bc ded2 2ebd
000003f0: 8670 143d 5d9b 23bd 8e52 30bb d224 8bbd

network_body._body_endoder.seq_layers.2.bias f4 [128]
0.0 0.0 0.0 0.0 0.0 0.0 0.0 0.0
0.0 0.0 0.0 0.0 0.0 0.0 0.0 0.0
0.0 0.0 0.0 0.0 0.0 0.0 0.0 0.0
0.0 0.0 0.0 0.0 0.0 0.0 0.0 0.0
0.0 0.0 0.0 0.0 0.0 0.0 0.0 0.0
0.0 0.0 0.0 0.0 0.0 0.0 0.0 0.0
0.0 0.0 0.0 0.0 0.0 0.0 0.0 0.0
0.0 0.0 0.0 0.0 0.0 0.0 0.0 0.0
0.0 0.0 0.0 0.0 0.0 0.0 0.0 0.0
0.0 0.0 0.0 0.0 0.0 0.0 0.0 0.0
0.0 0.0 0.0 0.0 0.0 0.0 0.0 0.0
0.0 0.0 0.0 0.0 0.0 0.0 0.0 0.0
0.0 0.0 0.0 0.0 0.0 0.0 0.0 0.0
0.0 0.0 0.0 0.0 0.0 0.0 0.0 0.0
0.0 0.0 0.0 0.0 0.0 0.0 0.0 0.0
0.0 0.0 0.0 0.0 0.0 0.0 0.0 0.0
00000000: 0000 0000 0000 0000 0000 0000 0000 0000
00000010: 0000 0000 0000 0000 0000 0000 0000 0000
00000020: 0000 0000 0000 0000 0000 0000 0000 0000
00000030: 0000 0000 0000 0000 0000 0000 0000 0000
00000040: 0000 0000 0000 0000 0000 0000 0000 0000
00000050: 0000 0000 0000 0000 0000 0000 0000 0000
00000060: 0000 0000 0000 0000 0000 0000 0000 0000
00000070: 0000 0000 0000 0000 0000 0000 0000 0000
00000080: 0000 0000 0000 0000 0000 0000 0000 0000
00000090: 0000 0000 0000 0000 0000 0000 0000 0000
000000a0: 0000 0000 0000 0000 0000 0000 0000 0000
000000b0: 0000 0000 0000 0000 0000 0000 0000 0000
000000c0: 0000 0000 0000 0000 0000 0000 0000 0000
000000d0: 0000 0000 0000 0000 0000 0000 0000 0000
000000e0: 0000 0000 0000 0000 0000 0000 0000 0000
000000f0: 0000 0000 0000 0000 0000 0000 0000 0000
00000100: 0000 0000 0000 0000 0000 0000 0000 0000
00000110: 0000 0000 0000 0000 0000 0000 0000 0000
00000120: 0000 0000 0000 0000 0000 0000 0000 0000
00000130: 0000 0000 0000 0000 0000 0000 0000 0000
00000140: 0000 0000 0000 0000 0000 0000 0000 0000
00000150: 0000 0000 0000 0000 0000 0000 0000 0000
00000160: 0000 0000 0000 0000 0000 0000 0000 0000
00000170: 0000 0000 0000 0000 0000 0000 0000 0000
00000180: 0000 0000 0000 0000 0000 0000 0000 0000
00000190: 0000 0000 0000 0000 0000 0000 0000 0000
000001a0: 0000 0000 0000 0000 0000 0000 0000 0000
000001b0: 0000 0000 0000 0000 0000 0000 0000 0000
000001c0: 0000 0000 0000 0000 0000 0000 0000 0000
000001d0: 0000 0000 0000 0000 0000 0000 0000 0000
000001e0: 0000 0000 0000 0000 0000 0000 0000 0000
000001f0: 0000 0000 0000 0000 0000 0000 0000 0000

value_heads.value_heads.extrinsic.weight f4 [1, 128]
0.0977841 -0.09724737 0.20385918 -0.14466915 0.15054145 -0.012135059 -0.05962497 0.1654
0.09536022 -0.114842474 0.1300067 -0.11356601 0.094860226 -0.015495151 -0.16748306 -0.03700438
-0.08314325 -0.111086674 -0.10912282 0.014023393 0.095849484 0.098201066 0.06228584 -0.031173885
0.12977034 0.18187699 0.03837657 0.09747085 -0.10533092 0.049408197 0.20657992 0.18125007
-0.18020774 0.19778296 -0.11391036 -0.06221132 0.042366415 -0.09460797 0.14021683 -0.0380411
0.09374988 0.11287153 0.18842545 0.09681249 -0.1319829 -0.10102427 0.08471498 -0.0015545189
-0.19303961 -0.13152212 -0.17778204 -0.14055002 0.14658445 0.017101899 0.02624856 0.211644
0.20345166 -0.12624788 -0.029990196 -0.043504238 -0.10989718 0.14300266 -0.13523212 0.035325646
0.19841671 -0.12449332 -0.13546088 -0.05011089 0.0014645606 -0.08104272 0.17941469 -0.088474035
0.023802146 0.19928747 0.18736827 0.10661808 -0.14270335 -0.09866804 -0.011183172 0.012897864
0.1170038 -0.13849828 0.081922084 0.20712698 -0.061557174 -0.0341883 0.14123559 0.1510458
-0.030863255 -0.01569964 0.10729629 0.12959513 -0.14211565 -0.15755838 0.07321477 0.031901255
0.15738359 0.087317616 0.018814549 0.19739795 0.0857448 0.051676482 -0.11466799 0.051956862
0.029155806 0.12834987 0.20279232 -0.1324154 -0.16784786 0.012577966 0.036742955 0.18392512
-0.066297054 -0.13523668 -0.08938442 -0.16726919 0.07881257 0.10977399 -0.020607367 0.052291423
-0.19713114 -0.062676996 -0.14993817 0.2033203 0.21281499 -0.021891654 0.0683682 -0.029622063
00000000: 0843 c83d a129 c7bd 76c0 503e 2624 14be
00000010: 8a27 1a3e 20d2 46bc 5039 74bd 9e5e 293e
00000020: 384c c33d 8832 ebbd 7a20 053e 4c95 e8bd
00000030: 1446 c23d 60df 7dbc ae80 2bbe e891 17bd
00000040: 0247 aabd 6981 e3bd c97b dfbd 60c2 653c
00000050: bc4c c43d a41d c93d 701f 7f3d 6060 ffbc
00000060: 84e2 043e f63d 3a3e c030 1d3d cc9e c73d
00000070: bdb7 d7bd 4060 4a3d b089 533e 9e99 393e
00000080: 6188 38be 9e87 4a3e d649 e9bd 4cd1 7ebd
00000090: 6888 2d3d d3c1 c1bd 0095 0f3e fcd0 1bbd
000000a0: f0ff bf3d 3029 e73d 9af2 403e a045 c63d
000000b0: 8626 07be d0e5 cebd 0c7f ad3d 00c1 cbba
000000c0: 2dac 45be bcad 06be 7f0c 36be 58ec 0fbe
000000d0: 3c1a 163e 4819 8c3c 3807 d73c 34b9 583e
000000e0: a255 503e 2047 01be 00ae f5bc 8031 32bd
000000f0: c611 e1bd 4a6f 123e 4a7a 0abe a0b1 103d
00000100: c02d 4b3e 5bf6 febd 42b6 0abe 1441 4dbd
00000110: 80f6 bf3a baf9 a5bd 7cb8 373e e031 b5bd
00000120: b8fc c23c 0412 4c3e 78dd 3f3e 945a da3d
00000130: d420 12be 7812 cabd a039 37bc 9051 533c
00000140: b09f ef3d 7ed2 0dbe c4c6 a73d 1819 543e
00000150: 6023 7cbd 0809 0cbd 10a0 103e c0ab 1a3e
00000160: f0d4 fcbc 889c 80bc 28be db3d 96b4 043e
00000170: c486 11be fc56 21be a0f1 953d e4aa 023d
00000180: 2a29 213e 94d3 b23d f820 9a3c b022 4a3e
00000190: f89a af3d b8aa 533d 0dd7 eabd b8d0 543d
000001a0: 28d8 ee3c 266e 033e caa8 4f3e e797 07be
000001b0: 4fe0 2bbe d013 4e3c c87f 163d de56 3c3e
000001c0: c0c6 87bd 7c7b 0abe 2e0f b7bd 9d48 2bbe
000001d0: 7c68 a13d 30d1 e03d c8d0 a8bc 882f 563d
000001e0: bfdc 49be cc5c 80bd 6489 19be 3233 503e
000001f0: 2cec 593e 2056 b3bc a004 8c3d f8a9 f2bc
