results/BigMapRun1/BigMapAgent/BigMapAgent-42567.pt (torch, 791546 bytes, 33 tensors)

network_body._body_endoder.seq_layers.0.weight f4 [128, 81]
00000000: a9eb 19be cb2d 02bd 222a a9bd 389c 8a3c
00000010: 4faa b0bd bd4c cb3d a171 25be eb51 6fbd
00000020: 5b0d 35bb c3cf 163e 0bb5 81bc 4644 2bbe
00000030: e22c bbbd 9315 b83d 314d d1bd 7b68 27bc
00000040: b54e 273c 6a97 b73d 17ef 6ebc 26de a13d
00000050: 2ad5 bebd 83d2 52be 1d4f 4ebd 14bd 123e
00000060: 210e 483d b2c6 54be 646b 82bd 0544 33be
00000070: 9bf9 a33c d2c1 2b3c f9f5 f23d f8c9 aa3d
00000080: 1818 5b3b c08b 8abd 0ebb 9b3d a9d5 76bd
00000090: a1c5 953d c671 5dbd a27e 733d 2d55 c53d
000000a0: 36f4 513d 6866 243e 43ef 8c3d 9106 e63c
000000b0: b1e7 a43c 67a4 a53d 87fa 79be 94da 193e
000000c0: be65 ed3c a6ad 3f3e c16b 5abc fd82 263e
000000d0: 1059 323d 53e7 56be b7a8 86bd bb0f f13d
000000e0: dbf5 823c 87ca 263d cb40 243c 1d2a 593e
000000f0: b50b 29bc 0b0d 2bbd 64f8 a6bd 1db1 2abc
00000100: aec4 bc3d a9f6 7a3e 54ff 1c3d ee3a e6bd
00000110: 69a2 35be 5544 b73d a56d abbd c909 fa3d
00000120: eee3 38bd 28e0 c3bd 556e 393d f5b3 d3bd
00000130: 9f6b 4bbd a225 debd ef1a 4bbe 8381 393e
00000140: fcc6 a43d 839e 4d3d 5695 14be cfc9 d73d
00000150: 84e8 aabb 6133 22be 734e 1ebd 13c9 193d
00000160: e256 483d ac1e 1ebd 02b2 913d f958 5e3d
00000170: fc9f 3fbd 80c0 1f3d cb21 123e 7d85 30be
00000180: 6ab0 df3d 625e 75bd 05fb 14be f540 f3bc
00000190: 2d26 40bd 30b4 3ebd 05f3 c03d 02c1 41bd
000001a0: 84ca d6b7 d7e4 6b3b f8e5 aebc 07e1 a53b
000001b0: 65a7 2ebe 3d36 13be cd80 5a3d 2da9 46bd
000001c0: 2500 9dbd 2a50 3cbe 4534 683c 3ed0 c5bd
000001d0: 0d6c f7bd 6d89 153e 3e0d babd 47e1 c73d
000001e0: 4547 e1bd f576 3d3d 8c96 d83d 49c0 013e
000001f0: 4149 ce3d a6fa 523e aefa 333e 0de3 3bbe
00000200: cd23 43bb 457b a83d 814c 9b3d 795a 5bbd
00000210: 8894 4abe 6bb8 7c3c 509c 263d 21ac 113e
00000220: 0cc9 a7bd cd14 36bd 591a 1fbe dfdc c03d
00000230: d700 983d bfe7 cabc f1ec 0dbe e148 28bc
00000240: 82f2 6bbd fee9 77bc c027 e4bd 9224 f8bd
00000250: 6228 fabb 9cb3 ba3c 95cf 473e d186 133e
00000260: ee8d 9e3d 8d16 1dbe 0db5 593c 777a b43d
00000270: d79f cbbd 6d7a 98bd d081 13be 844f 7bbd
00000280: fa9c 163e 5d0d 083e e5e7 bb3c 9185 b4bc
00000290: 031a ba3a b5fc 7c3b 4eaa 473d e9e7 7bbc
000002a0: b4a7 19bd 246c f9bd e963 193d 3df3 ce3d
000002b0: 80b0 fcbd 1cdd 21be 1407 773d 44f8 f73c
000002c0: e64d 2c3d 77f6 673e 7ffa 5c3e e05d 0dbd
000002d0: bdd4 673c 0096 43bd 7497 9e3d f0c9 183e
000002e0: d39f a2bd c5d7 853d d3e0 0d3d dca8 fcbc
000002f0: a207 393d 2a62 aabd 3db1 ae3d 9376 8fbe
00000300: a1a8 a93d a4b7 2d3e 35d0 13bd 396c 51bc
00000310: fbdf 55bd 6f47 533d 1723 9e3c 9dfa a3bd
00000320: 4be7 9a3d b2e6 54bc 0107 0d3d 3f3d b1bb
00000330: 04ba e5bd 1cd4 f93d b4b2 053e e04a 57bd
00000340: ddbb 8abe b723 9e3d 7548 a2bb 1729 25bd
00000350: f8a7 813d df91 bf3d dbe7 9e3c 966c 9c3e
00000360: 0442 403e 5f78 223e abdf 673d 0c7b a4bd
00000370: 7f5b 0b3e 8c61 123e b586 0a3d acf7 283b
00000380: c493 74be 080b 883c 67da fe3d 966d 853d
00000390: 6e8a 70bd c692 86bc b6fa 9fbb f5f7 f63d
000003a0: 20b0 f6bd 4b4b 6abc 2afa 0fbd 0275 a4bb
000003b0: 1c46 d23d f76b d3bd 9a70 57bd 63f6 113c
000003c0: 74f2 fabd 9c49 943e 0c56 24be d06f eabb
000003d0: b07f 6a3d d60d a8bd 75f3 023e 2509 4c3d
000003e0: 5b13 c0bd a06f 64be 1ec1 7a3e 3bad e1bd
000003f0: e5fb ba3d db4b cdbd 53dc 093e f95f 2ebc
-0.15031303 -0.031781953 -0.08259989 0.016920194 -0.08626234 0.09926746 -0.16156627 -0.058427732
-0.0027626369 0.14727692 -0.015833398 -0.16725263 -0.0913942 0.0898849 -0.10219801 -0.010217781
0.010211636 0.08964427 -0.014583371 0.079036996 -0.093180016 -0.20588116 -0.050368417 0.1432994
0.0488416 -0.20778921 -0.063681394 -0.17506416 0.020016482 0.010483222 0.11863322 0.08339304
0.003343111 -0.067649364 0.07604037 -0.060262356 0.07313085 -0.05406358 0.05944694 0.096353866
0.05125829 0.1605469 0.06881573 0.028079303 0.02013001 0.08087998 -0.24411975 0.15024787
0.028979179 0.18718585 -0.013331355 0.16260906 0.043541968 -0.2098668 -0.065751486 0.117705785
0.015986374 0.04072049 0.0100252135 0.21207471 -0.010317733 -0.041760486 -0.081528455 -0.010418204
0.09217201 0.24508156 0.038329437 -0.11241709 -0.17737736 0.0894858 -0.083705224 0.122088976
-0.045139246 -0.09564239 0.045271236 -0.103370585 -0.049663182 -0.10847022 -0.19834493 0.18115811
0.08045766 0.050199997 -0.14510092 0.10536539 -0.0052157063 -0.15839912 -0.038649034 0.037545275
0.048910983 -0.03860347 0.071140304 0.05428407 -0.046783432 0.03900194 0.14270703 -0.17238422
0.1092232 -0.059904464 -0.14548881 -0.02969406 -0.046911407 -0.04655856 0.09421352 -0.047303207
-2.5605092e-05 0.0035994553 -0.021349892 0.0050622257 -0.17056043 -0.14376159 0.05334549 -0.048501182
-0.07666043 -0.18389955 0.014172618 -0.0965886 -0.12081156 0.14603205 -0.09084557 0.09759765
-0.10999922 0.046256024 0.105755895 0.12671007 0.10072566 0.20603427 0.17576095 -0.18348332
-0.0029775978 0.08226637 0.07582951 -0.05355308 -0.19783223 0.015424828 0.040676415 0.14225818
-0.081926435 -0.04445343 -0.15537395 0.09417128 0.07422035 -0.024768708 -0.13859917 -0.010271282
-0.05760432 -0.015131472 -0.11140394 -0.1211635 -0.0076342085 0.022790723 0.1951278 0.14406897
0.07741915 -0.15340634 0.013287795 0.08812421 -0.099425964 -0.07445226 -0.14404988 -0.06135513
0.1470832 0.13286348 0.022937724 -0.022036346 0.0014198426 0.0038602774 0.0487464 -0.015375116
-0.03751345 -0.12178829 0.037448797 0.10104988 -0.12338352 -0.15807003 0.060309485 0.03026975
0.042066477 0.22652613 0.21579932 -0.034513354 0.014149842 -0.047750473 0.07743731 0.14920783
-0.0794064 0.065352954 0.034638237 -0.030842237 0.045173295 -0.083195046 0.08529899 -0.28020152
0.082841165 0.16964585 -0.036087234 -0.01278215 -0.052215558 0.051581796 0.019303842 -0.08006785
0.07563647 -0.012994455 0.034430508 -0.0054089124 -0.1121712 0.1219866 0.13056451 -0.05256164
-0.27096453 0.07721656 -0.004952485 -0.04032239 0.063308656 0.093539946 0.019397667 0.30551594
0.18775183 0.1586623 0.05660979 -0.08031282 0.13609122 0.14295024 0.033819873 0.002578239
-0.23884493 0.016606823 0.12444001 0.065150425 -0.058725767 -0.016427409 -0.004882182 0.12059013
-0.12045312 -0.014300178 -0.035150684 -0.005018831 0.102672786 -0.10323327 -0.05259762 0.008908841
-0.122532755 0.2896241 -0.1604845 -0.0071544424 0.05725068 -0.08205764 0.12788184 0.04981341
-0.09378692 -0.22308207 0.24487731 -0.11019369 0.09130076 -0.10024234 0.13462953 -0.010642999

network_body._body_endoder.seq_layers.0.bias f4 [128]
00000000: dc1f fe3a b2ef 733c 29df ebbb f7bd e63a
00000010: db05 92bb 7ab7 e8bb c6f8 8f3c 840c 5c3c
00000020: 54f1 3abc d2e4 f8b9 30e5 933c 586e 1c3c
00000030: 6842 77bc 9ce3 9bbc 6344 053c 962b fcbb
00000040: e719 5a3c 77a0 cb3b b9c8 63bc 2071 483b
00000050: a0c7 6b3c 52a5 af3b 549d 553c 9216 3dbc
00000060: 8495 8e3a 64d3 6e3c 2551 5e3b 4d49 313c
00000070: a40b 9939 b3ce 9c3b 8b11 12bc c10c ec3b
00000080: 55ec 6b3c 0027 8d3a fc04 8abc 0712 66bc
00000090: c30e 253c 4a4f a63a 51e6 a8ba 7656 293c
000000a0: 8b59 a63b 1bbe e23b 64a8 90bc f6f7 b3bc
000000b0: 6dec 32bc aaed 83bc ecf6 0cbc 6712 5c3c
000000c0: 35b7 4c3b 434a cb3b ea89 b2bb 8803 203c
000000d0: 93c8 093c 643c 14bc 8aca 4fbc ef32 75bc
000000e0: bd21 8b3c e014 03b9 3642 793c c750 853c
000000f0: 3c05 26bc 742c a93a c0fb 373b 1f85 213c
00000100: 3354 a8bb 8060 323c 5aad 783c b0d6 443c
00000110: 27f8 1c3b 6d6b 8f3b 5c7f 29bc 5bc5 5bbc
00000120: 868a 4f3c 84e3 673c 014e 3cbb e641 e13b
00000130: 1a7e 8c3c 5e0f 19bc d3e4 65bc 3964 603b
00000140: a2fe 0ebc 5523 133c 67b5 57bc 4c9e f53b
00000150: 5e58 6fba 285d 48bc 9204 3c3c af39 86bc
00000160: 2cc7 b63c e691 87bb cd35 8c3c 6457 a9ba
00000170: 842a 0c3b a385 0cbc de4e 6c3c 4d2c 043c
00000180: 2637 2d3b 4b4f 0abb f140 93bc af54 b0bb
00000190: 0086 673b d3f9 2dbc 3d23 08bc 50af 2abc
000001a0: 165a 343b c542 e339 9a9d 17bc 4c32 ad3b
000001b0: d2c8 30bb 907f 853c b3c3 09bc 630b 103c
000001c0: 5148 00bc 7988 adb9 2864 5b3c 965e 61b9
000001d0: c5dd 34bc 2e77 8b3c 1eb0 583b 033c a03b
000001e0: 3e63 973c 594d 4ebb 04cf 9bbc ea26 6bbc
000001f0: d58d 033a 55bc 5e3c 9168 073c 4687 e8ba
0.0019388157 0.014888691 -0.0071982336 0.0017604221 -0.0044562644 -0.0071019502 0.01757468 0.013430718
-0.011410076 -0.0004747273 0.018053621 0.009547792 -0.015091516 -0.019029431 0.00813398 -0.0076956255
0.01331184 0.0062141973 -0.0139028365 0.0030585006 0.014390856 0.005360284 0.013037998 -0.011541026
0.0010878299 0.014576767 0.0033922878 0.010820699 0.00029191107 0.0047853827 -0.008915315 0.007203669
0.014399608 0.0010769069 -0.01684808 -0.014042384 0.01007432 0.0012688425 -0.0012886022 0.010335555
0.0050765923 0.006919635 -0.01765842 -0.021968823 -0.010920626 -0.016104538 -0.008603793 0.013432122
0.003123713 0.006203921 -0.0054485695 0.009766467 0.008409637 -0.009047601 -0.012682566 -0.014965757
0.016983861 -0.0001250091 0.01521354 0.01627387 -0.010133084 0.0012906925 0.0028073639 0.009858399
-0.0051369905 0.010887265 0.015178049 0.012014076 0.0023951621 0.00437682 -0.010345306 -0.013413752
0.012667304 0.014153365 -0.0028733017 0.006874311 0.017149974 -0.009342043 -0.014031607 0.0034239425
-0.008727701 0.008980592 -0.013165808 0.007495677 -0.0009130294 -0.012229241 0.011475699 -0.016384928
0.02231177 -0.0041372655 0.017115498 -0.0012919721 0.0021387646 -0.008576783 0.0144231 0.008067203
0.0026430576 -0.0021104391 -0.017975302 -0.005381189 0.0035327673 -0.010618645 -0.008309183 -0.010417774
0.0027519516 0.0004334656 -0.009253884 0.005285537 -0.0026975167 0.016296178 -0.008408475 0.008791777
-0.007829742 -0.0003309881 0.013390578 -0.00021492908 -0.011039202 0.017024603 0.0033063958 0.0048899665
0.01847994 -0.0031479208 -0.019019611 -0.01435254 0.0005018388 0.013594707 0.008264677 -0.001774051

network_body._body_endoder.seq_layers.2.weight f4 [128, 128]
00000000: 4d61 d43c 4be3 213d 93e9 2f3c f0ef 533d
00000010: ec91 3bbe 67da 4a3c 76a8 eebc c949 0ebe
00000020: eda2 f83d b561 15bd 0511 4ebe fd37 a13c
00000030: 2d1c 9bbd 410c 29bd bd3a 03be 9eb2 ea3d
00000040: e7dc f73d 69d6 1b3d 5097 393d 7a47 3c3e
00000050: df4e e2bd 208f 763e e970 4ebd 5fc2 eb3d
00000060: 6423 93bc 83ae f7bd 41c5 4bbe 5faf 74bd
00000070: 079d 8a3c 3f53 02be 93d2 d23c 84c2 e23d
00000080: 3932 643e d2c8 f8bc bf31 3f3c c685 063e
00000090: 5b1c 6b3d 1d13 78bd 3569 b13d 5eae d03c
000000a0: bf9e 7ebd 1c8e 2bbe 9aa6 02be ae76 2a3e
000000b0: f6cb d9bd ec59 ba3d c1aa 023d 3201 0dbe
000000c0: b3b8 81bd a623 3dbc 7dde 35bd 905f cc3c
000000d0: ff5c 5abd 3375 8a3d 4e06 68be b801 113e
000000e0: 7803 0cbe 3d94 8fbd 3036 863c 8163 5cbd
000000f0: c68e 2b3d 00aa 233e 6706 9a3d a025 f53d
00000100: f755 07be ce2a a1bd 2b34 0bbd 0162 7abc
00000110: a3e3 1e3e 6551 bf3d 2f5a e33d 78eb e4bd
00000120: 79fd a2bd 3e2f 903d 1ea4 e23d 90b3 2d3c
00000130: 873f 19bd c1b9 813d 0003 da3d c765 27bc
00000140: 1b97 1a3e 28f1 753d 60b2 ce3c 5a3a 473d
00000150: c2da 01be f1fc 8abc 3d50 503a 911f f93c
00000160: 5793 86bd 0748 b1bd 9242 34bd a617 22bd
00000170: 2847 053e 8ffd 67bd 1dae 96bd 52e7 5abd
00000180: b3ca 833d fad4 7d3c c8e6 343d 78d6 9f3c
00000190: b0fb 14be 12df 67bd 55e2 edbc ee26 aa3d
000001a0: 2d4a 083d ab7d b5bd ac73 26bd 3eec 08bc
000001b0: fc86 debd 031b 253d f349 ac3c 0b99 aebc
000001c0: 8b26 d03d c329 afbc 48a8 b23d f574 98bd
000001d0: dae8 b23d 0033 2c3d 987d 9bbc c101 d13d
000001e0: 947e f03d 700e 993c 2ea3 24bc c63a 0bbd
000001f0: 09f1 9bbd 3bc6 083d 532b bdbd ab45 433d
00000200: b9c8 e2bc b15f 853d c085 21bd 7e38 02bd
00000210: 20ea ce3d 0522 813d b820 ea3b 4352 09be
00000220: 0e62 64bd fa50 cebc 5f65 0bbd b03f 2fbd
00000230: 76d3 b7bd deda 573d aaaf 2cbe b3b0 223a
00000240: dc0f 283c 49ba 0c3e a09e fbba e1d6 64be
00000250: 9122 8d3b dcee 2e3c db12 a0bc 22ed 1b3e
00000260: 9a41 4a3d 659a 90bc 9298 a6bc f36a 093d
00000270: 2712 e23d 2473 3c3d b155 1dbe 11d3 fc3d
00000280: 8389 ff3d 898f 1c3d 3459 05be ea15 7dbd
00000290: 91c9 553c 9402 fc3d 3a59 2bbe 54c7 1fbd
000002a0: 0a18 153d c467 99bd 6950 083c 8863 ddbc
000002b0: dfce 28bd d8db 153e 0e66 933d a234 93bd
000002c0: 7234 973c 0039 873d 1bbf ffbc ef73 6abd
000002d0: d968 dc3c b792 65bd 59f6 3c3d d506 0f3d
000002e0: d3ef 793d 213b 19be c3f6 2b3d 2486 1d3c
000002f0: 0021 a7bd 961e 893d 3884 993d 2998 12bd
00000300: 18b8 0bbd 2f20 08be 5826 9cbd 8a3c 443d
00000310: a5d3 31bd 3bf6 c6bd 6ae6 81bc 948d 5bbc
00000320: 0a82 eb3c 6a5f f6bc 766e d4bd ec2b 013e
00000330: 3fe5 ffbc 7f76 0e3c d272 2a3d 1aad 35be
00000340: 5d09 2a3e ef41 3b3e 2c59 8abd a7ab c13a
00000350: aa88 a4bd bf99 d9bd 8576 10be 1570 783c
00000360: ba7d 2e3d 93f9 a33d ec92 073d a7bd 6c3d
00000370: a6ed 033d bbe4 2dbd 762d 9f3d 4790 15bd
00000380: 1758 653d 61ab 223e a966 0a3e e5de e9bd
00000390: 6c05 82bd 3803 7fbd 113e 34be 051c 273e
000003a0: ae7f 00be ac6a aa3d c558 cf3b 18ff bb3c
000003b0: 5a29 e0bd 0801 6abc c8b7 3f3c 88d8 c53d
000003c0: e5be a13d 1cf8 63bd c1b4 733c e6d2 7a3d
000003d0: 311a fb3d c309 f0bd 14a6 7d3d 6ab4 c03d
000003e0: 17c3 07be e717 f5bd 7b0b a4bd 4e85 2dbd
000003f0: 157d 963d dc60 d5bd bbbe 683d 2d9f 123e
0.025925303 0.039523404 0.010736841 0.051742494 -0.18317384 0.012381173 -0.029133063 -0.13895334
0.121404506 -0.036470134 -0.2012368 0.019680018 -0.075737335 -0.04127145 -0.12815376 0.1145985
0.12102681 0.038046274 0.04531032 0.18386641 -0.110502 0.24078035 -0.05040065 0.11511683
-0.017961212 -0.12093832 -0.19899465 -0.05973756 0.01692058 -0.12727068 0.025735175 0.11072257
0.22284783 -0.030369196 0.011669575 0.13136968 0.05740009 -0.060565103 0.08662645 0.02547377
-0.06216311 -0.16753429 -0.12758866 0.16646835 -0.106346056 0.090991825 0.031901125 -0.13769987
-0.06334057 -0.011544144 -0.044401634 0.024947912 -0.053311344 0.06760635 -0.22658655 0.14160812
-0.13673198 -0.07010696 0.01638326 -0.05380583 0.041884206 0.15982819 0.075207524 0.11970067
-0.13216387 -0.078694925 -0.033985298 -0.015282155 0.15516524 0.09341697 0.111011855 -0.111777246
-0.07958502 0.07040261 0.11066459 0.010601893 -0.0374141 0.06334258 0.106451035 -0.010217137
0.15096705 0.060044438 0.02523154 0.048639633 -0.12681106 -0.016966315 0.0007946527 0.03041056
-0.065710716 -0.08656316 -0.0440088 -0.039573334 0.13015425 -0.056638297 -0.07357428 -0.05344326
0.06435146 0.015492672 0.044165403 0.019511446 -0.14549136 -0.05660922 -0.029038588 0.083082065
0.033273865 -0.0886186 -0.040637657 -0.008357106 -0.1086559 0.040308964 0.021031355 -0.021313211
0.101636015 -0.021382218 0.08723503 -0.07444183 0.08735819 0.042040825 -0.018980786 0.10205413
0.11742893 0.018683642 -0.010048671 -0.033991598 -0.07614333 0.033392172 -0.09236779 0.047673862
-0.027683603 0.06512392 -0.039434195 -0.031792156 0.101032495 0.06305317 0.0071450137 -0.13410287
-0.055757575 -0.025185097 -0.034032222 -0.042785347 -0.0897588 0.052698962 -0.16863886 0.000620614
0.010257687 0.13742937 -0.0019197054 -0.22347595 0.004307099 0.010677066 -0.019540241 0.15227178
0.04937897 -0.017651746 -0.020336423 0.03354926 0.110386185 0.046008244 -0.1536472 0.12344945
0.124774 0.038222823 -0.1302231 -0.061788477 0.013048545 0.12305179 -0.16733256 -0.039008453
0.03639988 -0.07490495 0.0083199525 -0.027025 -0.041212913 0.14634645 0.071972 -0.07187773
0.018457625 0.06602669 -0.031219056 -0.05723947 0.026905464 -0.05604812 0.046133373 0.034918625
0.06101973 -0.14963962 0.041983377 0.009614501 -0.08160591 0.06695287 0.07495922 -0.035789642
-0.034111112 -0.13293527 -0.07624501 0.047909297 -0.04341473 -0.097149335 -0.01585694 -0.013400454
0.02874853 -0.030074794 -0.10372631 0.12614411 -0.031237243 0.008695244 0.041613407 -0.17741814
0.16605134 0.1828687 -0.067552894 0.0014775888 -0.08033879 -0.10625028 -0.14107712 0.015163441
0.04260037 0.08006587 0.0330991 0.057798054 0.03220906 -0.042454462 0.07772343 -0.036514547
0.055992212 0.15885688 0.13515724 -0.11419467 -0.063486904 -0.06225893 -0.17601801 0.16319282
-0.12548706 0.08321127 0.006327721 0.022948787 -0.10945387 -0.014282472 0.011701532 0.09660441
0.07897738 -0.055656537 0.014874638 0.061236285 0.12260855 -0.11720612 0.061925963 0.09409411
-0.13258015 -0.1196745 -0.08010002 -0.042363457 0.07348076 -0.10418865 0.05682252 0.14318533

network_body._body_endoder.seq_layers.2.bias f4 [128]
00000000: ddd5 0dbc faa2 c6ba 758f 0b3c bc97 273c
00000010: 26d3 933b 1a82 22bc 6138 ed3b 3c77 1f3c
00000020: b68b 2c3c 3da2 10bc ca9e df39 b8b4 103c
00000030: 1b1a 74b9 fb40 993b ffef 4abc 352a fcbb
00000040: 34f2 163b c6d4 263c 7d0c 0fbb 39e2 9dba
00000050: 2abb 273c 53d9 b23c a83f 7bbb 6f27 5f3c
00000060: 4ba3 98ba ea92 61bc ebe1 293c 8311 41bc
00000070: c7f3 0abb 1717 f23b d751 22bc 184e 9d3b
00000080: fca4 9f3a 7153 1e3c c389 533c f1f3 f83b
00000090: abac c5bb bd5e bf3b b3cc 62bc 98b7 eabb
000000a0: b482 eabb 4f78 0abb 26ea 433c 6e6e 7c3c
000000b0: 00ca 03bc 1b13 b23b 0087 a43b ab83 2c3c
000000c0: b39d dd3b f1ad 5ebc 928e 0b3b d18e 18bc
000000d0: 6b72 583c 85d5 3e3c b7db a93b 7780 2a3c
000000e0: 6c15 d83b 6041 423c 4fc3 17bc 7b98 823b
000000f0: 4d51 813c b751 5dbc c131 64bc 8481 163b
00000100: deb6 8cbb d061 5a3c 4db8 023c bcc7 473b
00000110: 4a7c b2bc 136b b33b 3390 09bc 9956 d43b
00000120: 9bb5 333c 3d25 43bb 3e6a c33a 512c f93a
00000130: 4418 ac3a c282 d7bb ca64 553b d085 e83b
00000140: 661e 813c b20c 3f3b c85f 193c ef1a dabb
00000150: 6b29 eb3b 9151 1fbc 54f8 633c 6fa7 233b
00000160: be9e e2bb b2fc 2d3c 06cc 98ba 7f5d 5eba
00000170: 94bb eabb 623a 17bc 2bee 6f3b e71c b63b
00000180: 359c 883c 2c41 4a3b 8860 8139 7268 2abc
00000190: 1b05 163b a9dc 81bb 4fca e93a 4d8d 02bc
000001a0: 3d57 86bb 0899 39bc 61fc ed3b 779e eaba
000001b0: 5b50 053c 0ed0 a7bb 8345 f73b e849 dd3b
000001c0: 6728 603c 798e adbb 3fc2 6ebc 8dac 42bb
000001d0: ff8e 66bb d9f6 3e3b 12ef 943c 5dea 1c3c
000001e0: 5666 333c 2ca2 e9bb d5ec 0c3b e6ed 303b
000001f0: a255 323c a61f e73a d1cf 8bbb d5eb 0dbc
-0.008656946 -0.0015154772 0.00851809 0.010229047 0.004511255 -0.009918714 0.007239387 0.0097330175
0.010531357 -0.008827743 0.00042652182 0.008832149 -0.00023279378 0.0046769357 -0.012386321 -0.007695461
0.0023032548 0.010182565 -0.0021827512 -0.0012045569 0.0102374945 0.021832144 -0.0038337503 0.013620242
-0.0011645345 -0.013767937 0.010368804 -0.01178396 -0.0021202432 0.0073880064 -0.009907207 0.0048005693
0.0012179906 0.009663449 0.012911263 0.0075974395 -0.0060325465 0.005840151 -0.013842749 -0.0071629994
-0.0071566943 -0.0021128838 0.011957681 0.015407188 -0.008043766 0.0054344065 0.005020976 0.010529439
0.006763184 -0.013591276 0.0021294695 -0.009311394 0.013210873 0.011647587 0.0051836628 0.010406605
0.0065943506 0.011856407 -0.009262874 0.0039854622 0.015785838 -0.013508252 -0.013927878 0.002296538
-0.0042942604 0.013328984 0.007978511 0.0030484041 -0.021787781 0.0054754107 -0.008396196 0.00648005
0.010968591 -0.0029776834 0.0014908982 0.00190104 0.001312979 -0.006576867 0.0032561296 0.00709603
0.015761565 0.0029151854 0.009361215 -0.0066560428 0.0071765683 -0.009724037 0.0139141865 0.0024971624
-0.006915896 0.010619329 -0.0011657483 -0.000848256 -0.0071634743 -0.009230228 0.0036610465 0.0055576446
0.016676048 0.00308616 0.0002467672 -0.010400878 0.0022891227 -0.0039630723 0.0017836782 -0.007968259
-0.004099755 -0.011327989 0.007262752 -0.0017900009 0.008136834 -0.0051212376 0.0075461282 0.006753195
0.013681508 -0.005296525 -0.014572679 -0.00297049 -0.0035180447 0.0029138832 0.018180404 0.009577361
0.010949692 -0.007129928 0.0021503468 0.0026997267 0.010884674 0.0017633333 -0.004266717 -0.008662184

action_model._discrete_distribution.branches.0.weight f4 [80, 128]
00000000: 2402 f5bb 6995 f8bb e750 853c fbeb 43bc
00000010: 8c8f da3b c166 70bc c430 9abc a1c3 d4bb
00000020: 2886 9cba 7b72 babb 26be a83c 8629 b6bb
00000030: 0571 a3bc f27d a93b 4ba5 8a3a c96f bf3c
00000040: dfb8 b6bb 37da af3b 8447 973c 24a3 a9bc
00000050: 5a37 f1bc b723 c7ba ec9e 0fbc 34c7 933c
00000060: 2f95 483b 4c2b 6c3a 1249 513c 9ecf fa3b
00000070: d14e c23c 854d 5ebc 16ab b639 7ae0 89bc
00000080: f670 0cbc a245 853a 1d12 a2bc a7a0 30bc
00000090: f686 993b 0d0b a03c 8f3a 0cbb 8898 833c
000000a0: 08b5 8f3c 859d 99bc 3fa3 75ba 375a 7bbc
000000b0: 7833 c1bb a372 3739 c21c 07bc 401c 1ebc
000000c0: dd1e 0cbc 3c06 7f3c 2222 15bc 8267 3abb
000000d0: 0708 53bc 484d 24bb 2bfc 183b b7e8 793b
000000e0: 2cbc 3abc fbe9 4abc e6d5 763c 897e b1bb
000000f0: e569 03bc 4671 303b d025 493c 5996 eb3b
00000100: ca98 0b3a 98c1 e93a 6e4f b93a 1fb0 51bc
00000110: 0f89 3e3c 1b17 1cbc ba73 773b 921a babc
00000120: b047 c0b7 0a0e a73c e876 c13a 0a74 123c
00000130: fc0c 6ebc de69 1e3c 9e1b 813c 4ae7 9abc
00000140: 31c6 673c 9ab9 273c d61b 46bc 0944 e03b
00000150: 5817 df3b 246d 393a 1596 523c 31e2 d13b
00000160: 045c 873c 5436 fa39 d966 99b9 dbc2 03bc
00000170: aed3 9b3c e942 42bc 0747 0bbc 1621 d93c
00000180: c325 2ebc c15a 7c3b 2ab5 64bc 6cb9 06bc
00000190: 593a 00bc 31a9 973c d601 6a3c ef54 053c
000001a0: 3ded e1bb 474a 69bc 98b3 96bc 98cf 81bb
000001b0: f062 693b f273 eb3b 44c9 12bb aae6 c3bb
000001c0: 78b9 6937 01e9 833b 7855 813b 4364 0238
000001d0: b44d a53b 5943 7ebc a605 28bc f1fa 933b
000001e0: 7718 56ba e0d3 933b 519b 1dba f065 08bc
000001f0: a8e1 0c3c 1272 0fbb 697d 883c 01a2 073c
00000200: dde7 933b f285 a8bb e5a7 0c3c a313 02bc
00000210: d3c8 85bc b226 8a3b d8e0 5c3b c273 7bbb
00000220: d875 11bb 79d0 f03b b612 7dbb 52e9 f2bc
00000230: 5216 88bc 3932 653c c9ea 1c3b 6288 463a
00000240: 0c2f 8c3c 93d3 8bba 8ddc a03b 7ef9 2cbc
00000250: 056b fd3a b290 fa3b e66e ef3b 2e71 f0bb
00000260: fe54 2e3c 43a5 803c 33fe 1abc 2544 2cbc
00000270: d25e bebb a57b f5bb dae9 563c 92f1 b6bc
00000280: 6046 1ebb 1f64 7e3b bf9a 263b 0bd8 6ebc
00000290: f903 e7bb 38f5 9e3b 4904 293c dd37 ca3c
000002a0: 7931 223c 46d1 fbbb a0a6 e1bb b49e 213c
000002b0: d64f a1ba 08ff 76bb 17d7 75bb 0e85 20bc
000002c0: aeff 9cbc 7af4 073c 2b21 2eba 48b2 093c
000002d0: 7ea0 abbb ba67 093c 6946 ddba 093f 41bc
000002e0: b9f3 803b a8ae 21bc 09c2 dc3a df89 02bc
000002f0: b40e 883b 4185 1b3a b439 043c fda6 aeba
00000300: a73a 293c 114b 94bb 04f8 10bc 6309 98bb
00000310: edd7 4e3b 0c24 973b 0c0b 9a3c e282 e1bc
00000320: 3384 23bb 66f0 6f3c 634a 03bc 96c1 0c3b
00000330: c9d0 b1bb 00bd 30bc 3824 933b 3a87 58bc
00000340: b63a d4b8 326b b4bb bf66 e1bb 10bd 9bbb
00000350: 5fae c63b 8bf4 06bc e59b ddbb a2d9 93bb
00000360: 59a7 033c f847 2ebc e37c 533c d6b9 373a
00000370: 8e96 603c 6975 2d3c 3bcb 303b 09ab 51b9
00000380: a4b8 e0b9 dbcd 713c 34cb 65bc 2aa4 843c
00000390: 5ebb 04bc 27e4 75bb e25d 8b3c 4b08 a63b
000003a0: d072 3c3c 0df5 033b 827a aabc 3955 4ebb
000003b0: 5c82 1b3c 3aef 9d3c 7d57 ca3a 47b9 d7b9
000003c0: d9f8 9e3c 5795 0a3c 94e2 2abc 0359 27bb
000003d0: 665b 393c e93d 53bb 34ae 27b9 1f8a 15bb
000003e0: b020 033c 7f18 fbba 5cbe eb3a f8b5 4f39
000003f0: a657 d13b 44e6 fbbb 4ff7 fb3b cbb4 f03b
-0.007477062 -0.0075861705 0.016273929 -0.011958118 0.006669944 -0.014672936 -0.018822081 -0.0064930473
-0.0011941837 -0.0056899167 0.020598482 -0.005559149 -0.019951353 0.0051724846 0.0010577826 0.023368733
-0.0055762376 0.0053665894 0.018466718 -0.020707674 -0.029445339 -0.0015193139 -0.008765917 0.018039323
0.0030606498 0.0009009137 0.012773769 0.0076541444 0.023719223 -0.013568287 0.00034841214 -0.016830672
-0.008571854 0.0010167847 -0.019784028 -0.01078049 0.004685278 0.01953652 -0.0021397208 0.016063944
0.017542377 -0.018751869 -0.0009370334 -0.015341333 -0.005896028 0.00017494945 -0.0082466025 -0.00965029
-0.00855228 0.015565451 -0.009102376 -0.0028443043 -0.012880332 -0.0025070477 0.0023343663 0.0038133094
-0.011397403 -0.012384887 0.015065646 -0.0054166955 -0.008020853 0.0026922985 0.012277082 0.0071895537
0.00053251965 0.0017834185 0.0014138052 -0.012798338 0.011629357 -0.009526993 0.0037758187 -0.022717748
-2.2921566e-05 0.020392437 0.0014760168 0.008938799 -0.014529463 0.009668795 0.01576024 -0.018909115
0.014146374 0.010237122 -0.012091598 0.006844048 0.0068082027 0.0007073453 0.012853165 0.006405138
0.016523369 0.00047724193 -0.00029259062 -0.008042063 0.019021835 -0.011856773 -0.008500821 0.026505034
-0.01062912 0.0038506242 -0.0139592085 -0.008222919 -0.007826411 0.018513294 0.014282664 0.0081379255
-0.006894736 -0.0142389005 -0.018396184 -0.0039615147 0.003561195 0.0071854526 -0.0022397796 -0.005978425
1.3931065e-05 0.004025579 0.0039469562 3.108779e-05 0.0050446633 -0.015518987 -0.010255253 0.0045159985
-0.00081670977 0.0045113415 -0.00060122187 -0.008325085 0.0085987225 -0.002188806 0.016661363 0.008278371
0.0045137242 -0.0051429207 0.008584951 -0.007939252 -0.016331112 0.0042160386 0.0033703353 -0.0038368558
-0.0022195484 0.0073490706 -0.003861589 -0.029652271 -0.016612206 0.013989025 0.0023943654 0.0007573423
0.017112277 -0.0010667912 0.004909104 -0.01055753 0.0019334262 0.0076466436 0.0073069213 -0.007337711
0.010640381 0.015703803 -0.00946002 -0.010514294 -0.0058096433 -0.007491546 0.013117278 -0.022331987
-0.0024150833 0.0038817 0.0025421826 -0.014577876 -0.007050034 0.0048510097 0.010315963 0.02468484
0.0098994905 -0.0076848594 -0.0068863183 0.009864498 -0.0012307118 -0.0037688632 -0.0037512237 -0.009797348
-0.019164886 0.008298034 -0.00066425157 0.008404322 -0.005237638 0.008386547 -0.0016881946 -0.011794814
0.003935304 -0.009868301 0.0016842495 -0.007967441 0.0041521434 0.0005932637 0.008070398 -0.0013324913
0.010328925 -0.00452555 -0.008848194 -0.004639791 0.0031561807 0.0046124514 0.018804096 -0.02752823
-0.0024950623 0.014644718 -0.008013341 0.002147769 -0.0054265005 -0.010787249 0.0044904016 -0.013215834
-0.000101198835 -0.0055059427 -0.0068787034 -0.0047527626 0.006063267 -0.0082370145 -0.006762969 -0.004512028
0.008035504 -0.010637276 0.012908193 0.00070085877 0.01370777 0.010587075 0.0026976604 -0.00019995509
-0.00042862177 0.014758552 -0.014025498 0.01619156 -0.008101312 -0.0037520023 0.01701254 0.0050669066
0.011501983 0.0020135075 -0.02081037 -0.0031483902 0.009491529 0.019279111 0.001543745 -0.00041146038
0.01940577 0.008458457 -0.010429997 -0.0025535233 0.011313295 -0.0032232946 -0.00015991257 -0.0022817922
0.008003399 -0.0019157081 0.0017985809 0.00019808847 0.0063886223 -0.007687362 0.0076893936 0.007345771

action_model._discrete_distribution.branches.0.bias f4 [80]
00000000: ef6f 8bbb c7ab a4bb 7560 ac39 9c62 8d3b
00000010: cc65 29bb dde3 17bc e6ed 053a a192 6ebc
00000020: cf94 89bb 62e1 1bbc df5c a6bb 552f a7bb
00000030: d82d 91bc a8a9 67bb b106 e5ba cf6f 6e3b
00000040: 702e 953b be9a 8f39 d88e 49bb 248e 66bc
00000050: 8f4c 3b3a 5c65 03ba c88c ef3a 5f06 80bc
00000060: 7fd5 e1b9 8bbb 90bb cd79 d1bb 86dd af3a
00000070: 0951 4abc f3d8 c2bb 340b f4ba 2a80 78bc
00000080: cf94 86b9 720f 123a 9527 ba3b 3066 853a
00000090: 9a61 8bbc 1c1b 743a d383 1ebc 14d2 5cbc
000000a0: 4f9a 9fba 8a41 d93b a44b a03b 1299 6ebb
000000b0: 24f7 79bb 72ef 7cbb 3057 07bc 3a5b 0dbc
000000c0: 43a6 8cbc bcf4 1d3b 4304 ab3b 76fe 0fbc
000000d0: 821b 81bb a863 bcba 781b 7cbc c49e 353b
000000e0: 989c 66bb f085 463b 8075 9fb7 49e1 59bc
000000f0: 466e e1bb e033 1e3b f459 dcbb 9ff0 03bc
00000100: 6729 a8bb 3abc b83a 1d0d 6fbb 7604 6339
00000110: 72ea 02bc 609f 4fbc a622 76bc c05d a93a
00000120: 8c27 773b 8fc4 68bc a412 dab8 8535 83bc
00000130: bc9b 41bc 3d63 423b e1d0 323a a11d 7fbc
-0.004255287 -0.0050253603 0.00032878263 0.0043147337 -0.002584803 -0.009270635 0.0005108997 -0.014561326
-0.0041986476 -0.009514185 -0.005076989 -0.005102078 -0.017722055 -0.0035348926 -0.0017473308 0.003638256
0.004552655 0.00027390377 -0.0030755308 -0.014071975 0.0007144892 -0.0005012357 0.0018276209 -0.015628038
-0.0004307441 -0.004416888 -0.0063926936 0.001341746 -0.012348422 -0.0059462725 -0.0018619061 -0.015167275
-0.00025669343 0.00055717595 0.005680988 0.0010177549 -0.017014313 0.0009311901 -0.009674984 -0.013477821
-0.0012176725 0.0066301273 0.0048918296 -0.0036407155 -0.0038141692 -0.003859487 -0.008260533 -0.008627707
-0.017169124 0.0024102172 0.005219014 -0.008788696 -0.0039400468 -0.0014372962 -0.015387408 0.002771304
-0.0035188552 0.0030292235 -1.9008992e-05 -0.013298341 -0.0068796007 0.0024139807 -0.0067245904 -0.008052974
-0.0051318887 0.0014094182 -0.0036476322 0.00021650069 -0.007990466 -0.012672275 -0.015022909 0.0012921616
0.003771278 -0.0142070195 -0.00010398522 -0.016016731 -0.011816915 0.0029661201 0.00068212865 -0.015571029

exp_avg f4 [128, 81]
00000000: 0000 0000 0000 0000 0000 0000 0000 0000
00000010: 0000 0000 0000 0000 0000 0000 0000 0000
00000020: 0000 0000 0000 0000 0000 0000 0000 0000
00000030: 0000 0000 0000 0000 0000 0000 0000 0000
00000040: 0000 0000 0000 0000 0000 0000 0000 0000
00000050: 0000 0000 0000 0000 0000 0000 0000 0000
00000060: 2949 65b7 ef74 bc37 0000 0000 0000 0000
00000070: 0000 0000 0000 0000 0000 0000 0000 0000
00000080: 0000 0000 0000 0000 0000 0000 0000 0000
00000090: 0000 0000 0000 0000 0000 0000 0000 0000
000000a0: 0000 0000 0000 0000 256d a0b3 5f76 a036
000000b0: 0000 0000 0000 0000 0000 0000 0000 0000
000000c0: 0000 0000 0000 0000 e34c 1bb8 0000 0000
000000d0: 0000 0000 0000 0000 0000 0000 0000 0000
000000e0: 0000 0000 0000 0000 0000 0000 0000 0000
000000f0: 0000 0000 0000 0000 0000 0000 0000 0000
00000100: 46dd 51b5 0000 0000 0000 0000 0000 0000
00000110: fadd 2734 0000 0000 0000 0000 0000 0000
00000120: 0000 0000 0000 0000 0000 0000 0000 0000
00000130: 0000 0000 0000 0000 0000 0000 0000 0000
00000140: 0000 0000 0000 0000 0000 0000 0000 0000
00000150: 0000 0000 0000 0000 0000 0000 0000 0000
00000160: 0000 0000 0000 0000 0000 0000 0000 0000
00000170: 0000 0000 0000 0000 0000 0000 0000 0000
00000180: 0000 0000 0000 0000 0000 0000 0000 0000
00000190: 0000 0000 0000 0000 0000 0000 0000 0000
000001a0: 0000 0000 3aba 15b8 3cf2 ee35 0000 0000
000001b0: 0000 0000 0000 0000 0000 0000 0000 0000
000001c0: 0000 0000 0000 0000 0000 0000 0000 0000
000001d0: 0000 0000 0000 0000 0000 0000 0000 0000
000001e0: 0000 0000 0000 0000 0000 0000 9c71 a5b3
000001f0: f14b 55b7 0000 0000 0000 0000 0000 0000
00000200: 0000 0000 0000 0000 0000 0000 3102 61b6
00000210: 0000 0000 0000 0000 0000 0000 0000 0000
00000220: 0000 0000 0000 0000 0000 0000 0000 0000
00000230: 0000 0000 0000 0000 0000 0000 0000 0000
00000240: 0000 0000 6921 8235 0000 0000 0000 0000
00000250: 0000 0000 5046 06b2 0000 0000 0000 0000
00000260: 0000 0000 0000 0000 0000 0000 0000 0000
00000270: 0000 0000 0000 0000 0000 0000 0000 0000
00000280: 0000 0000 0000 0000 0000 0000 0000 0000
00000290: 0000 0000 0000 0000 0000 0000 0000 0000
000002a0: 0000 0000 0000 0000 0000 0000 0000 0000
000002b0: 0000 0000 0000 0000 0000 0000 0000 0000
000002c0: 0000 0000 0000 0000 0000 0000 0000 0000
000002d0: 0000 0000 0000 0000 0000 0000 0000 0000
000002e0: 0000 0000 0000 0000 2341 1c38 66fa c835
000002f0: 0000 0000 0000 0000 0000 0000 0000 0000
00000300: 0000 0000 0000 0000 0000 0000 0000 0000
00000310: 0000 0000 0000 0000 0000 0000 0000 0000
00000320: 0000 0000 0000 0000 0000 0000 0000 0000
00000330: 234f e533 3e5e 22b7 0000 0000 0000 0000
00000340: 0000 0000 0000 0000 0000 0000 0000 0000
00000350: ba1d 8334 0000 0000 0000 0000 0000 0000
00000360: 0000 0000 0000 0000 0000 0000 0000 0000
00000370: 0000 0000 0000 0000 0000 0000 0000 0000
00000380: 0000 0000 0000 0000 4c59 bcb6 0000 0000
00000390: 0000 0000 0000 0000 fbce 1132 0000 0000
000003a0: 0000 0000 0000 0000 0000 0000 0000 0000
000003b0: 0000 0000 0000 0000 0000 0000 0000 0000
000003c0: 0000 0000 0000 0000 0000 0000 0000 0000
000003d0: 0000 0000 0000 0000 0000 0000 0000 0000
000003e0: 0000 0000 0000 0000 0000 0000 0000 0000
000003f0: 0000 0000 0000 0000 0000 0000 0000 0000
0.0 0.0 0.0 0.0 0.0 0.0 0.0 0.0
0.0 0.0 0.0 0.0 0.0 0.0 0.0 0.0
0.0 0.0 0.0 0.0 0.0 0.0 0.0 0.0
-1.3666498e-05 2.2465798e-05 0.0 0.0 0.0 0.0 0.0 0.0
0.0 0.0 0.0 0.0 0.0 0.0 0.0 0.0
0.0 0.0 -7.470434e-08 4.782152e-06 0.0 0.0 0.0 0.0
0.0 0.0 -3.7026486e-05 0.0 0.0 0.0 0.0 0.0
0.0 0.0 0.0 0.0 0.0 0.0 0.0 0.0
-7.818056e-07 0.0 0.0 0.0 1.5633842e-07 0.0 0.0 0.0
0.0 0.0 0.0 0.0 0.0 0.0 0.0 0.0
0.0 0.0 0.0 0.0 0.0 0.0 0.0 0.0
0.0 0.0 0.0 0.0 0.0 0.0 0.0 0.0
0.0 0.0 0.0 0.0 0.0 0.0 0.0 0.0
0.0 -3.5697805e-05 1.7802881e-06 0.0 0.0 0.0 0.0 0.0
0.0 0.0 0.0 0.0 0.0 0.0 0.0 0.0
0.0 0.0 0.0 -7.704077e-08 -1.2713471e-05 0.0 0.0 0.0
0.0 0.0 0.0 -3.3528888e-06 0.0 0.0 0.0 0.0
0.0 0.0 0.0 0.0 0.0 0.0 0.0 0.0
0.0 9.695478e-07 0.0 0.0 0.0 -7.815814e-09 0.0 0.0
0.0 0.0 0.0 0.0 0.0 0.0 0.0 0.0
0.0 0.0 0.0 0.0 0.0 0.0 0.0 0.0
0.0 0.0 0.0 0.0 0.0 0.0 0.0 0.0
0.0 0.0 0.0 0.0 0.0 0.0 0.0 0.0
0.0 0.0 3.725396e-05 1.4974037e-06 0.0 0.0 0.0 0.0
0.0 0.0 0.0 0.0 0.0 0.0 0.0 0.0
0.0 0.0 0.0 0.0 1.06780384e-07 -9.677895e-06 0.0 0.0
0.0 0.0 0.0 0.0 2.442228e-07 0.0 0.0 0.0
0.0 0.0 0.0 0.0 0.0 0.0 0.0 0.0
0.0 0.0 -5.613232e-06 0.0 0.0 0.0 8.487173e-09 0.0
0.0 0.0 0.0 0.0 0.0 0.0 0.0 0.0
0.0 0.0 0.0 0.0 0.0 0.0 0.0 0.0
0.0 0.0 0.0 0.0 0.0 0.0 0.0 0.0

exp_avg_sq f4 [128, 81]
00000000: 0000 0000 0000 0000 0000 0000 0000 0000
00000010: 0000 0000 0000 0000 0000 0000 0000 0000
00000020: 0000 0000 0000 0000 0000 0000 0000 0000
00000030: 0000 0000 0000 0000 0000 0000 0000 0000
00000040: 0000 0000 0000 0000 0000 0000 0000 0000
00000050: 0000 0000 0000 0000 0000 0000 0000 0000
00000060: 4690 ca2e 7381 612e 0000 0000 0000 0000
00000070: 0000 0000 0000 0000 0000 0000 0000 0000
00000080: 0000 0000 0000 0000 0000 0000 0000 0000
00000090: 0000 0000 0000 0000 0000 0000 0000 0000
000000a0: 0000 0000 0000 0000 49bd 432f f9c6 962e
000000b0: 0000 0000 0000 0000 0000 0000 0000 0000
000000c0: 0000 0000 0000 0000 22e3 a42e 0000 0000
000000d0: 0000 0000 0000 0000 0000 0000 0000 0000
000000e0: 0000 0000 0000 0000 0000 0000 0000 0000
000000f0: 0000 0000 0000 0000 0000 0000 0000 0000
00000100: 3350 122f 0000 0000 0000 0000 0000 0000
00000110: 57ee 4b2d 0000 0000 0000 0000 0000 0000
00000120: 0000 0000 0000 0000 0000 0000 0000 0000
00000130: 0000 0000 0000 0000 0000 0000 0000 0000
00000140: 0000 0000 0000 0000 0000 0000 0000 0000
00000150: 0000 0000 0000 0000 0000 0000 0000 0000
00000160: 0000 0000 0000 0000 0000 0000 0000 0000
00000170: 0000 0000 0000 0000 0000 0000 0000 0000
00000180: 0000 0000 0000 0000 0000 0000 0000 0000
00000190: 0000 0000 0000 0000 0000 0000 0000 0000
000001a0: 0000 0000 c804 122f 8028 212e 0000 0000
000001b0: 0000 0000 0000 0000 0000 0000 0000 0000
000001c0: 0000 0000 0000 0000 0000 0000 0000 0000
000001d0: 0000 0000 0000 0000 0000 0000 0000 0000
000001e0: 0000 0000 0000 0000 0000 0000 38b7 382f
000001f0: 7db9 982e 0000 0000 0000 0000 0000 0000
00000200: 0000 0000 0000 0000 0000 0000 b942 062e
00000210: 0000 0000 0000 0000 0000 0000 0000 0000
00000220: 0000 0000 0000 0000 0000 0000 0000 0000
00000230: 0000 0000 0000 0000 0000 0000 0000 0000
00000240: 0000 0000 0e89 272f 0000 0000 0000 0000
00000250: 0000 0000 7fd5 ef2d 0000 0000 0000 0000
00000260: 0000 0000 0000 0000 0000 0000 0000 0000
00000270: 0000 0000 0000 0000 0000 0000 0000 0000
00000280: 0000 0000 0000 0000 0000 0000 0000 0000
00000290: 0000 0000 0000 0000 0000 0000 0000 0000
000002a0: 0000 0000 0000 0000 0000 0000 0000 0000
000002b0: 0000 0000 0000 0000 0000 0000 0000 0000
000002c0: 0000 0000 0000 0000 0000 0000 0000 0000
000002d0: 0000 0000 0000 0000 0000 0000 0000 0000
000002e0: 0000 0000 0000 0000 c4ca a82e dba8 dc2d
000002f0: 0000 0000 0000 0000 0000 0000 0000 0000
00000300: 0000 0000 0000 0000 0000 0000 0000 0000
00000310: 0000 0000 0000 0000 0000 0000 0000 0000
00000320: 0000 0000 0000 0000 0000 0000 0000 0000
00000330: 238f 0b2f be09 302e 0000 0000 0000 0000
00000340: 0000 0000 0000 0000 0000 0000 0000 0000
00000350: c08d 062e 0000 0000 0000 0000 0000 0000
00000360: 0000 0000 0000 0000 0000 0000 0000 0000
00000370: 0000 0000 0000 0000 0000 0000 0000 0000
00000380: 0000 0000 0000 0000 585b 842f 0000 0000
00000390: 0000 0000 0000 0000 11e1 c62d 0000 0000
000003a0: 0000 0000 0000 0000 0000 0000 0000 0000
000003b0: 0000 0000 0000 0000 0000 0000 0000 0000
000003c0: 0000 0000 0000 0000 0000 0000 0000 0000
000003d0: 0000 0000 0000 0000 0000 0000 0000 0000
000003e0: 0000 0000 0000 0000 0000 0000 0000 0000
000003f0: 0000 0000 0000 0000 0000 0000 0000 0000
0.0 0.0 0.0 0.0 0.0 0.0 0.0 0.0
0.0 0.0 0.0 0.0 0.0 0.0 0.0 0.0
0.0 0.0 0.0 0.0 0.0 0.0 0.0 0.0
9.2115246e-11 5.127405e-11 0.0 0.0 0.0 0.0 0.0 0.0
0.0 0.0 0.0 0.0 0.0 0.0 0.0 0.0
0.0 0.0 1.7802394e-10 6.856555e-11 0.0 0.0 0.0 0.0
0.0 0.0 7.4982034e-11 0.0 0.0 0.0 0.0 0.0
0.0 0.0 0.0 0.0 0.0 0.0 0.0 0.0
1.3307115e-10 0.0 0.0 0.0 1.1592136e-11 0.0 0.0 0.0
0.0 0.0 0.0 0.0 0.0 0.0 0.0 0.0
0.0 0.0 0.0 0.0 0.0 0.0 0.0 0.0
0.0 0.0 0.0 0.0 0.0 0.0 0.0 0.0
0.0 0.0 0.0 0.0 0.0 0.0 0.0 0.0
0.0 1.3280321e-10 3.6643133e-11 0.0 0.0 0.0 0.0 0.0
0.0 0.0 0.0 0.0 0.0 0.0 0.0 0.0
0.0 0.0 0.0 1.6799795e-10 6.945109e-11 0.0 0.0 0.0
0.0 0.0 0.0 3.0527334e-11 0.0 0.0 0.0 0.0
0.0 0.0 0.0 0.0 0.0 0.0 0.0 0.0
0.0 1.5237253e-10 0.0 0.0 0.0 2.7265966e-11 0.0 0.0
0.0 0.0 0.0 0.0 0.0 0.0 0.0 0.0
0.0 0.0 0.0 0.0 0.0 0.0 0.0 0.0
0.0 0.0 0.0 0.0 0.0 0.0 0.0 0.0
0.0 0.0 0.0 0.0 0.0 0.0 0.0 0.0
0.0 0.0 7.675774e-11 2.5086091e-11 0.0 0.0 0.0 0.0
0.0 0.0 0.0 0.0 0.0 0.0 0.0 0.0
0.0 0.0 0.0 0.0 1.2692829e-10 4.002642e-11 0.0 0.0
0.0 0.0 0.0 0.0 3.0593972e-11 0.0 0.0 0.0
0.0 0.0 0.0 0.0 0.0 0.0 0.0 0.0
0.0 0.0 2.4075564e-10 0.0 0.0 0.0 2.2609943e-11 0.0
0.0 0.0 0.0 0.0 0.0 0.0 0.0 0.0
0.0 0.0 0.0 0.0 0.0 0.0 0.0 0.0
0.0 0.0 0.0 0.0 0.0 0.0 0.0 0.0

exp_avg f4 [128]
00000000: 0873 f1b7 11a3 54b8 4e94 f637 cf8d 47b6
00000010: e35f 0038 6bb8 e337 eff7 50b8 b2f1 cdb8
00000020: cb7f bb38 d817 07b6 8f3b e7b8 1a2c 2cb8
00000030: 2395 9f38 ad76 9e38 f325 5bb8 1240 9637
00000040: 7fee bbb8 dd05 6bb7 40b7 7d38 9c0f 4137
00000050: 42c1 d4b8 081f 4ab8 0a87 58b8 edb9 1939
00000060: 6971 15b8 9cf0 b1b8 9e1d 27b8 b29c 8036
00000070: 8e30 e5b7 6f48 9eb8 0c51 b837 27fb 35b8
00000080: 10c2 c0b8 c027 fbb7 c01f 0039 c7a4 6638
00000090: 568b 3137 202b 3bb8 ebb1 9937 968f 0fb8
000000a0: a2a2 d9b7 cd72 e036 d435 cc38 3328 b738
000000b0: 4a1a 8f38 3b1e 7338 980f 3738 95d4 1fb9
000000c0: 249c f337 6efd 72b8 818b 5c38 f1f3 18b8
000000d0: cf6f eeb7 b9f7 0b38 7bb3 2838 5f14 7a38
000000e0: 9608 deb7 88e1 5eb6 5e17 eab8 0db4 22b9
000000f0: 984d 13b8 ce4b 9bb8 db6c 89b8 3618 69b7
00000100: 0eb3 ce38 9d65 feb8 2e50 adb8 727d b3b8
00000110: d880 d236 9c08 a3b8 7e88 ef38 f481 74b6
00000120: 963c 10b8 e9e9 aab8 44f1 8538 901f 4fb8
00000130: 59f2 b0b8 0752 9b38 3a7f 9f38 b3d4 8bb8
00000140: 0ccc 4a38 e764 a2b8 9789 4a38 096b 08b6
00000150: abde db37 93df 6b38 491c 2bb9 e276 1439
00000160: d006 25b9 8ed5 0238 3951 ffb8 85c6 9a36
00000170: b6d1 f237 82f1 6b36 16d6 41b8 10c6 44b8
00000180: 3601 b7b7 ef45 5bb7 c3a4 c938 482a 6237
00000190: 174e 99b8 efb6 8e38 570c 8b37 9bf2 5b38
000001a0: 433d b6b7 8c07 6eb8 ea8c d937 beaa 09b5
000001b0: d6a2 ceb7 c839 e7b8 bafe 3b38 4597 43b8
000001c0: 9230 8e37 81c6 49b7 40f9 94b8 9683 9ab8
000001d0: 32f8 c338 c02f 95b8 2fe8 d3b7 376e c1b7
000001e0: b67c 0cb9 d6c2 0e38 ec86 4c38 4551 d738
000001f0: 58e4 5737 827f 2db8 d07a abb8 f4dd 5638
-2.8783004e-05 -5.0696606e-05 2.9394545e-05 -2.9735854e-06 3.060688e-05 2.7146385e-05 -4.982197e-05 -9.820181e-05
8.940658e-05 -2.0130447e-06 -0.00011026032 -4.104907e-05 7.60949e-05 7.556132e-05 -5.224901e-05 1.7911228e-05
-8.961278e-05 -1.4008457e-05 6.0490565e-05 1.1507331e-05 -0.00010144945 -4.8189453e-05 -5.1624178e-05 0.0001466048
-3.562999e-05 -8.484835e-05 -3.9843486e-05 3.832939e-06 -2.7321537e-05 -7.547519e-05 2.197225e-05 -4.3387667e-05
-9.1914204e-05 -2.9940042e-05 0.00012218859 5.4989734e-05 1.0582464e-05 -4.4624438e-05 1.832187e-05 -3.422758e-05
-2.5944148e-05 6.689085e-06 9.737504e-05 8.733608e-05 6.823668e-05 5.796387e-05 4.3645123e-05 -0.00015242615
2.9040566e-05 -5.793332e-05 5.258201e-05 -3.6466812e-05 -2.8423876e-05 3.3370892e-05 4.0221476e-05 5.9623617e-05
-2.646846e-05 -3.3211854e-06 -0.00011162342 -0.00015516598 -3.5119796e-05 -7.405096e-05 -6.552945e-05 -1.3893519e-05
9.856197e-05 -0.00012130591 -8.2642175e-05 -8.558751e-05 6.273487e-06 -7.774049e-05 0.00011421832 -3.6434476e-06
-3.43887e-05 -8.149801e-05 6.3868734e-05 -4.938204e-05 -8.437475e-05 7.406255e-05 7.6054086e-05 -6.667655e-05
4.8350586e-05 -7.7435565e-05 4.8288694e-05 -2.0327882e-06 2.6210522e-05 5.6236586e-05 -0.00016318368 0.00014158667
-0.00015738164 3.1193304e-05 -0.000121744764 4.6126684e-06 2.8946302e-05 3.5158305e-06 -4.621417e-05 -4.69145e-05
-2.1815864e-05 -1.30697e-05 9.615116e-05 1.3480494e-05 -7.310154e-05 6.805162e-05 1.6575837e-05 5.2439613e-05
-2.1724618e-05 -5.675065e-05 2.5934034e-05 -5.128494e-07 -2.463294e-05 -0.00011025701 4.4821507e-05 -4.6632504e-05
1.6950336e-05 -1.2026751e-05 -7.1036164e-05 -7.367802e-05 9.3445546e-05 -7.113768e-05 -2.5261279e-05 -2.3058716e-05
-0.00013397899 3.4036893e-05 4.8763046e-05 0.000102671365 1.2868164e-05 -4.1365165e-05 -8.176791e-05 5.1228286e-05

exp_avg_sq f4 [128]
00000000: 765b 4030 065c 2d30 7c2f 2430 9a2a ea2f
00000010: 0f2f ef30 72e8 cb2f 8230 2a30 8b6f 8a30
00000020: 29e9 c730 2fb6 4c30 a4cf b630 a42b 2330
00000030: af23 5230 9c9a 3c30 3a15 f02f 5458 1f30
00000040: 2f23 3131 8383 a330 4a22 1530 1d93 3330
00000050: b611 9c30 a4ac 6830 00c0 4030 1e5c 2331
00000060: 11cb b72f 0dc5 9f30 2a92 6630 2525 e02f
00000070: b75f 3430 10f2 4730 fe44 6d30 dae9 7b30
00000080: 98c6 bb30 1ee1 5d30 5970 ff30 b20b 6a30
00000090: 3ca1 9e30 6b4d 9630 4ff6 1930 f33b 8e30
000000a0: c03b 8e30 d9ec 8830 e1ad c630 314c 1b31
000000b0: 048e 7830 89e5 1630 d46c c930 d44f f730
000000c0: a4c5 1630 f429 6130 85af e030 a9c5 1b30
000000d0: 3f77 5030 2842 4030 62a9 5330 280c 1030
000000e0: 5a66 2a30 4a34 ec2f 67ec b930 c4dc d730
000000f0: 1014 3b30 8f8c 2530 70fc 8330 24cc 3630
00000100: 834e 7230 7c44 ee30 9828 8130 96f7 8730
00000110: 8f05 7130 2bae a030 54c0 9e30 f3ab 0130
00000120: 26b7 5730 d021 b130 0811 8d30 0a92 6c30
00000130: d37d 8830 e96c 9430 2fc7 0c31 a6d9 8e30
00000140: e0e6 fc30 6b47 6d30 96c6 9930 ef5c 4330
00000150: 5ddc 2a30 8d25 8430 5fff 2731 63e3 f230
00000160: c643 1231 928b ea2f 618c 0e31 7b2e ce2f
00000170: 898a fb2f 21e1 9d30 a736 9230 39fa 9430
00000180: fb73 a42f f0ca 0d30 c2aa 8930 1dcc e32f
00000190: 98ff 7130 7067 aa30 04ae 6830 dad9 1030
000001a0: 6e94 2630 06b1 f22f 34dd f32f 8d7e 1430
000001b0: d537 1a30 0148 1531 2f79 f92f 0b6d 2530
000001c0: a667 9430 364a 2d30 ff56 0f31 8fb7 1130
000001d0: 106d 1431 3495 3030 6928 9230 8569 7c30
000001e0: e810 af30 1d0e 0530 ddc6 b130 b038 a830
000001f0: d235 bd2f 2c4b be30 d9ce 9930 0442 9b30
6.9979167e-10 6.3067807e-10 5.973033e-10 4.2594622e-10 1.7402914e-09 3.7090647e-10 6.1914573e-10 1.0072524e-09
1.4545424e-09 7.4473666e-10 1.3301258e-09 5.936107e-10 7.6448264e-10 6.8613715e-10 4.3670828e-10 5.7969385e-10
2.577689e-09 1.1897189e-09 5.425461e-10 6.532888e-10 1.1355528e-09 8.4646445e-10 7.012204e-10 2.3771984e-09
3.3431793e-10 1.1624778e-09 8.3881224e-10 4.0771755e-10 6.561964e-10 7.273977e-10 8.631814e-10 9.164559e-10
1.3662484e-09 8.071924e-10 1.8585623e-09 8.5145324e-10 1.1541839e-09 1.093594e-09 5.60111e-10 1.0348898e-09
1.0348842e-09 9.962619e-10 1.4455815e-09 2.2598778e-09 9.042369e-10 5.489587e-10 1.4655606e-09 1.7994304e-09
5.4850546e-10 8.191414e-10 1.6348031e-09 5.6669563e-10 7.583942e-10 6.9943207e-10 7.700206e-10 5.240417e-10
6.199109e-10 4.2965304e-10 1.3527711e-09 1.5706054e-09 6.8058714e-10 6.0226396e-10 9.603252e-10 6.6501316e-10
8.815066e-10 1.7336244e-09 9.397523e-10 9.892911e-10 8.768319e-10 1.1691034e-09 1.1550676e-09 4.717428e-10
7.8476814e-10 1.2888055e-09 1.0263941e-09 8.6063834e-10 9.931064e-10 1.0799371e-09 2.0485904e-09 1.0393719e-09
1.8401032e-09 8.632159e-10 1.1188657e-09 7.1072653e-10 6.2158795e-10 9.614937e-10 2.444686e-09 1.7672445e-09
2.128432e-09 4.2663523e-10 2.0743516e-09 3.7504208e-10 4.575507e-10 1.1487239e-09 1.0638431e-09 1.0839535e-09
2.9913835e-10 5.158389e-10 1.0016594e-09 4.143609e-10 8.803851e-10 1.2398527e-09 8.46484e-10 5.269648e-10
6.060138e-10 4.4145326e-10 4.4358617e-10 5.4021926e-10 5.6104216e-10 2.1723283e-09 4.5378942e-10 6.018161e-10
1.0797876e-09 6.3042493e-10 2.085869e-09 5.3011545e-10 2.159883e-09 6.424046e-10 1.0634383e-09 9.182702e-10
1.2737731e-09 4.8405174e-10 1.2934965e-09 1.223972e-09 3.441714e-10 1.3845685e-09 1.1191005e-09 1.1296497e-09

exp_avg f4 [128, 128]
00000000: 807a abb1 9757 0636 1cfd 1435 0c0c 0cb6
00000010: 5bc6 d535 3566 c2b5 ba95 1b36 9935 0637
00000020: 9c19 b535 7854 b9b6 babb 0f37 3849 4d37
00000030: ffb6 8136 4e72 81b6 66fa 7e36 1560 6f36
00000040: be3a 0db4 fb06 4136 73b2 ddb5 dccf 53b7
00000050: c295 5e37 882f e835 f087 9234 bdf3 42b6
00000060: f630 0735 99c1 8a36 cd34 0737 037a 1736
00000070: ce6c db36 8f6a 9337 3090 a5b6 de29 03b7
00000080: 898d 0b37 ef57 50b6 e344 2eb5 b0fa 1fb7
00000090: a9cd e7b6 6b3e 6bb6 68e4 d7b5 fdbf ef36
000000a0: 6d77 e0b5 ff8f dab6 fc53 80b6 2214 2037
000000b0: d298 b136 dd50 9bb4 5a6c 18b6 30bf 2236
000000c0: d2ad 03b6 d21b dd36 be12 f9b6 9424 6834
000000d0: 1c65 1836 f649 51b5 4198 b236 9878 bfb6
000000e0: a02f 2833 5a21 09b7 f4ce f234 1b4c 6b36
000000f0: d037 b3b6 9fb9 b337 87f0 5837 00e5 d4b2
00000100: 2e0d c5b6 3e37 9437 fadb 2f37 1f56 b4b6
00000110: d915 c035 12c6 5037 d1b0 45b7 0443 c036
00000120: 5a1a 3037 60bf 4eb5 808e 7fb3 69b1 9a36
00000130: 411f 3ab5 8dff c436 890c 83b6 a48d bdb6
00000140: 24e0 3734 e5ed 0c36 c46c 8035 3494 8336
00000150: a657 41b7 607c 2636 a6b6 dd35 9f8f 35b7
00000160: 3c39 22b4 5645 22b7 d7c5 fdb5 002d 6bb5
00000170: cc00 8fb6 fd14 1d36 d4db ed36 3a22 cb35
00000180: 8820 9937 e443 7536 67d2 35b6 9f0c 91b5
00000190: caed 07b7 3a0b 9c36 0a9a 8c37 8f73 b4b5
000001a0: f02c 5ab6 e07b 3337 07bb 23b7 c02b 0a34
000001b0: 30cd c3b4 980b bb34 bbd8 05b7 f637 0c37
000001c0: be6f 9db5 a173 9a36 24c2 ea35 9868 9c35
000001d0: 0052 40b6 6714 6a37 ba56 8936 c8a5 cdb6
000001e0: 41f6 8237 12c4 dcb4 35e8 f936 eef7 d8b6
000001f0: 1343 01b6 7380 12b7 20ee eeb5 d525 28b7
00000200: 2d83 16b6 1068 28b3 83d3 9cb5 8473 d5b5
00000210: b804 04b6 3aa0 7db5 0687 3033 c454 cd35
00000220: 9c77 4d36 ffbc cab5 e102 17b5 9ba5 3734
00000230: 189c 14b5 a00e 1c36 2009 8535 b72b 95b5
00000240: 3553 fab4 69b0 cdb5 ada3 04b5 a85d 0cb5
00000250: d464 80b4 95f7 8fb5 f4c6 05b6 27e9 8135
00000260: 486f ecb5 c973 9736 bfa7 97b5 9862 d234
00000270: f00e 58b6 6ef0 67b5 3b4f 0136 1dcd fab5
00000280: b217 29b6 5135 92b5 9d19 ca35 a2ef dab5
00000290: 614c 8434 5a33 9cb5 709d 8d36 fb43 c434
000002a0: 2572 08b5 925f b033 bd95 7f36 008e 85b6
000002b0: ea0c 4d36 ccb3 45b5 5a8b d835 5123 9eb4
000002c0: 3a57 37b5 4dd9 ec35 c819 3835 98ce dfb5
000002d0: 9aa6 be35 dd52 9236 e01f 2835 b764 d735
000002e0: 4e77 28b5 2448 bf36 74c9 e4b5 1611 a9b6
000002f0: 3a4b 9135 ef16 e4b5 a046 66b6 8be6 c935
00000300: 4722 8936 0a44 9ab5 8050 02b2 5ac2 b7b5
00000310: eaf4 1e35 0c85 06b6 2cc4 8ab5 6e86 9c35
00000320: d47c bfb4 6f48 32b5 e1fe 9cb6 cf99 2bb6
00000330: 6eb1 26b5 e6b2 26b6 9cc7 8bb5 0a96 fd35
00000340: 1804 27b6 292f c7b5 2d74 4bb5 7b5f 1236
00000350: 22e7 c735 c8d7 1ab6 1a4f 82b6 3381 1d35
00000360: c12a 2cb5 2d03 2d36 3ecd cdb5 720b 9835
00000370: ab3e 9bb4 91db 13b5 370b 0236 a40c 1a36
00000380: 8ea5 2535 a1a8 a735 d4a5 6db5 6c79 2d36
00000390: b40a de34 4984 b0b5 78a8 dab5 3b3f 5db5
000003a0: 3a65 7135 ce82 3236 e654 06b6 7f63 1336
000003b0: 702b 4bb6 ee4a 0c36 5470 b2b5 ba76 6d36
000003c0: 8d0c e7b5 4039 a4b6 b73e 2136 f9a5 f5b5
000003d0: 00e9 6c35 05a3 0b36 92cc 57b6 9256 7235
000003e0: de95 8eb5 4475 a732 9230 7235 6e3c 8c36
000003f0: f47c 5136 969e 0e36 44b5 74b5 d011 e334
-4.9906816e-09 2.001854e-06 5.550262e-07 -2.0868638e-06 1.5927466e-06 -1.4483873e-06 2.3183952e-06 7.999502e-06
1.3493004e-06 -5.523263e-06 8.567173e-06 1.2236e-05 3.865803e-06 -3.8578064e-06 3.79947e-06 3.5669702e-06
-1.3153019e-07 2.8763304e-06 -1.6517719e-06 -1.2624976e-05 1.3267099e-05 1.729918e-06 2.7293527e-07 -2.9050127e-06
5.0362667e-07 4.135258e-06 8.058921e-06 2.2571774e-06 6.539375e-06 1.7573386e-05 -4.934169e-06 -7.817956e-06
8.317999e-06 -3.10456e-06 -6.4920295e-07 -9.535506e-06 -6.9082785e-06 -3.505406e-06 -1.6085223e-06 7.1451054e-06
-1.6724058e-06 -6.5136696e-06 -3.8244743e-06 9.541431e-06 5.2928017e-06 -2.8929836e-07 -2.2712834e-06 2.4251167e-06
-1.9621698e-06 6.589552e-06 -7.42296e-06 2.1619991e-07 2.2708618e-06 -7.7966195e-07 5.322538e-06 -5.7062825e-06
3.9158863e-08 -8.173602e-06 4.522659e-07 3.5062028e-06 -5.341113e-06 2.14249e-05 1.2930605e-05 -2.4784185e-08
-5.872592e-06 1.7668699e-05 1.048203e-05 -5.374444e-06 1.4311473e-06 1.2443883e-05 -1.1783283e-05 5.7298475e-06
1.0496553e-05 -7.701947e-07 -5.9501417e-08 4.610211e-06 -6.933588e-07 5.871005e-06 -3.9055635e-06 -5.649128e-06
1.7124745e-07 2.1000099e-06 9.568398e-07 3.9213573e-06 -1.1524104e-05 2.4808323e-06 1.6518941e-06 -1.082188e-05
-1.5108247e-07 -9.672096e-06 -1.8907548e-06 -8.7609806e-07 -4.261825e-06 2.340704e-06 7.0887418e-06 1.513464e-06
1.825417e-05 3.6547362e-06 -2.7093572e-06 -1.0807015e-06 -8.101992e-06 4.6504692e-06 1.676103e-05 -1.3444677e-06
-3.2510688e-06 1.0698073e-05 -9.759103e-06 1.2868168e-07 -3.6470874e-07 3.48399e-07 -7.977879e-06 8.35768e-06
-1.1729933e-06 4.6030186e-06 1.7490861e-06 1.1653347e-06 -2.865796e-06 1.3952237e-05 4.0930145e-06 -6.1287756e-06
1.5611879e-05 -4.1120853e-07 7.4478107e-06 -6.4661645e-06 -1.926154e-06 -8.732185e-06 -1.7801685e-06 -1.0022389e-05
-2.2428096e-06 -3.9210192e-08 -1.1684464e-06 -1.5903356e-06 -1.967228e-06 -9.4483005e-07 4.1100996e-08 1.529836e-06
3.0617002e-06 -1.5105178e-06 -5.6256073e-07 1.710345e-07 -5.536144e-07 2.3254324e-06 9.911928e-07 -1.1114088e-06
-4.662667e-07 -1.5325032e-06 -4.941201e-07 -5.229035e-07 -2.391522e-07 -1.0726386e-06 -1.993435e-06 9.679105e-07
-1.7615757e-06 4.51363e-06 -1.1299197e-06 3.9187285e-07 -3.2195203e-06 -8.6404077e-07 1.9268616e-06 -1.8686147e-06
-2.5196755e-06 -1.0893365e-06 1.5057627e-06 -1.6312008e-06 2.464249e-07 -1.1637851e-06 4.2204556e-06 3.6557307e-07
-5.083005e-07 8.213023e-08 3.808512e-06 -3.98024e-06 3.0554897e-06 -7.364986e-07 1.6133811e-06 -2.945549e-07
-6.8299744e-07 1.7646613e-06 6.858286e-07 -1.6674921e-06 1.4204591e-06 4.3607856e-06 6.263126e-07 1.604806e-06
-6.275849e-07 5.700642e-06 -1.7045954e-06 -5.0385815e-06 1.0825236e-06 -1.6993998e-06 -3.431378e-06 1.5042764e-06
4.0869086e-06 -1.1493696e-06 -7.5852995e-09 -1.3691126e-06 5.9215984e-07 -2.0045e-06 -1.0338895e-06 1.166203e-06
-3.5667347e-07 -6.641557e-07 -4.678834e-06 -2.5570514e-06 -6.2098013e-07 -2.484006e-06 -1.0414401e-06 1.8893636e-06
-2.4887322e-06 -1.4840381e-06 -7.579245e-07 2.1811272e-06 1.4893924e-06 -2.307339e-06 -3.8835105e-06 5.867507e-07
-6.413721e-07 2.5780857e-06 -1.5333424e-06 1.1328214e-06 -2.8916597e-07 -5.508128e-07 1.9378037e-06 2.2955146e-06
6.1708204e-07 1.2491547e-06 -8.853069e-07 2.5849686e-06 4.135851e-07 -1.3151522e-06 -1.6291297e-06 -8.242093e-07
8.99268e-07 2.6600205e-06 -2.0016973e-06 2.1962621e-06 -3.0274641e-06 2.090524e-06 -1.3294725e-06 3.538486e-06
-1.7214494e-06 -4.8942456e-06 2.4027374e-06 -1.8302227e-06 8.825591e-07 2.0807504e-06 -3.2156572e-06 9.0278e-07
-1.0623442e-06 1.9494685e-08 9.0222704e-07 4.17936e-06 3.121616e-06 2.1251958e-06 -9.116086e-07 4.2295005e-07
