results/BigMapRun1/BigMapAgent/BigMapAgent-4779.onnx (onnx, 153800 bytes, 5 tensors)

network_body._body_endoder.seq_layers.0.weight f4 [128, 81]
0	0xbcc160de	-0.02360576
1	0x3c213435	0.009839107
2	0x3e394d91	0.18095995
3	0xbd4117dd	-0.0471419
4	0x3e1beea9	0.1522776
5	0x3dd44c1d	0.1036608
6	0xbda0d1a5	-0.078524865
7	0x3cc6f191	0.02428511
8	0xbd9ece5e	-0.07754205
9	0xbc3cb5bd	-0.011517939
10	0xba229b85	-0.0006202984
11	0xbd454d5f	-0.04816949
12	0xbec36c63	-0.3816863
13	0xbde10c7d	-0.1098871
14	0x3dc108ef	0.09425532
15	0xbbe4546b	-0.006968071
16	0xbdc8ec9b	-0.09810754
17	0xbdbb5d0c	-0.09148607
18	0xbd91fd53	-0.07128396
19	0xbe4adc2d	-0.19810553
20	0xbd4662d1	-0.048434082
21	0xbda0ab28	-0.078451455
22	0x3d4e6b9a	0.050395586
23	0x3e0fa1d2	0.14026573
24	0xbe069003	-0.13140874
25	0x3d2dc089	0.042419944
26	0xbe35bcee	-0.17747852
27	0x3e1ec16c	0.15503472
28	0xbdb4d1d0	-0.08829081
29	0xbd0c6e93	-0.03428514
30	0xbd47a50e	-0.048741393
31	0xbd5d8a2f	-0.05408686
32	0x3e2d81b9	0.16944017
33	0x3e2f1bbd	0.17100425
34	0x3e0dba6b	0.13840644
35	0xbd18023d	-0.03711151
36	0xbe1a1b38	-0.15049446
37	0xbc8ef368	-0.01745005
38	0xbdeaa21d	-0.11456702
39	0xbda5174b	-0.080610834
40	0x3e165289	0.14679922
41	0xbd53a156	-0.051667534
42	0xbdcec17f	-0.100955
43	0x3d36cf4f	0.0446313
44	0x3e378900	0.17923355
45	0x3d71fdfe	0.059080116
46	0x3d01a308	0.03164962
47	0xbddf525d	-0.109043814
48	0x3d9a03e8	0.07520276
49	0xbcc857ee	-0.02445599
50	0xbe4a63f9	-0.19764699
51	0x3cdbc931	0.026829334
52	0xbe15f92d	-0.14645834
53	0xbdbaf351	-0.0912844
54	0xbd40e3c3	-0.04709221
55	0x3dd2ba11	0.102893956
56	0xbd8c7f4d	-0.06860218
57	0x3e228405	0.15870674
58	0xbca8e1aa	-0.020615418
59	0x3e5f1911	0.21786906
60	0x3d6aacf0	0.057293832
61	0x3de9a95d	0.114092566
62	0x3c139fdd	0.009010282
63	0xbdb7ab1f	-0.08968186
64	0x3d1a3589	0.03764871
65	0x3dcdc568	0.10047418
66	0xbcf3238b	-0.029680034
67	0xbcaadcc1	-0.020857217
68	0x3cadb7ca	0.021205802
69	0xbe1ce990	-0.15323472
70	0x3e90d174	0.282848
71	0x3d027ff5	0.03186031
72	0xbe21a6a7	-0.15786229
73	0xbdd54d69	-0.104151554
74	0xba8adc1c	-0.0010594162
75	0xbdaf359a	-0.085551456
76	0x3c123b5d	0.008925286
77	0x3c38eb2f	0.011286541
78	0x3e2fc291	0.17164065
79	0x3de443dd	0.111457564
80	0x3e1aebf1	0.15129067
81	0x3e9d3a78	0.3070867
82	0xbd997a00	-0.07493973
83	0x3d28e96b	0.04123823
84	0x3d926caf	0.07149636
85	0xbe136888	-0.14395344
86	0xbd905d9a	-0.07049103
87	0x3d38c0b1	0.04510564
88	0xbbf39095	-0.007433007
89	0x3d265be3	0.040614974
90	0xbd7dde9b	-0.06197987
91	0xbe460237	-0.19336782
92	0xbd7ad6de	-0.06124007
93	0x3c40abe3	0.011759731
94	0x3cb190b5	0.021675447
95	0xbe24a8e8	-0.16080058
96	0x3c7f4722	0.015580924
97	0x3e44b4fe	0.19209668
98	0x3d379ed9	0.044829223
99	0x3c9eaf36	0.019370656
100	0x3ddbf701	0.10740472
101	0x3cc7841d	0.024354989
102	0x3db1b8d5	0.08677832
103	0x3dfbba84	0.122914344
104	0x3e099631	0.134362
105	0xbd4b194b	-0.049584668
106	0x3dc2d8fa	0.09514041
107	0x3d925c4d	0.07146511
108	0xbe4ed705	-0.20199211
109	0x3d98d5af	0.07462632
110	0x3ded77ae	0.11595093
111	0xbdd7a021	-0.10528589
112	0xbd86dbac	-0.06584868
113	0x3c00a4b5	0.007851769
114	0xbd11915b	-0.035539012
115	0xbcd272b5	-0.025689462
116	0x3da3dc0c	0.08000955
117	0x3db77458	0.08957738
118	0x3d81a8b0	0.06331003
119	0xbe1f4b45	-0.15556057
120	0xbceaa31d	-0.028642232
121	0xbe090322	-0.13380101
122	0x3dc8ebfc	0.098106354
123	0xbd364077	-0.044495072
124	0xbd7c4937	-0.06159326
125	0xbde7a959	-0.113115974
126	0xbe8008ca	-0.25006706
127	0x3dda3e01	0.106563576
128	0xbe09ee69	-0.13469853
129	0xbdf41804	-0.11918643
130	0x3dbe5de4	0.09295252
131	0x3cde123b	0.027108302
132	0x3dccbfa6	0.099974915
133	0xbd6edfb4	-0.05831881
134	0xbcba741d	-0.022760445
135	0x3daa4e12	0.08315672
136	0xbddd5b77	-0.10808461
137	0xbc26ad94	-0.01017322
138	0xbc801d6a	-0.015639026
139	0xbe12c813	-0.14334135
140	0x3dc2561d	0.09489081
141	0xbd0ca108	-0.03433326
142	0x3c9a3a43	0.01882661
143	0xbe4160f5	-0.18884642
144	0x3db22f57	0.087004356
145	0xbe196735	-0.14980777
146	0x3e239ea9	0.15978493
147	0x3e1c498f	0.15262435
148	0x3d01f7d8	0.031730503
149	0x3cdc35b0	0.026881069
150	0xbccf5a56	-0.02531163
151	0x3c745c5b	0.014914597
152	0xbded5f89	-0.115904875
153	0xbe8b991d	-0.27265254
154	0x3e24dfd0	0.16101003
155	0xbd2f3627	-0.042776253
156	0xbd151f15	-0.036406595
157	0xbdc90e77	-0.09817212
158	0x3ce2676a	0.027637202
159	0xbdadef99	-0.08492965
160	0x3ce94b0d	0.02847817
161	0xbdf3b669	-0.11900026
162	0x3d2768fa	0.040871598
163	0xbdadf25b	-0.08493491
164	0x3ad98758	0.0016596122
165	0xbe4665c9	-0.19374765
166	0xbd813c61	-0.063103445
167	0xbd8936bc	-0.06699893
168	0xbd874eb6	-0.0660681
169	0x3dea49c7	0.11439853
170	0x3bb6caa8	0.0055783577
171	0xbe64c445	-0.22340496
172	0xbd0ed1b1	-0.034867946
173	0xbbb38807	-0.005478862
174	0xbe27c04e	-0.16381952
175	0xbd4bb5ab	-0.0497338
176	0x3e8a6071	0.27026704
177	0xbae6166d	-0.0017554291
178	0x3de11f85	0.1099234
179	0x3d0e1ac7	0.034693506
180	0x3cea060d	0.028567338
181	0x3e023e1d	0.12719007
182	0xbd59f1f2	-0.053209253
183	0x3e0695c2	0.13143066
184	0x3cd74ded	0.026282275
185	0x3c051bef	0.008124336
186	0x3d5c61e9	0.053804312
187	0xbe2b8810	-0.16751122
188	0xbd8522ba	-0.06500764
189	0x3db3d1a2	0.08780219
190	0x3d1245b0	0.03571099
191	0xbce3198a	-0.027722139
192	0xbde34298	-0.11096686
193	0x3dbe441d	0.09290335
194	0x3e03e1dd	0.12879129
195	0x3d1acc6d	0.037792612
196	0x3d1c02a0	0.03808844
197	0xbc8e8d65	-0.017401407
198	0xbddbe4c1	-0.10736991
199	0x3a780170	0.00094606634
200	0xbdd07f4b	-0.10180529
201	0x3d1ec765	0.038764376
202	0xbce2a2ea	-0.027665574
203	0xbce60fa2	-0.028083626
204	0x3e14a5b8	0.14516342
205	0x3da0c515	0.078500904
206	0x3c16708a	0.009182105
207	0x3b94887b	0.0045328713
208	0xbb53e4b9	-0.0032332374
209	0xbd847d1d	-0.06469176
210	0xbc65ddbb	-0.014029915
211	0x3df16b40	0.117880344
212	0xbd5aa8ad	-0.053383518
213	0x3d5b7c2d	0.05358522
214	0x3d4bc8e0	0.049752116
215	0xbd81b934	-0.06334153
216	0x3e7b3fd7	0.24536072
217	0x3cdd7aa6	0.027036022
218	0x3e0ffcd0	0.14061284
219	0xbe4362e5	-0.19080694
220	0xbdfb6a20	-0.12276101
221	0xbc705ac0	-0.014670074
222	0x38ce8348	9.8472985e-05
223	0x3e14fbc5	0.14549167
224	0xbd8e83c1	-0.06958724
225	0x3c003b81	0.007826687
226	0xbe19d86e	-0.15023968
227	0x3e27fb55	0.1640447
228	0x3e1573fd	0.14595027
229	0xbdbb86f5	-0.091566004
230	0x3dfa8f24	0.12234333
231	0x3d97b20a	0.07407005
232	0xbe289cae	-0.16466019
233	0x3c95aac1	0.018269898
234	0xbe22e80d	-0.15908833
235	0x3d251743	0.040305387
236	0xbe3f04a1	-0.1865411
237	0xbba1ed29	-0.004941602
238	0xbd2bf833	-0.041984748
239	0x3e647d4e	0.22313425
240	0xbe5e738c	-0.21723765
241	0x3e3eeb24	0.18644387
242	0x398d3ddf	0.00026939713
243	0xbdcc0420	-0.09961724
244	0x3e271b8b	0.163191
245	0x3d3cd375	0.0461001
246	0x3d42609c	0.047455415
247	0x3dc65713	0.09684577
248	0x3e520e85	0.20513351
249	0x3dccf6f0	0.10008037
250	0xbc34446d	-0.011002642
251	0xbe049d67	-0.12950669
252	0xbdb7d984	-0.08977035
253	0x3d3274ce	0.043568425
254	0xbd013ac7	-0.031550195
255	0xbd879aa7	-0.066212945

network_body._body_endoder.seq_layers.0.bias f4 [128]
0	0x00000000	0.0
1	0x00000000	0.0
2	0x00000000	0.0
3	0x00000000	0.0
4	0x00000000	0.0
5	0x00000000	0.0
6	0x00000000	0.0
7	0x00000000	0.0
8	0x00000000	0.0
9	0x00000000	0.0
10	0x00000000	0.0
11	0x00000000	0.0
12	0x00000000	0.0
13	0x00000000	0.0
14	0x00000000	0.0
15	0x00000000	0.0
16	0x00000000	0.0
17	0x00000000	0.0
18	0x00000000	0.0
19	0x00000000	0.0
20	0x00000000	0.0
21	0x00000000	0.0
22	0x00000000	0.0
23	0x00000000	0.0
24	0x00000000	0.0
25	0x00000000	0.0
26	0x00000000	0.0
27	0x00000000	0.0
28	0x00000000	0.0
29	0x00000000	0.0
30	0x00000000	0.0
31	0x00000000	0.0
32	0x00000000	0.0
33	0x00000000	0.0
34	0x00000000	0.0
35	0x00000000	0.0
36	0x00000000	0.0
37	0x00000000	0.0
38	0x00000000	0.0
39	0x00000000	0.0
40	0x00000000	0.0
41	0x00000000	0.0
42	0x00000000	0.0
43	0x00000000	0.0
44	0x00000000	0.0
45	0x00000000	0.0
46	0x00000000	0.0
47	0x00000000	0.0
48	0x00000000	0.0
49	0x00000000	0.0
50	0x00000000	0.0
51	0x00000000	0.0
52	0x00000000	0.0
53	0x00000000	0.0
54	0x00000000	0.0
55	0x00000000	0.0
56	0x00000000	0.0
57	0x00000000	0.0
58	0x00000000	0.0
59	0x00000000	0.0
60	0x00000000	0.0
61	0x00000000	0.0
62	0x00000000	0.0
63	0x00000000	0.0
64	0x00000000	0.0
65	0x00000000	0.0
66	0x00000000	0.0
67	0x00000000	0.0
68	0x00000000	0.0
69	0x00000000	0.0
70	0x00000000	0.0
71	0x00000000	0.0
72	0x00000000	0.0
73	0x00000000	0.0
74	0x00000000	0.0
75	0x00000000	0.0
76	0x00000000	0.0
77	0x00000000	0.0
78	0x00000000	0.0
79	0x00000000	0.0
80	0x00000000	0.0
81	0x00000000	0.0
82	0x00000000	0.0
83	0x00000000	0.0
84	0x00000000	0.0
85	0x00000000	0.0
86	0x00000000	0.0
87	0x00000000	0.0
88	0x00000000	0.0
89	0x00000000	0.0
90	0x00000000	0.0
91	0x00000000	0.0
92	0x00000000	0.0
93	0x00000000	0.0
94	0x00000000	0.0
95	0x00000000	0.0
96	0x00000000	0.0
97	0x00000000	0.0
98	0x00000000	0.0
99	0x00000000	0.0
100	0x00000000	0.0
101	0x00000000	0.0
102	0x00000000	0.0
103	0x00000000	0.0
104	0x00000000	0.0
105	0x00000000	0.0
106	0x00000000	0.0
107	0x00000000	0.0
108	0x00000000	0.0
109	0x00000000	0.0
110	0x00000000	0.0
111	0x00000000	0.0
112	0x00000000	0.0
113	0x00000000	0.0
114	0x00000000	0.0
115	0x00000000	0.0
116	0x00000000	0.0
117	0x00000000	0.0
118	0x00000000	0.0
119	0x00000000	0.0
120	0x00000000	0.0
121	0x00000000	0.0
122	0x00000000	0.0
123	0x00000000	0.0
124	0x00000000	0.0
125	0x00000000	0.0
126	0x00000000	0.0
127	0x00000000	0.0

network_body._body_endoder.seq_layers.2.weight f4 [128, 128]
0	0x3d1494b2	0.03627462
1	0x3dee026f	0.11621558
2	0xbe3374ca	-0.1752502
3	0x3d76ca5c	0.06025158
4	0xbd601224	-0.0547048
5	0x3d84029e	0.06445812
6	0x3da45bc0	0.080253124
7	0x3d46992a	0.048485912
8	0xbd4b4f5f	-0.04963624
9	0xbe1fe12f	-0.15613244
10	0x3d5136cb	0.051077645
11	0xbe19cef5	-0.15020354
12	0x3d4c15b4	0.049825385
13	0xbe31084d	-0.17288323
14	0x3e07375b	0.1320471
15	0xbd7a3439	-0.06108496
16	0xbc9cb00a	-0.01912691
17	0xbd9d878c	-0.07691869
18	0x3b8f3db4	0.0043713693
19	0x3e037d70	0.1284082
20	0xbcec2507	-0.02882625
21	0xbdf54b95	-0.11977307
22	0xbe18226f	-0.14856885
23	0xbd9fa99a	-0.07796021
24	0x3dbcc8d5	0.09217993
25	0x3d7f2f04	0.062300697
26	0x3dc5bedb	0.096555434
27	0x3db0553f	0.086100094
28	0x3de879ee	0.11351381
29	0x3d691002	0.056900032
30	0x3d3544ff	0.044255253
31	0x3e22e143	0.15906243
32	0x3da2380a	0.07920845
33	0x3d22198b	0.03957514
34	0x3c5e42be	0.013565717
35	0xbdbe28e4	-0.09285143
36	0xbc9be23e	-0.01902878
37	0x3e688037	0.2270516
38	0x3da33a5c	0.079701155
39	0xbdc168c0	-0.094438076
40	0xbd0fb07d	-0.03508042
41	0xbcafa85a	-0.021442581
42	0xbca8252a	-0.020525534
43	0x3d8b46c0	0.06800604
44	0x3df515f3	0.11967077
45	0xbd5831cb	-0.05278186
46	0x3d3fc973	0.046822976
47	0x3dda2abf	0.106526844
48	0xbd44409e	-0.047913186
49	0xbd0f47fd	-0.034980763
50	0xbe26802f	-0.16259836
51	0xbe440032	-0.191407
52	0xbe14068c	-0.14455622
53	0xba92e964	-0.0011208472
54	0xbcd58c03	-0.02606774
55	0xbdddc9d1	-0.10829509
56	0xbdc5a376	-0.09650318
57	0x3cfc1cae	0.030775394
58	0xbdafb6b4	-0.0857977
59	0xbcd2f9f0	-0.025753945
60	0x3dfadc2a	0.12249024
61	0x3dc85603	0.097820304
62	0xbd6e1a9c	-0.058130845
63	0x3def082d	0.11671481
64	0xbdaa1e03	-0.083065055
65	0xbd05aef0	-0.032637537
66	0x3d32f15b	0.043687206
67	0xbc8dffe7	-0.017333938
68	0x3dafee53	0.085903786
69	0xbd9f47f9	-0.077773996
70	0x3d5265e8	0.051366717
71	0x3d241602	0.04006005
72	0x3d324ed9	0.043532226
73	0xbcc3989e	-0.023876484
74	0xbc3dc0be	-0.011581598
75	0x3d3e379c	0.046439752
76	0xbc90f5b9	-0.017695295
77	0xbd4eddc2	-0.050504453
78	0x3c6256e0	0.013814658
79	0x3dc0803a	0.09399457
80	0xbbfbfd16	-0.0076900823
81	0xbbd81d07	-0.006595257
82	0xbd0ef648	-0.03490284
83	0x3b3f7ade	0.0029217522
84	0xbd86ec97	-0.06588095
85	0xbe1098e5	-0.14120825
86	0x3d6066b7	0.054785457
87	0x3c22105a	0.009891594
88	0xbc4d7a82	-0.012541415
89	0x3bbff726	0.00585832
90	0x3cfceeae	0.03087553
91	0xbdb6ec72	-0.08931817
92	0xbd926e2e	-0.07149921
93	0x3da28cc5	0.07937006
94	0x3dddc90d	0.10829363
95	0x3de32472	0.11090936
96	0x3a80a582	0.000981495
97	0x3d605c46	0.0547755
98	0xbdc05737	-0.09391635
99	0x3db863db	0.09003421
100	0x3d8dfb3c	0.06932685
101	0x3e00eacb	0.12589566
102	0xbe1e3004	-0.15448004
103	0x3d70033f	0.058596846
104	0x3afb7091	0.0019183328
105	0x3c3f836e	0.01168905
106	0x3e2fa03b	0.17150967
107	0x3cb838dd	0.022488052
108	0xbca425ae	-0.020037498
109	0xbdaee752	-0.085402146
110	0x3c866950	0.016407639
111	0x3d0f2725	0.03494944
112	0x3ac884d3	0.0015298374
113	0x3e155b7a	0.14585677
114	0xbd013d2b	-0.031552475
115	0xbdc269d9	-0.09492845
116	0x3d52f743	0.05150534
117	0x3c40ebca	0.0117749665
118	0x3bd5fabc	0.006530134
119	0xbd8403f4	-0.064460665
120	0x3d2ad4e7	0.041706946
121	0x3d9b6f6a	0.0758961
122	0xbe032d17	-0.12810169
123	0x3c1e6a5e	0.009668915
124	0x3d34fb45	0.04418494
125	0x3e429ebd	0.19005866
126	0x3d901745	0.07035688
127	0x3e057022	0.13031057
128	0xbe1f7338	-0.15571296
129	0xbde6aa03	-0.11262896
130	0xbe22a1c7	-0.15882026
131	0x3d3efa92	0.04662568
132	0x3da53f79	0.08068747
133	0x3cd902dc	0.026490621
134	0xbcd37f9d	-0.025817687
135	0xbe2fb3cd	-0.17158432
136	0xbd934419	-0.07190723
137	0xbd726eac	-0.059187576
138	0xbcdf9cf5	-0.027296523
139	0xbe6e4f15	-0.23272355
140	0xbe5a0404	-0.21290594
141	0x3de18b70	0.11012924
142	0x3e5f2570	0.21791625
143	0x3d6a78e1	0.057244185
144	0x3d74a818	0.05973062
145	0xbda74097	-0.081666164
146	0x3d612175	0.054963548
147	0xbdc19274	-0.09451762
148	0xba974e5a	-0.0011543736
149	0xbe4e23e2	-0.20130876
150	0xbd9ef9a0	-0.07762456
151	0xbc66646f	-0.014062031
152	0x3d783ca4	0.060604706
153	0xbd0aa39e	-0.033847444
154	0x3cb7cfc6	0.022437941
155	0x3ab1978b	0.0013549192
156	0x3d17cc16	0.037059866
157	0x3bb83a3e	0.0056221774
158	0x3bdf41fa	0.006813285
159	0xbcc3dc53	-0.02390877
160	0x3d4599df	0.048242446
161	0xbd97930e	-0.07401095
162	0xbdc73752	-0.097273484
163	0xbba3ce44	-0.004998954
164	0x3cfb5cf5	0.030683974
165	0x3de73101	0.11288644
166	0xbdd0f827	-0.10203581
167	0xbd927e78	-0.07153028
168	0xbd1071ac	-0.035264656
169	0xbd3d50a4	-0.046219483
170	0xbdab37a5	-0.08360223
171	0xbd42859a	-0.047490694
172	0x3e308a16	0.17240176
173	0x3e0466af	0.12929796
174	0x3d60403a	0.05474875
175	0xbcb25d6b	-0.02177306
176	0xbd9e9568	-0.07743341
177	0x3d480be5	0.04883947
178	0x3dc57da9	0.096431084
179	0xbd91fbea	-0.07128127
180	0xbd4a2781	-0.04935408
181	0x3d6d7306	0.057971023
182	0x3b5740a5	0.0032844928
183	0x3c9f3741	0.019435527
184	0x3dc38934	0.09547654
185	0x3d07ec75	0.033184487
186	0x3d1c202c	0.03811662
187	0xbd9d72fc	-0.07687947
188	0xbcd6632a	-0.026170332
189	0xbd0163a5	-0.03158917
190	0xbd8b6e89	-0.06808192
191	0xbdc003d9	-0.09375734
192	0x3cc564e3	0.024095958
193	0x3d87ad59	0.0662486
194	0xbad1d8ad	-0.0016010009
195	0xbc694c9c	-0.0142394565
196	0xbd8b7e5c	-0.068112105
197	0x3df09b2a	0.11748345
198	0x3d9462d0	0.072454095
199	0x3d6716c4	0.056418195
200	0x3c970e18	0.018439338
201	0xbb95e802	-0.0045747766
202	0x3d79f58b	0.061025184
203	0xbbc27e9c	-0.005935503
204	0x3de544b1	0.111947425
205	0x3c0d1f77	0.008613459
206	0x3dd672ae	0.10471092
207	0x3c0afa23	0.008482489
208	0x3d5c0d98	0.0537239
209	0x3e56c648	0.20974076
210	0xbc3d70e1	-0.011562557
211	0xbdcb7427	-0.09934264
212	0x3caffc4b	0.021482607
213	0xbe1a2dbf	-0.15056513
214	0x3c2e9a04	0.010656837
215	0x3e1ddd6d	0.15416498
216	0xbd4a3fb5	-0.049377162
217	0x3dcce8b9	0.10005326
218	0xbc077fb3	-0.008270192
219	0x3ba9f6c0	0.0051868856
220	0x3bb39228	0.0054800697
221	0x3d1ed721	0.03877938
222	0x3daa2128	0.08307105
223	0xbd20268a	-0.039099254
224	0x3e168b6c	0.14701623
225	0x3ded50c0	0.115876675
226	0xbd0311bf	-0.031999346
227	0xbe198107	-0.14990626
228	0xbd44355b	-0.047902446
229	0xbda3fb5e	-0.08006929
230	0x3e0521fa	0.13001242
231	0xbd73db5e	-0.059535377
232	0xbe033c34	-0.12815934
233	0x3d077420	0.03306973
234	0xbdadf865	-0.08494643
235	0x3d0cbb6a	0.03435842
236	0xbd25fb5f	-0.04052293
237	0xbe047cee	-0.12938282
238	0xbb9252a1	-0.0044654165
239	0xbcd63a9c	-0.026150994
240	0xbdf80832	-0.12110938
241	0xbcb23624	-0.021754332
242	0x3e0f7093	0.14007787
243	0xbbf1970f	-0.007372744
244	0xbdf157d2	-0.117843285
245	0xbdde3342	-0.108496204
246	0x3d829fb4	0.06378117
247	0xbc83799d	-0.0160492
248	0x3e1a5597	0.15071712
249	0x3e0542f4	0.13013822
250	0x3c1614d2	0.009160237
251	0xbe00c5a3	-0.12575392
252	0x3ca94d25	0.020666668
253	0xbb1f24c7	-0.0024283396
254	0xbdc5e952	-0.09663643
255	0x3d4fb1d0	0.050706685

action_model._discrete_distribution.branches.0.weight f4 [80, 128]
0	0x3a82c161	0.0009975844
1	0x3c52fb0a	0.012877235
2	0x3bb96255	0.005657474
3	0xbb2bdd6f	-0.0026224514
4	0xbb8934df	-0.004187211
5	0x3c5ebfd2	0.013595538
6	0x3bc8368f	0.0061100195
7	0xbb04ea95	-0.0020281423
8	0xbb32039f	-0.0027162803
9	0x3b272c3e	0.0025508548
10	0xbc2e7733	-0.0106485365
11	0xbb248447	-0.0025103258
12	0x3c52386b	0.012830834
13	0x3a12fe1c	0.0005607323
14	0xbb06e8cd	-0.0020585537
15	0x3b1b2c25	0.0023677435
16	0x3c99af1b	0.018760255
17	0xbc4f8f30	-0.012668416
18	0x3c3cb89b	0.011518623
19	0x3c468329	0.012116232
20	0x3c7e69f7	0.015528194
21	0xbae18c85	-0.0017208016
22	0x3bca9533	0.0061823367
23	0xbb6ea562	-0.0036414494
24	0xbc292577	-0.010323874
25	0xbc208151	-0.009796456
26	0x3c2ed6c3	0.01067132
27	0xbb8a11b3	-0.0042135357
28	0x3c25e753	0.010125953
29	0xbbe42275	-0.0069621154
30	0x3c2121b7	0.009834698
31	0x3a6cd6c5	0.00090346887
32	0x3b33d73b	0.002744152
33	0xbb6dba6b	-0.0036274444
34	0x3c0c42c7	0.008560843
35	0xbc00e013	-0.007865923
36	0xbb0d7ec7	-0.0021590458
37	0x3c24e61c	0.010064628
38	0x3b0fdb8e	0.0021950933
39	0xbc9291b5	-0.017891744
40	0x3bbd0927	0.0057689133
41	0xbbe034ef	-0.0068422477
42	0xbb8980b7	-0.004196252
43	0xbc3f40f2	-0.011673199
44	0x3c4e9e37	0.012610964
45	0xbb26aaf7	-0.0025431493
46	0x3c524fe8	0.012836434
47	0x3a1ddab2	0.0006021663
48	0x3b8fd2cd	0.004389143
49	0xbc0019b2	-0.007818626
50	0xbb60d94a	-0.0034309202
51	0x3c1f356f	0.009717329
52	0xbc1dd8b4	-0.009634186
53	0x3b358ae0	0.0027701184
54	0x3bfe5e52	0.0077627087
55	0x3b8624e7	0.0040937546
56	0x3c3fe7d7	0.01171299
57	0x3c35ae85	0.011088972
58	0xbb7e2d77	-0.0038784423
59	0xbc5c7b4f	-0.013457133
60	0xbbe6237a	-0.007023272
61	0x3b929b07	0.004474047
62	0xbbcb6ab7	-0.0062077898
63	0xbbb76bf8	-0.0055975877
64	0x3b9085b4	0.00441047
65	0xba6f0978	-0.00091185374
66	0x3bdbe04d	0.0067100883
67	0x3c83b6e9	0.01607843
68	0x3ba2a9b4	0.004964078
69	0xbbbe9681	-0.0058162813
70	0x3b45949b	0.003014839
71	0x3b36e4c4	0.002790735
72	0x3b934717	0.0044945586
73	0xbba68ae9	-0.0050824773
74	0x3abf17e0	0.0014579259
75	0xbb30e7a0	-0.0026993528
76	0xbba4c296	-0.0050280793
77	0xbb26d663	-0.0025457374
78	0x3b27119f	0.002549268
79	0xbb81f8f2	-0.003966444
80	0xbb660b7f	-0.0035102067
81	0xbc3b0693	-0.011415142
82	0x3bf8e5e7	0.007595766
83	0x3b9acea7	0.004724342
84	0xbc0ff1dd	-0.008785692
85	0xbc0310cf	-0.007999613
86	0x3c3eb33e	0.011639414
87	0x3b833f36	0.004005338
88	0xbc139e10	-0.009009853
89	0x3b775478	0.0037739556
90	0x3c280ea0	0.010257393
91	0xb8169547	-3.5901812e-05
92	0x3bc647ca	0.0060510384
93	0xbbd3db1a	-0.006465328
94	0x3b9b174e	0.0047330027
95	0xbb7169f7	-0.0036836842
96	0xbb8c6416	-0.004284392
97	0x3c859bba	0.016309608
98	0xbbfbc7c3	-0.0076837256
99	0xbc64a680	-0.013955712
100	0xbad857f0	-0.00165057
101	0x3b72ea2f	0.0037065854
102	0x3bcab464	0.006186055
103	0xbc47bebb	-0.01219147
104	0x3c611fc5	0.013740485
105	0x3bbd12b1	0.0057700505
106	0x3c16866f	0.009187325
107	0xb9cc785b	-0.00038999584
108	0xbae0a535	-0.0017139079
109	0xbbca8b66	-0.0061811684
110	0xbb1c5cf7	-0.0023859122
111	0xbbc907b2	-0.0061349506
112	0xbb9d491a	-0.004799974
113	0x3b0f5c0f	0.002187494
114	0x3b371c3c	0.0027940413
115	0xbc3050d8	-0.010761462
116	0xbb687e6a	-0.003547574
117	0x3c55a99d	0.013040927
118	0x3bd50552	0.0065008784
119	0xbbe7bda8	-0.0070721693
120	0xbc884743	-0.016635543
121	0xbc34c1b5	-0.0110325115
122	0x3c5a2cdd	0.01331636
123	0x3ab3d8de	0.0013721248
124	0xbbbbb265	-0.0057280534
125	0xb915a948	-0.0001427281
126	0x3c5df767	0.013547755
127	0x3bbee118	0.005825173
128	0x3b516058	0.0031948294
129	0x3ba133a5	0.0049194866
130	0x3c569538	0.0130971
131	0xbb2d4a4d	-0.0026441992
132	0xbc0e0bba	-0.008669788
133	0xbaecfe58	-0.0018081171
134	0xba16e886	-0.00057566946
135	0x3adb9b40	0.0016754642
136	0x3ba41e4f	0.005008496
137	0x3c4c23ee	0.012459738
138	0xbc12994f	-0.008947684
139	0xbba8e73d	-0.005154519
140	0xbaced472	-0.0015779866
141	0xbad89672	-0.0016524328
142	0x3be62097	0.007022928
143	0xbc643635	-0.01392894
144	0x3c10c5ff	0.008836268
145	0x3acc78e7	0.0015599997
146	0xbb0c3353	-0.0021392896
147	0xba0ab9d8	-0.0005291975
148	0x3c5e6e6a	0.013576129
149	0xbb02deed	-0.00199693
150	0x3b4dc92a	0.003140042
151	0x3c560ac8	0.013064094
152	0xbc47fe06	-0.01220656
153	0x3aef86d3	0.0018274434
154	0xbb4f2a98	-0.0031611081
155	0xbbe17100	-0.0068799257
156	0xbbc4eb87	-0.0060095224
157	0x3c34ff98	0.011047266
158	0x3c171df1	0.009223447
159	0x3c9bb673	0.019007897
160	0xbc97d0d7	-0.0185322
161	0x3b952e9e	0.0045526763
162	0x3c7111f2	0.014713751
163	0xbc2752f5	-0.01021265
164	0x3b039b07	0.0020081417
165	0x3b4934d3	0.0030701652
166	0xbc266567	-0.010156012
167	0xbabfd9e2	-0.0014637078
168	0x3c54556d	0.01295982
169	0x3c537667	0.012906647
170	0x3a82ac97	0.0009969649
171	0xbb22b12f	-0.0024824848
172	0x39b1e093	0.00033927392
173	0x3c8d2f4f	0.017234473
174	0xbc7d999f	-0.015478521
175	0xbc88c4a4	-0.016695328
176	0xb97227e8	-0.00023093785
177	0x3a19c77f	0.0005866214
178	0xbbb7f04a	-0.0056133615
179	0x3bd462ef	0.0064815204
180	0xbb3f8889	-0.0029225668
181	0x3a86d027	0.0010285423
182	0xbc466a8c	-0.012110364
183	0xbbefbaed	-0.0073159845
184	0xbb03829a	-0.0020066858
185	0x3b020fc8	0.0019845832
186	0x3bcc4e6d	0.006234935
187	0xbb44e858	-0.0030045714
188	0xbb34a036	-0.0027561313
189	0x3c848eac	0.016181313
190	0x3acad51f	0.0015474892
191	0x3b1c45d8	0.002384534
192	0xbbb5751f	-0.0055376436
193	0xbba832c3	-0.0051330044
194	0xba11a477	-0.0005555818
195	0xbc8d00ef	-0.01721236
196	0x3b9ae25d	0.0047266916
197	0xbb7bf655	-0.0038446386
198	0xba340c6b	-0.00068683055
199	0x3b8c493c	0.004281191
200	0xbc8c5374	-0.017129637
201	0xbb0baced	-0.0021312789
202	0xbc0c8fa1	-0.008579166
203	0xbc1f259f	-0.009713559
204	0x3b02f5d3	0.0019982948
205	0xbb6c3de7	-0.003604764
206	0xba96170c	-0.001145096
207	0xbb05e881	-0.0020432773
208	0x3b169653	0.0022977784
209	0x3ca1df64	0.019759841
210	0xbc81aa03	-0.015828138
211	0x3b0f5899	0.0021872877
212	0x3acce445	0.0015631994
213	0xbcb4a7b2	-0.02205262
214	0x3c9f821f	0.019471226
215	0x3c4fda70	0.012686357
216	0xbcb169be	-0.021656867
217	0xbb3c4d28	-0.0028732512
218	0x3c53de45	0.012931411
219	0x3b22e50f	0.0024855768
220	0xba022694	-0.0004964855
221	0xb89fdd36	-7.6229146e-05
222	0xbc24bb3a	-0.010054404
223	0x3b9fe383	0.0048794164
224	0x3b0026fc	0.0019554486
225	0xbbc3a283	-0.0059703006
226	0x3c148ed2	0.009067254
227	0xba78f065	-0.0009496271
228	0x3c40ab05	0.011759524
229	0xbb442dbd	-0.0029934489
230	0x3c28a53d	0.010293302
231	0x3a1340b3	0.0005617246
232	0x3bea25fb	0.007145641
233	0xbbf7fb3f	-0.0075677927
234	0xbc663f73	-0.014053213
235	0xbb7d3f63	-0.0038642518
236	0x3bc711aa	0.006075104
237	0x3c049073	0.00809108
238	0x3b113657	0.0022157633
239	0xbc500fbf	-0.012699067
240	0x3afab6c8	0.0019127959
241	0x3c80c5ef	0.015719382
242	0xbc632b17	-0.013865254
243	0x3a828507	0.0009957858
244	0xbbb8be5d	-0.0056379274
245	0xbb2b4462	-0.0026133289
246	0xb49e0fab	-2.9441193e-07
247	0xbb875432	-0.00412991
248	0xbb1c6933	-0.0023866415
249	0xbca8a714	-0.020587482
250	0x3b9e7992	0.0048362697
251	0x3ad4bd8f	0.0016230809
252	0xbb99cf1b	-0.0046938783
253	0x3cbbd2e4	0.022927709
254	0xbc70ffa8	-0.014709391
255	0xbc2aa386	-0.010414964

action_model._discrete_distribution.branches.0.bias f4 [80]
0	0x00000000	0.0
1	0x00000000	0.0
2	0x00000000	0.0
3	0x00000000	0.0
4	0x00000000	0.0
5	0x00000000	0.0
6	0x00000000	0.0
7	0x00000000	0.0
8	0x00000000	0.0
9	0x00000000	0.0
10	0x00000000	0.0
11	0x00000000	0.0
12	0x00000000	0.0
13	0x00000000	0.0
14	0x00000000	0.0
15	0x00000000	0.0
16	0x00000000	0.0
17	0x00000000	0.0
18	0x00000000	0.0
19	0x00000000	0.0
20	0x00000000	0.0
21	0x00000000	0.0
22	0x00000000	0.0
23	0x00000000	0.0
24	0x00000000	0.0
25	0x00000000	0.0
26	0x00000000	0.0
27	0x00000000	0.0
28	0x00000000	0.0
29	0x00000000	0.0
30	0x00000000	0.0
31	0x00000000	0.0
32	0x00000000	0.0
33	0x00000000	0.0
34	0x00000000	0.0
35	0x00000000	0.0
36	0x00000000	0.0
37	0x00000000	0.0
38	0x00000000	0.0
39	0x00000000	0.0
40	0x00000000	0.0
41	0x00000000	0.0
42	0x00000000	0.0
43	0x00000000	0.0
44	0x00000000	0.0
45	0x00000000	0.0
46	0x00000000	0.0
47	0x00000000	0.0
48	0x00000000	0.0
49	0x00000000	0.0
50	0x00000000	0.0
51	0x00000000	0.0
52	0x00000000	0.0
53	0x00000000	0.0
54	0x00000000	0.0
55	0x00000000	0.0
56	0x00000000	0.0
57	0x00000000	0.0
58	0x00000000	0.0
59	0x00000000	0.0
60	0x00000000	0.0
61	0x00000000	0.0
62	0x00000000	0.0
63	0x00000000	0.0
64	0x00000000	0.0
65	0x00000000	0.0
66	0x00000000	0.0
67	0x00000000	0.0
68	0x00000000	0.0
69	0x00000000	0.0
70	0x00000000	0.0
71	0x00000000	0.0
72	0x00000000	0.0
73	0x00000000	0.0
74	0x00000000	0.0
75	0x00000000	0.0
76	0x00000000	0.0
77	0x00000000	0.0
78	0x00000000	0.0
79	0x00000000	0.0
