results/BigMapRun1/BigMapAgent/BigMapAgent-5952.onnx (onnx, 153800 bytes, 5 tensors)

network_body._body_endoder.seq_layers.0.weight f4 [128, 81]
0	0xbd103050	-0.035202324
1	0xbd1c9f6f	-0.038237985
2	0xbe1ba74d	-0.15200539
3	0x3dd9d588	0.10636431
4	0xbdfa8877	-0.1223306
5	0xbe117cbb	-0.14207737
6	0xbd6cdc19	-0.05782709
7	0xbdcf9995	-0.10136715
8	0xbdfd6ac9	-0.12373883
9	0xbcedf612	-0.029048
10	0xbc045604	-0.008077148
11	0x3d20ffed	0.03930657
12	0xbd7ae6b4	-0.061255172
13	0x3e17f33c	0.1483888
14	0x3e0bb21d	0.13642164
15	0x3d85469d	0.06507609
16	0xbd9963ea	-0.0748976
17	0x3c92fa26	0.017941546
18	0xbe0d1ec2	-0.13781264
19	0xbdb89652	-0.09013046
20	0x3e201def	0.15636419
21	0x3d50b14d	0.050950337
22	0xbb683539	-0.0035432114
23	0x3e4758c8	0.19467461
24	0x3cd72305	0.026261816
25	0x3cddd9c2	0.027081374
26	0x3d87f488	0.066384375
27	0x3e6c244d	0.23060723
28	0x3dc34a57	0.095356636
29	0xbde5a2c9	-0.112126894
30	0x3d60073b	0.054694396
31	0x3dd2e824	0.102981836
32	0x3e0c751a	0.13716546
33	0xbd9084ea	-0.07056601
34	0xbce45695	-0.027873317
35	0xbd73b8d2	-0.05950243
36	0x3cac97ec	0.021068536
37	0xbcd21e55	-0.025649229
38	0xbda88038	-0.08227581
39	0xbd8babb8	-0.06819862
40	0x3c6769e4	0.014124367
41	0x3e1958a2	0.14975217
42	0xbd88cef9	-0.06680102
43	0xbd94e1a1	-0.07269598
44	0x3dff0585	0.12452225
45	0xbcbf78d6	-0.023373049
46	0xbda19a22	-0.078907266
47	0xbbeb2d7d	-0.0071770535
48	0x3d0d2354	0.03445752
49	0xbd1cfe25	-0.03832831
50	0x3c4f8e47	0.012668199
51	0x3da38d1b	0.07985898
52	0xbd9828c4	-0.074296504
53	0xbd080787	-0.033210304
54	0x3dde1999	0.10844726
55	0xbe2336d1	-0.1593888
56	0x3e2ecd0b	0.17070405
57	0xbe00fd9b	-0.12596743
58	0x3d859a8d	0.06523619
59	0xbd97ea0f	-0.0741769
60	0x3e215321	0.15754367
61	0x3e540e95	0.20708688
62	0xbcaf4748	-0.021396294
63	0xbb51c329	-0.0032007194
64	0xbcc8d8e9	-0.024517493
65	0x3dd901ef	0.10596072
66	0xbdd20c33	-0.10256233
67	0xbad10342	-0.0015946405
68	0xbd5f952f	-0.054585632
69	0xbdf411c0	-0.11917448
70	0xbd2124f8	-0.039341897
71	0xbbb2872e	-0.0054482436
72	0x3e68889e	0.22708365
73	0x3d2fb10d	0.04289346
74	0xbd1da9a5	-0.038491864
75	0xbd96f427	-0.07370787
76	0xbd107467	-0.03526726
77	0x3deaef5e	0.11471437
78	0x3d18f050	0.037338555
79	0xbd478a48	-0.04871586
80	0xbbe52fe0	-0.0069942325
81	0x3c3ee27b	0.011650677
82	0xbc5b9e91	-0.013404504
83	0x3b00d66e	0.001965906
84	0xbd67f589	-0.056630645
85	0xbcbe5193	-0.023232257
86	0x3d24ec14	0.040264204
87	0xbd68ef95	-0.05686911
88	0x3c5fa71f	0.013650685
89	0xbe2059b6	-0.15659222
90	0x3d114fa6	0.03547635
91	0xbda63522	-0.08115603
92	0x3d91470c	0.07093629
93	0x3c25196e	0.010076864
94	0x3c24c58c	0.0100568645
95	0xbdd30c8d	-0.10305128
96	0xbcbfa44f	-0.023393778
97	0xbd8a976a	-0.06767161
98	0xbe4c16e4	-0.19930607
99	0xbe13a894	-0.14419776
100	0x3dbb7efb	0.09155079
101	0xbcea11b0	-0.028572887
102	0x3d06bc6d	0.03289454
103	0x3e039205	0.12848671
104	0xbe03f79e	-0.12887427
105	0x3d65f0f9	0.056138013
106	0xbded0400	-0.115730286
107	0xbd75d8c4	-0.060021177
108	0xbe0d728e	-0.1381323
109	0xbe8018fc	-0.25019062
110	0x3cf13c30	0.029447645
111	0x3e6af31b	0.229443
112	0x3d7aab10	0.061198294
113	0xbcdf889d	-0.027286822
114	0x3d5f2a57	0.054483738
115	0xbd2c81aa	-0.042115845
116	0x3c88ed8c	0.016714834
117	0xbd36a06a	-0.044586577
118	0xbc808344	-0.015687592
119	0xbb0f83ad	-0.0021898553
120	0x3d339ff5	0.04385372
121	0xbd9a56d5	-0.07536093
122	0x3c27d3c0	0.010243356
123	0x3d88b702	0.06675531
124	0xbd9102ad	-0.070805885
125	0xbce159f8	-0.02750872
126	0x3dc6feca	0.09716566
127	0xbcd68057	-0.026184244
128	0x3db1c245	0.08679632
129	0x3e085cd4	0.13316661
130	0x3db4d3a3	0.08829429
131	0xbe00eacc	-0.12589568
132	0xbc11bf3f	-0.008895694
133	0xbd797f94	-0.060912684
134	0xbd3b5882	-0.045738705
135	0x3d486dd5	0.04893287
136	0xbd3efb77	-0.046626534
137	0x3cb9b751	0.02267042
138	0xbddb70aa	-0.10714848
139	0x3e2c4acc	0.16825408
140	0xbdeabde9	-0.11462004
141	0xbe41db80	-0.18931389
142	0x3d071ef8	0.03298852
143	0x3caa1f7e	0.02076697
144	0x3dd782a5	0.10522965
145	0x3dc558ac	0.096360534
146	0x3ca782f9	0.020448195
147	0x3caa2b18	0.020772502
148	0x3da52567	0.080637746
149	0xbd493c79	-0.049129937
150	0x3a77bfae	0.0009450865
151	0xbdd7def7	-0.10540574
152	0x3da97d7f	0.082758896
153	0x3d99a006	0.07501225
154	0x3be82952	0.007085004
155	0x3e72d680	0.23714638
156	0x3e6e3b57	0.23264824
157	0x3d958574	0.07300845
158	0x39df2bb8	0.00042566448
159	0xbe543367	-0.20722733
160	0xbe02c46d	-0.12770243
161	0x3e37320d	0.17890187
162	0x3d679719	0.056540582
163	0xbd569894	-0.052391604
164	0x3db2d27b	0.08731552
165	0x3c3f331d	0.011669901
166	0x3daa1b69	0.08306009
167	0xbd57b12f	-0.05265921
168	0x3c9781b6	0.018494468
169	0x3e45348a	0.19258323
170	0xbbdbd3a5	-0.0067085796
171	0xbe4307fa	-0.19046012
172	0xbad93b7a	-0.0016573512
173	0x3e1ac468	0.15113986
174	0x3da0d123	0.0785239
175	0xbe516967	-0.20450364
176	0xbd18cdfd	-0.03730582
177	0xbd26ccc7	-0.040722635
178	0xbd825752	-0.06364311
179	0x3d99dcf8	0.075128496
180	0x3e8f6152	0.28003937
181	0xbdbb3a97	-0.091420345
182	0x3d76aadb	0.060221534
183	0x3c26f563	0.010190341
184	0x3e2edb9c	0.17075962
185	0x3d283447	0.04106548
186	0xbe71697e	-0.23575398
187	0xbda932b9	-0.08261628
188	0x398242cc	0.000248453
189	0x3ccea360	0.025224388
190	0xbdd61f1b	-0.10455152
191	0x3daa53f3	0.08316793
192	0x3e0ef3c5	0.13960178
193	0x3df123f4	0.11774436
194	0xbdaf92f0	-0.08572948
195	0xbdd79da8	-0.105281174
196	0x3dd89c9d	0.105767466
197	0x3dd32c78	0.10311216
198	0xbca6e994	-0.02037505
199	0xbe046dcf	-0.12932514
200	0x3cabdebb	0.02098023
201	0x3d2d85f5	0.04236408
202	0xbdcea955	-0.10090891
203	0xbd993f31	-0.07482756
204	0x3d6f3f10	0.05840975
205	0xbd44381c	-0.047905073
206	0x3e626b1c	0.22111171
207	0x3d95448e	0.072884664
208	0x3e273e97	0.1633247
209	0xbd3c6050	-0.04599029
210	0x3da05fc4	0.07830766
211	0x3d2260c6	0.03964307
212	0xbdf76c74	-0.12081233
213	0x3d91e7d2	0.07124294
214	0xbe189f3d	-0.14904495
215	0x3c84443c	0.016145818
216	0xbd2c7c55	-0.04211076
217	0x3da26d6c	0.07931027
218	0x3d89c6a1	0.067273386
219	0xbdc4c929	-0.09608681
220	0x3eb79280	0.35853958
221	0xbd867d25	-0.06566838
222	0xbcb59e40	-0.022170186
223	0xbd44b5fb	-0.048025113
224	0xbdddce83	-0.108304046
225	0x3d798e44	0.06092669
226	0x3cb6b6e5	0.022304008
227	0xbd69109e	-0.056900613
228	0xbbf89165	-0.0075856918
229	0xbe5db315	-0.21650346
230	0x3d965bfa	0.07341762
231	0xbe0318a2	-0.12802365
232	0xbc6b956d	-0.014378888
233	0x3e55845d	0.20851274
234	0x3d241129	0.040055428
235	0x3df5a83d	0.119949795
236	0xbda1328b	-0.078709684
237	0x3dbf95c1	0.09354735
238	0xbd2712bd	-0.040789355
239	0x3e591d75	0.21202643
240	0xbcbc0e74	-0.02295611
241	0xbe381384	-0.17976195
242	0xbd6755be	-0.056478254
243	0xbe5f53b9	-0.21809281
244	0xbe134bf5	-0.14384444
245	0xbd520fee	-0.051284723
246	0xbd826719	-0.063673206
247	0x3d89d1bc	0.06729457
248	0xbd196b3b	-0.03745578
249	0x3dbc5ff6	0.091979906
250	0xbdc3d976	-0.09562962
251	0x3db89843	0.090134166
252	0xbe19a7dc	-0.1500544
253	0x3e2b303a	0.16717616
254	0x3e1b18b6	0.15146145
255	0x3de893e5	0.11356334

network_body._body_endoder.seq_layers.0.bias f4 [128]
0	0x00000000	0.0
1	0x00000000	0.0
2	0x00000000	0.0
3	0x00000000	0.0
4	0x00000000	0.0
5	0x00000000	0.0
6	0x00000000	0.0
7	0x00000000	0.0
8	0x00000000	0.0
9	0x00000000	0.0
10	0x00000000	0.0
11	0x00000000	0.0
12	0x00000000	0.0
13	0x00000000	0.0
14	0x00000000	0.0
15	0x00000000	0.0
16	0x00000000	0.0
17	0x00000000	0.0
18	0x00000000	0.0
19	0x00000000	0.0
20	0x00000000	0.0
21	0x00000000	0.0
22	0x00000000	0.0
23	0x00000000	0.0
24	0x00000000	0.0
25	0x00000000	0.0
26	0x00000000	0.0
27	0x00000000	0.0
28	0x00000000	0.0
29	0x00000000	0.0
30	0x00000000	0.0
31	0x00000000	0.0
32	0x00000000	0.0
33	0x00000000	0.0
34	0x00000000	0.0
35	0x00000000	0.0
36	0x00000000	0.0
37	0x00000000	0.0
38	0x00000000	0.0
39	0x00000000	0.0
40	0x00000000	0.0
41	0x00000000	0.0
42	0x00000000	0.0
43	0x00000000	0.0
44	0x00000000	0.0
45	0x00000000	0.0
46	0x00000000	0.0
47	0x00000000	0.0
48	0x00000000	0.0
49	0x00000000	0.0
50	0x00000000	0.0
51	0x00000000	0.0
52	0x00000000	0.0
53	0x00000000	0.0
54	0x00000000	0.0
55	0x00000000	0.0
56	0x00000000	0.0
57	0x00000000	0.0
58	0x00000000	0.0
59	0x00000000	0.0
60	0x00000000	0.0
61	0x00000000	0.0
62	0x00000000	0.0
63	0x00000000	0.0
64	0x00000000	0.0
65	0x00000000	0.0
66	0x00000000	0.0
67	0x00000000	0.0
68	0x00000000	0.0
69	0x00000000	0.0
70	0x00000000	0.0
71	0x00000000	0.0
72	0x00000000	0.0
73	0x00000000	0.0
74	0x00000000	0.0
75	0x00000000	0.0
76	0x00000000	0.0
77	0x00000000	0.0
78	0x00000000	0.0
79	0x00000000	0.0
80	0x00000000	0.0
81	0x00000000	0.0
82	0x00000000	0.0
83	0x00000000	0.0
84	0x00000000	0.0
85	0x00000000	0.0
86	0x00000000	0.0
87	0x00000000	0.0
88	0x00000000	0.0
89	0x00000000	0.0
90	0x00000000	0.0
91	0x00000000	0.0
92	0x00000000	0.0
93	0x00000000	0.0
94	0x00000000	0.0
95	0x00000000	0.0
96	0x00000000	0.0
97	0x00000000	0.0
98	0x00000000	0.0
99	0x00000000	0.0
100	0x00000000	0.0
101	0x00000000	0.0
102	0x00000000	0.0
103	0x00000000	0.0
104	0x00000000	0.0
105	0x00000000	0.0
106	0x00000000	0.0
107	0x00000000	0.0
108	0x00000000	0.0
109	0x00000000	0.0
110	0x00000000	0.0
111	0x00000000	0.0
112	0x00000000	0.0
113	0x00000000	0.0
114	0x00000000	0.0
115	0x00000000	0.0
116	0x00000000	0.0
117	0x00000000	0.0
118	0x00000000	0.0
119	0x00000000	0.0
120	0x00000000	0.0
121	0x00000000	0.0
122	0x00000000	0.0
123	0x00000000	0.0
124	0x00000000	0.0
125	0x00000000	0.0
126	0x00000000	0.0
127	0x00000000	0.0

network_body._body_endoder.seq_layers.2.weight f4 [128, 128]
0	0x3d8d99b4	0.06914082
1	0xbdc04a48	-0.09389168
2	0x3db52063	0.08844068
3	0xbbdcee9f	-0.006742313
4	0xbd839095	-0.06424061
5	0x3ca9711a	0.020683814
6	0xbdb20970	-0.08693206
7	0xbcde0a98	-0.02710466
8	0x3dbfea11	0.093708165
9	0xbd958fc1	-0.073028095
10	0x3c94f466	0.018182945
11	0x3d4cc24e	0.04998999
12	0xbd3bb99f	-0.04583132
13	0xbccd7cb2	-0.025083873
14	0xbdc25cdf	-0.0949037
15	0x3dd2c0d5	0.10290686
16	0x3c029ebd	0.0079724165
17	0x3e2aea02	0.1669083
18	0x3c59b560	0.013287872
19	0x3c8da96d	0.017292703
20	0x3c535a83	0.012899998
21	0x3e09fcda	0.13475361
22	0x3cec5efd	0.028853888
23	0xbdedbe0b	-0.116085134
24	0xbe612ab8	-0.21988952
25	0xbd6e5896	-0.05818995
26	0x3db9c191	0.09070123
27	0x3d569483	0.052387726
28	0x3dfaceb3	0.12246456
29	0xbd724e50	-0.059156716
30	0x3d944c52	0.072411194
31	0x3c1f449a	0.009720946
32	0x3c34f177	0.011043898
33	0x3dd47439	0.1037373
34	0xbe1b0707	-0.151394
35	0xbdced9db	-0.101001464
36	0xbc98df36	-0.018661123
37	0x3d97a420	0.07404351
38	0xbcbbac25	-0.022909233
39	0x3e3a8de4	0.1821819
40	0x3da5070d	0.080579855
41	0xbd8b6516	-0.0680639
42	0x3e14bdd0	0.14525533
43	0xbe2073d2	-0.15669182
44	0x3d12993f	0.035790678
45	0x3e283c3c	0.16429228
46	0x3e2c7620	0.16841936
47	0x3c8ed9a4	0.017437764
48	0xbc9173ab	-0.01775535
49	0xbe3f5e4d	-0.18688317
50	0x3d8f10c2	0.06985618
51	0xbe181022	-0.14849904
52	0x3d0b4e98	0.0340105
53	0xbdd4acc9	-0.10384519
54	0x3d844570	0.06458557
55	0xbd39dd05	-0.045376796
56	0x3d05f4e3	0.032704245
57	0xbd7f0e7b	-0.06226967
58	0xbe149139	-0.14508523
59	0xbd7c68c2	-0.061623342
60	0x3e2d3331	0.16914059
61	0x3c44040b	0.011963855
62	0x3b68f4df	0.0035546345
63	0xbd7ffb67	-0.062495615
64	0x3cb8a03a	0.02253734
65	0xbdaa9992	-0.083300725
66	0x3c0c16eb	0.008550386
67	0xbdc49ffe	-0.096008286
68	0xbcea6317	-0.028611703
69	0xbd80d0d0	-0.06289828
70	0xbdbae18d	-0.09125052
71	0x3dac71f2	0.08420171
72	0xbc6f3645	-0.014600341
73	0x3db726be	0.08942936
74	0xbac54918	-0.0015051691
75	0x3c7ae66b	0.015313725
76	0x3d585378	0.052813977
77	0x3df2063d	0.11817596
78	0xbd43fa42	-0.047846086
79	0xbc274fd9	-0.010211908
80	0xbcece93e	-0.028919812
81	0xbd794f85	-0.06086685
82	0xbe087ea9	-0.13329567
83	0x3e065936	0.13119969
84	0x3e2b8c79	0.16752805
85	0x3dca4ca8	0.09877902
86	0x3dcbfd51	0.09960426
87	0x3dddc3de	0.10828374
88	0x3ccbe68b	0.024890205
89	0xbd00b6f2	-0.03142447
90	0x3dc4373f	0.0958085
91	0xbd6e82f2	-0.058230348
92	0x3d380e7f	0.0449357
93	0x3b529f18	0.0032138284
94	0x3e2a5a82	0.16636088
95	0xbca46839	-0.020069228
96	0x3b77a307	0.003778638
97	0xbd90010a	-0.07031448
98	0x3def2974	0.116778284
99	0x3de624cd	0.11237488
100	0xbe24acea	-0.16081586
101	0xbd144428	-0.03619781
102	0x3bb2bc7b	0.0054545975
103	0x3e4d6129	0.20056595
104	0x3e86c5b3	0.26322708
105	0xbd210041	-0.039306883
106	0xbde05a32	-0.109547034
107	0xbc77bd1a	-0.015120769
108	0xbc81f0b2	-0.015861843
109	0x3d7d2c75	0.061809976
110	0x3df3c74b	0.119032465
111	0x3da60051	0.08105529
112	0x3c61a0e4	0.0137712695
113	0x3d80c6ee	0.06287943
114	0xbc41683c	-0.011804637
115	0xbbfc8668	-0.007706452
116	0xbda228b0	-0.07917917
117	0x3bb39b8c	0.005481189
118	0x3d9a575d	0.075361945
119	0xbc853969	-0.016262727
120	0x3dba744f	0.09104215
121	0x3cd74909	0.026279943
122	0x3cd41496	0.025888722
123	0xbd252cc8	-0.04032591
124	0x3c3d2a9c	0.011545803
125	0xbd311b88	-0.043239146
126	0x3d2ab9e2	0.041681178
127	0x3d364d4e	0.044507317
128	0x3d832925	0.06404332
129	0xbccc669c	-0.024951272
130	0x3dd85045	0.10562185
131	0x3d81e515	0.06342522
132	0x3c8f202c	0.017471395
133	0xbd018bb4	-0.031627372
134	0xbd839401	-0.06424714
135	0x3d4c75b5	0.04991694
136	0x3de7cb5a	0.11318083
137	0xbe5773aa	-0.21040216
138	0xbddf0a2c	-0.10890612
139	0xbdcacd62	-0.09902455
140	0x3c80c8db	0.015720775
141	0x3dd32ee4	0.10311678
142	0x3e07520c	0.13214892
143	0xbe36186c	-0.17782754
144	0x3ccad6d5	0.024760643
145	0xbb2b1cb4	-0.0026109638
146	0x3e001c6a	0.12510839
147	0x3ca93bfb	0.020658484
148	0x3d03f3d9	0.032214973
149	0xbd40a0e6	-0.047028445
150	0xbd7b9f38	-0.06143114
151	0x3d88fe83	0.06689169
152	0x3e3e1afa	0.18564978
153	0x3d958127	0.073000245
154	0x3d48e52a	0.049046673
155	0xbca5e7ff	-0.020252226
156	0xbe1f209b	-0.15539782
157	0xbe09affc	-0.13446039
158	0x3da39d6e	0.07989012
159	0x3d1a0f18	0.03761205
160	0xbe2ad329	-0.16682114
161	0x3d9e84fb	0.07740208
162	0x3df04d55	0.117335
163	0xbd51e3b1	-0.051242534
164	0xbda90e97	-0.08254736
165	0xbe15206c	-0.14563149
166	0x3ded5bc2	0.11589767
167	0x3c027ece	0.007964803
168	0xbd8b24d6	-0.06794135
169	0xbda77d7d	-0.08178232
170	0xbd492b06	-0.049113296
171	0x3ca09341	0.019601466
172	0xbc8fb3af	-0.017541735
173	0xbd231baa	-0.039821304
174	0xbc012265	-0.007881735
175	0x3d94b16b	0.07260402
176	0x3d7424cd	0.05960541
177	0x3d9da6b5	0.076978125
178	0x3e4923d9	0.19642581
179	0x3bb3e21b	0.0054896004
180	0x3de1abac	0.11019072
181	0xbd62ecc4	-0.05540158
182	0x3cada785	0.021198044
183	0x3dc3d280	0.09561634
184	0x3d11b9b8	0.035577506
185	0xbdcb01bf	-0.099124424
186	0xbddd0ee5	-0.107938565
187	0xbcbab00a	-0.02278902
188	0x3dac7da3	0.08422401
189	0xbe34ad11	-0.17644145
190	0x3ddeba47	0.10875373
191	0x3db6b361	0.089209326
192	0xbd475c2d	-0.04867189
193	0x3d961a19	0.073291965
194	0x3d0ab2b2	0.033861823
195	0x3d37be3a	0.04485915
196	0x3c55aa1e	0.013041047
197	0x3dd725ed	0.10505281
198	0xbe2fbb55	-0.17161305
199	0xbd1809aa	-0.03711859
200	0xbd248cf5	-0.04017349
201	0x3d603726	0.054740094
202	0x3e209dc6	0.15685186
203	0xbe2fe017	-0.17175327
204	0xbbcc427e	-0.0062335124
205	0xbd046734	-0.032324985
206	0xbdde3d35	-0.10851518
207	0x3dd7d5ff	0.105388634
208	0xbd73f6f6	-0.059561692
209	0x3e0dca91	0.13846804
210	0xbcfc5dce	-0.030806448
211	0x3d343e67	0.044004824
212	0xbb2251ec	-0.0024768068
213	0x3dca9709	0.09892089
214	0x3dafafce	0.08578454
215	0xb9e3df2c	-0.0004346309
216	0xbd7a11b5	-0.061052043
217	0x3e36b083	0.17840771
218	0x3c1b24ef	0.009469255
219	0xbdd0f8aa	-0.10203679
220	0xbc9ef987	-0.019406093
221	0x3d3a02a3	0.04541267
222	0xbdc3aef1	-0.09554852
223	0x3d85a6f1	0.06525982
224	0xbc6bd408	-0.014393814
225	0xbd1d0846	-0.03833797
226	0xbdcb0611	-0.099132665
227	0x3d36a478	0.044590443
228	0x3d795e68	0.06088105
229	0xbd6279af	-0.055291828
230	0xbb4eb457	-0.0031540596
231	0x3d87f97f	0.066393845
232	0xbd6da8a9	-0.058022175
233	0x3c8e2afd	0.017354483
234	0xbd99e527	-0.075144105
235	0x3db4d7b5	0.08830205
236	0x3dc11b18	0.09428996
237	0x3e107e10	0.14110589
238	0x3d8e67d6	0.06953399
239	0xbdc8d276	-0.09805767
240	0x3dc98585	0.0983992
241	0xbd93f0c2	-0.07223655
242	0x3cdb43a2	0.026765648
243	0x3cf8aade	0.030354913
244	0x3d5f36ae	0.054495506
245	0xbc46c36b	-0.012131552
246	0xbc5effb5	-0.01361077
247	0x3d9dea80	0.07710743
248	0xbd4c5787	-0.04988816
249	0x3c0fe778	0.008783214
250	0xbd564934	-0.052315906
251	0xbd8c8dc0	-0.06862974
252	0xbb18bf0a	-0.0023307228
253	0xbdd1143a	-0.10208936
254	0x3c22bfcd	0.009933424
255	0x3dae3708	0.0850659

action_model._discrete_distribution.branches.0.weight f4 [80, 128]
0	0x3b1fbc62	0.002437376
1	0xba64d0df	-0.0008728634
2	0xbb59db42	-0.003324226
3	0xbb5e75bf	-0.0033944694
4	0xbc4735d2	-0.012158828
5	0x3c2bd131	0.010486887
6	0x3bce96bf	0.0063045914
7	0x3c883bfa	0.016630162
8	0xbbefefad	-0.0073222728
9	0x3a1c0512	0.0005951683
10	0x3c1a8ba7	0.00943271
11	0x3b48bb3a	0.0030629174
12	0xbb3a8d6d	-0.0028465644
13	0x3ac28eab	0.0014843544
14	0x3c5c18b7	0.013433627
15	0xba80f417	-0.000983837
16	0xba96592f	-0.001147067
17	0xbb1d6267	-0.0024014951
18	0xbc78fdb8	-0.01519721
19	0xbc6e8e72	-0.014560329
20	0x3c42ff7c	0.0119017325
21	0xbb3adf43	-0.0028514422
22	0x3b63c2e3	0.0034753613
23	0xbb4fa3cb	-0.0031683322
24	0x3ba9de62	0.005183981
25	0x3bffa298	0.007801365
26	0x3b983e41	0.004646093
27	0xbb119f85	-0.0022220325
28	0xbbfad692	-0.0076549733
29	0x3ca0401f	0.019561825
30	0x3b56333d	0.003268435
31	0x3c2e6c7f	0.010645985
32	0xbc431331	-0.011906431
33	0xbbcb7d04	-0.0062099714
34	0x3c398399	0.011322879
35	0xbc078e7d	-0.008273718
36	0xbc074eff	-0.00825858
37	0x3bc3a947	0.005971107
38	0xbc697192	-0.014248269
39	0xbc332490	-0.01093401
40	0xbbb56066	-0.005535173
41	0x3c6938d8	0.014234744
42	0xbbd77b30	-0.0065759644
43	0x3c817b0f	0.01580575
44	0x3c4ca655	0.0124908285
45	0x3b8fd266	0.004389095
46	0x3b0c5b97	0.0021416896
47	0xbc37a3f0	-0.011208519
48	0xbbc3788b	-0.0059652976
49	0x3c0046ab	0.007829349
50	0xbc07e3f7	-0.008294097
51	0x3c24000b	0.010009776
52	0x3ba03387	0.004888955
53	0xbc5c42eb	-0.013443689
54	0x3b894301	0.0041888957
55	0x3c27614e	0.01021607
56	0x3c2af99a	0.010435486
57	0x3a90562f	0.0011012013
58	0xbb3668dc	-0.0027833497
59	0x3c1fbcbf	0.00974959
60	0x3c05e69d	0.008172658
61	0xbb7c0afd	-0.0038458698
62	0x3a51437a	0.0007982772
63	0x3c10b89b	0.008833076
64	0xbce87f0f	-0.028380899
65	0xbb9724e0	-0.00461255
66	0xbbf6e9b2	-0.007535183
67	0xbc6697e3	-0.014074299
68	0xbc572e2b	-0.013133566
69	0xbac92cdb	-0.0015348451
70	0x3c182ce3	0.009288046
71	0xbba80127	-0.0051270905
72	0x3b8dc4d7	0.0043264437
73	0xbb3aa81f	-0.0028481556
74	0xbbe01f13	-0.006839642
75	0x3b90b60f	0.0044162343
76	0xbaeb6025	-0.001795773
77	0xbc881394	-0.016610898
78	0x3b89f856	0.004210512
79	0xba250beb	-0.00062960264
80	0x3b7f5bbb	0.0038964588
81	0xbbf54cc8	-0.0074859597
82	0x3bf08e12	0.007341155
83	0xbbddebd0	-0.006772496
84	0x3b2671eb	0.002539749
85	0xbc0e75fb	-0.008695121
86	0x3b840dab	0.0040299497
87	0x3bd8cb70	0.0066160485
88	0xbc26dc5e	-0.010184376
89	0x3aaeb87b	0.0013330126
90	0xbba7ed71	-0.005124741
91	0xbb8c3fb6	-0.004280056
92	0x3c41adba	0.011821205
93	0x3c9a75df	0.018855033
94	0x3c95b120	0.018272936
95	0x39a59284	0.00031580415
96	0xb99f3807	-0.00030368587
97	0xbc16e663	-0.009210202
98	0xbb12256a	-0.0022300133
99	0xbb0432fd	-0.0020171993
100	0xbb2eb5b1	-0.002665859
101	0x3a156dfb	0.00057002873
102	0x3b8f37bb	0.0043706573
103	0xbbb14416	-0.005409728
104	0xbbb0aba2	-0.005391554
105	0x39a3ee32	0.00031267252
106	0xba00c8ae	-0.0004912716
107	0x3c9bf9ab	0.01903995
108	0x3c1bde23	0.009513411
109	0x3c0b0c87	0.0084868735
110	0xba0513a9	-0.0005076477
111	0xbbdd2062	-0.006748245
112	0xbabb0ef6	-0.0014271426
113	0xbca381be	-0.019959327
114	0x3bbe8924	0.0058146883
115	0x3c231d18	0.009955667
116	0x3a8ea567	0.0010883034
117	0x3c25a527	0.010110176
118	0xbbf74f7a	-0.007547316
119	0xbca3a45f	-0.01997584
120	0xbba53322	-0.005041496
121	0x38f90308	0.0001187381
122	0x3b21d9a0	0.0024696365
123	0x3c29f77f	0.010373949
124	0x3b49e22e	0.003080498
125	0xbaebfbef	-0.0018004159
126	0xbbd5b13d	-0.0065213726
127	0xbc878d15	-0.016546765
128	0x3a8279b0	0.0009954479
129	0x3c7dcde3	0.015490982
130	0x3c8d1cfb	0.017225733
131	0x3b714f25	0.0036820855
132	0x3bd74d9f	0.0065705325
133	0xbbbb500e	-0.0057163304
134	0xba6d54b8	-0.00090534566
135	0x3c57fffb	0.013183589
136	0xbcdb989d	-0.02680617
137	0x3b484bf3	0.0030562847
138	0x3afeae1f	0.0019430554
139	0xbc4e6053	-0.012596208
140	0xbc49bed8	-0.012313567
141	0x3b978417	0.0046239006
142	0x3b74c815	0.0037350703
143	0x3aab5a5f	0.0013073197
144	0xbb870627	-0.0041206065
145	0x3b7d7c85	0.0038678956
146	0x3ae42ae3	0.0017407801
147	0x3c02883b	0.00796705
148	0xb98a95af	-0.00026432934
149	0x3c6bac87	0.014384395
150	0x3c53a5bf	0.012917935
151	0xb9a77767	-0.00031941684
152	0xbc47856f	-0.012177809
153	0xbb925fa7	-0.004466969
154	0x3945e2d1	0.0001887188
155	0x3b432433	0.0029776215
156	0x3c783a43	0.015150609
157	0x3b986f8a	0.0046519684
158	0x3bf1248b	0.0073590926
159	0xbb29647a	-0.0025847242
160	0xbb339167	-0.00273999
161	0x3bab5aab	0.0052293143
162	0xbb9eb23e	-0.0048430255
163	0x3bc70387	0.0060734185
164	0xb9f1f882	-0.00046152255
165	0x3a3c66a8	0.0007186928
166	0xbbf8abc0	-0.0075888336
167	0x3b89a6bf	0.004200786
168	0x3c3a5d72	0.011374818
169	0x3c2889ef	0.010286792
170	0xbc6fb467	-0.014630414
171	0x3c4aba3d	0.012373504
172	0x3b5fb9e7	0.0034137906
173	0x3c0aed29	0.008479395
174	0xbae9f6ad	-0.0017850004
175	0xbbfcc0f5	-0.007713432
176	0xbb1c9f49	-0.0023898652
177	0xbba9b21b	-0.0051787025
178	0x3bb638a8	0.005560953
179	0x3c4d61fb	0.012535567
180	0xba79b2ca	-0.0009525238
181	0xbc09b055	-0.008403857
182	0x3be434b7	0.006964292
183	0xbbb7fcb6	-0.0056148423
184	0xb8050442	-3.1713636e-05
185	0x3bef3e03	0.0073010935
186	0xbc718e42	-0.01474339
187	0xbbbd3a4e	-0.0057747727
188	0xbc3a803f	-0.011383115
189	0x3c35e8e8	0.011102892
190	0xbc2a3f1f	-0.010391026
191	0xbb9b4bb2	-0.004739248
192	0x3c1e83a3	0.009674939
193	0xbc6ca3ea	-0.014443377
194	0x3b4e4b12	0.003147785
195	0x3b781adf	0.0037857813
196	0xbb37ec2f	-0.002806436
197	0xb9181eae	-0.00014507279
198	0xbb74ad52	-0.0037334752
199	0x39547ea2	0.0002026507
200	0xbc18ad78	-0.009318702
201	0x3c09c8e7	0.008409715
202	0x3bdae375	0.006679947
203	0xba4c660f	-0.00077971903
204	0x3c3a8393	0.011383909
205	0xb9913e4b	-0.00027702967
206	0x3a072d3c	0.0005156582
207	0x3b5567ba	0.0032563047
208	0xbc03df2d	-0.008048815
209	0xbb728868	-0.0037007574
210	0x3c12a443	0.008950296
211	0xbc894f83	-0.016761547
212	0x3b3e2f0e	0.0029019746
213	0x3c10bb4f	0.00883372
214	0xbc0eab78	-0.0087078735
215	0xbbc19e7c	-0.0059087854
216	0x3c0bcdbd	0.008532939
217	0xbc132343	-0.008980575
218	0x3b0ed139	0.0021792187
219	0x3c09f33f	0.008419811
220	0xbbf0b723	-0.0073460503
221	0xbaea42ca	-0.0017872688
222	0x3c91a902	0.017780785
223	0x3b1253a4	0.0022327686
224	0xbbb55342	-0.0055336067
225	0xbbc1019b	-0.005890084
226	0xbc31f822	-0.010862382
227	0xbc24107b	-0.010013695
228	0xba8257cf	-0.0009944382
229	0x3b4878f4	0.0030589672
230	0x3bda5b95	0.0066637495
231	0x3c7f8b48	0.015597172
232	0xbc3e97db	-0.011632885
233	0x3b51d825	0.0032019701
234	0xbc0ecbdf	-0.008715599
235	0x3b84222e	0.004032395
236	0x3b679b33	0.0035340309
237	0xba9595ff	-0.00114125
238	0xbbb574eb	-0.0055376193
239	0x3b169343	0.0022975958
240	0xbaef4158	-0.0018253727
241	0x3c14f2e2	0.009091111
242	0xbc113430	-0.00886254
243	0xb9d2c16d	-0.00040198435
244	0xbbf3c63b	-0.0074394024
245	0xbc3a4718	-0.011369489
246	0xbc168423	-0.009186777
247	0x3ae9d77d	0.001784071
248	0xbbe0d5d0	-0.006861426
249	0x3ca9cf64	0.020728774
250	0xbb1a444b	-0.002353924
251	0xbbeaa93a	-0.0071612867
252	0x3c27113c	0.01019698
253	0x3c481c6f	0.01221381
254	0xbc1ee451	-0.00969799
255	0x3c302501	0.01075101

action_model._discrete_distribution.branches.0.bias f4 [80]
0	0x00000000	0.0
1	0x00000000	0.0
2	0x00000000	0.0
3	0x00000000	0.0
4	0x00000000	0.0
5	0x00000000	0.0
6	0x00000000	0.0
7	0x00000000	0.0
8	0x00000000	0.0
9	0x00000000	0.0
10	0x00000000	0.0
11	0x00000000	0.0
12	0x00000000	0.0
13	0x00000000	0.0
14	0x00000000	0.0
15	0x00000000	0.0
16	0x00000000	0.0
17	0x00000000	0.0
18	0x00000000	0.0
19	0x00000000	0.0
20	0x00000000	0.0
21	0x00000000	0.0
22	0x00000000	0.0
23	0x00000000	0.0
24	0x00000000	0.0
25	0x00000000	0.0
26	0x00000000	0.0
27	0x00000000	0.0
28	0x00000000	0.0
29	0x00000000	0.0
30	0x00000000	0.0
31	0x00000000	0.0
32	0x00000000	0.0
33	0x00000000	0.0
34	0x00000000	0.0
35	0x00000000	0.0
36	0x00000000	0.0
37	0x00000000	0.0
38	0x00000000	0.0
39	0x00000000	0.0
40	0x00000000	0.0
41	0x00000000	0.0
42	0x00000000	0.0
43	0x00000000	0.0
44	0x00000000	0.0
45	0x00000000	0.0
46	0x00000000	0.0
47	0x00000000	0.0
48	0x00000000	0.0
49	0x00000000	0.0
50	0x00000000	0.0
51	0x00000000	0.0
52	0x00000000	0.0
53	0x00000000	0.0
54	0x00000000	0.0
55	0x00000000	0.0
56	0x00000000	0.0
57	0x00000000	0.0
58	0x00000000	0.0
59	0x00000000	0.0
60	0x00000000	0.0
61	0x00000000	0.0
62	0x00000000	0.0
63	0x00000000	0.0
64	0x00000000	0.0
65	0x00000000	0.0
66	0x00000000	0.0
67	0x00000000	0.0
68	0x00000000	0.0
69	0x00000000	0.0
70	0x00000000	0.0
71	0x00000000	0.0
72	0x00000000	0.0
73	0x00000000	0.0
74	0x00000000	0.0
75	0x00000000	0.0
76	0x00000000	0.0
77	0x00000000	0.0
78	0x00000000	0.0
79	0x00000000	0.0
