results/Bigmap3/BigMapAgent/BigMapAgent-9499941.pt (torch, 791660 bytes, 33 tensors)

network_body._body_endoder.seq_layers.0.weight f4 [128, 81]
00000000: 3025 873b 9f77 08be 875a 023d 1ec2 3dbe
00000010: 8fd6 1a3e dd8a 90bd 3d63 4a3e 9d07 2a3b
00000020: 9fa7 6abd 256d d03d 415a 45be 3528 78be
00000030: 64b9 abbc f804 6abd d822 da3d f620 723b
00000040: 1192 4d3d 8e3b 42be e743 043e c0ee ac3d
00000050: 382a 23bd 5a03 dd3d 8eda 373e d1bd dbbd
00000060: 0122 9cbd 7a49 79bd ca0a 033d 2d3f 9e3d
00000070: 90b9 703d 5051 e23c 53c3 c63d a66d ab3d
00000080: db11 b5bd 5f3f ecbd 84cf 54be d375 203d
00000090: 1b28 043d 58a7 bb3c 9bd0 603d 6e79 883e
000000a0: 42bb 523d a813 dabd 4de2 8fbd be4b 0a3d
000000b0: 85fc 993d 3cb4 c9bb 1bcc 9f3d e487 013d
000000c0: d5be 21bd ef82 ccbb 34b2 6bbd 83b9 b33b
000000d0: fdb5 d4bd 550e c33d 2347 bb3d 29a4 6f3d
000000e0: 21c2 183e bca6 863d 2870 243e 1930 633e
000000f0: 3224 99bb 57c2 de3d 2533 46be b8b0 95be
00000100: bda0 603d 7f97 cb3d 1e7c 263e 7062 433d
00000110: 9710 ccbc 7096 0a3e a1fd 5dbd df13 be3c
00000120: e49b e2bd 5db8 01be 2b57 623e e808 1bbe
00000130: 82ef 413d e27b 0c3d 0082 81bd 2eb8 23bd
00000140: 6557 313d 44fc a63d 859e 2e3e 2152 0a3d
00000150: df65 19bd 36e6 a63b 29b4 a5bd 5180 393d
00000160: 6dbc 9f3c 8818 19be a0ec debd fe19 fbbd
00000170: e6ff 92bd ee94 043c 7581 a0bd cd25 043e
00000180: 43c7 5fbe 6a34 a5bd 7b69 7d3c 6a98 0e3d
00000190: 04fa 073d 682d b23c 737e aa3c a53d ccbd
000001a0: 15f1 09bd f6c3 4c3c f2bb 9dbd bf4b 803d
000001b0: e4ed 0f3d 7b11 e1bc 517d 463e 27c7 9fbe
000001c0: 6991 acbd 7b80 06be 4dd6 84bb a867 82bd
000001d0: f463 263d 0391 503d 6f8f 4d3d d2ec babd
000001e0: e152 ab3e d7c7 053e d164 c73d 820b 8ebd
000001f0: 8324 403e ab4b f03d e0a9 81bd 5c29 803c
00000200: 2a92 313e 1d18 0cbe 585d a9bc cc4c b03d
00000210: ab87 653d e22d 243d af77 e73d b532 95bb
00000220: 9b90 0bbe f9c1 333d 941c 933e 7a8c 843e
00000230: 3afd 19be 2460 40be e4b9 f8bb 00d6 21be
00000240: 04cd 12be 642b 38be 6989 283e f143 fabc
00000250: 6fcf fcbd 785c 8d3d c38f 61bd 5b45 263e
00000260: be18 21be 7bf6 073e d6cd bd3d 25bf 13bd
00000270: 97aa 23bd fb5a 663d 69fd 43bd e703 81bd
00000280: 1776 b2bd fd18 113d f348 063e 4bbc 723d
00000290: 03a6 a83d f3da 083d ba9e 4c3e 72e3 c2bd
000002a0: 7c25 9c3c a57e 5f3b 3cf4 ec3d dca3 a53c
000002b0: 380e 333d 6480 6dbe dc14 3d3e 5960 36bd
000002c0: 72a7 b4bd e0d4 62bb d770 583d 22c4 9d3d
000002d0: be05 6f3b 7066 ac3d a877 4a3e af7b 223e
000002e0: 783f 93bb a57b 483e 3875 08be ca43 41bd
000002f0: ba49 383e 7879 9fbb 19d9 71be d248 2e3e
00000300: 368f 4b3d ca9b 293d 9bc6 573d 6cad e13d
00000310: cd0c bd3d b121 fd3d 59d8 3fbe bfe7 cfbd
00000320: 4055 043d 1792 7d3e aa5b 14be b4c1 1a3e
00000330: d9f2 4abd 16d3 8d3c c0f0 543a 086f 093d
00000340: ffb0 fe3d f820 c3bd 7c81 47be 120d dc3d
00000350: 1cd4 2ebd 06a4 0c3e 7669 f53d e10c 26bd
00000360: 2c84 853d 8b63 ca3c aeaf 18be 6acd 863e
00000370: 5743 913d 918f 863e 7474 c2bd 9ec5 a93d
00000380: 20b3 4f3d 0d78 d5bd 2d2a 483e a116 3d3e
00000390: 57e5 bebd 48c4 2f3e 27c3 cc3d 99e8 80bc
000003a0: 8340 ab3d 7aee 283e 7fe6 023c 9620 f43c
000003b0: f402 eabd 1aa8 1cbe 664e 20be f1f0 b93c
000003c0: 87d9 08be 3825 733c 63eb 863d 297c e03d
000003d0: f063 94bd 8a69 c53c 5b73 873c 5ed5 0cbb
000003e0: 04b4 b13d 7319 ea3c 12a6 5fbd e688 8a3d
000003f0: bed9 a0bd 61cf 523d ace1 f03d ec0d 543d
0.004124306 -0.13326882 0.031824615 -0.18531081 0.1512091 -0.07057736 0.19764419 0.002594448
-0.057288762 0.10177068 -0.1927271 -0.24234088 -0.020962425 -0.057133645 0.10651177 0.0036945916
0.050188128 -0.18968031 0.12916528 0.084439754 -0.039835185 0.10791655 0.17954466 -0.10729564
-0.07623673 -0.06086109 0.03199271 0.077268936 0.058770716 0.027626663 0.09705224 0.08370523
-0.08841296 -0.115355246 -0.20782286 0.039174866 0.03226481 0.022906944 0.05488644 0.26655143
0.051448114 -0.106482804 -0.07025585 0.03376364 0.075188674 -0.006155519 0.07802602 0.031623736
-0.039488632 -0.0062411944 -0.057542995 0.005484761 -0.10386274 0.09524218 0.091444276 0.058506165
0.14917804 0.06574771 0.16058409 0.22186317 -0.0046735043 0.10876911 -0.19355448 -0.29236388
0.054840792 0.09941005 0.16258284 0.0477013 -0.024910254 0.1353395 -0.054196957 0.023202835
-0.1106489 -0.12667985 0.22103564 -0.15140116 0.047347553 0.03429783 -0.06323624 -0.03997057
0.043296237 0.081535846 0.17052658 0.03376973 -0.037450667 0.0050933613 -0.080910034 0.045288388
0.019499028 -0.14950764 -0.108849764 -0.12260817 -0.07177715 0.008092148 -0.07837192 0.12905045
-0.21853356 -0.08066638 0.015467043 0.034813322 0.033197418 0.021750167 0.020812249 -0.09972695
-0.03367718 0.012497893 -0.07701863 0.062644474 0.03513898 -0.027474156 0.19383742 -0.3120663
-0.08426172 -0.13134949 -0.004053867 -0.06367427 0.040622666 0.050919544 0.050185617 -0.09127201
0.3346167 0.13064514 0.09736026 -0.06935789 0.18763928 0.117331825 -0.06331229 0.015644722
0.17340913 -0.13681073 -0.020674393 0.08608398 0.056037586 0.04008282 0.11302125 -0.004553164
-0.13629381 0.04388616 0.2873274 0.25888425 -0.15038005 -0.18786675 -0.0075905193 -0.15804291
-0.1433602 -0.17985302 0.16458668 -0.030549975 -0.12344252 0.06902403 -0.055068742 0.16237395
-0.15732095 0.13277619 0.09267776 -0.03607096 -0.03995761 0.05623911 -0.047849093 -0.062995724
-0.0871393 0.03542422 0.13113765 0.0592616 0.08234789 0.03341193 0.19982424 -0.09516038
0.019060843 0.0034102586 0.115700215 0.020219736 0.043714732 -0.23193508 0.18464988 -0.044525478
-0.08821 -0.0034611747 0.052841987 0.07703425 0.0036471928 0.08417976 0.19772208 0.15867494
-0.00449365 0.19578417 -0.13325965 -0.04718379 0.17996874 -0.004866775 -0.23617972 0.17019966
0.049697123 0.041408338 0.05267964 0.11019406 0.09230957 0.12359942 -0.18734874 -0.10151624
0.032307863 0.2476276 -0.14488092 0.15112954 -0.049548004 0.017312568 0.0008123033 0.033553153
0.12436103 -0.09527773 -0.19482988 0.107446805 -0.042682752 0.13734445 0.11983006 -0.040539626
0.065193504 0.024705669 -0.14910766 0.26328593 0.07092922 0.26281407 -0.09494868 0.082896456
0.050707936 -0.104232885 0.19547339 0.18465663 -0.09321087 0.17164719 0.0999816 -0.015735911
0.08361914 0.16497222 0.007989525 0.029800694 -0.114263445 -0.152985 -0.15654907 0.022697898
-0.1336423 0.014840417 0.06587865 0.10961182 -0.07245624 0.024098177 0.016534498 -0.0021489481
0.086769134 0.028576588 -0.054601736 0.067643926 -0.07854031 0.051467303 0.117617935 0.05177109

network_body._body_endoder.seq_layers.0.bias f4 [128]
00000000: 3a07 283e abb9 633e 093c 713e 4097 763e
00000010: 42eb 94bd 969d 00be a98a 77be 3d57 3a3e
00000020: 6f30 f5bd 1d57 01be 86c2 613e e76c 68be
00000030: aacb 603e 73c8 473e 98b2 5dbe a7b5 043e
00000040: 6e5e 5b3e 5bf0 6f3e c977 d5bd 550f 153e
00000050: 6e07 223e 0915 cb3d bb5c 6d3e dafa 5fbe
00000060: acce 723e 23b0 78be b579 ddbd 61e4 34be
00000070: c2a9 4d3e 6805 693e cc6e 4bbe 77fc 83be
00000080: b3ef 7c3e 4f22 6d3d c308 09be 6ce9 46be
00000090: a5f0 833e 394e 163e 59e7 41be d79a 113c
000000a0: 8cf8 4e3e 4a14 213e 2740 5e3e 66c5 813e
000000b0: fb0a 733e 85d6 6a3e c76c 593e 2a93 753e
000000c0: d651 32be adda 3abe eb7d 6a3e b8a2 553e
000000d0: 2762 1a3e 46ff 37be 0c51 5a3e f886 a7bc
000000e0: 51ce d8bd c563 933e 3985 f23d 0217 763e
000000f0: 13f4 7f3e 8389 c8bd 45d4 833e bdba 4abe
00000100: 685c 2c3e b5b0 6ebe 3ad4 5d3e bb4d 0a3e
00000110: 94d9 863e a498 783e db02 7b3e 95c7 c8bc
00000120: 1417 07be 1a0b 89be 0368 4abe b6ec 693e
00000130: a86e 8cbe f0cd 5d3e 544e e9bd be6d 51be
00000140: 36f1 7b3e a48b 843e b518 afbd 3349 633e
00000150: 1ff4 2e3e c592 2dbe 5f2f 733e c864 87be
00000160: d143 9eba 9c30 8d3e f7c3 8c3e 9130 7ebe
00000170: 4326 f1bd d4d0 553e 229e 7f3e 32a7 d73d
00000180: ec7b 52be de5f 813e ab91 6f3e 8dbd 3b3e
00000190: b35b 723e 7a09 713e b9fa 513e 8e24 f63d
000001a0: 88f9 4a3e 938e 4b3e 230b 03be 077e 883e
000001b0: 2489 823e 3167 493e b618 b5bd 1582 623e
000001c0: dd7a 4c3e a3ad 5abe 5848 703e dc52 4b3e
000001d0: 2959 173c 9494 8c3e 1c42 693e 0297 253e
000001e0: 846b 4bbe 9d7b e93d 6074 2a3d 8902 b23d
000001f0: cb6c 4c3e 763e 6b3e 6f31 8a3e 7298 873e
0.16409007 0.22238795 0.23558058 0.24081135 -0.07271434 -0.12560114 -0.24173988 0.18197341
-0.119721286 -0.12630887 0.22046861 -0.22697793 0.21952692 0.19510059 -0.2165016 0.1295992
0.21422741 0.23431532 -0.10423238 0.1455663 0.15823147 0.099161215 0.23179905 -0.21873036
0.23711652 -0.24285941 -0.108142294 -0.17665245 0.20084289 0.22755969 -0.19866484 -0.25778553
0.24700813 0.057894047 -0.13382249 -0.19424981 0.25769535 0.14678277 -0.18935908 0.008887014
0.20212 0.15730396 0.2170416 0.25345916 0.23734657 0.22933395 0.21232902 0.2398192
-0.1741403 -0.1824748 0.22899596 0.20862854 0.15076505 -0.17968473 0.2131998 -0.0204501
-0.10586227 0.28787056 0.118418165 0.24032214 0.2499545 -0.09791853 0.25747886 -0.19797798
0.16832125 -0.23309596 0.2166299 0.13506214 0.26337874 0.24276978 0.24512808 -0.02450923
-0.13192397 -0.26766282 -0.1976624 0.22844204 -0.27428174 0.2166059 -0.11391893 -0.2045202
0.24603733 0.25887787 -0.08549634 0.22195892 0.17085312 -0.1695052 0.2374854 -0.26444077
-0.0012074654 0.2757615 0.2749326 -0.24823214 -0.11774876 0.20880443 0.24962667 0.10529937
-0.20555085 0.25268453 0.23395412 0.18334027 0.23667793 0.23538771 0.205058 0.12018691
0.19821751 0.19878606 -0.12797217 0.2665865 0.25495255 0.1966827 -0.08842604 0.22119935
0.19968744 -0.213553 0.23465097 0.19855827 0.009237566 0.27457106 0.22779125 0.16170886
-0.19865233 0.114005305 0.04161489 0.0869189 0.19963376 0.22973046 0.2699084 0.26483494

network_body._body_endoder.seq_layers.2.weight f4 [128, 128]
00000000: c619 a33d 6501 bbbd 0290 2c3c f45e 06be
00000010: b990 663c c3a9 fe3a aef3 7b3c 0403 ecbd
00000020: 98a1 09bd f2c0 8e3d a5d9 04be 76a5 423e
00000030: aa47 b83d a26d 43be af2a ac3c d58c 1cbe
00000040: 7526 1e3c 0658 e5bd aade 1e3d 8c60 303d
00000050: d8e4 63be 7b8d 37be d331 f2bd 93fc 9c3d
00000060: 05b9 98be c83b c5bb 2394 473d d770 733c
00000070: fbf6 dcbd d147 cabd bd5a 293e 4682 0e3e
00000080: 902c 93bc 8ba1 e93d 1b24 333e 1329 9abd
00000090: eb7a adbc 6fcb ad3d 3f6a 2e3d 2140 99bd
000000a0: 7034 473e af63 2c3d 5996 1fbe de14 fdbc
000000b0: a589 1ebe 88fb a8bd db12 4ebe 5deb 52be
000000c0: 5c05 00bd 07c3 9f3e 6b3a f8bc 28f0 de3c
000000d0: 814a d03c 5a8e 253e 09f5 e4bd b5be 543d
000000e0: bdc0 9d3d d073 1dbd cb79 6dbd 4512 21be
000000f0: 9c5c 5ebe c04e b53c c230 09be ba65 cc3d
00000100: ba96 b9bc fcd8 933e 58fb b7bd 17e2 983b
00000110: be35 32be 2b74 84bc 31fc 8ebb 400a 683e
00000120: 83ba 76bd b880 423e b1f3 0b3d da78 d2bd
00000130: f3ef aa3d c154 93be 57ba 39bd 6b5c cd3d
00000140: 8e67 81be 118c 09bd 6a7c 123e 4576 183d
00000150: ee4a 08be 7f24 193d b5dd 17be 5db6 033e
00000160: 00b5 b83c e1c5 45be beab c8bd 61ee 963d
00000170: 4076 c03d 1bc9 5cbe 94de 34be 564f 2a3d
00000180: de32 2d3e 0327 473d 84ef 98bd 62eb 4dbe
00000190: 85d6 3fbe 265d 6abe 08a1 01bd da10 7cbd
000001a0: 7cb8 08be c3ef 81bd 071f 30bd 06e0 7bbe
000001b0: c8c3 a8bd 00a9 0cbe 4790 793e 7c36 50be
000001c0: 8f5a 63be e7c3 50bd 5807 82bd 3097 25bd
000001d0: 2dab ce3d 47d0 1abe f812 ffbd 2dd1 ebbd
000001e0: e51a d63d a5a5 eebd e720 09be 95d8 15be
000001f0: f9a3 28bd 4784 8cbe 8e5d 99bd fef2 8abe
00000200: d1b2 013c e6aa 07bd e00f d1bd 3498 82bd
00000210: dd9b 12bd 678d 15bd 61b6 973c 4cfa 21bd
00000220: 78c9 01be abcf a23e 987a 2cbe b93d 723e
00000230: b8e1 1fbd 27bb 15be bfeb a2bd 1d1b e6bd
00000240: dd33 283c ea02 d73c 3ff1 913c df6d 3bbe
00000250: a015 833c d455 1a3d 497e fcbd 7cdb 043e
00000260: acab 3cbe 1867 443e 85cf 6a3d 4623 973e
00000270: 3e5d 0dbe 6333 9f3d 73bc ae3d 9225 12bd
00000280: 9011 ebbd 5b03 6bbc 6804 f43d ebbb f83c
00000290: f525 73be 68b7 eebd 59b2 423e 3d64 e2bd
000002a0: a17c 9ebd ebf9 9abc 04f5 acbd 6528 d43c
000002b0: 696d 08be 678c c2bc f567 dbbd ec4a 63be
000002c0: 424e 323d 7657 e9bd 00c5 c6bd dbd9 80bd
000002d0: 4752 ca3b b726 283d d438 f1bb 8f25 e9bd
000002e0: 5f3f 08bd 64b6 20be ee02 8fbd 280c d6bd
000002f0: f6c4 a03c 334c cf3d fbb7 66be aa44 163e
00000300: e14a bfbd f768 513d 6ba9 1abe c10d b8bd
00000310: 5e41 14be 266d 46be 5c13 4fbe 357d 7ebd
00000320: 21c7 4d3e bf05 7a3e be03 243e bfc9 61bc
00000330: 2dd5 6b3d a80a 8fbe 8356 663d 20d6 cd3d
00000340: e469 d8bd 13a8 85bd 55e6 debd 5ab8 11be
00000350: 2e3d 6fbd a744 1f3e 33fe 66bd 8348 563e
00000360: 8979 74bc 70fd 10be b994 30be 8afc 753e
00000370: c520 9b3d ba8f fabd ea8d 08be 3a9c a3bd
00000380: c81b d23d 0eb3 733d 488c 5dbe a1b2 213d
00000390: 5991 29be 0d8b 51bd 91f6 dc3d d64d 12bc
000003a0: dabb 893a 9fab 78be 8632 3a3e d18a 0cbd
000003b0: 232b 40be 8f3d b9bd 9fd2 133e 0d8c 4d3d
000003c0: f864 2dbd 5277 843e 76a2 1abe 9b67 86bc
000003d0: 6314 f93a df80 493d 8b4f 24be ee64 9c3d
000003e0: 7c7a b03d fa16 cdbe 48bf 89bb ef61 c6bd
000003f0: 2613 c13c 7619 05be 81b4 9dbc 5802 02be
0.079639 -0.09131125 0.010532381 -0.13122159 0.0140725905 0.0019429255 0.015377922 -0.11524013
-0.033601373 0.06970395 -0.1297365 0.19008431 0.08998044 -0.1908479 0.021016447 -0.15288098
0.009652724 -0.1119843 0.038786568 0.043060824 -0.22255266 -0.17925064 -0.118259095 0.07665362
-0.2982866 -0.0060190894 0.04872526 0.014858446 -0.10789295 -0.09876979 0.1653852 0.13916883
-0.017965585 0.11407765 0.17494242 -0.075273655 -0.021176776 0.084860675 0.042581793 -0.07482935
0.19453597 0.042087253 -0.15584697 -0.03089374 -0.15482195 -0.08251101 -0.2012438 -0.20597596
-0.03125511 0.31203482 -0.030301293 0.027214125 0.025426151 0.16167584 -0.11179549 0.051939685
0.077027775 -0.038440526 -0.05797748 -0.15729626 -0.21715015 0.022132277 -0.13397506 0.0998034
-0.02265488 0.28876483 -0.08983487 0.004665624 -0.17403314 -0.016168674 -0.0043635597 0.2266016
-0.060236465 0.18994415 0.03416795 -0.10276957 0.08346548 -0.287756 -0.045343723 0.10027393
-0.25274318 -0.033580843 0.14305273 0.037222166 -0.13309833 0.03738832 -0.14830668 0.12862535
0.022547245 -0.19313766 -0.09798382 0.07369686 0.093975544 -0.2156109 -0.17663032 0.041579567
0.16913936 0.04862119 -0.07467559 -0.20109323 -0.18734176 -0.22887096 -0.031647712 -0.06153951
-0.13351625 -0.06344559 -0.04299834 -0.24597177 -0.08240467 -0.13736343 0.24371444 -0.20333284
-0.22202514 -0.050968077 -0.06349057 -0.040427387 0.10091243 -0.15118514 -0.1245479 -0.115145065
0.104543485 -0.11652688 -0.13391457 -0.146334 -0.041172 -0.2744467 -0.07488547 -0.27138513
0.007916168 -0.033121966 -0.10208106 -0.06376687 -0.035793174 -0.036511805 0.018519582 -0.039545342
-0.1267451 0.31799063 -0.16843641 0.23656358 -0.03903362 -0.14622174 -0.07955121 -0.1123564
0.010266271 0.026246507 0.01781523 -0.18303631 0.016001523 0.03767951 -0.123287745 0.12974352
-0.18424863 0.19179952 0.057326812 0.295191 -0.138051 0.07773473 0.085320376 -0.03568036
-0.11477959 -0.014344062 0.11914903 0.030363044 -0.23744948 -0.11656076 0.19013347 -0.11054275
-0.07738615 -0.018917998 -0.084451705 0.025898168 -0.13322987 -0.02374859 -0.107131876 -0.22196549
0.043531664 -0.11393635 -0.097055435 -0.06291553 0.006174359 0.041052546 -0.007361511 -0.11384117
-0.03326356 -0.15694577 -0.06982981 -0.10451537 0.019625168 0.10121956 -0.2253112 0.14674631
-0.09340454 0.051125493 -0.1510369 -0.08986998 -0.1447806 -0.19377574 -0.20222229 -0.062131125
0.20095493 0.24416254 0.16017053 -0.01378101 0.057576347 -0.27937818 0.056234848 0.10050607
-0.10567072 -0.06526198 -0.10883776 -0.14230481 -0.058407955 0.15553533 -0.056394767 0.20926099
-0.014921554 -0.14159179 -0.17244233 0.24022117 0.0757461 -0.12234445 -0.13335386 -0.07988782
0.10259205 0.05949693 -0.21635544 0.039476994 -0.16559352 -0.051158 0.10789216 -0.00892969
0.0010508255 -0.24284218 0.18183336 -0.034312073 -0.18766455 -0.090449445 0.14435814 0.05018239
-0.04233262 0.25872284 -0.15101036 -0.016406825 0.0019003268 0.049195167 -0.16045968 0.07636438
0.08617112 -0.40056592 -0.0042037107 -0.09686648 0.023568701 -0.12997994 -0.01925111 -0.12696207

network_body._body_endoder.seq_layers.2.bias f4 [128]
00000000: 9b91 98bd 12a4 d8bd 9a70 c4bd caf7 963d
00000010: dffa 3d3e bd09 413e f47c 573e f67b dcbd
00000020: dd47 05be 448c b5bd f7a4 cebd 235d 3a3e
00000030: 688e 1c3e 83aa 263e 01f4 683d 8dc4 d63d
00000040: 3d1e babd f3a4 ebbd d449 c3bd 5d8a 0abe
00000050: 6f4f bd3d 5dfa c63d 6a93 2e3e 3a96 02be
00000060: a85b fcbd 565b 2f3e e098 313e 84a0 513e
00000070: bf51 1e3e 0a53 a0bd f3a3 013e f36e cf3d
00000080: d0a7 e9bd 182d 413e 7a48 13bd 0f49 613e
00000090: accb 113e 13c5 3e3e 75a0 dc3d ebb4 6f3e
000000a0: a2c0 363e 8104 dabd 5fd2 c8bd f7a1 233e
000000b0: a9be 0b3e 93c6 033e 03c8 ebbd 1df1 a6bd
000000c0: 0ae4 02be c039 7f3e 1ec0 78bd a42d ebbd
000000d0: 116d e0bd 1ffc f0bd ca74 c43d 0c65 0e3e
000000e0: db91 0e3e d985 3b3e d78d ff3d b239 293e
000000f0: 18a2 073e 164b 4f3e 6002 3c3e 16ed cdbd
00000100: 1dc8 263d 5e9b c9bd a68d 5f3e 32ff e1bd
00000110: e95f fb3d 6324 e0bd e044 87bd e28c 453e
00000120: de13 5e3e 8ada 453e ad42 f03b b0fb e23d
00000130: 529a 093e 9a2b 35bd 5adb b1bd e925 3f3e
00000140: 5241 dabd cdb1 f83d 2f23 063e 51a6 ecbd
00000150: 5315 6cbd a1a1 06be c615 bf3d 619f 983d
00000160: 8019 f2bd 1a14 3c3e fa5f e8bd ae94 82bd
00000170: 54cb afbd 4f58 153e 4527 313e 43f6 aabd
00000180: 5f87 333e 9150 173e b5fa 02be b46e f9bd
00000190: b440 d5bd f0dc e93d a1a9 123e ce83 4a3e
000001a0: e3fc 5b3e 5dd1 4d3e 7283 c7bd ab49 c3bd
000001b0: 91c8 1c3e b878 613e 4088 c7bd a358 873d
000001c0: 3f80 0e3e 3fd9 453e f224 06be a3e0 983d
000001d0: ba9f debd a304 2f3e 1a52 e83c e22a 3a3e
000001e0: 5470 2f3e bab2 9c3d b76a fc3d 7b41 fbbd
000001f0: 6602 ecbd 7cb8 273e 4c79 03be 8e36 493e
-0.07449647 -0.10578169 -0.095917895 0.07371481 0.18552731 0.18851371 0.2104376 -0.10765831
-0.13015695 -0.08864644 -0.10090058 0.18199591 0.15288699 0.16275983 0.056873325 0.10486708
-0.09087799 -0.11506071 -0.09535566 -0.13529344 0.092436664 0.09715722 0.17048422 -0.1275262
-0.123221695 0.17124686 0.17343473 0.20471388 0.15460871 -0.078283384 0.12660198 0.10128584
-0.11408961 0.18864858 -0.03595779 0.22000526 0.14237851 0.18629865 0.10772792 0.23408858
0.17846921 -0.1064539 -0.0980575 0.15979753 0.1364695 0.12868719 -0.115127586 -0.081514575
-0.12782302 0.24924374 -0.060730092 -0.11483315 -0.10958303 -0.11766838 0.09592588 0.13905734
0.13922827 0.18312778 0.12478226 0.16525915 0.13245428 0.20243487 0.18360281 -0.10054986
0.040718187 -0.09844087 0.21831378 -0.11035003 0.12274153 -0.1094444 -0.06604934 0.19292024
0.21687266 0.19321647 0.007332167 0.11083162 0.13437775 -0.044231035 -0.08684416 0.18666805
-0.1065699 0.12143288 0.13099359 -0.1155516 -0.057637524 -0.13147594 0.09330325 0.07452274
-0.1182127 0.18367043 -0.11346431 -0.06376015 -0.08583704 0.14584468 0.17300136 -0.08347752
0.17532109 0.14776827 -0.1279095 -0.12179318 -0.10412732 0.114190936 0.14322521 0.19776842
0.21483187 0.20099397 -0.09741868 -0.095355354 0.15310885 0.22018707 -0.097427845 0.06608703
0.1391611 0.19321154 -0.13100031 0.07464721 -0.10870309 0.17091613 0.028359462 0.18180421
0.17132694 0.07651277 0.12325042 -0.12268349 -0.11523895 0.16378969 -0.1283924 0.19649717

action_model._discrete_distribution.branches.0.weight f4 [80, 128]
00000000: 0aee bd3c 8bdc da3c 8558 803d eeb0 97bd
00000010: 75b5 82bd b40b 66bd 9b72 b4bd 0aa1 943d
00000020: 0f5a 733d f118 173d 93e1 d13d f6b6 acbd
00000030: 9704 c1bd c574 50bd 903b 8b3b 13ba 45bd
00000040: c41e 6dba 891b e33d f3b0 863d 1f1a b33d
00000050: c79b 65bd 6468 b0bd 1352 7bbd 8353 b93d
00000060: 0165 a33d 37df 95bd 6bcc 8fbc befa 88bd
00000070: 806c d5bd b19f 513d 2ffb febc c828 babd
00000080: fad0 923d 105e b4bd 7764 ce3b dd64 46bd
00000090: a368 9fbd 46d6 bbbd c8f1 8abd ec15 65bd
000000a0: 6e03 94bd 210e b23d 0c7e 8c3d 38f8 a5bd
000000b0: ba36 81bd df41 05bd ec6b cc3d 24f8 0a3d
000000c0: 6208 013d 5e5c a9bd d2e9 0b3d 3e95 093d
000000d0: 251c 963d dc1f 1e3d 5988 a8bd 6d14 e9bc
000000e0: 079f 6bbd 51d7 80bd 1169 98bd 273d 21bd
000000f0: bb40 c3bd 532e 7cbd 4fa3 39bd f7f6 d63c
00000100: cf68 99bc f70a 5f3d 6af5 b4bd 363e 1abb
00000110: c18f 32bd 9364 583d 524b 213d 6fdb c2bd
00000120: 21db d7bd 1e5d 8cbd 0f0b a0bc 646c a6bd
00000130: 6b47 14bd 328c 49bd da99 66bd d5da 00bd
00000140: 4b3a 393d 8310 97bd 1566 20bd 2357 b73d
00000150: 33f5 a33d 2a31 a83d 4ab3 94bd 9906 6bbd
00000160: 1700 883d b79d d9bc 71a1 913d 507c 5c3c
00000170: 82d4 4f3d a4ae 06be 84b7 94bd 8211 053d
00000180: 8961 a9bd 844f c9bd 7aa2 ab3d b420 da3d
00000190: 0e56 ea3d 5458 83bd 1ff3 56bd 0f90 a5bd
000001a0: b5f7 b4bc f77d 9dbd c67b 563d d7dd 253c
000001b0: 74ac 57bd 859b b5bd dbc7 d63c 28ab 07bc
000001c0: 6c7f 5ebd 6775 b1bd 64a9 8b3d 118b bbbd
000001d0: 7e3f e73d 2f4a 86bd 1f98 2ebb 7c3a 2cbd
000001e0: 8817 8cbc d9b9 cbbc 8234 8ebd 3118 5f3d
000001f0: 70cd 073e eaef febd 71e7 833d cb41 4dbd
00000200: acbf e23d 0458 8e3d f17a 7a3d c3d5 ecb8
00000210: 3c30 9ebd 86a8 85bd 986a 53bd 92ff 183d
00000220: 78f3 943d 776a 803d 69a9 b53d 5ef5 31bd
00000230: 47ce a5bd 1abe 4bbd 1c56 b73b 9b88 8fbd
00000240: f901 713d 85b7 c9bc f826 c33c d915 7c3d
00000250: 77f7 6bbd 66e8 48bd c59d b2bd ebd2 cd3d
00000260: e2b1 433d 3b77 0dbd 9820 33bd 8759 adbd
00000270: 876d 6fbd cc6b 653d 7a31 7fbc 3569 9fbd
00000280: 9277 a93d 96fe c5bd fe8f 873d 903b a4bd
00000290: 4985 32bd 409b e3bd f29f 8abd c8ef d8bd
000002a0: 1d1c d4bd 080b f33c fdba 813d 0202 9ebd
000002b0: d8e6 cebd 09cb b3bc 8fe1 a43c 9416 a93d
000002c0: 3283 bb3d f9fc 2bbd cd55 a83d e999 803d
000002d0: fe38 4c3d c850 9d3d 3f3d 94bd bdd0 23bd
000002e0: 957c 90bb 9216 aabd 7b93 2ebd 773d 2bbd
000002f0: 9482 9cbd fbb1 78bd 3b14 7dbd 8b80 7d3d
00000300: 0d52 12bd 2b42 6a3d f693 c4bd dfdd 583d
00000310: 2cb5 8abd 929e 7f3d 1d2b d43d b570 dfbd
00000320: faef 08bd 7384 cfbc 8260 763d 3838 fd3c
00000330: 6c0a 2fbd 4331 013d 2009 0f3d 1133 bbbd
00000340: 914e e93d 12c2 e13a 989f 3cbb 588d 8b3d
00000350: 9f51 653c 483b 953d 2f0d 293c abea 1fbd
00000360: f24d 773d 0a6c 95bd 493c a33d d705 413d
00000370: 932b bf3d 242f c73a 768c 3ebd 9fff cd3d
00000380: a52e f9bd 4a88 8cbd abda 723d 11fe 113d
00000390: 1d91 fc3b 445c 263d 9027 88bd a583 a1bd
000003a0: 17b9 bcbd a3b1 46bd e207 1f3d 181d 2f3d
000003b0: 48fe 6ebd 805c 15bd b4cb c73c 4330 4d3d
000003c0: d1c8 c6bc 9e69 72bd e062 b33d f35a 073c
000003d0: 7904 883d 3cfb b6bd 3c04 86bc 4c60 3fbd
000003e0: c66c b0bd 97f9 4a3c 3a65 82bd 20c1 6d3d
000003f0: 6b3f 0c3d 2ad1 90bd eaaf c53d 6331 8ebd
0.023184795 0.026716491 0.06266884 -0.074067935 -0.063822664 -0.056163505 -0.08810922 0.07257278
0.05941206 0.03688902 0.10248103 -0.084333345 -0.094247036 -0.05089261 0.0042490438 -0.048273157
-0.0009045417 0.11089236 0.06576719 0.087452166 -0.056056764 -0.08613661 -0.06135757 0.09049132
0.07978249 -0.073179655 -0.017553529 -0.0668845 -0.10421085 0.051177684 -0.031125633 -0.0908981
0.07168765 -0.088070035 0.0062985974 -0.048436034 -0.0778363 -0.09171729 -0.06784397 -0.05592911
-0.07227217 0.08694101 0.06859979 -0.081039846 -0.063092664 -0.032533523 0.09981522 0.03392805
0.031502135 -0.08269571 0.034158535 0.033589594 0.07329587 0.038604602 -0.08229131 -0.028452123
-0.057524707 -0.06291068 -0.07441915 -0.03936496 -0.09533831 -0.061567616 -0.04532176 0.026240809
-0.018726734 0.054453816 -0.088358715 -0.0023535616 -0.043594126 0.05283029 0.03937847 -0.0951451
-0.105398424 -0.06853698 -0.019536523 -0.081261426 -0.036200922 -0.049205966 -0.056299068 -0.031458694
0.045221608 -0.07376196 -0.039159853 0.08952167 0.080057524 0.08212502 -0.07260759 -0.05737934
0.06640642 -0.026564462 0.07110871 0.013457373 0.050739773 -0.13152558 -0.07261565 0.0324874
-0.082705565 -0.098296195 0.08380599 0.10650769 0.11442195 -0.06413332 -0.052477952 -0.080841176
-0.022090772 -0.076900415 0.052364133 0.0101236915 -0.0526547 -0.088675536 0.026218345 -0.008280553
-0.054320738 -0.08664971 0.06819418 -0.09157384 0.11291407 -0.06557118 -0.0026640964 -0.042047963
-0.017101064 -0.024868893 -0.06943609 0.05446643 0.13261962 -0.12448104 0.06440628 -0.050111573
0.11071715 0.069503814 0.061152402 -0.00011293173 -0.07724044 -0.06526284 -0.051615328 0.037353106
0.072730005 0.062703066 0.08870203 -0.04344689 -0.08095985 -0.04974184 0.005594982 -0.07008477
0.058839772 -0.024623642 0.023822293 0.061544273 -0.057609048 -0.049049757 -0.087214984 0.10049995
0.047777064 -0.034537535 -0.043732256 -0.084643416 -0.058454063 0.056011006 -0.015575761 -0.077837385
0.08274759 -0.09667699 0.06619261 -0.08019173 -0.043584142 -0.11113596 -0.067687884 -0.1059261
-0.10356925 0.029668346 0.06334493 -0.07715227 -0.10102624 -0.0219474 0.020127086 0.082562596
0.09155883 -0.0419893 0.0821949 0.06279356 0.04985904 0.076814234 -0.07238244 -0.03999399
-0.0044093826 -0.08305086 -0.042621117 -0.041806664 -0.07642093 -0.06071661 -0.06178687 0.061890166
-0.03572278 0.05719201 -0.09598534 0.052945968 -0.06772837 0.062407084 0.10359786 -0.10910169
-0.033431984 -0.025331711 0.06015063 0.030910596 -0.04273455 0.03154112 0.03492081 -0.091405995
0.113919385 0.0017223975 -0.0028781649 0.068140686 0.013996511 0.072866976 0.010318085 -0.039042156
0.06037707 -0.072959974 0.07970483 0.04712471 0.09334483 0.0015196544 -0.046520673 0.100585215
-0.121671 -0.068619326 0.05929057 0.035642687 0.0077077285 0.040615335 -0.06648171 -0.07886437
-0.092149906 -0.04850925 0.038825877 0.042752355 -0.05834797 -0.036465168 0.024389125 0.050094854
-0.024265679 -0.059182756 0.08759093 0.00826143 0.06641478 -0.08934638 -0.016359441 -0.046722695
-0.08614497 0.012388608 -0.06366964 0.058045506 0.034240168 -0.07071145 0.096526936 -0.069430135

action_model._discrete_distribution.branches.0.bias f4 [80]
00000000: e2aa 66bd 3b0d 72bd 96d1 35bc a5d5 503b
00000010: fdcb 39bd 475d 2a3d d16f 6b3c dad5 67bc
00000020: 5945 83bd 289a efbb 37b1 61bd b694 a0bd
00000030: 776b 613c dfcc 94bc e0d2 433c f011 32bc
00000040: 0dc9 b5bd fbc7 6e3b b8cd 3f3b fda2 553d
00000050: a7e9 3abd 8611 77bd 44c5 743d c9aa 733b
00000060: 0da1 e93d 395b b13c fb1d cfbb adc1 d63c
00000070: 9d2d 0bbd 5d7d c3bc 7f0f 0fbc 4a01 753d
00000080: 9ad2 a5bc a12b 7dbd a38b e0bd 613d f83b
00000090: 5689 9cbd a362 7a3c 9099 aabc e449 093d
000000a0: d620 183a 4519 99bc fb23 5c3d 76f9 01bd
000000b0: fc1d 55bd 3e40 0e3d 4698 c7bd c93e 0c3d
000000c0: a5cf 923d 2a6f 7c3d 766e aabb 3507 5abc
000000d0: 9522 cebc 565e 5fbc 236b 18bd 5fbd 83bd
000000e0: e9c8 eebc afe7 5cba b620 1abc 2ef4 b3bc
000000f0: c22b 843d a5f6 b9bd 5130 34bd 843b 8c3a
00000100: 48ba 7dbd de7e a0bc 93f2 c5bc 49d0 c6bd
00000110: 67e3 3cbd db23 ed3c 8693 ce3c 30d9 f3bc
00000120: 20fd 6b3d 2869 16bd d2d8 9ab9 edb7 713c
00000130: 27e8 ddbb 6ce3 7cbd 7886 a9bd 3c19 bfbd
-0.05631531 -0.05909465 -0.011097332 0.0031865623 -0.045360554 0.041592862 0.014369921 -0.014150107
-0.064097114 -0.007312078 -0.055100646 -0.07840864 0.013758532 -0.018164096 0.011952132 -0.010868534
-0.08876238 0.0036435116 0.0029266905 0.05215739 -0.045632984 -0.060319446 0.05975844 0.0037180653
0.11407671 0.021649944 -0.0063207126 0.026215399 -0.033979047 -0.023863489 -0.008731722 0.059815682
-0.020242024 -0.061809186 -0.109641336 0.0075756763 -0.07643382 0.015282306 -0.020825177 0.033517733
0.0005803233 -0.018688807 0.05374525 -0.031732045 -0.05203055 0.034729235 -0.09745841 0.034239564
0.07168511 0.06162945 -0.0052011563 -0.013307382 -0.025162974 -0.013633331 -0.03721155 -0.06432604
-0.029148536 -0.00084268575 -0.009407213 -0.02196702 0.06453659 -0.09080247 -0.04399139 0.0010698889
-0.06194523 -0.019591745 -0.02416352 -0.09707696 -0.046115305 0.028947761 0.025216829 -0.029766649
0.057614446 -0.03672138 -0.00029534713 0.014753324 -0.0067720595 -0.061740324 -0.08277601 -0.09330985

exp_avg f4 [128, 81]
00000000: 0400 0080 0400 0080 0400 0080 0400 0080
00000010: 0400 0000 0400 0000 0400 0000 0400 0000
00000020: 0400 0000 0400 0000 0400 0080 0400 0000
00000030: 0400 0000 0400 0000 0400 0080 0400 0080
00000040: 0400 0080 0400 0000 0400 0000 0400 0000
00000050: 0400 0080 0400 0000 0400 0000 0400 0080
00000060: a82b 9337 0400 0080 0400 0000 0400 0000
00000070: 0400 0000 0400 0080 0400 0080 09e6 2f9d
00000080: 0400 0080 0400 0000 0400 0080 0400 0080
00000090: 0400 0080 0400 0000 0400 0000 0400 0000
000000a0: 0400 0000 0400 0080 0400 0000 0400 0000
000000b0: 0400 0080 0400 0000 0400 0000 0400 0000
000000c0: 0400 0000 0400 0000 0400 0080 0400 0000
000000d0: 0400 0080 0400 0080 0400 0080 0400 0000
000000e0: 0400 0000 0400 0080 0400 0000 0400 0000
000000f0: d270 2eb4 0400 0080 0400 0000 0400 0080
00000100: 0400 0080 0400 0000 0400 0080 0400 0000
00000110: 0400 0000 0400 0000 0400 0000 0400 0000
00000120: 0400 0080 0400 0000 0400 0080 0400 0000
00000130: 0400 0000 0400 0080 0400 0000 0400 0000
00000140: 0000 0000 0400 0080 0400 0080 0400 0000
00000150: 0400 0080 0400 0000 0400 0000 0400 0000
00000160: 0400 0000 0400 0000 0400 0000 0400 0080
00000170: 0400 0000 0400 0000 0400 0000 0400 0080
00000180: 0400 0080 0400 0080 0400 0000 0400 0000
00000190: 0400 0000 0400 0080 0400 0000 0400 0000
000001a0: 0400 0080 c8e5 01b7 0400 0000 0400 0000
000001b0: 0400 0000 0400 0000 0400 0080 0400 0080
000001c0: 205c 8f9c 0400 0080 0400 0000 0400 0080
000001d0: 0400 0000 0400 0080 0400 0000 0400 0000
000001e0: 0400 0000 0400 0000 0400 0080 0400 0000
000001f0: 0400 0000 0400 0080 0400 0000 0400 0000
00000200: 0400 0080 0400 0000 0400 0000 0400 0000
00000210: 0400 0000 0400 0080 0400 0000 0400 0000
00000220: 0400 0080 0400 0080 0400 0000 0400 0000
00000230: 0400 0000 147b 4033 0400 0000 0400 0000
00000240: 0400 0080 0400 0080 0400 0000 0400 0080
00000250: 0400 0080 0400 0000 0400 0000 0400 0000
00000260: 0400 0080 0400 0080 0400 0000 0400 0080
00000270: 0400 0000 0400 0000 0400 0080 0400 0000
00000280: 0400 0000 0000 0000 0400 0080 0400 0080
00000290: 0400 0000 0400 0080 0400 0000 0400 0000
000002a0: 0400 0000 0400 0080 0400 0000 0400 0000
000002b0: 0400 0080 0400 0000 0400 0000 0400 0000
000002c0: 0400 0080 0400 0080 0400 0080 0400 0000
000002d0: 0400 0000 0400 0000 0400 0080 0400 0000
000002e0: 0400 0000 0400 0080 00f2 d3b4 0400 0000
000002f0: 0400 0000 0400 0000 0400 0000 0400 0080
00000300: 0400 0080 640f 229d 0400 0080 0400 0000
00000310: 0400 0080 0400 0000 0400 0080 0400 0000
00000320: 0400 0000 0400 0000 0400 0000 0400 0080
00000330: 0400 0000 0400 0000 0400 0080 0400 0000
00000340: 0400 0000 0400 0080 0400 0000 0400 0000
00000350: 0400 0080 0400 0000 0400 0080 0400 0000
00000360: 0400 0000 0400 0080 0400 0080 0400 0000
00000370: 0400 0000 0400 0000 e08b c2b2 0400 0000
00000380: 0400 0000 0400 0080 0400 0000 0400 0000
00000390: 0400 0080 0400 0080 0400 0000 0400 0000
000003a0: 0400 0000 0400 0080 0400 0080 0400 0000
000003b0: 0400 0080 0400 0000 0400 0000 0400 0080
000003c0: 0400 0000 0400 0000 0000 0000 0400 0080
000003d0: 0400 0080 0400 0080 0400 0080 0400 0000
000003e0: 0400 0000 0400 0000 0400 0000 0400 0000
000003f0: 0400 0000 0400 0080 0400 0000 0400 0000
-6e-45 -6e-45 -6e-45 -6e-45 6e-45 6e-45 6e-45 6e-45
6e-45 6e-45 -6e-45 6e-45 6e-45 6e-45 -6e-45 -6e-45
-6e-45 6e-45 6e-45 6e-45 -6e-45 6e-45 6e-45 -6e-45
1.7544095e-05 -6e-45 6e-45 6e-45 6e-45 -6e-45 -6e-45 -2.3279983e-21
-6e-45 6e-45 -6e-45 -6e-45 -6e-45 6e-45 6e-45 6e-45
6e-45 -6e-45 6e-45 6e-45 -6e-45 6e-45 6e-45 6e-45
6e-45 6e-45 -6e-45 6e-45 -6e-45 -6e-45 -6e-45 6e-45
6e-45 -6e-45 6e-45 6e-45 -1.6246057e-07 -6e-45 6e-45 -6e-45
-6e-45 6e-45 -6e-45 6e-45 6e-45 6e-45 6e-45 6e-45
-6e-45 6e-45 -6e-45 6e-45 6e-45 -6e-45 6e-45 6e-45
0.0 -6e-45 -6e-45 6e-45 -6e-45 6e-45 6e-45 6e-45
6e-45 6e-45 6e-45 -6e-45 6e-45 6e-45 6e-45 -6e-45
-6e-45 -6e-45 6e-45 6e-45 6e-45 -6e-45 6e-45 6e-45
-6e-45 -7.742499e-06 6e-45 6e-45 6e-45 6e-45 -6e-45 -6e-45
-9.48676e-22 -6e-45 6e-45 -6e-45 6e-45 -6e-45 6e-45 6e-45
6e-45 6e-45 -6e-45 6e-45 6e-45 -6e-45 6e-45 6e-45
-6e-45 6e-45 6e-45 6e-45 6e-45 -6e-45 6e-45 6e-45
-6e-45 -6e-45 6e-45 6e-45 6e-45 4.4815422e-08 6e-45 6e-45
-6e-45 -6e-45 6e-45 -6e-45 -6e-45 6e-45 6e-45 6e-45
-6e-45 -6e-45 6e-45 -6e-45 6e-45 6e-45 -6e-45 6e-45
6e-45 0.0 -6e-45 -6e-45 6e-45 -6e-45 6e-45 6e-45
6e-45 -6e-45 6e-45 6e-45 -6e-45 6e-45 6e-45 6e-45
-6e-45 -6e-45 -6e-45 6e-45 6e-45 6e-45 -6e-45 6e-45
6e-45 -6e-45 -3.947789e-07 6e-45 6e-45 6e-45 6e-45 -6e-45
-6e-45 -2.1448478e-21 -6e-45 6e-45 -6e-45 6e-45 -6e-45 6e-45
6e-45 6e-45 6e-45 -6e-45 6e-45 6e-45 -6e-45 6e-45
6e-45 -6e-45 6e-45 6e-45 -6e-45 6e-45 -6e-45 6e-45
6e-45 -6e-45 -6e-45 6e-45 6e-45 6e-45 -2.264818e-08 6e-45
6e-45 -6e-45 6e-45 6e-45 -6e-45 -6e-45 6e-45 6e-45
6e-45 -6e-45 -6e-45 6e-45 -6e-45 6e-45 6e-45 -6e-45
6e-45 6e-45 0.0 -6e-45 -6e-45 -6e-45 -6e-45 6e-45
6e-45 6e-45 6e-45 6e-45 6e-45 -6e-45 6e-45 6e-45

exp_avg_sq f4 [128, 81]
00000000: 3007 4922 ed9d eb21 cc5b 6328 5fd9 ad27
00000010: 32bb 2523 d2b4 c428 a858 b026 ba32 1627
00000020: 2046 6e24 1e2b 0227 cd12 2022 7d1e 6b21
00000030: 7109 3b29 4a50 4b26 c2d7 8426 7eb2 0123
00000040: f6a8 d31f 5a3b 1627 6daa 3829 02cb 112b
00000050: 874f 0d25 a5ed 2421 81d7 372c 8562 db27
00000060: 5557 9935 68d3 9428 35e3 7226 3570 952a
00000070: b172 0423 44a3 5322 e907 8425 2efd d233
00000080: cc94 3926 8fb2 3d21 e0d6 1821 4e49 f727
00000090: 5062 8925 94f9 2426 14cf 0a27 4534 772b
000000a0: 3f98 9126 23cf ae25 95ff 0f30 4bda 9225
000000b0: 8d9a 8025 3942 402a 2542 691f 1e36 fd27
000000c0: d101 2b28 3143 3e2f 8665 de25 4c9c 0128
000000d0: 5572 fa25 ac3f b726 02c0 0324 c12f 0924
000000e0: 1ac1 ee22 789a 0528 beba 7c25 0bf8 3025
000000f0: a6c4 2732 6146 5d23 f25a ed24 af56 1726
00000100: e24f a922 79f7 f526 393d 3425 e044 8922
00000110: 6cc2 cd21 555b 0d2e be0f f327 9e4d 5226
00000120: b18b bd29 fed5 3622 2db4 a127 f2e6 c126
00000130: 0b66 8525 91d4 5d24 0965 bd21 d9fc 5d1f
00000140: 0000 0000 2145 1a23 d742 3b23 274a 9328
00000150: e0f5 7828 f4e3 dc23 92a2 a928 1074 ca26
00000160: 1010 7f27 14bf c724 3862 0f27 0fcf 6323
00000170: 7d64 cb22 f1f7 9b29 4103 9726 e9d8 7926
00000180: f4a8 b223 f803 de20 05be c727 cf0d d528
00000190: ff4c 5b2a 1e73 3525 1bbe 0222 fc9a d12a
000001a0: c156 1028 64da f234 0e3b 0429 6a7c e326
000001b0: 025c 7129 d3c0 6323 8592 9922 4931 2525
000001c0: 3cc0 0133 21e2 9126 b96a 2822 ef95 f121
000001d0: 191b 6028 6d50 ef25 77f9 a426 d1c1 1127
000001e0: 062b 582a 213f 2c27 f442 4226 0bba 322f
000001f0: b16f b425 4f54 9125 c791 ca29 b5e6 f720
00000200: 16f3 3528 6371 0329 d852 682e e36a 2426
00000210: 82d3 1928 0cd2 4f26 bedd e426 4d02 7524
00000220: a997 2624 5f78 b223 d921 8f28 2154 a625
00000230: 55ff 9724 57e5 3a31 c04b e123 c89c 5125
00000240: 96a4 bc26 e561 2f23 fae9 1027 ffb0 2925
00000250: 4434 0023 9097 2e23 b516 702d b0d5 7228
00000260: 0b0b 4326 c6d1 8829 9070 9c23 e6d8 c927
00000270: b576 3b27 06fc c725 e025 6b24 85d7 b622
00000280: d776 0a21 0000 0000 a208 5d23 d819 6c23
00000290: 4199 9f28 8927 8a28 ac07 4d24 2497 cc28
000002a0: 305e d826 bc0d 6e27 6caf 3a25 7691 4327
000002b0: ca43 c923 a7f6 d522 5fb6 c529 a927 a726
000002c0: b0ea 5626 6f58 3b24 282d 1421 262d f027
000002d0: bb41 0e29 8d76 ee2a 1cb1 8c25 b3b9 5b22
000002e0: bb5c d22b 8d33 3f28 b45a 9835 1db0 1629
000002f0: bd7a 1827 9f8f 282a 0a2c 3e23 306b a622
00000300: 2ef3 aa25 0755 d633 8402 d926 e875 6a22
00000310: e5e9 6822 ed08 8628 8270 b625 07c0 8726
00000320: 557e 1d27 bb0c 3c2b f4e0 fb26 56ef 6926
00000330: c4f8 1e30 2d6f 9e25 8645 9a25 ea94 462a
00000340: 9bd5 ff20 9376 0228 b042 0229 effd 672f
00000350: 5085 1426 38a0 3c28 5bd8 9126 f52e ca26
00000360: 7ea6 aa24 dc3e 8b24 73ac bc23 2626 8d28
00000370: 7c5b 8d25 4c7a 3125 eb61 2232 c29f 0f24
00000380: 4f4c b525 0af0 de26 664f d523 7472 1d27
00000390: 5aa8 2125 5c0f 8223 e472 9523 0b36 152e
000003a0: 2a94 3b28 b5b7 b526 3973 da29 3aec ad23
000003b0: 2506 bf27 9d84 1e27 2425 8d25 6d62 9824
000003c0: 7ce0 b622 9328 a421 0000 0000 2447 fc23
000003d0: bbe9 a423 b2f9 4329 7343 3529 3bc8 8a24
000003e0: 8370 c129 7b47 8527 1369 2728 2a85 bf25
000003f0: 9b77 db27 11dd 4424 e13e a423 3b95 592a
2.7244385e-18 1.5966022e-18 1.2620937e-14 4.825282e-15 8.984308e-18 2.183879e-14 1.2236484e-15 2.084418e-15
5.166742e-17 1.8064498e-15 2.1693997e-18 7.966145e-19 4.153053e-14 7.0538585e-16 9.217821e-16 7.030901e-18
8.96415e-20 2.0848856e-15 4.1004028e-14 5.179608e-13 1.2256745e-16 5.587988e-19 2.6125493e-12 6.0891526e-15
1.1424805e-06 1.6522984e-14 8.426854e-16 2.6545576e-13 7.180021e-18 2.8682264e-18 2.290371e-16 9.82494e-08
6.4386426e-16 6.427201e-19 5.178399e-19 6.863575e-15 2.383233e-16 5.723717e-16 1.9263604e-15 8.7824566e-13
1.0102663e-15 3.032455e-16 5.23863e-10 2.5474884e-16 2.2309188e-16 1.7076001e-13 4.9394383e-20 7.028028e-15
9.492801e-15 1.730427e-10 3.8579656e-16 7.19483e-15 4.344556e-16 1.2715434e-15 2.8568734e-17 2.974759e-17
6.4714483e-18 7.416478e-15 2.1920787e-16 1.5349607e-16 9.765392e-09 1.1995337e-17 1.0293643e-16 5.2506127e-16
4.589212e-18 1.7067368e-15 1.5633254e-16 3.720685e-18 1.3942803e-18 3.2140807e-11 6.7463116e-15 7.2963577e-16
8.417519e-14 2.4778886e-18 4.4881824e-15 1.3454663e-15 2.314097e-16 4.8101787e-17 1.2833882e-18 4.700772e-20
0.0 8.362995e-18 1.0151444e-17 1.6352437e-14 1.3820081e-14 2.394899e-17 1.8833273e-14 1.4048024e-15
3.5397066e-15 8.662619e-17 1.989848e-15 1.2349541e-17 5.5129656e-18 6.926394e-14 1.0478612e-15 8.6683197e-16
1.9370353e-17 3.761089e-19 5.5439615e-15 2.3653739e-14 1.9477821e-13 1.5738251e-16 1.7718926e-18 3.72334e-13
8.0124175e-15 4.5234913e-07 2.936111e-14 1.5785012e-15 5.3592554e-14 1.2346527e-17 4.1625867e-18 1.4328167e-16
3.020999e-08 1.0122689e-15 2.2824744e-18 1.6370482e-18 1.2440374e-14 4.151439e-16 1.1447404e-15 2.022786e-15
1.919958e-13 2.3904017e-15 6.739801e-16 1.6255101e-10 3.1300708e-16 2.521062e-16 8.9958904e-14 4.1996097e-19
1.0100229e-14 2.918619e-14 5.2824273e-11 5.704379e-16 8.53907e-15 7.210222e-16 1.5880781e-15 5.3127855e-17
3.6123973e-17 1.9349778e-17 1.5890868e-14 2.8853418e-16 6.591836e-17 2.7196927e-09 2.442663e-17 1.818098e-16
1.3089732e-15 9.507499e-18 2.0110853e-15 1.4718382e-16 6.9499616e-18 9.4646535e-18 1.36474625e-11 1.3480035e-14
6.766918e-16 6.076003e-14 1.6961226e-17 5.602387e-15 2.6015814e-15 3.4691775e-16 5.0989583e-17 4.955939e-18
4.69135e-19 0.0 1.1982262e-17 1.2799058e-17 1.771901e-14 1.5338223e-14 4.4458787e-17 2.2714096e-14
1.501354e-15 3.303658e-15 1.6192364e-16 2.714054e-15 2.1821173e-17 5.799492e-18 8.780194e-14 1.1598703e-15
7.4564226e-16 4.0624067e-17 5.0204114e-19 6.666233e-15 3.1587346e-14 4.2359554e-13 2.4406143e-16 2.9778343e-18
1.4947135e-12 1.0613808e-14 1.1351281e-06 3.3459445e-14 2.1160774e-15 1.4971226e-13 1.0309246e-17 4.510788e-18
2.9655084e-16 9.980618e-08 1.5058082e-15 3.1775333e-18 3.1565686e-18 1.488086e-14 3.1648206e-16 9.419556e-16
2.1856612e-15 6.6808684e-13 1.7477597e-15 8.1162475e-16 5.783358e-10 2.7483967e-16 2.6761852e-16 1.7637598e-13
4.3340033e-19 7.242161e-15 2.892364e-14 2.1099543e-10 5.1528487e-16 1.0470838e-14 1.0120039e-15 1.4029293e-15
7.4007796e-17 6.038813e-17 2.0456036e-17 1.5670689e-14 2.4521593e-16 1.5393739e-16 9.451905e-09 3.1143502e-17
3.1450204e-16 1.5469407e-15 2.3127133e-17 2.1850172e-15 1.4021564e-16 1.4101133e-17 1.620327e-17 3.3926677e-11
1.0412713e-14 1.2609192e-15 9.701133e-14 1.8856743e-17 5.301981e-15 2.1998795e-15 2.4484768e-16 6.608623e-17
4.956888e-18 1.1123812e-18 0.0 2.7352024e-17 1.7879904e-17 4.3515274e-14 4.0248576e-14 6.0187164e-17
8.5904394e-14 3.6992415e-15 9.293147e-15 3.3223454e-16 6.0914387e-15 4.2687976e-17 1.7807546e-17 1.9325246e-13

exp_avg f4 [128]
00000000: f0ab 9437 480e 01b7 00ac 81b4 c015 8fb6
00000010: f7a6 8837 e677 9737 cc62 2037 8d9d 14b8
00000020: e83e 62b7 23b9 1b37 b077 1fb7 e05c f7b6
00000030: 1828 06b7 10a0 ebb6 80f4 5d36 00f9 1335
00000040: 00a6 7a37 f028 4737 d061 5936 984a ee37
00000050: b08d c736 0064 d9b6 802f 9eb6 8cb2 1537
00000060: a029 a536 7053 fb36 5499 1d37 c028 2fb6
00000070: 186e b4b7 8028 b7b5 002d 9fb5 2cbb 4d37
00000080: e052 2fb7 d6fd 2d37 990f 1837 e006 3536
00000090: 6836 8db7 e065 80b6 781c cb37 da26 3437
000000a0: ecbb 85b7 6004 29b7 805b d836 c03e 27b7
000000b0: 3013 4e37 4098 84b7 8083 e1b5 5825 8ab7
000000c0: 80b8 8135 1892 2b37 6055 9337 34b4 dfb7
000000d0: 0c3e 8b37 c0ff cb36 0494 b8b7 5087 6637
000000e0: ae25 3537 90ba afb7 b038 4236 fc06 d7b7
000000f0: c020 78b7 8821 8db6 01af 3eb8 c0ae 6bb7
00000100: 5063 6037 d804 2637 d057 acb6 fc2c 19b7
00000110: 207c dbb7 004c 8134 004b b8b7 70e4 35b7
00000120: 4049 7936 c8d4 0937 e050 92b6 201d bdb6
00000130: 4021 d136 f036 16b7 4097 3db6 801b 5cb5
00000140: 9c96 f3b7 4047 eab6 9a06 6737 5091 bdb6
00000150: c052 0536 50e2 ab36 0023 06b6 c0cc 6b36
00000160: fbbc 2d37 8091 f9b7 60fa 95b7 a8f9 2437
00000170: 586c 75b7 9859 ab37 2084 6bb7 28ee 0737
00000180: 0080 f436 443d d2b7 c066 c6b7 9ca6 93b7
00000190: 3091 2bb7 003d 51b5 4069 4a36 b049 62b7
000001a0: b068 0237 3019 86b6 0013 b335 24cf eab7
000001b0: 08b6 9cb7 20d7 bc36 c0ab 8335 3020 91b7
000001c0: 005e 7135 00bd 17b5 0032 9bb4 981f 90b7
000001d0: 181d 8637 8c5a bbb7 0094 a337 c001 55b7
000001e0: 90b0 eb36 6089 99b6 8c1d 6737 58de 4737
000001f0: a0f7 e9b7 6035 9236 206b dcb6 98a1 f4b7
1.772304e-05 -7.692324e-06 -2.415327e-07 -4.264264e-06 1.6290212e-05 1.8056435e-05 9.559746e-06 -3.543268e-05
-1.3485296e-05 9.281825e-06 -9.505005e-06 -7.3719857e-06 -7.996357e-06 -7.0221795e-06 3.3073884e-06 5.512411e-07
1.4939811e-05 1.1870856e-05 3.2392454e-06 2.8406546e-05 5.9471568e-06 -6.4787455e-06 -4.7142967e-06 8.922663e-06
4.922229e-06 7.4900963e-06 9.393629e-06 -2.6100752e-06 -2.1508939e-05 -1.364635e-06 -1.185952e-06 1.22625315e-05
-1.0450109e-05 1.0370704e-05 9.063538e-06 2.6975104e-06 -1.6833845e-05 -3.826557e-06 2.4212743e-05 1.0737882e-05
-1.5942343e-05 -1.0074204e-05 6.4479536e-06 -9.968586e-06 1.2283024e-05 -1.5806523e-05 -1.6802078e-06 -1.6468271e-05
9.664946e-07 1.0226409e-05 1.7563521e-05 -2.6667585e-05 1.6598984e-05 6.0796447e-06 -2.2003434e-05 1.3740573e-05
1.0797214e-05 -2.09485e-05 2.894125e-06 -2.563325e-05 -1.4789577e-05 -4.206031e-06 -4.5462515e-05 -1.4047779e-05
1.3374563e-05 9.895499e-06 -5.136222e-06 -9.129984e-06 -2.6164635e-05 2.408342e-07 -2.1969434e-05 -1.0841628e-05
3.7146528e-06 8.215378e-06 -4.360554e-06 -5.6360295e-06 6.232556e-06 -8.953488e-06 -2.8251234e-06 -8.1996404e-07
-2.903799e-05 -6.982038e-06 1.377021e-05 -5.6495555e-06 1.9866711e-06 5.1225434e-06 -1.9987929e-06 3.513691e-06
1.0355604e-05 -2.9750867e-05 -1.7878774e-05 9.833289e-06 -1.4628364e-05 2.0426509e-05 -1.4037854e-05 8.102077e-06
7.286668e-06 -2.506248e-05 -2.3651286e-05 -1.760135e-05 -1.0226198e-05 -7.7947334e-07 3.016161e-06 -1.3487806e-05
7.772978e-06 -3.9964434e-06 1.3342069e-06 -2.7991431e-05 -1.8681414e-05 5.6278805e-06 9.810246e-07 -1.7300335e-05
8.9916284e-07 -5.6526915e-07 -2.890738e-07 -1.718085e-05 1.5987593e-05 -2.2334301e-05 1.9500032e-05 -1.2696197e-05
7.0241003e-06 -4.575748e-06 1.3775552e-05 1.1913093e-05 -2.7891074e-05 4.3573527e-06 -6.568982e-06 -2.9162315e-05

exp_avg_sq f4 [128]
00000000: 1898 ab35 dae5 0435 153a ab35 550b 0436
00000010: 16fd 1233 72c9 7c34 e688 6634 7a38 7f33
00000020: 23bc 3135 89c3 2a31 966a ad35 0de8 eb35
00000030: 48d3 0f35 ce3d 0235 a7d3 ba34 3b49 9934
00000040: 03bf 0036 b68d 2036 2053 9032 2fc6 a335
00000050: 115e 2a34 2f9c 1835 f79c b035 d38b 3034
00000060: 4533 2336 cf0e 4135 0417 a730 705e 7b35
00000070: 526a 0235 8a37 bc35 9975 0b34 f65d 0a34
00000080: 04e6 1336 1c59 7334 6981 0d32 0c7b da34
00000090: 74e9 af35 4881 df34 c038 0c34 ce5b 2134
000000a0: 36c2 bd34 7b41 0634 c53c 4a35 b17b e635
000000b0: b0f0 2f36 e6cd 1135 5d67 c635 02ee 9435
000000c0: 7d4a f934 e487 3333 652a f735 8997 0f35
000000d0: eb45 9535 9f68 2135 85b1 6b35 2ea6 5e33
000000e0: d085 7832 522e 3236 aaa2 be33 cb50 4c35
000000f0: ffaf a635 7964 c934 bae3 8434 5cc7 fe35
00000100: 5206 e535 0e7d 8234 7f64 5c35 a11b 9533
00000110: 0a7c 5d35 56da ca35 e6be 6035 f6a1 9334
00000120: 07f1 4131 4d9a af34 c695 9835 49f0 fa35
00000130: 8d13 c835 baa0 9f35 ef26 1935 ff1b 4735
00000140: fc99 4335 5761 cc35 05b0 5832 c764 8935
00000150: 0622 8135 7965 d634 e4a8 1c36 800b b435
00000160: 2e34 1f33 b6d8 1436 303f 9b35 8f01 0b35
00000170: 6bd7 7b35 e0fe e835 4e32 c635 a26d 4435
00000180: 70dc af33 ace2 3935 4e26 cf35 479f ed34
00000190: a44c b335 cf12 0f36 c8af cc35 5cd4 c633
000001a0: 3bf7 8935 bee8 c234 f6ec 1235 5762 9135
000001b0: a735 eb35 da6f 5e35 e237 a334 70af 5535
000001c0: cd01 a635 b113 8035 951a 9635 0df0 3335
000001d0: 935d 8d34 6134 a035 1ef6 0636 8dab 5a33
000001e0: cc60 5335 8d47 8a34 57ad 3534 7e9a 1a34
000001f0: fd23 0435 d679 0d36 2b4c 8d35 0282 c735
1.2784758e-06 4.950831e-07 1.2757397e-06 1.967613e-06 3.4223454e-08 2.3542614e-07 2.1470223e-07 5.942318e-08
6.6211413e-07 2.4849405e-09 1.2920525e-06 1.75764e-06 5.3579106e-07 4.851871e-07 3.4799197e-07 2.8551753e-07
1.918467e-06 2.3924345e-06 1.6801607e-08 1.2202125e-06 1.5866705e-07 5.685169e-07 1.3158705e-06 1.6442145e-07
2.4318736e-06 7.191965e-07 1.2157391e-09 9.364221e-07 4.858349e-07 1.4023256e-06 1.2988166e-07 1.2886434e-07
2.2038594e-06 2.2663556e-07 8.236705e-09 4.0695193e-07 1.310646e-06 4.163105e-07 1.3059162e-07 1.5027692e-07
3.53453e-07 1.2503544e-07 7.5339295e-07 1.7172334e-06 2.621713e-06 5.431633e-07 1.4782232e-06 1.1096129e-06
4.6434062e-07 4.1800277e-08 1.8415273e-06 5.3492164e-07 1.1121714e-06 6.012942e-07 8.7802647e-07 5.1839542e-08
1.4465925e-08 2.655103e-06 8.877153e-08 7.611349e-07 1.2419185e-06 3.751227e-07 2.475261e-07 1.8982496e-06
1.7063669e-06 2.4305376e-07 8.210263e-07 6.943379e-08 8.2509416e-07 1.5113717e-06 8.3724296e-07 2.7498726e-07
2.8222205e-09 3.270856e-07 1.1368472e-06 1.8696384e-06 1.4906851e-06 1.1893201e-06 5.70536e-07 7.4174017e-07
7.286724e-07 1.5227514e-06 1.2612877e-08 1.0236625e-06 9.621151e-07 3.9934437e-07 2.3344119e-06 1.3414392e-06
3.706753e-08 2.217986e-06 1.156679e-06 5.1783803e-07 9.381826e-07 1.7359525e-06 1.476679e-06 7.3175227e-07
8.18917e-08 6.924772e-07 1.543385e-06 4.426058e-07 1.3358845e-06 2.1319609e-06 1.5250343e-06 9.2587214e-08
1.0279249e-06 3.6304658e-07 5.473406e-07 1.0831963e-06 1.7524479e-06 8.286421e-07 3.0401776e-07 7.960398e-07
1.2368488e-06 9.542474e-07 1.1183607e-06 6.7032016e-07 2.633138e-07 1.1936173e-06 2.0110815e-06 5.0913105e-08
7.8744483e-07 2.5756563e-07 1.6919999e-07 1.4398572e-07 4.92262e-07 2.1081555e-06 1.0527486e-06 1.4864493e-06
