results/Bigmap3/BigMapAgent/BigMapAgent-9499941.onnx (onnx, 154253 bytes, 6 tensors)

network_body._body_endoder.seq_layers.0.weight f4 [128, 81]
00000000: 3025 873b 9f77 08be 875a 023d 1ec2 3dbe
00000010: 8fd6 1a3e dd8a 90bd 3d63 4a3e 9d07 2a3b
00000020: 9fa7 6abd 256d d03d 415a 45be 3528 78be
00000030: 64b9 abbc f804 6abd d822 da3d f620 723b
00000040: 1192 4d3d 8e3b 42be e743 043e c0ee ac3d
00000050: 382a 23bd 5a03 dd3d 8eda 373e d1bd dbbd
00000060: 0122 9cbd 7a49 79bd ca0a 033d 2d3f 9e3d
00000070: 90b9 703d 5051 e23c 53c3 c63d a66d ab3d
00000080: db11 b5bd 5f3f ecbd 84cf 54be d375 203d
00000090: 1b28 043d 58a7 bb3c 9bd0 603d 6e79 883e
000000a0: 42bb 523d a813 dabd 4de2 8fbd be4b 0a3d
000000b0: 85fc 993d 3cb4 c9bb 1bcc 9f3d e487 013d
000000c0: d5be 21bd ef82 ccbb 34b2 6bbd 83b9 b33b
000000d0: fdb5 d4bd 550e c33d 2347 bb3d 29a4 6f3d
000000e0: 21c2 183e bca6 863d 2870 243e 1930 633e
000000f0: 3224 99bb 57c2 de3d 2533 46be b8b0 95be
00000100: bda0 603d 7f97 cb3d 1e7c 263e 7062 433d
00000110: 9710 ccbc 7096 0a3e a1fd 5dbd df13 be3c
00000120: e49b e2bd 5db8 01be 2b57 623e e808 1bbe
00000130: 82ef 413d e27b 0c3d 0082 81bd 2eb8 23bd
00000140: 6557 313d 44fc a63d 859e 2e3e 2152 0a3d
00000150: df65 19bd 36e6 a63b 29b4 a5bd 5180 393d
00000160: 6dbc 9f3c 8818 19be a0ec debd fe19 fbbd
00000170: e6ff 92bd ee94 043c 7581 a0bd cd25 043e
00000180: 43c7 5fbe 6a34 a5bd 7b69 7d3c 6a98 0e3d
00000190: 04fa 073d 682d b23c 737e aa3c a53d ccbd
000001a0: 15f1 09bd f6c3 4c3c f2bb 9dbd bf4b 803d
000001b0: e4ed 0f3d 7b11 e1bc 517d 463e 27c7 9fbe
000001c0: 6991 acbd 7b80 06be 4dd6 84bb a867 82bd
000001d0: f463 263d 0391 503d 6f8f 4d3d d2ec babd
000001e0: e152 ab3e d7c7 053e d164 c73d 820b 8ebd
000001f0: 8324 403e ab4b f03d e0a9 81bd 5c29 803c
00000200: 2a92 313e 1d18 0cbe 585d a9bc cc4c b03d
00000210: ab87 653d e22d 243d af77 e73d b532 95bb
00000220: 9b90 0bbe f9c1 333d 941c 933e 7a8c 843e
00000230: 3afd 19be 2460 40be e4b9 f8bb 00d6 21be
00000240: 04cd 12be 642b 38be 6989 283e f143 fabc
00000250: 6fcf fcbd 785c 8d3d c38f 61bd 5b45 263e
00000260: be18 21be 7bf6 073e d6cd bd3d 25bf 13bd
00000270: 97aa 23bd fb5a 663d 69fd 43bd e703 81bd
00000280: 1776 b2bd fd18 113d f348 063e 4bbc 723d
00000290: 03a6 a83d f3da 083d ba9e 4c3e 72e3 c2bd
000002a0: 7c25 9c3c a57e 5f3b 3cf4 ec3d dca3 a53c
000002b0: 380e 333d 6480 6dbe dc14 3d3e 5960 36bd
000002c0: 72a7 b4bd e0d4 62bb d770 583d 22c4 9d3d
000002d0: be05 6f3b 7066 ac3d a877 4a3e af7b 223e
000002e0: 783f 93bb a57b 483e 3875 08be ca43 41bd
000002f0: ba49 383e 7879 9fbb 19d9 71be d248 2e3e
00000300: 368f 4b3d ca9b 293d 9bc6 573d 6cad e13d
00000310: cd0c bd3d b121 fd3d 59d8 3fbe bfe7 cfbd
00000320: 4055 043d 1792 7d3e aa5b 14be b4c1 1a3e
00000330: d9f2 4abd 16d3 8d3c c0f0 543a 086f 093d
00000340: ffb0 fe3d f820 c3bd 7c81 47be 120d dc3d
00000350: 1cd4 2ebd 06a4 0c3e 7669 f53d e10c 26bd
00000360: 2c84 853d 8b63 ca3c aeaf 18be 6acd 863e
00000370: 5743 913d 918f 863e 7474 c2bd 9ec5 a93d
00000380: 20b3 4f3d 0d78 d5bd 2d2a 483e a116 3d3e
00000390: 57e5 bebd 48c4 2f3e 27c3 cc3d 99e8 80bc
000003a0: 8340 ab3d 7aee 283e 7fe6 023c 9620 f43c
000003b0: f402 eabd 1aa8 1cbe 664e 20be f1f0 b93c
000003c0: 87d9 08be 3825 733c 63eb 863d 297c e03d
000003d0: f063 94bd 8a69 c53c 5b73 873c 5ed5 0cbb
000003e0: 04b4 b13d 7319 ea3c 12a6 5fbd e688 8a3d
000003f0: bed9 a0bd 61cf 523d ace1 f03d ec0d 543d
0.004124306 -0.13326882 0.031824615 -0.18531081 0.1512091 -0.07057736 0.19764419 0.002594448
-0.057288762 0.10177068 -0.1927271 -0.24234088 -0.020962425 -0.057133645 0.10651177 0.0036945916
0.050188128 -0.18968031 0.12916528 0.084439754 -0.039835185 0.10791655 0.17954466 -0.10729564
-0.07623673 -0.06086109 0.03199271 0.077268936 0.058770716 0.027626663 0.09705224 0.08370523
-0.08841296 -0.115355246 -0.20782286 0.039174866 0.03226481 0.022906944 0.05488644 0.26655143
0.051448114 -0.106482804 -0.07025585 0.03376364 0.075188674 -0.006155519 0.07802602 0.031623736
-0.039488632 -0.0062411944 -0.057542995 0.005484761 -0.10386274 0.09524218 0.091444276 0.058506165
0.14917804 0.06574771 0.16058409 0.22186317 -0.0046735043 0.10876911 -0.19355448 -0.29236388
0.054840792 0.09941005 0.16258284 0.0477013 -0.024910254 0.1353395 -0.054196957 0.023202835
-0.1106489 -0.12667985 0.22103564 -0.15140116 0.047347553 0.03429783 -0.06323624 -0.03997057
0.043296237 0.081535846 0.17052658 0.03376973 -0.037450667 0.0050933613 -0.080910034 0.045288388
0.019499028 -0.14950764 -0.108849764 -0.12260817 -0.07177715 0.008092148 -0.07837192 0.12905045
-0.21853356 -0.08066638 0.015467043 0.034813322 0.033197418 0.021750167 0.020812249 -0.09972695
-0.03367718 0.012497893 -0.07701863 0.062644474 0.03513898 -0.027474156 0.19383742 -0.3120663
-0.08426172 -0.13134949 -0.004053867 -0.06367427 0.040622666 0.050919544 0.050185617 -0.09127201
0.3346167 0.13064514 0.09736026 -0.06935789 0.18763928 0.117331825 -0.06331229 0.015644722
0.17340913 -0.13681073 -0.020674393 0.08608398 0.056037586 0.04008282 0.11302125 -0.004553164
-0.13629381 0.04388616 0.2873274 0.25888425 -0.15038005 -0.18786675 -0.0075905193 -0.15804291
-0.1433602 -0.17985302 0.16458668 -0.030549975 -0.12344252 0.06902403 -0.055068742 0.16237395
-0.15732095 0.13277619 0.09267776 -0.03607096 -0.03995761 0.05623911 -0.047849093 -0.062995724
-0.0871393 0.03542422 0.13113765 0.0592616 0.08234789 0.03341193 0.19982424 -0.09516038
0.019060843 0.0034102586 0.115700215 0.020219736 0.043714732 -0.23193508 0.18464988 -0.044525478
-0.08821 -0.0034611747 0.052841987 0.07703425 0.0036471928 0.08417976 0.19772208 0.15867494
-0.00449365 0.19578417 -0.13325965 -0.04718379 0.17996874 -0.004866775 -0.23617972 0.17019966
0.049697123 0.041408338 0.05267964 0.11019406 0.09230957 0.12359942 -0.18734874 -0.10151624
0.032307863 0.2476276 -0.14488092 0.15112954 -0.049548004 0.017312568 0.0008123033 0.033553153
0.12436103 -0.09527773 -0.19482988 0.107446805 -0.042682752 0.13734445 0.11983006 -0.040539626
0.065193504 0.024705669 -0.14910766 0.26328593 0.07092922 0.26281407 -0.09494868 0.082896456
0.050707936 -0.104232885 0.19547339 0.18465663 -0.09321087 0.17164719 0.0999816 -0.015735911
0.08361914 0.16497222 0.007989525 0.029800694 -0.114263445 -0.152985 -0.15654907 0.022697898
-0.1336423 0.014840417 0.06587865 0.10961182 -0.07245624 0.024098177 0.016534498 -0.0021489481
0.086769134 0.028576588 -0.054601736 0.067643926 -0.07854031 0.051467303 0.117617935 0.05177109

network_body._body_endoder.seq_layers.0.bias f4 [128]
00000000: 3a07 283e abb9 633e 093c 713e 4097 763e
00000010: 42eb 94bd 969d 00be a98a 77be 3d57 3a3e
00000020: 6f30 f5bd 1d57 01be 86c2 613e e76c 68be
00000030: aacb 603e 73c8 473e 98b2 5dbe a7b5 043e
00000040: 6e5e 5b3e 5bf0 6f3e c977 d5bd 550f 153e
00000050: 6e07 223e 0915 cb3d bb5c 6d3e dafa 5fbe
00000060: acce 723e 23b0 78be b579 ddbd 61e4 34be
00000070: c2a9 4d3e 6805 693e cc6e 4bbe 77fc 83be
00000080: b3ef 7c3e 4f22 6d3d c308 09be 6ce9 46be
00000090: a5f0 833e 394e 163e 59e7 41be d79a 113c
000000a0: 8cf8 4e3e 4a14 213e 2740 5e3e 66c5 813e
000000b0: fb0a 733e 85d6 6a3e c76c 593e 2a93 753e
000000c0: d651 32be adda 3abe eb7d 6a3e b8a2 553e
000000d0: 2762 1a3e 46ff 37be 0c51 5a3e f886 a7bc
000000e0: 51ce d8bd c563 933e 3985 f23d 0217 763e
000000f0: 13f4 7f3e 8389 c8bd 45d4 833e bdba 4abe
00000100: 685c 2c3e b5b0 6ebe 3ad4 5d3e bb4d 0a3e
00000110: 94d9 863e a498 783e db02 7b3e 95c7 c8bc
00000120: 1417 07be 1a0b 89be 0368 4abe b6ec 693e
00000130: a86e 8cbe f0cd 5d3e 544e e9bd be6d 51be
00000140: 36f1 7b3e a48b 843e b518 afbd 3349 633e
00000150: 1ff4 2e3e c592 2dbe 5f2f 733e c864 87be
00000160: d143 9eba 9c30 8d3e f7c3 8c3e 9130 7ebe
00000170: 4326 f1bd d4d0 553e 229e 7f3e 32a7 d73d
00000180: ec7b 52be de5f 813e ab91 6f3e 8dbd 3b3e
00000190: b35b 723e 7a09 713e b9fa 513e 8e24 f63d
000001a0: 88f9 4a3e 938e 4b3e 230b 03be 077e 883e
000001b0: 2489 823e 3167 493e b618 b5bd 1582 623e
000001c0: dd7a 4c3e a3ad 5abe 5848 703e dc52 4b3e
000001d0: 2959 173c 9494 8c3e 1c42 693e 0297 253e
000001e0: 846b 4bbe 9d7b e93d 6074 2a3d 8902 b23d
000001f0: cb6c 4c3e 763e 6b3e 6f31 8a3e 7298 873e
0.16409007 0.22238795 0.23558058 0.24081135 -0.07271434 -0.12560114 -0.24173988 0.18197341
-0.119721286 -0.12630887 0.22046861 -0.22697793 0.21952692 0.19510059 -0.2165016 0.1295992
0.21422741 0.23431532 -0.10423238 0.1455663 0.15823147 0.099161215 0.23179905 -0.21873036
0.23711652 -0.24285941 -0.108142294 -0.17665245 0.20084289 0.22755969 -0.19866484 -0.25778553
0.24700813 0.057894047 -0.13382249 -0.19424981 0.25769535 0.14678277 -0.18935908 0.008887014
0.20212 0.15730396 0.2170416 0.25345916 0.23734657 0.22933395 0.21232902 0.2398192
-0.1741403 -0.1824748 0.22899596 0.20862854 0.15076505 -0.17968473 0.2131998 -0.0204501
-0.10586227 0.28787056 0.118418165 0.24032214 0.2499545 -0.09791853 0.25747886 -0.19797798
0.16832125 -0.23309596 0.2166299 0.13506214 0.26337874 0.24276978 0.24512808 -0.02450923
-0.13192397 -0.26766282 -0.1976624 0.22844204 -0.27428174 0.2166059 -0.11391893 -0.2045202
0.24603733 0.25887787 -0.08549634 0.22195892 0.17085312 -0.1695052 0.2374854 -0.26444077
-0.0012074654 0.2757615 0.2749326 -0.24823214 -0.11774876 0.20880443 0.24962667 0.10529937
-0.20555085 0.25268453 0.23395412 0.18334027 0.23667793 0.23538771 0.205058 0.12018691
0.19821751 0.19878606 -0.12797217 0.2665865 0.25495255 0.1966827 -0.08842604 0.22119935
0.19968744 -0.213553 0.23465097 0.19855827 0.009237566 0.27457106 0.22779125 0.16170886
-0.19865233 0.114005305 0.04161489 0.0869189 0.19963376 0.22973046 0.2699084 0.26483494

network_body._body_endoder.seq_layers.2.weight f4 [128, 128]
00000000: c619 a33d 6501 bbbd 0290 2c3c f45e 06be
00000010: b990 663c c3a9 fe3a aef3 7b3c 0403 ecbd
00000020: 98a1 09bd f2c0 8e3d a5d9 04be 76a5 423e
00000030: aa47 b83d a26d 43be af2a ac3c d58c 1cbe
00000040: 7526 1e3c 0658 e5bd aade 1e3d 8c60 303d
00000050: d8e4 63be 7b8d 37be d331 f2bd 93fc 9c3d
00000060: 05b9 98be c83b c5bb 2394 473d d770 733c
00000070: fbf6 dcbd d147 cabd bd5a 293e 4682 0e3e
00000080: 902c 93bc 8ba1 e93d 1b24 333e 1329 9abd
00000090: eb7a adbc 6fcb ad3d 3f6a 2e3d 2140 99bd
000000a0: 7034 473e af63 2c3d 5996 1fbe de14 fdbc
000000b0: a589 1ebe 88fb a8bd db12 4ebe 5deb 52be
000000c0: 5c05 00bd 07c3 9f3e 6b3a f8bc 28f0 de3c
000000d0: 814a d03c 5a8e 253e 09f5 e4bd b5be 543d
000000e0: bdc0 9d3d d073 1dbd cb79 6dbd 4512 21be
000000f0: 9c5c 5ebe c04e b53c c230 09be ba65 cc3d
00000100: ba96 b9bc fcd8 933e 58fb b7bd 17e2 983b
00000110: be35 32be 2b74 84bc 31fc 8ebb 400a 683e
00000120: 83ba 76bd b880 423e b1f3 0b3d da78 d2bd
00000130: f3ef aa3d c154 93be 57ba 39bd 6b5c cd3d
00000140: 8e67 81be 118c 09bd 6a7c 123e 4576 183d
00000150: ee4a 08be 7f24 193d b5dd 17be 5db6 033e
00000160: 00b5 b83c e1c5 45be beab c8bd 61ee 963d
00000170: 4076 c03d 1bc9 5cbe 94de 34be 564f 2a3d
00000180: de32 2d3e 0327 473d 84ef 98bd 62eb 4dbe
00000190: 85d6 3fbe 265d 6abe 08a1 01bd da10 7cbd
000001a0: 7cb8 08be c3ef 81bd 071f 30bd 06e0 7bbe
000001b0: c8c3 a8bd 00a9 0cbe 4790 793e 7c36 50be
000001c0: 8f5a 63be e7c3 50bd 5807 82bd 3097 25bd
000001d0: 2dab ce3d 47d0 1abe f812 ffbd 2dd1 ebbd
000001e0: e51a d63d a5a5 eebd e720 09be 95d8 15be
000001f0: f9a3 28bd 4784 8cbe 8e5d 99bd fef2 8abe
00000200: d1b2 013c e6aa 07bd e00f d1bd 3498 82bd
00000210: dd9b 12bd 678d 15bd 61b6 973c 4cfa 21bd
00000220: 78c9 01be abcf a23e 987a 2cbe b93d 723e
00000230: b8e1 1fbd 27bb 15be bfeb a2bd 1d1b e6bd
00000240: dd33 283c ea02 d73c 3ff1 913c df6d 3bbe
00000250: a015 833c d455 1a3d 497e fcbd 7cdb 043e
00000260: acab 3cbe 1867 443e 85cf 6a3d 4623 973e
00000270: 3e5d 0dbe 6333 9f3d 73bc ae3d 9225 12bd
00000280: 9011 ebbd 5b03 6bbc 6804 f43d ebbb f83c
00000290: f525 73be 68b7 eebd 59b2 423e 3d64 e2bd
000002a0: a17c 9ebd ebf9 9abc 04f5 acbd 6528 d43c
000002b0: 696d 08be 678c c2bc f567 dbbd ec4a 63be
000002c0: 424e 323d 7657 e9bd 00c5 c6bd dbd9 80bd
000002d0: 4752 ca3b b726 283d d438 f1bb 8f25 e9bd
000002e0: 5f3f 08bd 64b6 20be ee02 8fbd 280c d6bd
000002f0: f6c4 a03c 334c cf3d fbb7 66be aa44 163e
00000300: e14a bfbd f768 513d 6ba9 1abe c10d b8bd
00000310: 5e41 14be 266d 46be 5c13 4fbe 357d 7ebd
00000320: 21c7 4d3e bf05 7a3e be03 243e bfc9 61bc
00000330: 2dd5 6b3d a80a 8fbe 8356 663d 20d6 cd3d
00000340: e469 d8bd 13a8 85bd 55e6 debd 5ab8 11be
00000350: 2e3d 6fbd a744 1f3e 33fe 66bd 8348 563e
00000360: 8979 74bc 70fd 10be b994 30be 8afc 753e
00000370: c520 9b3d ba8f fabd ea8d 08be 3a9c a3bd
00000380: c81b d23d 0eb3 733d 488c 5dbe a1b2 213d
00000390: 5991 29be 0d8b 51bd 91f6 dc3d d64d 12bc
000003a0: dabb 893a 9fab 78be 8632 3a3e d18a 0cbd
000003b0: 232b 40be 8f3d b9bd 9fd2 133e 0d8c 4d3d
000003c0: f864 2dbd 5277 843e 76a2 1abe 9b67 86bc
000003d0: 6314 f93a df80 493d 8b4f 24be ee64 9c3d
000003e0: 7c7a b03d fa16 cdbe 48bf 89bb ef61 c6bd
000003f0: 2613 c13c 7619 05be 81b4 9dbc 5802 02be
0.079639 -0.09131125 0.010532381 -0.13122159 0.0140725905 0.0019429255 0.015377922 -0.11524013
-0.033601373 0.06970395 -0.1297365 0.19008431 0.08998044 -0.1908479 0.021016447 -0.15288098
0.009652724 -0.1119843 0.038786568 0.043060824 -0.22255266 -0.17925064 -0.118259095 0.07665362
-0.2982866 -0.0060190894 0.04872526 0.014858446 -0.10789295 -0.09876979 0.1653852 0.13916883
-0.017965585 0.11407765 0.17494242 -0.075273655 -0.021176776 0.084860675 0.042581793 -0.07482935
0.19453597 0.042087253 -0.15584697 -0.03089374 -0.15482195 -0.08251101 -0.2012438 -0.20597596
-0.03125511 0.31203482 -0.030301293 0.027214125 0.025426151 0.16167584 -0.11179549 0.051939685
0.077027775 -0.038440526 -0.05797748 -0.15729626 -0.21715015 0.022132277 -0.13397506 0.0998034
-0.02265488 0.28876483 -0.08983487 0.004665624 -0.17403314 -0.016168674 -0.0043635597 0.2266016
-0.060236465 0.18994415 0.03416795 -0.10276957 0.08346548 -0.287756 -0.045343723 0.10027393
-0.25274318 -0.033580843 0.14305273 0.037222166 -0.13309833 0.03738832 -0.14830668 0.12862535
0.022547245 -0.19313766 -0.09798382 0.07369686 0.093975544 -0.2156109 -0.17663032 0.041579567
0.16913936 0.04862119 -0.07467559 -0.20109323 -0.18734176 -0.22887096 -0.031647712 -0.06153951
-0.13351625 -0.06344559 -0.04299834 -0.24597177 -0.08240467 -0.13736343 0.24371444 -0.20333284
-0.22202514 -0.050968077 -0.06349057 -0.040427387 0.10091243 -0.15118514 -0.1245479 -0.115145065
0.104543485 -0.11652688 -0.13391457 -0.146334 -0.041172 -0.2744467 -0.07488547 -0.27138513
0.007916168 -0.033121966 -0.10208106 -0.06376687 -0.035793174 -0.036511805 0.018519582 -0.039545342
-0.1267451 0.31799063 -0.16843641 0.23656358 -0.03903362 -0.14622174 -0.07955121 -0.1123564
0.010266271 0.026246507 0.01781523 -0.18303631 0.016001523 0.03767951 -0.123287745 0.12974352
-0.18424863 0.19179952 0.057326812 0.295191 -0.138051 0.07773473 0.085320376 -0.03568036
-0.11477959 -0.014344062 0.11914903 0.030363044 -0.23744948 -0.11656076 0.19013347 -0.11054275
-0.07738615 -0.018917998 -0.084451705 0.025898168 -0.13322987 -0.02374859 -0.107131876 -0.22196549
0.043531664 -0.11393635 -0.097055435 -0.06291553 0.006174359 0.041052546 -0.007361511 -0.11384117
-0.03326356 -0.15694577 -0.06982981 -0.10451537 0.019625168 0.10121956 -0.2253112 0.14674631
-0.09340454 0.051125493 -0.1510369 -0.08986998 -0.1447806 -0.19377574 -0.20222229 -0.062131125
0.20095493 0.24416254 0.16017053 -0.01378101 0.057576347 -0.27937818 0.056234848 0.10050607
-0.10567072 -0.06526198 -0.10883776 -0.14230481 -0.058407955 0.15553533 -0.056394767 0.20926099
-0.014921554 -0.14159179 -0.17244233 0.24022117 0.0757461 -0.12234445 -0.13335386 -0.07988782
0.10259205 0.05949693 -0.21635544 0.039476994 -0.16559352 -0.051158 0.10789216 -0.00892969
0.0010508255 -0.24284218 0.18183336 -0.034312073 -0.18766455 -0.090449445 0.14435814 0.05018239
-0.04233262 0.25872284 -0.15101036 -0.016406825 0.0019003268 0.049195167 -0.16045968 0.07636438
0.08617112 -0.40056592 -0.0042037107 -0.09686648 0.023568701 -0.12997994 -0.01925111 -0.12696207

network_body._body_endoder.seq_layers.2.bias f4 [128]
00000000: 9b91 98bd 12a4 d8bd 9a70 c4bd caf7 963d
00000010: dffa 3d3e bd09 413e f47c 573e f67b dcbd
00000020: dd47 05be 448c b5bd f7a4 cebd 235d 3a3e
00000030: 688e 1c3e 83aa 263e 01f4 683d 8dc4 d63d
00000040: 3d1e babd f3a4 ebbd d449 c3bd 5d8a 0abe
00000050: 6f4f bd3d 5dfa c63d 6a93 2e3e 3a96 02be
00000060: a85b fcbd 565b 2f3e e098 313e 84a0 513e
00000070: bf51 1e3e 0a53 a0bd f3a3 013e f36e cf3d
00000080: d0a7 e9bd 182d 413e 7a48 13bd 0f49 613e
00000090: accb 113e 13c5 3e3e 75a0 dc3d ebb4 6f3e
000000a0: a2c0 363e 8104 dabd 5fd2 c8bd f7a1 233e
000000b0: a9be 0b3e 93c6 033e 03c8 ebbd 1df1 a6bd
000000c0: 0ae4 02be c039 7f3e 1ec0 78bd a42d ebbd
000000d0: 116d e0bd 1ffc f0bd ca74 c43d 0c65 0e3e
000000e0: db91 0e3e d985 3b3e d78d ff3d b239 293e
000000f0: 18a2 073e 164b 4f3e 6002 3c3e 16ed cdbd
00000100: 1dc8 263d 5e9b c9bd a68d 5f3e 32ff e1bd
00000110: e95f fb3d 6324 e0bd e044 87bd e28c 453e
00000120: de13 5e3e 8ada 453e ad42 f03b b0fb e23d
00000130: 529a 093e 9a2b 35bd 5adb b1bd e925 3f3e
00000140: 5241 dabd cdb1 f83d 2f23 063e 51a6 ecbd
00000150: 5315 6cbd a1a1 06be c615 bf3d 619f 983d
00000160: 8019 f2bd 1a14 3c3e fa5f e8bd ae94 82bd
00000170: 54cb afbd 4f58 153e 4527 313e 43f6 aabd
00000180: 5f87 333e 9150 173e b5fa 02be b46e f9bd
00000190: b440 d5bd f0dc e93d a1a9 123e ce83 4a3e
000001a0: e3fc 5b3e 5dd1 4d3e 7283 c7bd ab49 c3bd
000001b0: 91c8 1c3e b878 613e 4088 c7bd a358 873d
000001c0: 3f80 0e3e 3fd9 453e f224 06be a3e0 983d
000001d0: ba9f debd a304 2f3e 1a52 e83c e22a 3a3e
000001e0: 5470 2f3e bab2 9c3d b76a fc3d 7b41 fbbd
000001f0: 6602 ecbd 7cb8 273e 4c79 03be 8e36 493e
-0.07449647 -0.10578169 -0.095917895 0.07371481 0.18552731 0.18851371 0.2104376 -0.10765831
-0.13015695 -0.08864644 -0.10090058 0.18199591 0.15288699 0.16275983 0.056873325 0.10486708
-0.09087799 -0.11506071 -0.09535566 -0.13529344 0.092436664 0.09715722 0.17048422 -0.1275262
-0.123221695 0.17124686 0.17343473 0.20471388 0.15460871 -0.078283384 0.12660198 0.10128584
-0.11408961 0.18864858 -0.03595779 0.22000526 0.14237851 0.18629865 0.10772792 0.23408858
0.17846921 -0.1064539 -0.0980575 0.15979753 0.1364695 0.12868719 -0.115127586 -0.081514575
-0.12782302 0.24924374 -0.060730092 -0.11483315 -0.10958303 -0.11766838 0.09592588 0.13905734
0.13922827 0.18312778 0.12478226 0.16525915 0.13245428 0.20243487 0.18360281 -0.10054986
0.040718187 -0.09844087 0.21831378 -0.11035003 0.12274153 -0.1094444 -0.06604934 0.19292024
0.21687266 0.19321647 0.007332167 0.11083162 0.13437775 -0.044231035 -0.08684416 0.18666805
-0.1065699 0.12143288 0.13099359 -0.1155516 -0.057637524 -0.13147594 0.09330325 0.07452274
-0.1182127 0.18367043 -0.11346431 -0.06376015 -0.08583704 0.14584468 0.17300136 -0.08347752
0.17532109 0.14776827 -0.1279095 -0.12179318 -0.10412732 0.114190936 0.14322521 0.19776842
0.21483187 0.20099397 -0.09741868 -0.095355354 0.15310885 0.22018707 -0.097427845 0.06608703
0.1391611 0.19321154 -0.13100031 0.07464721 -0.10870309 0.17091613 0.028359462 0.18180421
0.17132694 0.07651277 0.12325042 -0.12268349 -0.11523895 0.16378969 -0.1283924 0.19649717

action_model._discrete_distribution.branches.0.weight f4 [80, 128]
00000000: 0aee bd3c 8bdc da3c 8558 803d eeb0 97bd
00000010: 75b5 82bd b40b 66bd 9b72 b4bd 0aa1 943d
00000020: 0f5a 733d f118 173d 93e1 d13d f6b6 acbd
00000030: 9704 c1bd c574 50bd 903b 8b3b 13ba 45bd
00000040: c41e 6dba 891b e33d f3b0 863d 1f1a b33d
00000050: c79b 65bd 6468 b0bd 1352 7bbd 8353 b93d
00000060: 0165 a33d 37df 95bd 6bcc 8fbc befa 88bd
00000070: 806c d5bd b19f 513d 2ffb febc c828 babd
00000080: fad0 923d 105e b4bd 7764 ce3b dd64 46bd
00000090: a368 9fbd 46d6 bbbd c8f1 8abd ec15 65bd
000000a0: 6e03 94bd 210e b23d 0c7e 8c3d 38f8 a5bd
000000b0: ba36 81bd df41 05bd ec6b cc3d 24f8 0a3d
000000c0: 6208 013d 5e5c a9bd d2e9 0b3d 3e95 093d
000000d0: 251c 963d dc1f 1e3d 5988 a8bd 6d14 e9bc
000000e0: 079f 6bbd 51d7 80bd 1169 98bd 273d 21bd
000000f0: bb40 c3bd 532e 7cbd 4fa3 39bd f7f6 d63c
00000100: cf68 99bc f70a 5f3d 6af5 b4bd 363e 1abb
00000110: c18f 32bd 9364 583d 524b 213d 6fdb c2bd
00000120: 21db d7bd 1e5d 8cbd 0f0b a0bc 646c a6bd
00000130: 6b47 14bd 328c 49bd da99 66bd d5da 00bd
00000140: 4b3a 393d 8310 97bd 1566 20bd 2357 b73d
00000150: 33f5 a33d 2a31 a83d 4ab3 94bd 9906 6bbd
00000160: 1700 883d b79d d9bc 71a1 913d 507c 5c3c
00000170: 82d4 4f3d a4ae 06be 84b7 94bd 8211 053d
00000180: 8961 a9bd 844f c9bd 7aa2 ab3d b420 da3d
00000190: 0e56 ea3d 5458 83bd 1ff3 56bd 0f90 a5bd
000001a0: b5f7 b4bc f77d 9dbd c67b 563d d7dd 253c
000001b0: 74ac 57bd 859b b5bd dbc7 d63c 28ab 07bc
000001c0: 6c7f 5ebd 6775 b1bd 64a9 8b3d 118b bbbd
000001d0: 7e3f e73d 2f4a 86bd 1f98 2ebb 7c3a 2cbd
000001e0: 8817 8cbc d9b9 cbbc 8234 8ebd 3118 5f3d
000001f0: 70cd 073e eaef febd 71e7 833d cb41 4dbd
00000200: acbf e23d 0458 8e3d f17a 7a3d c3d5 ecb8
00000210: 3c30 9ebd 86a8 85bd 986a 53bd 92ff 183d
00000220: 78f3 943d 776a 803d 69a9 b53d 5ef5 31bd
00000230: 47ce a5bd 1abe 4bbd 1c56 b73b 9b88 8fbd
00000240: f901 713d 85b7 c9bc f826 c33c d915 7c3d
00000250: 77f7 6bbd 66e8 48bd c59d b2bd ebd2 cd3d
00000260: e2b1 433d 3b77 0dbd 9820 33bd 8759 adbd
00000270: 876d 6fbd cc6b 653d 7a31 7fbc 3569 9fbd
00000280: 9277 a93d 96fe c5bd fe8f 873d 903b a4bd
00000290: 4985 32bd 409b e3bd f29f 8abd c8ef d8bd
000002a0: 1d1c d4bd 080b f33c fdba 813d 0202 9ebd
000002b0: d8e6 cebd 09cb b3bc 8fe1 a43c 9416 a93d
000002c0: 3283 bb3d f9fc 2bbd cd55 a83d e999 803d
000002d0: fe38 4c3d c850 9d3d 3f3d 94bd bdd0 23bd
000002e0: 957c 90bb 9216 aabd 7b93 2ebd 773d 2bbd
000002f0: 9482 9cbd fbb1 78bd 3b14 7dbd 8b80 7d3d
00000300: 0d52 12bd 2b42 6a3d f693 c4bd dfdd 583d
00000310: 2cb5 8abd 929e 7f3d 1d2b d43d b570 dfbd
00000320: faef 08bd 7384 cfbc 8260 763d 3838 fd3c
00000330: 6c0a 2fbd 4331 013d 2009 0f3d 1133 bbbd
00000340: 914e e93d 12c2 e13a 989f 3cbb 588d 8b3d
00000350: 9f51 653c 483b 953d 2f0d 293c abea 1fbd
00000360: f24d 773d 0a6c 95bd 493c a33d d705 413d
00000370: 932b bf3d 242f c73a 768c 3ebd 9fff cd3d
00000380: a52e f9bd 4a88 8cbd abda 723d 11fe 113d
00000390: 1d91 fc3b 445c 263d 9027 88bd a583 a1bd
000003a0: 17b9 bcbd a3b1 46bd e207 1f3d 181d 2f3d
000003b0: 48fe 6ebd 805c 15bd b4cb c73c 4330 4d3d
000003c0: d1c8 c6bc 9e69 72bd e062 b33d f35a 073c
000003d0: 7904 883d 3cfb b6bd 3c04 86bc 4c60 3fbd
000003e0: c66c b0bd 97f9 4a3c 3a65 82bd 20c1 6d3d
000003f0: 6b3f 0c3d 2ad1 90bd eaaf c53d 6331 8ebd
0.023184795 0.026716491 0.06266884 -0.074067935 -0.063822664 -0.056163505 -0.08810922 0.07257278
0.05941206 0.03688902 0.10248103 -0.084333345 -0.094247036 -0.05089261 0.0042490438 -0.048273157
-0.0009045417 0.11089236 0.06576719 0.087452166 -0.056056764 -0.08613661 -0.06135757 0.09049132
0.07978249 -0.073179655 -0.017553529 -0.0668845 -0.10421085 0.051177684 -0.031125633 -0.0908981
0.07168765 -0.088070035 0.0062985974 -0.048436034 -0.0778363 -0.09171729 -0.06784397 -0.05592911
-0.07227217 0.08694101 0.06859979 -0.081039846 -0.063092664 -0.032533523 0.09981522 0.03392805
0.031502135 -0.08269571 0.034158535 0.033589594 0.07329587 0.038604602 -0.08229131 -0.028452123
-0.057524707 -0.06291068 -0.07441915 -0.03936496 -0.09533831 -0.061567616 -0.04532176 0.026240809
-0.018726734 0.054453816 -0.088358715 -0.0023535616 -0.043594126 0.05283029 0.03937847 -0.0951451
-0.105398424 -0.06853698 -0.019536523 -0.081261426 -0.036200922 -0.049205966 -0.056299068 -0.031458694
0.045221608 -0.07376196 -0.039159853 0.08952167 0.080057524 0.08212502 -0.07260759 -0.05737934
0.06640642 -0.026564462 0.07110871 0.013457373 0.050739773 -0.13152558 -0.07261565 0.0324874
-0.082705565 -0.098296195 0.08380599 0.10650769 0.11442195 -0.06413332 -0.052477952 -0.080841176
-0.022090772 -0.076900415 0.052364133 0.0101236915 -0.0526547 -0.088675536 0.026218345 -0.008280553
-0.054320738 -0.08664971 0.06819418 -0.09157384 0.11291407 -0.06557118 -0.0026640964 -0.042047963
-0.017101064 -0.024868893 -0.06943609 0.05446643 0.13261962 -0.12448104 0.06440628 -0.050111573
0.11071715 0.069503814 0.061152402 -0.00011293173 -0.07724044 -0.06526284 -0.051615328 0.037353106
0.072730005 0.062703066 0.08870203 -0.04344689 -0.08095985 -0.04974184 0.005594982 -0.07008477
0.058839772 -0.024623642 0.023822293 0.061544273 -0.057609048 -0.049049757 -0.087214984 0.10049995
0.047777064 -0.034537535 -0.043732256 -0.084643416 -0.058454063 0.056011006 -0.015575761 -0.077837385
0.08274759 -0.09667699 0.06619261 -0.08019173 -0.043584142 -0.11113596 -0.067687884 -0.1059261
-0.10356925 0.029668346 0.06334493 -0.07715227 -0.10102624 -0.0219474 0.020127086 0.082562596
0.09155883 -0.0419893 0.0821949 0.06279356 0.04985904 0.076814234 -0.07238244 -0.03999399
-0.0044093826 -0.08305086 -0.042621117 -0.041806664 -0.07642093 -0.06071661 -0.06178687 0.061890166
-0.03572278 0.05719201 -0.09598534 0.052945968 -0.06772837 0.062407084 0.10359786 -0.10910169
-0.033431984 -0.025331711 0.06015063 0.030910596 -0.04273455 0.03154112 0.03492081 -0.091405995
0.113919385 0.0017223975 -0.0028781649 0.068140686 0.013996511 0.072866976 0.010318085 -0.039042156
0.06037707 -0.072959974 0.07970483 0.04712471 0.09334483 0.0015196544 -0.046520673 0.100585215
-0.121671 -0.068619326 0.05929057 0.035642687 0.0077077285 0.040615335 -0.06648171 -0.07886437
-0.092149906 -0.04850925 0.038825877 0.042752355 -0.05834797 -0.036465168 0.024389125 0.050094854
-0.024265679 -0.059182756 0.08759093 0.00826143 0.06641478 -0.08934638 -0.016359441 -0.046722695
-0.08614497 0.012388608 -0.06366964 0.058045506 0.034240168 -0.07071145 0.096526936 -0.069430135

action_model._discrete_distribution.branches.0.bias f4 [80]
00000000: e2aa 66bd 3b0d 72bd 96d1 35bc a5d5 503b
00000010: fdcb 39bd 475d 2a3d d16f 6b3c dad5 67bc
00000020: 5945 83bd 289a efbb 37b1 61bd b694 a0bd
00000030: 776b 613c dfcc 94bc e0d2 433c f011 32bc
00000040: 0dc9 b5bd fbc7 6e3b b8cd 3f3b fda2 553d
00000050: a7e9 3abd 8611 77bd 44c5 743d c9aa 733b
00000060: 0da1 e93d 395b b13c fb1d cfbb adc1 d63c
00000070: 9d2d 0bbd 5d7d c3bc 7f0f 0fbc 4a01 753d
00000080: 9ad2 a5bc a12b 7dbd a38b e0bd 613d f83b
00000090: 5689 9cbd a362 7a3c 9099 aabc e449 093d
000000a0: d620 183a 4519 99bc fb23 5c3d 76f9 01bd
000000b0: fc1d 55bd 3e40 0e3d 4698 c7bd c93e 0c3d
000000c0: a5cf 923d 2a6f 7c3d 766e aabb 3507 5abc
000000d0: 9522 cebc 565e 5fbc 236b 18bd 5fbd 83bd
000000e0: e9c8 eebc afe7 5cba b620 1abc 2ef4 b3bc
000000f0: c22b 843d a5f6 b9bd 5130 34bd 843b 8c3a
00000100: 48ba 7dbd de7e a0bc 93f2 c5bc 49d0 c6bd
00000110: 67e3 3cbd db23 ed3c 8693 ce3c 30d9 f3bc
00000120: 20fd 6b3d 2869 16bd d2d8 9ab9 edb7 713c
00000130: 27e8 ddbb 6ce3 7cbd 7886 a9bd 3c19 bfbd
-0.05631531 -0.05909465 -0.011097332 0.0031865623 -0.045360554 0.041592862 0.014369921 -0.014150107
-0.064097114 -0.007312078 -0.055100646 -0.07840864 0.013758532 -0.018164096 0.011952132 -0.010868534
-0.08876238 0.0036435116 0.0029266905 0.05215739 -0.045632984 -0.060319446 0.05975844 0.0037180653
0.11407671 0.021649944 -0.0063207126 0.026215399 -0.033979047 -0.023863489 -0.008731722 0.059815682
-0.020242024 -0.061809186 -0.109641336 0.0075756763 -0.07643382 0.015282306 -0.020825177 0.033517733
0.0005803233 -0.018688807 0.05374525 -0.031732045 -0.05203055 0.034729235 -0.09745841 0.034239564
0.07168511 0.06162945 -0.0052011563 -0.013307382 -0.025162974 -0.013633331 -0.03721155 -0.06432604
-0.029148536 -0.00084268575 -0.009407213 -0.02196702 0.06453659 -0.09080247 -0.04399139 0.0010698889
-0.06194523 -0.019591745 -0.02416352 -0.09707696 -0.046115305 0.028947761 0.025216829 -0.029766649
0.057614446 -0.03672138 -0.00029534713 0.014753324 -0.0067720595 -0.061740324 -0.08277601 -0.09330985
