results/Bigmap3/BigMapAgent/BigMapAgent-8499993.pt (torch, 791660 bytes, 33 tensors)

network_body._body_endoder.seq_layers.0.weight f4 [128, 81]
0.004124306 -0.13326882 0.031824615 -0.18531081 0.1512091 -0.07057736 0.19764419 0.002594448
-0.057288762 0.10177068 -0.1927271 -0.24234088 -0.020962425 -0.057133645 0.10651177 0.0036945916
0.050188128 -0.18968031 0.12916528 0.084439754 -0.039835185 0.10791655 0.17954466 -0.10729564
-0.07837027 -0.06086109 0.03199271 0.077268936 0.058770716 0.027626663 0.09705224 0.08554171
-0.08841296 -0.115355246 -0.20782286 0.039174866 0.03226481 0.022906944 0.05488644 0.26655143
0.051448114 -0.106482804 -0.07025585 0.03376364 0.075188674 -0.006155519 0.07802602 0.031623736
-0.039488632 -0.0062411944 -0.057542995 0.005484761 -0.10386274 0.09524218 0.091444276 0.058506165
0.14917804 0.06574771 0.16058409 0.22186317 -0.0082393335 0.10876911 -0.19355448 -0.29236388
0.054840792 0.09941005 0.16258284 0.0477013 -0.024910254 0.1353395 -0.054196957 0.023202835
-0.1106489 -0.12667985 0.22103564 -0.15140116 0.047347553 0.03429783 -0.06323624 -0.03997057
0.043296237 0.081535846 0.17052658 0.03376973 -0.037450667 0.0050933613 -0.080910034 0.045288388
0.019499028 -0.14950764 -0.108849764 -0.12260817 -0.07177715 0.008092148 -0.07837192 0.12905045
-0.21853356 -0.08066638 0.015467043 0.034813322 0.033197418 0.021750167 0.020812249 -0.09972695
-0.03367718 0.010850145 -0.07701863 0.062644474 0.03513898 -0.027474156 0.19383742 -0.3120663
-0.0825088 -0.13134949 -0.004053867 -0.06367427 0.040622666 0.050919544 0.050185617 -0.09127201
0.3346167 0.13064514 0.09736026 -0.06935789 0.18763928 0.117331825 -0.06331229 0.015644722
0.17340913 -0.13681073 -0.020674393 0.08608398 0.056037586 0.04008282 0.11302125 -0.004553164
-0.13629381 0.04388616 0.2873274 0.25888425 -0.15038005 -0.19191155 -0.0075905193 -0.15804291
-0.1433602 -0.17985302 0.16458668 -0.030549975 -0.12344252 0.06902403 -0.055068742 0.16237395
-0.15732095 0.13277619 0.09267776 -0.03607096 -0.03995761 0.05623911 -0.047849093 -0.062995724
-0.0871393 0.03542422 0.13113765 0.0592616 0.08234789 0.03341193 0.19982424 -0.09516038
0.019060843 0.0034102586 0.115700215 0.020219736 0.043714732 -0.23193508 0.18464988 -0.044525478
-0.08821 -0.0034611747 0.052841987 0.07703425 0.0036471928 0.08417976 0.19772208 0.15867494
-0.00449365 0.19578417 -0.13523498 -0.04718379 0.17996874 -0.004866775 -0.23617972 0.17019966
0.049697123 0.043226447 0.05267964 0.11019406 0.09230957 0.12359942 -0.18734874 -0.10151624
0.032307863 0.2476276 -0.14488092 0.15112954 -0.049548004 0.017312568 0.0008123033 0.033553153
0.12436103 -0.09527773 -0.19482988 0.107446805 -0.042682752 0.13734445 0.11983006 -0.040539626
0.065193504 0.024705669 -0.14910766 0.26328593 0.07092922 0.26281407 -0.09877372 0.082896456
0.050707936 -0.104232885 0.19547339 0.18465663 -0.09321087 0.17164719 0.0999816 -0.015735911
0.08361914 0.16497222 0.007989525 0.029800694 -0.114263445 -0.152985 -0.15654907 0.022697898
-0.1336423 0.014840417 0.06587865 0.10961182 -0.07245624 0.024098177 0.016534498 -0.0021489481
0.086769134 0.028576588 -0.054601736 0.067643926 -0.07854031 0.051467303 0.117617935 0.05177109
00000000: 3025 873b 9f77 08be 875a 023d 1ec2 3dbe
00000010: 8fd6 1a3e dd8a 90bd 3d63 4a3e 9d07 2a3b
00000020: 9fa7 6abd 256d d03d 415a 45be 3528 78be
00000030: 64b9 abbc f804 6abd d822 da3d f620 723b
00000040: 1192 4d3d 8e3b 42be e743 043e c0ee ac3d
00000050: 382a 23bd 5a03 dd3d 8eda 373e d1bd dbbd
00000060: 9880 a0bd 7a49 79bd ca0a 033d 2d3f 9e3d
00000070: 90b9 703d 5051 e23c 53c3 c63d 7e30 af3d
00000080: db11 b5bd 5f3f ecbd 84cf 54be d375 203d
00000090: 1b28 043d 58a7 bb3c 9bd0 603d 6e79 883e
000000a0: 42bb 523d a813 dabd 4de2 8fbd be4b 0a3d
000000b0: 85fc 993d 3cb4 c9bb 1bcc 9f3d e487 013d
000000c0: d5be 21bd ef82 ccbb 34b2 6bbd 83b9 b33b
000000d0: fdb5 d4bd 550e c33d 2347 bb3d 29a4 6f3d
000000e0: 21c2 183e bca6 863d 2870 243e 1930 633e
000000f0: 45fe 06bc 57c2 de3d 2533 46be b8b0 95be
00000100: bda0 603d 7f97 cb3d 1e7c 263e 7062 433d
00000110: 9710 ccbc 7096 0a3e a1fd 5dbd df13 be3c
00000120: e49b e2bd 5db8 01be 2b57 623e e808 1bbe
00000130: 82ef 413d e27b 0c3d 0082 81bd 2eb8 23bd
00000140: 6557 313d 44fc a63d 859e 2e3e 2152 0a3d
00000150: df65 19bd 36e6 a63b 29b4 a5bd 5180 393d
00000160: 6dbc 9f3c 8818 19be a0ec debd fe19 fbbd
00000170: e6ff 92bd ee94 043c 7581 a0bd cd25 043e
00000180: 43c7 5fbe 6a34 a5bd 7b69 7d3c 6a98 0e3d
00000190: 04fa 073d 682d b23c 737e aa3c a53d ccbd
000001a0: 15f1 09bd cec4 313c f2bb 9dbd bf4b 803d
000001b0: e4ed 0f3d 7b11 e1bc 517d 463e 27c7 9fbe
000001c0: 60fa a8bd 7b80 06be 4dd6 84bb a867 82bd
000001d0: f463 263d 0391 503d 6f8f 4d3d d2ec babd
000001e0: e152 ab3e d7c7 053e d164 c73d 820b 8ebd
000001f0: 8324 403e ab4b f03d e0a9 81bd 5c29 803c
00000200: 2a92 313e 1d18 0cbe 585d a9bc cc4c b03d
00000210: ab87 653d e22d 243d af77 e73d b532 95bb
00000220: 9b90 0bbe f9c1 333d 941c 933e 7a8c 843e
00000230: 3afd 19be 7684 44be e4b9 f8bb 00d6 21be
00000240: 04cd 12be 642b 38be 6989 283e f143 fabc
00000250: 6fcf fcbd 785c 8d3d c38f 61bd 5b45 263e
00000260: be18 21be 7bf6 073e d6cd bd3d 25bf 13bd
00000270: 97aa 23bd fb5a 663d 69fd 43bd e703 81bd
00000280: 1776 b2bd fd18 113d f348 063e 4bbc 723d
00000290: 03a6 a83d f3da 083d ba9e 4c3e 72e3 c2bd
000002a0: 7c25 9c3c a57e 5f3b 3cf4 ec3d dca3 a53c
000002b0: 380e 333d 6480 6dbe dc14 3d3e 5960 36bd
000002c0: 72a7 b4bd e0d4 62bb d770 583d 22c4 9d3d
000002d0: be05 6f3b 7066 ac3d a877 4a3e af7b 223e
000002e0: 783f 93bb a57b 483e 0a7b 0abe ca43 41bd
000002f0: ba49 383e 7879 9fbb 19d9 71be d248 2e3e
00000300: 368f 4b3d 370e 313d 9bc6 573d 6cad e13d
00000310: cd0c bd3d b121 fd3d 59d8 3fbe bfe7 cfbd
00000320: 4055 043d 1792 7d3e aa5b 14be b4c1 1a3e
00000330: d9f2 4abd 16d3 8d3c c0f0 543a 086f 093d
00000340: ffb0 fe3d f820 c3bd 7c81 47be 120d dc3d
00000350: 1cd4 2ebd 06a4 0c3e 7669 f53d e10c 26bd
00000360: 2c84 853d 8b63 ca3c aeaf 18be 6acd 863e
00000370: 5743 913d 918f 863e e049 cabd 9ec5 a93d
00000380: 20b3 4f3d 0d78 d5bd 2d2a 483e a116 3d3e
00000390: 57e5 bebd 48c4 2f3e 27c3 cc3d 99e8 80bc
000003a0: 8340 ab3d 7aee 283e 7fe6 023c 9620 f43c
000003b0: f402 eabd 1aa8 1cbe 664e 20be f1f0 b93c
000003c0: 87d9 08be 3825 733c 63eb 863d 297c e03d
000003d0: f063 94bd 8a69 c53c 5b73 873c 5ed5 0cbb
000003e0: 04b4 b13d 7319 ea3c 12a6 5fbd e688 8a3d
000003f0: bed9 a0bd 61cf 523d ace1 f03d ec0d 543d

network_body._body_endoder.seq_layers.0.bias f4 [128]
0.16164595 0.22011258 0.23313628 0.23836017 -0.075276375 -0.123393476 -0.23907664 0.1824671
-0.11743528 -0.12724759 0.21804029 -0.22453292 0.21693924 0.19247515 -0.21385081 0.12752026
0.21154149 0.23173766 -0.102213435 0.14306362 0.15538803 0.09676728 0.22940405 -0.21640964
0.2345577 -0.24046533 -0.10812619 -0.17427105 0.19878744 0.22500223 -0.19628005 -0.25516203
0.24478158 0.055247907 -0.13116021 -0.19218971 0.2553666 0.14461665 -0.18726891 0.006094724
0.19968626 0.15509932 0.21470685 0.25106975 0.23485644 0.22700015 0.20992218 0.23758665
-0.17168772 -0.1800831 0.22646907 0.20682552 0.14828974 -0.17728825 0.21105094 -0.022906547
-0.10488065 0.2855653 0.11608872 0.23817483 0.24770814 -0.09532969 0.2560331 -0.1956167
0.1656459 -0.23060298 0.21428296 0.13367109 0.2612667 0.24033464 0.24296042 -0.02200835
-0.13286558 -0.26522595 -0.19529358 0.22595808 -0.27190977 0.21419756 -0.11147693 -0.20254253
0.24408624 0.2564483 -0.08730247 0.21957684 0.16851404 -0.16707481 0.23488078 -0.26200798
-0.0036018698 0.27340183 0.27257076 -0.24591194 -0.115193665 0.20630372 0.24727136 0.10272793
-0.20325026 0.2504591 0.23154654 0.18126985 0.23429777 0.23295191 0.20241223 0.117852055
0.19553567 0.19631253 -0.12546171 0.2644924 0.25269812 0.19414288 -0.08643573 0.21868414
0.19727103 -0.21107817 0.2322924 0.19614278 0.006922822 0.27227792 0.22521302 0.15964559
-0.19631216 0.111580014 0.03927429 0.084287845 0.19756748 0.2273396 0.2674421 0.26256347
00000000: 8486 253e 3165 613e 47bb 6e3e b014 743e
00000010: 802a 9abd b8b5 fcbd 82d0 74be a8d8 3a3e
00000020: e881 f0bd 314d 02be f445 5f3e f5eb 65be
00000030: 5225 5e3e 3518 453e b5fb 5abe ac94 023e
00000040: 559e 583e a34c 6d3e 4755 d1bd 457f 123e
00000050: 0a1e 1f3e ec2d c63d e5e8 6a3e 7d9a 5dbe
00000060: e52f 703e 8b3c 76be 4471 ddbd 1c74 32be
00000070: ef8e 4b3e fc66 663e a3fd 48be 99a4 82be
00000080: 06a8 7a3e a14b 623d dd4e 06be 61cd 44be
00000090: 69bf 823e 6316 143e 6cc3 3fbe 40b6 c73b
000000a0: 8e7a 4c3e 5bd2 1e3e 1ddc 5b3e 378c 803e
000000b0: 357e 703e ba72 683e d7f5 563e ea49 733e
000000c0: e8ce 2fbe b467 38be 82e7 673e 12ca 533e
000000d0: 44d9 173e 0d8b 35be bd1d 583e 83a6 bbbc
000000e0: abcb d6bd 9d35 923e ecbf ed3d 1ae4 733e
000000f0: 34a7 7d3e 363c c3bd c516 833e bf4f 48be
00000100: 149f 293e 3023 6cbe fe6c 5b3e 13e1 083e
00000110: c0c4 853e 491a 763e 9eca 783e db4a b4bc
00000120: ea0d 08be b2cb 87be 0afb 47be 8e61 673e
00000130: c237 8bbe 9b56 5b3e 044e e4bd 4f67 4fbe
00000140: bef1 793e 314d 833e a3cb b2bd c0d8 603e
00000150: f28e 2c3e a915 2bbe 9684 703e e925 86be
00000160: 590d 6cbb 53fb 8b3e 658e 8b3e 57d0 7bbe
00000170: a8ea ebbd 4841 533e b434 7d3e 0563 d23d
00000180: d620 50be 2d3c 803e 891a 6d3e ce9e 393e
00000190: c1eb 6f3e f28a 6e3e 2745 4f3e 6b5c f13d
000001a0: 813a 483e 2706 493e 0979 00be 8c6b 873e
000001b0: a661 813e 64cd 463e 3705 b1bd bcee 5f3e
000001c0: 6b01 4a3e e024 58be 0fde 6d3e a7d9 483e
000001d0: d7d8 e23b 0368 8b3e 3e9e 663e 227a 233e
000001e0: 0e06 49be 1084 e43d 14de 203d 1b9f ac3d
000001f0: 214f 4a3e b6cb 683e 2cee 883e b86e 863e

network_body._body_endoder.seq_layers.2.weight f4 [128, 128]
0.076222345 -0.093895756 0.007224433 -0.13413574 0.015971156 0.004563566 0.018200973 -0.11780168
-0.029173596 0.07119566 -0.1331188 0.19361296 0.08631781 -0.19411498 0.023940114 -0.1549738
0.008023591 -0.11655893 0.041243512 0.041380785 -0.22558276 -0.18196893 -0.12128735 0.07942044
-0.3016569 -0.002477501 0.051431738 0.018184982 -0.11072851 -0.101828076 0.16828167 0.14204165
-0.020548573 0.1157495 0.17775698 -0.07192854 -0.024031615 0.08255553 0.045409482 -0.07894071
0.19158384 0.039783582 -0.15865995 -0.03373386 -0.1583553 -0.08522768 -0.20535468 -0.20904207
-0.027968938 0.31477076 -0.03472659 0.024670724 0.02251318 0.16489662 -0.11460659 0.053558186
0.07978487 -0.041574627 -0.055070046 -0.16003713 -0.2197673 0.025724627 -0.13681157 0.10398979
-0.027096903 0.2915141 -0.09323061 0.0022941236 -0.17667155 -0.018972991 -0.007148564 0.22424366
-0.057713818 0.19309211 0.037355796 -0.10582867 0.087185435 -0.29111108 -0.042088207 0.10375207
-0.25558352 -0.036749773 0.14548747 0.034405928 -0.13595451 0.04022882 -0.15237838 0.13190691
0.024893833 -0.19609286 -0.10104695 0.07672357 0.09633989 -0.21969733 -0.17948693 0.04058493
0.1721612 0.046060305 -0.07770623 -0.20382468 -0.19033259 -0.23213741 -0.03500474 -0.06456436
-0.13800289 -0.0659659 -0.03965813 -0.24853559 -0.0852818 -0.14054571 0.24208501 -0.20643042
-0.22524841 -0.047791395 -0.06619255 -0.043797467 0.10283412 -0.15391576 -0.12691186 -0.117864296
0.108004786 -0.11921664 -0.13325353 -0.14691493 -0.044041604 -0.27769774 -0.078353934 -0.2742211
0.009223385 -0.030806245 -0.100282274 -0.06226193 -0.03884573 -0.03857333 0.016597725 -0.03747543
-0.124158345 0.31399927 -0.16804937 0.23818052 -0.038297098 -0.14546202 -0.08118267 -0.109196566
0.006929838 0.025007825 0.01624647 -0.1847874 0.017169733 0.040364843 -0.122015186 0.12811746
-0.184172 0.19110157 0.055908386 0.29445788 -0.1362545 0.07874857 0.08368877 -0.037275333
-0.11229997 -0.017439436 0.1174676 0.030303335 -0.23597948 -0.11339337 0.18838517 -0.111314
-0.07629576 -0.016202826 -0.08274786 0.02742822 -0.13272457 -0.022119775 -0.10683156 -0.22037968
0.042361777 -0.11542566 -0.09833959 -0.06090514 0.0075569763 0.040257014 -0.0053822254 -0.11713791
-0.035060797 -0.15578412 -0.06654035 -0.10291717 0.021978308 0.101181716 -0.2239084 0.14728697
-0.095633365 0.049305238 -0.14978236 -0.08747056 -0.1427153 -0.19215323 -0.20066826 -0.060390513
0.19943377 0.2430459 0.15907647 -0.012800075 0.056947388 -0.2787616 0.055257127 0.1013108
-0.10407132 -0.06345458 -0.11070403 -0.14080729 -0.056883607 0.15360317 -0.056984186 0.20785785
-0.016567452 -0.14016066 -0.17074396 0.23892336 0.077275015 -0.12301212 -0.13179913 -0.08239975
0.101656064 0.061702225 -0.21556209 0.040884573 -0.1640585 -0.050205622 0.1080609 -0.008134704
0.00015796477 -0.23972137 0.18030721 -0.032297857 -0.1863351 -0.08982939 0.14733301 0.05126616
-0.04138449 0.2574867 -0.14921227 -0.016263727 1.07625565e-05 0.051382776 -0.1621159 0.07806922
0.085119344 -0.39981943 -0.008254273 -0.10106691 0.02523149 -0.12864298 -0.018662244 -0.12530108
00000000: 761a 9c3d 6b4c c0bd f0ba ec3b e15a 09be
00000010: f1d5 823c f789 953b 351a 953c 0242 f1bd
00000020: 77fd eebc 08cf 913d 4b50 08be 7a42 463e
00000030: 64c7 b03d 14c6 46be 0f1e c43c 74b1 1ebe
00000040: 6175 033c 73b6 eebd f5ee 283d e67e 293d
00000050: 2bff 66be 1056 3abe 8165 f8bd 2fa7 a23d
00000060: c672 9abe 925d 22bb 16aa 523d acf8 943c
00000070: a1c5 e2bd 3d8b d0bd 0852 2c3e 5e73 113e
00000080: 7b55 a8bc 130e ed3d ed05 363e 454f 93bd
00000090: f3dd c4bc e012 a93d 4bff 393d abab a1bd
000000a0: 8e2e 443e 1cf4 223d c177 22be 842c 0abd
000000b0: e427 22be da8b aebd 7f48 52be 200f 56be
000000c0: 1d1f e5bc a229 a13e 783d 0ebd 421a ca3c
000000d0: 8f6d b83c a9da 283e dcb6 eabd d45f 5b3d
000000e0: 4066 a33d 284a 2abd 2191 61bd c6e0 23be
000000f0: ae0a 61be 74bc d23c 5518 0cbe 99f8 d43d
00000100: 53fa ddbc 5641 953e b1ef bebd 0259 163b
00000110: 63e9 34be 3f6d 9bbc 803e eabb 21a0 653e
00000120: 5365 6cbd f0b9 453e 6402 193d b4bc d8bd
00000130: 478e b23d 830c 95be af64 2cbd f77b d43d
00000140: d8db 82be ee86 16bd abfa 143e 3bed 0c3d
00000150: a937 0bbe fac6 243d 1409 1cbe 9b12 073e
00000160: 27ee cb3c 91cc 48be b4f1 cebd 3f21 9d3d
00000170: d94d c53d 56f8 60be 6ccb 37be 623c 263d
00000180: 074b 303e bba9 3c3d 7224 9fbd 6bb7 50be
00000190: 8ce6 42be 6eb5 6dbe 2161 0fbd 523a 84bd
000001a0: a150 0dbe 2119 87bd 9070 22bd 1d80 7ebe
000001b0: 39a8 aebd 37eb 0fbe 22e5 773e 7f62 53be
000001c0: 85a7 66be e9c0 43bd f68f 87bd f964 33bd
000001d0: b29a d23d 189c 1dbe 2ff5 01be d662 f1bd
000001e0: 9d31 dd3d db27 f4bd 9d73 08be de70 16be
000001f0: f864 34bd 662e 8ebe 0778 a0bd b566 8cbe
00000200: ae1d 173c 615d fcbc cb60 cdbd 5e06 7fbd
00000210: b31c 1fbd 11ff 1dbd f4f7 873c d67f 19bd
00000220: bb46 febd 83c4 a03e 2215 2cbe 98e5 733e
00000230: 6bdd 1cbd fff3 14be 1a43 a6bd 73a2 dfbd
00000240: b213 e33b 36dd cc3c 5117 853c e838 3dbe
00000250: 8aa7 8c3c 9b55 253d 19e3 f9bd 3931 033e
00000260: 9697 3cbe 21b0 433e 3100 653d 2fc3 963e
00000270: 4d86 0bbe ee46 a13d 0565 ab3d 05ae 18bd
00000280: 87fd e5bd 26dd 8ebc da92 f03d b33e f83c
00000290: 9ba4 71be c83a e8bd 0be8 403e 98f8 e3bd
000002a0: f440 9cbd cabb 84bc b677 a9bd 25b1 e03c
000002b0: f3e8 07be 8834 b5bc 81ca dabd 36ab 61be
000002c0: 8b83 2d3d 4a64 ecbd 4466 c9bd ab77 79bd
000002d0: 83a0 f73b 8ae4 243d 615d b0bb 00e6 efbd
000002e0: e99b 0fbd df85 1fbe 4f46 88bd 3dc6 d2bd
000002f0: da0b b43c 5c38 cf3d 3e48 65be 65d2 163e
00000300: 6ddb c3bd 4af4 493d 8c60 19be c423 b3bd
00000310: f623 12be d1c3 44be fb7b 4dbe 0b5c 77bd
00000320: 5e38 4c3e 06e1 783e f1e4 223e 68b7 51bc
00000330: aa41 693d d7b9 8ebe 4c55 623d 097c cf3d
00000340: 5823 d5bd 7af4 81bd cbb8 e2bd c92f 10be
00000350: c9fe 68bd 264a 1d3e 4068 69bd b0d8 543e
00000360: 77b8 87bc 4786 0fbe 81d7 2ebe 53a8 743e
00000370: 5d42 9e3d c7ed fbbd 5af6 06be 33c1 a8bd
00000380: 0e31 d03d 79bb 7c3d 4fbc 5cbe 9576 273d
00000390: f4fe 27be 69a4 4dbd 084f dd3d 6c47 05bc
000003a0: 58a3 2539 8579 75be 74a2 383e c24a 04bd
000003b0: a1ce 3ebe 79f8 b7bd 77de 163e 77fc 513d
000003c0: c882 29bd 4cd5 833e 1acb 18be 823b 85bc
000003d0: d490 3437 bf76 523d b601 26be c1e2 9f3d
000003e0: 0d53 ae3d 22b5 ccbe ee3c 07bc 2bfc cebd
000003f0: 45b2 ce3c fcba 03be 90e1 98bc ed4e 00be

network_body._body_endoder.seq_layers.2.bias f4 [128]
-0.07751855 -0.104324795 -0.09438591 0.07574708 0.18294713 0.18729493 0.20857339 -0.11023738
-0.13302429 -0.08613571 -0.10330614 0.18417387 0.14994502 0.16047625 0.053125616 0.10407933
-0.08841013 -0.11267407 -0.09437726 -0.13793571 0.089742914 0.09960515 0.17184499 -0.1294547
-0.1253077 0.16965538 0.17608781 0.2046347 0.15229791 -0.08082598 0.12417644 0.098815866
-0.11558627 0.1860508 -0.034016468 0.21747835 0.14435257 0.1845587 0.105220795 0.23313443
0.1778352 -0.10881128 -0.09909312 0.15838724 0.13382384 0.12662156 -0.11717159 -0.07902813
-0.13012731 0.24723615 -0.05899206 -0.11732369 -0.11141526 -0.11965548 0.09412573 0.13629761
0.13733484 0.18067086 0.12198934 0.16269957 0.12912838 0.20008972 0.18627115 -0.100414254
0.038084332 -0.09685038 0.21574345 -0.10945547 0.12505428 -0.11225768 -0.064470604 0.19041264
0.21557735 0.19117977 0.009611545 0.110148214 0.13160133 -0.041674387 -0.08468712 0.18481739
-0.10899953 0.119372055 0.12907018 -0.11841422 -0.05394757 -0.13487472 0.09076311 0.07697461
-0.11577457 0.18231748 -0.1153103 -0.06198999 -0.08853925 0.14352408 0.1708757 -0.08170314
0.17277981 0.146142 -0.13053751 -0.12379388 -0.107181236 0.11176373 0.14376098 0.19920096
0.21281442 0.19870995 -0.09979013 -0.09332836 0.15051602 0.21785092 -0.09832898 0.06333475
0.13728818 0.19078529 -0.13383894 0.071823075 -0.106632985 0.1686259 0.031176798 0.18045616
0.1689691 0.07377136 0.124852926 -0.12166436 -0.11637893 0.16589941 -0.1308095 0.19378205
00000000: 0cc2 9ebd 3da8 d5bd 664d c1bd 4921 9b3d
00000010: 7e56 3b3e 3eca 3f3e 4394 553e 23c4 e1bd
00000020: 8537 08be eb67 b0bd 2b92 d3bd 1398 3c3e
00000030: 308b 193e e353 243e 3f9a 593d 8b27 d53d
00000040: 5f10 b5bd aac1 e6bd dd48 c1bd 053f 0dbe
00000050: 22cb b73d c9fd cb3d 22f8 2f3e c68f 04be
00000060: a950 00be 24ba 2d3e 5d50 343e c28b 513e
00000070: fcf3 1b3e 1788 a5bd 3850 fe3d f95f ca3d
00000080: 7fb8 ecbd 1a84 3e3e da54 0bbd a5b2 5e3e
00000090: 29d1 133e f5fc 3c3e 007e d73d cbba 6e3e
000000a0: 6e1a 363e 73d8 debd 55f1 cabd 4430 223e
000000b0: 1e09 093e 15a9 013e a9f7 efbd 80d9 a1bd
000000c0: 1840 05be 792b 7d3e a9a1 71bd 6747 f0bd
000000d0: af2d e4bd ef0d f5bd fec4 c03d 9a91 0b3e
000000e0: 81a1 0c3e c801 393e 8cd5 f93d b79a 263e
000000f0: 3b3a 043e 52e4 4c3e ddbd 3e3e fda5 cdbd
00000100: 51fe 1b3d 7e59 c6bd daeb 5c3e 312a e0bd
00000110: 3b0e 003e 5be7 e5bd 2a09 84bd 88fb 423e
00000120: 4fc0 5c3e a1c4 433e be79 1d3c 6395 e13d
00000130: 80c2 063e c3b2 2abd 7170 adbd c540 3d3e
00000140: 253b dfbd 5679 f43d f92a 043e 2883 f2bd
00000150: 21f8 5cbd 991c 0abe 02e2 b93d dda4 9d3d
00000160: 381b edbd 6fb1 3a3e ce27 ecbd 37e9 7dbd
00000170: 1154 b5bd faf7 123e 0afa 2e3e fa53 a7bd
00000180: 31ed 303e 40a6 153e a0ab 05be a587 fdbd
00000190: d681 dbbd 62e4 e43d 1436 133e 56fb 4b3e
000001a0: 06ec 593e 9f7a 4b3e c55e ccbd f022 bfbd
000001b0: df20 1a3e 5014 5f3e b460 c9bd a6b5 813d
000001c0: 4695 0c3e 385d 433e 130d 09be fa17 933d
000001d0: 6562 dabd 45ac 2c3e 7c66 ff3c 80c9 383e
000001e0: 3c06 2d3e 7015 973d e4b2 ff3d 2a2b f9bd
000001f0: 1458 eebd 89e1 293e edf2 05be cd6e 463e

action_model._discrete_distribution.branches.0.weight f4 [80, 128]
0.023184156 0.026716042 0.062668204 -0.07406759 -0.06382148 -0.056162253 -0.088108175 0.07257244
0.059411503 0.03688841 0.102480665 -0.0843325 -0.09424527 -0.050891202 0.0042495946 -0.048273403
-0.00090511894 0.11089202 0.065766536 0.08745215 -0.05605448 -0.086136244 -0.06135675 0.09049122
0.0797823 -0.07317835 -0.01755253 -0.06688341 -0.10420958 0.051176697 -0.031123977 -0.09089575
0.07168764 -0.088068806 0.006297545 -0.048434563 -0.07783586 -0.091716096 -0.0678417 -0.055927698
-0.07227089 0.08694078 0.06859943 -0.08103848 -0.06309143 -0.032531336 0.09981493 0.033927493
0.03150159 -0.08269452 0.03415787 0.03358912 0.073295616 0.038604137 -0.08229057 -0.028451072
-0.05752286 -0.06290955 -0.074417554 -0.039363712 -0.09533718 -0.061566323 -0.045320865 0.026240123
-0.01872481 0.054453075 -0.08835751 -0.0023540827 -0.04359369 0.052829646 0.03937758 -0.09514386
-0.105397224 -0.068535745 -0.019537328 -0.08125983 -0.0361995 -0.04920712 -0.056299623 -0.031456802
0.04522104 -0.07376073 -0.039158206 0.089521304 0.080057204 0.082124755 -0.07260595 -0.057379052
0.06640632 -0.026563317 0.07110859 0.013456501 0.050738994 -0.13152455 -0.0726145 0.032486495
-0.08270411 -0.09829531 0.08380579 0.10650732 0.11442157 -0.064132564 -0.052477006 -0.08084012
-0.022089671 -0.07689922 0.05236359 0.0101231 -0.05265258 -0.08867432 0.026217645 -0.008279798
-0.054320067 -0.086648524 0.068193905 -0.091572724 0.11291378 -0.06556982 -0.0026653484 -0.042046502
-0.017099397 -0.024867192 -0.0694354 0.05446588 0.13261962 -0.12448019 0.06440609 -0.050110307
0.110716045 0.069502994 0.06115062 -0.00011209973 -0.07723812 -0.06526037 -0.051613323 0.03735161
0.07272894 0.06270193 0.08870074 -0.04344573 -0.080955975 -0.049739018 0.005595934 -0.07008565
0.058838803 -0.024624826 0.023820627 0.061543453 -0.057605434 -0.049049385 -0.08721332 0.10049902
0.047776118 -0.034535035 -0.043730304 -0.08464068 -0.058451094 0.056008592 -0.015572703 -0.07783155
0.08274686 -0.09667455 0.06619078 -0.080188885 -0.043583427 -0.11113412 -0.067683 -0.10592319
-0.10356722 0.02966723 0.063343756 -0.07714883 -0.101022676 -0.021943783 0.020125765 0.08256147
0.091557816 -0.04198671 0.08219346 0.06279261 0.04985798 0.07681347 -0.07238127 -0.039991733
-0.0044064973 -0.083049126 -0.042617794 -0.04180436 -0.0764189 -0.060714155 -0.061784964 0.061888997
-0.035719343 0.05719053 -0.09598256 0.052945074 -0.06772738 0.06240569 0.10359541 -0.10909892
-0.03342971 -0.025329418 0.06014906 0.030913955 -0.042731784 0.03153852 0.03491979 -0.09140254
0.1139182 0.0017247731 -0.0028755895 0.06813937 0.013995505 0.07286588 0.010321838 -0.039041962
0.06037621 -0.072956964 0.07970393 0.047122773 0.093342975 0.0015230356 -0.046518397 0.10058358
-0.12166712 -0.068616964 0.059289593 0.03564109 0.007706438 0.04061676 -0.06647987 -0.07886252
-0.092147455 -0.04850651 0.038824774 0.042751428 -0.058344554 -0.03646231 0.024387876 0.050095886
-0.024264544 -0.059180472 0.08758984 0.00826354 0.066413686 -0.08934301 -0.016362526 -0.046720386
-0.08614141 0.012391069 -0.06366889 0.058044493 0.034239087 -0.07071029 0.096525975 -0.06942775
00000000: b3ec bd3c 9adb da3c 3058 803d c0b0 97bd
00000010: d6b4 82bd 640a 66bd 0f72 b4bd dca0 943d
00000020: 7a59 733d 4d18 173d 62e1 d13d 85b6 acbd
00000030: aa03 c1bd 4b73 50bd 2f40 8b3b 55ba 45bd
00000040: 8145 6dba 5b1b e33d 9bb0 863d 1d1a b33d
00000050: 6299 65bd 3368 b0bd 3751 7bbd 7653 b93d
00000060: e764 a33d 88de 95bd 53ca 8fbc 2bfa 88bd
00000070: d56b d5bd a89e 513d b6f7 febc 8d27 babd
00000080: f8d0 923d 6b5d b4bd a35b ce3b 5263 46bd
00000090: 6868 9fbd a6d5 bbbd 97f0 8abd 7114 65bd
000000a0: c302 94bd 020e b23d dc7d 8c3d 81f7 a5bd
000000b0: 1436 81bd 943f 05bd c56b cc3d 8ef7 0a3d
000000c0: d007 013d bf5b a9bd 1fe9 0b3d bf94 093d
000000d0: 031c 963d 5f1f 1e3d f587 a8bd 3912 e9bc
000000e0: 179d 6bbd b9d6 80bd 3b68 98bd d83b 21bd
000000f0: 2440 c3bd f82c 7cbd 5fa2 39bd 87f5 d63c
00000100: c664 99bc 300a 5f3d c8f4 b4bd f446 1abb
00000110: 4c8f 32bd e663 583d 634a 213d c9da c2bd
00000120: 80da d7bd 785c 8cbd bf0c a0bc 8e6b a6bd
00000130: ed45 14bd 688d 49bd 6f9a 66bd d9d8 00bd
00000140: b239 393d de0f 97bd 5b64 20bd f256 b73d
00000150: 08f5 a33d 0631 a83d 6eb2 94bd 4c06 6bbd
00000160: 0900 883d 509b d9bc 61a1 913d a878 5c3c
00000170: b1d3 4f3d 5fae 06be e9b6 94bd 8f10 053d
00000180: c660 a9bd 0d4f c9bd 5fa2 ab3d 8320 da3d
00000190: db55 ea3d ef57 83bd 21f2 56bd 818f a5bd
000001a0: 66f5 b4bc 577d 9dbd 347b 563d 5cdb 253c
000001b0: 3baa 57bd e29a b5bd 63c6 d63c fda7 07bc
000001c0: b87e 5ebd c874 b1bd 3fa9 8b3d 7b8a bbbd
000001d0: 573f e73d 7849 86bd 20ad 2ebb f438 2cbd
000001e0: 0914 8cbc 48b6 cbbc 2634 8ebd 9d17 5f3d
000001f0: 70cd 073e 78ef febd 57e7 833d 7740 4dbd
00000200: 18bf e23d 9657 8e3d 1379 7a3d 1617 ebb8
00000210: 052f 9ebd 3ba7 85bd 7e68 53bd 00fe 183d
00000220: e9f2 943d df69 803d bca8 b53d 26f4 31bd
00000230: 3fcc a5bd 24bb 4bbd 195e b73b 1189 8fbd
00000240: f500 713d 01ba c9bc 7a23 c33c fd14 7c3d
00000250: adf3 6bbd 02e8 48bd e69c b2bd 6ed2 cd3d
00000260: e4b0 433d 9c74 0dbd 8c1e 33bd 1858 adbd
00000270: 6a6a 6fbd 4469 653d a724 7fbc 2666 9fbd
00000280: 3077 a93d 4efd c5bd 088f 873d 123a a4bd
00000290: 8984 32bd 499a e3bd 629d 8abd 42ee d8bd
000002a0: 0d1b d4bd b108 f33c 5fba 813d 3500 9ebd
000002b0: fae4 cebd 73c3 b3bc cade a43c fd15 a93d
000002c0: aa82 bb3d 42fa 2bbd 0b55 a83d 6999 803d
000002d0: e237 4c3d 6150 9d3d a23c 94bd 5fce 23bd
000002e0: 6164 90bb a915 aabd ff8f 2ebd 0c3b 2bbd
000002f0: 8381 9cbd 68af 78bd 3b12 7dbd 517f 7d3d
00000300: 724e 12bd 9e40 6a3d 8192 c4bd efdc 583d
00000310: a7b4 8abd 1c9d 7f3d d529 d43d 416f dfbd
00000320: 97ed 08bd a47f cfbc dc5e 763d 433f fd3c
00000330: 8607 2fbd 892e 013d 0e08 0f3d 4131 bbbd
00000340: f24d e93d c811 e23a 6374 3cbb a78c 8b3d
00000350: 674d 653c b53a 953d ed1c 293c 77ea 1fbd
00000360: 0b4d 773d 766a 95bd d03b a33d cf03 413d
00000370: 9a2a bf3d 98a0 c73a 138a 3ebd c4fe cd3d
00000380: 9c2c f9bd 0d87 8cbd a5d9 723d 64fc 113d
00000390: 4a86 fc3b c25d 263d 9926 88bd ac82 a1bd
000003a0: ceb7 bcbd c3ae 46bd ba06 1f3d 1f1c 2f3d
000003b0: b3fa 6ebd 8159 15bd 15c9 c73c 5831 4d3d
000003c0: 70c6 c6bc 3967 72bd 4d62 b33d cd63 073c
000003d0: e603 883d 78f9 b6bd b40a 86bc e05d 3fbd
000003e0: e86a b0bd e903 4b3c d664 82bd 10c0 6d3d
000003f0: 493e 0c3d 8ed0 90bd 69af c53d 2330 8ebd

action_model._discrete_distribution.branches.0.bias f4 [80]
-0.056315057 -0.05909394 -0.010453388 0.0045861164 -0.045359988 0.04295428 0.014384231 -0.014141046
-0.064097114 -0.007275075 -0.055100642 -0.07840864 0.016063044 -0.018162105 0.0119539 -0.010866646
-0.08876238 0.0036409025 0.0017389748 0.05383702 -0.045630183 -0.060319122 0.05692841 0.005263225
0.11158892 0.021682657 -0.0063156984 0.027427183 -0.033978414 -0.023861812 -0.008724041 0.06119343
-0.0202399 -0.061809175 -0.109641336 0.0076654865 -0.07643382 0.015314074 -0.020822888 0.037877645
0.0006124848 -0.018681547 0.051778 -0.031725775 -0.05203037 0.034753323 -0.09745841 0.034248617
0.07116673 0.06245446 -0.005191413 -0.013302366 -0.025159733 -0.013615971 -0.037209686 -0.06432604
-0.029144496 0.00031101127 -0.009399941 -0.02196578 0.06712651 -0.09080247 -0.04398977 0.0010402338
-0.06194518 -0.019589948 -0.024160586 -0.09707696 -0.04611426 0.029346164 0.02748143 -0.029765137
0.05890058 -0.036720768 -0.00027260408 0.014769914 -0.0067674452 -0.061740324 -0.08277601 -0.09330985
00000000: 9eaa 66bd 7d0c 72bd b044 2bbc 2247 963b
00000010: 65cb 39bd d4f0 2f3d d6ab 6b3c d9af 67bc
00000020: 5945 83bd c163 eebb 36b1 61bd b694 a0bd
00000030: a596 833c b2c8 94bc 4ada 433c 040a 32bc
00000040: 0dc9 b5bd 359c 6e3b 50ee e33a 3584 5c3d
00000050: b7e6 3abd 2f11 77bd c42d 693d 2277 ac3b
00000060: bb88 e43d d49f b13c ebf3 cebb f9ae e03c
00000070: f32c 0bbd d979 c3bc 48ef 0ebc f6a5 7a3d
00000080: 26ce a5bc 9e2b 7dbd a38b e0bd c32e fb3b
00000090: 5689 9cbd e2e7 7a3c c394 aabc 9725 1b3d
000000a0: 298f 203a 0b0a 99bc 2b15 543d e3f2 01bd
000000b0: cc1d 55bd 8059 0e3d 4698 c7bd 4748 0c3d
000000c0: ddbf 913d 3fd0 7f3d bb1c aabb 2bf2 59bc
000000d0: c91b cebc 8615 5fbc 2f69 18bd 5fbd 83bd
000000e0: 70c0 eebc 3a0f a339 3602 1abc 94f1 b3bc
000000f0: a079 893d a5f6 b9bd 9e2e 34bd 7458 883a
00000100: 3bba 7dbd 197b a0bc 6cec c5bc 49d0 c6bd
00000110: 4ee2 3cbd 5e67 f03c bc20 e13c 04d6 f3bc
00000120: bc41 713d 8468 16bd 4dec 8eb9 82fd 713c
00000130: 72c1 ddbb 6ce3 7cbd 7886 a9bd 3c19 bfbd

exp_avg f4 [128, 81]
-6e-45 -6e-45 -6e-45 -6e-45 6e-45 6e-45 6e-45 6e-45
6e-45 6e-45 -6e-45 6e-45 6e-45 6e-45 -6e-45 -6e-45
-6e-45 6e-45 6e-45 6e-45 -6e-45 6e-45 6e-45 -6e-45
-0.00027850157 -6e-45 6e-45 6e-45 6e-45 -6e-45 -6e-45 1.6877576e-07
-6e-45 6e-45 -6e-45 -6e-45 -6e-45 6e-45 6e-45 6e-45
6e-45 -6e-45 6e-45 6e-45 -6e-45 6e-45 6e-45 6e-45
6e-45 5.794172e-21 -6e-45 6e-45 -6e-45 -6e-45 -6e-45 6e-45
6e-45 -6e-45 6e-45 6e-45 8.952273e-06 -6e-45 6e-45 -6e-45
-6e-45 6e-45 -6e-45 6e-45 6e-45 6e-45 6e-45 6e-45
-6e-45 6e-45 -6e-45 6e-45 6e-45 -6e-45 6e-45 6e-45
0.0 -6e-45 -6e-45 6e-45 -6e-45 6e-45 6e-45 6e-45
6e-45 6e-45 6e-45 -6e-45 6e-45 6e-45 6e-45 -6e-45
-6e-45 -6e-45 6e-45 6e-45 6e-45 -6e-45 6e-45 6e-45
-6e-45 -0.00019740008 6e-45 6e-45 6e-45 6e-45 -6e-45 -6e-45
9.3341185e-08 -6e-45 6e-45 -6e-45 6e-45 -6e-45 6e-45 6e-45
6e-45 6e-45 -6e-45 6e-45 6e-45 -6e-45 6e-45 6e-45
-6e-45 6e-45 3.4726492e-21 6e-45 6e-45 -6e-45 6e-45 6e-45
-6e-45 -6e-45 6e-45 6e-45 6e-45 4.55871e-06 6e-45 6e-45
-6e-45 -6e-45 6e-45 -6e-45 -6e-45 6e-45 6e-45 6e-45
-6e-45 -6e-45 6e-45 -6e-45 6e-45 6e-45 -6e-45 6e-45
6e-45 0.0 -6e-45 -6e-45 6e-45 -6e-45 6e-45 6e-45
6e-45 -6e-45 6e-45 6e-45 -6e-45 6e-45 6e-45 6e-45
-6e-45 -6e-45 -6e-45 6e-45 6e-45 6e-45 -6e-45 6e-45
6e-45 -6e-45 -0.00030494848 6e-45 6e-45 6e-45 6e-45 -6e-45
-6e-45 1.7449395e-07 -6e-45 6e-45 -6e-45 6e-45 -6e-45 6e-45
6e-45 6e-45 6e-45 -6e-45 6e-45 6e-45 -6e-45 6e-45
6e-45 -6e-45 6e-45 6.710823e-21 -6e-45 6e-45 -6e-45 6e-45
6e-45 -6e-45 -6e-45 6e-45 6e-45 6e-45 8.609538e-06 6e-45
6e-45 -6e-45 6e-45 6e-45 -6e-45 -6e-45 6e-45 6e-45
6e-45 -6e-45 -6e-45 6e-45 -6e-45 6e-45 6e-45 -6e-45
6e-45 6e-45 0.0 -6e-45 -6e-45 -6e-45 -6e-45 6e-45
6e-45 6e-45 6e-45 6e-45 6e-45 -6e-45 6e-45 6e-45
00000000: 0400 0080 0400 0080 0400 0080 0400 0080
00000010: 0400 0000 0400 0000 0400 0000 0400 0000
00000020: 0400 0000 0400 0000 0400 0080 0400 0000
00000030: 0400 0000 0400 0000 0400 0080 0400 0080
00000040: 0400 0080 0400 0000 0400 0000 0400 0000
00000050: 0400 0080 0400 0000 0400 0000 0400 0080
00000060: d903 92b9 0400 0080 0400 0000 0400 0000
00000070: 0400 0000 0400 0080 0400 0080 ba38 3534
00000080: 0400 0080 0400 0000 0400 0080 0400 0080
00000090: 0400 0080 0400 0000 0400 0000 0400 0000
000000a0: 0400 0000 0400 0080 0400 0000 0400 0000
000000b0: 0400 0080 0400 0000 0400 0000 0400 0000
000000c0: 0400 0000 cbe5 da1d 0400 0080 0400 0000
000000d0: 0400 0080 0400 0080 0400 0080 0400 0000
000000e0: 0400 0000 0400 0080 0400 0000 0400 0000
000000f0: b831 1637 0400 0080 0400 0000 0400 0080
00000100: 0400 0080 0400 0000 0400 0080 0400 0000
00000110: 0400 0000 0400 0000 0400 0000 0400 0000
00000120: 0400 0080 0400 0000 0400 0080 0400 0000
00000130: 0400 0000 0400 0080 0400 0000 0400 0000
00000140: 0000 0000 0400 0080 0400 0080 0400 0000
00000150: 0400 0080 0400 0000 0400 0000 0400 0000
00000160: 0400 0000 0400 0000 0400 0000 0400 0080
00000170: 0400 0000 0400 0000 0400 0000 0400 0080
00000180: 0400 0080 0400 0080 0400 0000 0400 0000
00000190: 0400 0000 0400 0080 0400 0000 0400 0000
000001a0: 0400 0080 2efd 4eb9 0400 0000 0400 0000
000001b0: 0400 0000 0400 0000 0400 0080 0400 0080
000001c0: dc72 c833 0400 0080 0400 0000 0400 0080
000001d0: 0400 0000 0400 0080 0400 0000 0400 0000
000001e0: 0400 0000 0400 0000 0400 0080 0400 0000
000001f0: 0400 0000 0400 0080 0400 0000 0400 0000
00000200: 0400 0080 0400 0000 6731 831d 0400 0000
00000210: 0400 0000 0400 0080 0400 0000 0400 0000
00000220: 0400 0080 0400 0080 0400 0000 0400 0000
00000230: 0400 0000 05f7 9836 0400 0000 0400 0000
00000240: 0400 0080 0400 0080 0400 0000 0400 0080
00000250: 0400 0080 0400 0000 0400 0000 0400 0000
00000260: 0400 0080 0400 0080 0400 0000 0400 0080
00000270: 0400 0000 0400 0000 0400 0080 0400 0000
00000280: 0400 0000 0000 0000 0400 0080 0400 0080
00000290: 0400 0000 0400 0080 0400 0000 0400 0000
000002a0: 0400 0000 0400 0080 0400 0000 0400 0000
000002b0: 0400 0080 0400 0000 0400 0000 0400 0000
000002c0: 0400 0080 0400 0080 0400 0080 0400 0000
000002d0: 0400 0000 0400 0000 0400 0080 0400 0000
000002e0: 0400 0000 0400 0080 7ee1 9fb9 0400 0000
000002f0: 0400 0000 0400 0000 0400 0000 0400 0080
00000300: 0400 0080 885c 3b34 0400 0080 0400 0000
00000310: 0400 0080 0400 0000 0400 0080 0400 0000
00000320: 0400 0000 0400 0000 0400 0000 0400 0080
00000330: 0400 0000 0400 0000 0400 0080 0400 0000
00000340: 0400 0000 0400 0080 0400 0000 1987 fd1d
00000350: 0400 0080 0400 0000 0400 0080 0400 0000
00000360: 0400 0000 0400 0080 0400 0080 0400 0000
00000370: 0400 0000 0400 0000 af71 1037 0400 0000
00000380: 0400 0000 0400 0080 0400 0000 0400 0000
00000390: 0400 0080 0400 0080 0400 0000 0400 0000
000003a0: 0400 0000 0400 0080 0400 0080 0400 0000
000003b0: 0400 0080 0400 0000 0400 0000 0400 0080
000003c0: 0400 0000 0400 0000 0000 0000 0400 0080
000003d0: 0400 0080 0400 0080 0400 0080 0400 0000
000003e0: 0400 0000 0400 0000 0400 0000 0400 0000
000003f0: 0400 0000 0400 0080 0400 0000 0400 0000

exp_avg_sq f4 [128, 81]
5.0082984e-17 2.9350085e-17 2.320092e-13 8.8702605e-14 1.6515769e-16 4.0145909e-13 2.2494136e-14 3.8317606e-14
9.497935e-16 3.3207666e-14 3.9879803e-17 1.4644052e-17 7.6344947e-13 1.2967011e-14 1.6945018e-14 1.2924783e-16
1.6478666e-18 3.832614e-14 7.5377145e-13 9.521582e-12 2.2531405e-15 1.0272294e-17 4.8026028e-11 1.1193602e-13
1.6205151e-06 3.0373946e-13 1.5490965e-14 4.8798287e-12 1.3198933e-16 5.272613e-17 4.210348e-15 2.7437736e-07
1.1836054e-14 1.1815041e-17 9.519361e-18 1.261721e-13 4.3810594e-15 1.0521835e-14 3.5412072e-14 1.614466e-11
1.8571541e-14 5.574525e-15 9.630089e-09 4.683012e-15 4.1010705e-15 3.1390548e-12 9.080112e-19 1.2919512e-13
1.745047e-13 3.1810137e-09 7.0920235e-15 1.3226201e-13 7.986533e-15 2.3374623e-14 5.2517377e-16 5.4684463e-16
1.1896373e-16 1.3633616e-13 4.0296656e-15 2.8216933e-15 5.9412947e-08 2.2050884e-16 1.892267e-15 9.652149e-15
8.4362774e-17 3.137472e-14 2.8738346e-15 6.839677e-17 2.5630865e-17 5.908406e-10 1.2401632e-13 1.341277e-14
1.5473822e-12 4.5550636e-17 8.2505664e-14 2.4733542e-14 4.2539744e-15 8.842476e-16 2.3592314e-17 8.641374e-19
0.0 1.5373553e-16 1.8661233e-16 3.00605e-13 2.5405288e-13 4.402508e-16 3.462091e-13 2.5824266e-14
6.506994e-14 1.5924328e-15 3.6579057e-14 2.2701992e-16 1.01344104e-16 1.2732702e-12 1.9262661e-14 1.5934853e-14
3.5608193e-16 6.913957e-18 1.01913744e-13 4.3482283e-13 3.5805811e-12 2.8931357e-15 3.2572467e-17 6.844566e-12
1.4729111e-13 5.018123e-07 5.397427e-13 2.9017316e-14 9.851837e-13 2.2696444e-16 7.652017e-17 2.6339275e-15
8.211892e-08 1.8608367e-14 4.1958333e-17 3.0093635e-17 2.2869006e-13 7.6315415e-15 2.1043612e-14 3.7184635e-14
3.5294307e-12 4.39425e-14 1.2389667e-14 2.9881504e-09 5.753951e-15 4.6344302e-15 1.6537045e-12 7.7200676e-18
1.8567117e-13 5.3652547e-13 9.710601e-10 1.0486279e-14 1.5697254e-13 1.3254467e-14 2.919345e-14 9.766412e-16
6.6406086e-16 3.557044e-16 2.9211974e-13 5.3040746e-15 1.211769e-15 1.5465066e-08 4.490318e-16 3.342174e-15
2.4062685e-14 1.7477483e-16 3.6969414e-14 2.705661e-15 1.2776044e-16 1.739871e-16 2.508788e-10 2.4780164e-13
1.2439518e-14 1.1169433e-12 3.1179487e-16 1.0298779e-13 4.7824442e-14 6.3773212e-15 9.373338e-16 9.110432e-17
8.624017e-18 0.0 2.2026868e-16 2.3528352e-16 3.2572596e-13 2.8196087e-13 8.1727816e-16 4.1755081e-13
2.7599188e-14 6.073047e-14 2.9766233e-15 4.989199e-14 4.0113532e-16 1.066112e-16 1.614052e-12 2.1321766e-14
1.3707009e-14 7.467869e-16 9.228964e-18 1.225444e-13 5.806649e-13 7.7869e-12 4.4865527e-15 5.474107e-17
2.7477113e-11 1.9511216e-13 1.448248e-06 6.1507987e-13 3.8899578e-14 2.7521418e-12 1.8951338e-16 8.292103e-17
5.451458e-15 2.758672e-07 2.7681072e-14 5.8412127e-17 5.802667e-17 2.7355248e-13 5.8178564e-15 1.7315873e-14
4.017867e-14 1.22813365e-11 3.2128773e-14 1.4919984e-14 1.0631455e-08 5.0523415e-15 4.919599e-15 3.2422958e-12
7.967113e-18 1.3313134e-13 5.317008e-13 3.8786987e-09 9.472415e-15 1.9248366e-13 1.8603505e-14 2.578985e-14
1.3604748e-15 1.1101042e-15 3.7603938e-16 2.8807208e-13 4.50778e-15 2.8298085e-15 5.6391585e-08 5.725069e-16
5.781452e-15 2.843717e-14 4.2514249e-16 4.0166865e-14 2.5775678e-15 2.5921924e-16 2.9786276e-16 6.2366895e-10
1.9141539e-13 2.3179282e-14 1.7833431e-12 3.466406e-16 9.746553e-14 4.0439996e-14 4.500997e-15 1.2148529e-15
9.112156e-17 2.0448739e-17 0.0 5.0280723e-16 3.286837e-16 7.999366e-13 7.398853e-13 1.106414e-15
1.5791659e-12 6.800263e-14 1.7083427e-13 6.107422e-15 1.1197799e-13 7.847252e-16 3.2735444e-16 3.5525274e-12
00000000: 8df7 6624 775a 0724 0d9c 822a 92bd c729
00000010: f269 3e25 5a00 e22a f29b ca28 3191 2c29
00000020: 32e1 8826 d58d 1529 c3e9 3724 4a11 8723
00000030: 55e4 562b c997 6928 8da0 9828 3a03 1525
00000040: a42e f321 089b 2c29 f52a 542b 6581 272d
00000050: 1b5b 2227 897d 3d23 8038 532e b90e fc29
00000060: 7a80 d935 78fd aa2a bc87 8b28 97b1 ab2c
00000070: 602c 1825 0728 7324 9bb1 9727 234e 9334
00000080: 2a38 5528 f4f2 5923 e999 2f23 a20e 0e2a
00000090: 24d8 9d27 668b 3d28 577b 1f29 8b02 8e2d
000000a0: 0f47 a728 ebd7 c827 9471 2532 29b9 a827
000000b0: b3c1 9327 2fe4 5c2c b1ff 8521 f575 112a
000000c0: 8e79 442a fc98 5a31 5f84 ff27 eee9 142a
000000d0: 62df 0f28 368a d228 fc5e 1726 039e 1d26
000000e0: e527 0925 3980 192a 1b2f 9127 0e53 4b27
000000f0: 3a2d 7f33 b93a 7e25 2a5a 0827 aee0 2d28
00000100: fe86 c224 974c 0d29 e414 4f27 54b6 9d24
00000110: 2b67 ec23 b668 2230 45a1 0b2a 7c9f 7128
00000120: 52c6 d92b b310 5224 47c9 b929 aac7 de28
00000130: fd43 9927 f5dd 7e26 c799 d923 600c 7f21
00000140: 0000 0000 b83e 3125 3d26 5725 bf39 a92a
00000150: e104 8f2a 8dc9 fd25 fde5 c22a b49a e828
00000160: 4486 9229 677e e526 c8bc 2429 3ade 8225
00000170: 00af e924 6532 b32b ac80 ad28 4587 8f28
00000180: 6b44 cd25 7a14 ff22 467d e529 93c8 f42a
00000190: 04f6 7b2c ef78 5027 c836 1624 5fd2 f02c
000001a0: c6d5 252a 47b4 0635 8fec 172b b0ae 0229
000001b0: fca6 8a2b 0ad6 8225 8971 b024 63cb 3d27
000001c0: 5b59 b033 f99b a728 a87f 4124 4bc8 0a24
000001d0: b6bd 802a 467a 0928 448b bd28 f776 2729
000001e0: 925c 782c 41e6 4529 4131 5f28 1958 4d31
000001f0: d54e cf27 13f9 a627 fcbc e82b fd68 0e23
00000200: 120c 512a bc04 172b 2476 8530 6de7 3c28
00000210: 41bc 302a 71c5 6e28 c279 0329 b3bf 8c26
00000220: 0b67 3f26 b40c cd25 e472 a42a 7419 bf27
00000230: 63a2 ae26 0ad8 8432 b36c 0126 3ad4 7027
00000240: c6bc d828 6d80 4925 d57e 2629 a3f6 4227
00000250: 3a4c 1325 ee97 4825 0dec 892f fb7f 8b2a
00000260: 2717 6028 2032 9d2b cdbc b325 6be8 e729
00000270: d461 5729 68c4 e527 8315 8726 8012 d224
00000280: c515 1f23 0000 0000 d7f3 7d25 b8a1 8725
00000290: 0f5e b72a d8ba 9e2a 7c90 6b26 6a0f eb2a
000002a0: 6597 f828 bcc0 8829 027d 5627 8cb1 6029
000002b0: 203d e725 25d4 f524 5a28 e32b a50c c028
000002c0: 6cec 7628 263f 5726 8d3e 2a23 05f9 092a
000002d0: 5171 232b 14fd 082d 25a5 a127 d972 7c24
000002e0: f5b0 f12d 40ad 5b2a 6c61 c235 2d21 2d2b
000002f0: 2930 2f29 2eaa 412c 7a7e 5a25 f033 bf24
00000300: d368 c427 e61a 9434 3554 f928 6fb0 8624
00000310: e6cc 8524 11ff 992a 419c d127 aff7 9b28
00000320: daf2 3429 390e 582d f4b1 1029 2463 8628
00000330: a2a5 3632 a007 b627 4b3f b127 0228 642c
00000340: a1f7 1223 7fe4 152a 15a9 152b 6545 8531
00000350: cea3 2a28 a3b7 582a c390 a728 584b e828
00000360: a910 c426 9efb 9f26 9ec5 d825 902b a22a
00000370: ef68 a227 c1e8 4b27 3433 7233 8e03 2526
00000380: 7c4c d027 d311 0029 f513 f525 3ee5 3429
00000390: bcbb 3927 026e 9525 c9b4 ab25 cd6e 2b30
000003a0: bb83 572a c9c7 d028 b5fb fa2b 20d3 c725
000003b0: 0e79 db29 2420 3629 5f2a a227 2914 af26
000003c0: ad1c d224 389b bc23 0000 0000 a0ec 1026
000003d0: 2779 bd25 8229 612b 5b42 502b 7973 9f26
000003e0: 733f de2b d920 9929 a057 402a 060b dc27
000003f0: eb26 fc29 802e 6226 fdb4 bc25 a5fc 792c

exp_avg f4 [128]
-0.00026941803 -0.0001931426 -0.0002965446 -0.00038988085 -1.4984616e-06 0.00014631581 0.00012676633 -8.717436e-05
0.00017861309 -9.218739e-06 -0.0003425337 0.0003606381 -0.00020078913 -0.00017919374 0.00015243131 -0.00015635874
-0.00034918712 -0.0004014317 1.8664377e-05 -0.00022465525 -6.987876e-05 -0.00022361882 -0.00032112273 0.0001062416
-0.0004091286 0.00024265563 1.3698216e-06 0.00024430704 -0.00021762932 -0.00029191803 9.5515796e-05 0.000102474165
-0.00042720925 -0.000118902535 1.6928627e-05 0.00017015348 -0.00031988035 -0.00018256018 0.00012495309 -7.4482e-05
-0.00014743027 -9.712445e-05 -0.00020855624 -0.00035546772 -0.0004227679 -0.00019059463 -0.00032977024 -0.00030871527
0.00019716172 6.467097e-05 -0.00035255216 -0.00023138171 -0.00023448723 0.00022504063 -0.0002906881 -5.1218205e-05
4.374382e-05 -0.00047568878 -8.461987e-05 -0.00023871423 -0.00030471082 0.00014469564 -0.00020258116 0.00036811578
-0.0003434202 0.00014039475 -0.00027428236 -9.808678e-05 -0.0002845048 -0.00034034438 -0.0002690302 0.00015243184
3.4541863e-06 0.00016455883 0.00028250704 -0.00038266572 0.00035260868 -0.00030675868 0.00020664459 0.00023266568
-0.00027995772 -0.00033274933 1.418345e-05 -0.0002586015 -0.00026200825 0.00018257333 -0.00042527914 0.00033257186
-3.8219507e-05 -0.00042208293 -0.0003069492 0.00021293535 0.00024632053 -0.00034112026 -0.00035506143 -0.00023985744
6.673204e-05 -0.00024214514 -0.00038677192 -0.0002111947 -0.0003425343 -0.0003846069 -0.00032072578 -9.2687354e-05
-0.00024873897 -0.00016173604 0.00022301983 -0.0003390998 -0.0003844667 -0.00021841304 0.00017984828 -0.00024219652
-0.00026469285 0.00025337617 -0.0002801536 -0.0002509661 -0.00011997303 -0.0003244602 -0.00033557217 -5.3422955e-05
0.0002546647 -0.00014938245 -9.9762925e-05 -9.1257396e-05 -0.00021327204 -0.0004073936 -0.00028712998 -0.00035893574
00000000: ad40 8db9 5286 4ab9 8b79 9bb9 ec68 ccb9
00000010: c01e c9b5 5a6c 1939 94ec 0439 61d1 b6b8
00000020: 164a 3b39 2faa 1ab7 1896 b3b9 0714 bd39
00000030: ec8a 52b9 f4e5 3bb9 f8d5 1f39 3bf4 23b9
00000040: 1a13 b7b9 4077 d2b9 7291 9c37 6f91 6bb9
00000050: e08b 92b8 387b 6ab9 5d5c a8b9 06ce de38
00000060: 5080 d6b9 6071 7e39 b6da b735 5616 8039
00000070: 6d33 64b9 930c 99b9 a74f c838 66e7 d638
00000080: 0efb dfb9 505b f9b8 f301 8e37 3a6b 3239
00000090: 9db5 a7b9 a06d 3fb9 d705 0339 3833 9cb8
000000a0: 8397 1ab9 4baf cbb8 e4af 5ab9 125e bab9
000000b0: f2a6 ddb9 5bda 47b9 03e5 acb9 10db a1b9
000000c0: 32bd 4e39 f69f 8738 c0d6 b8b9 0e9f 72b9
000000d0: b0e0 75b9 e2f8 6b39 7f67 98b9 21d3 56b8
000000e0: 9279 3738 de65 f9b9 f275 b1b8 5d4f 7ab9
000000f0: 98c1 9fb9 71b9 1739 f76b 54b9 aaff c039
00000100: 140d b4b9 ee36 1339 8ecd 8fb9 f0b3 cdb8
00000110: 9629 95b9 4070 b2b9 9f0c 8db9 1cd6 1f39
00000120: 78ce 6736 6d8d 2c39 741d 9439 86a0 c8b9
00000130: 56de b839 74d4 a0b9 bcae 5839 b8f7 7339
00000140: 4ac7 92b9 dc74 aeb9 74f5 6d37 e894 87b9
00000150: 275e 89b9 2871 3f39 00f8 deb9 0a5d ae39
00000160: e24d 20b8 034b ddb9 06ee a0b9 6647 5f39
00000170: 9524 8139 63d8 b2b9 8a27 bab9 3e82 7bb9
00000180: 7ef2 8b38 57e8 7db9 a6c7 cab9 2574 5db9
00000190: 2d96 b3b9 10a5 c9b9 1627 a8b9 2561 c2b8
000001a0: 2e69 82b9 b097 29b9 6eda 6939 34c9 b1b9
000001b0: 3f92 c9b9 ce05 65b9 a895 3c39 22f6 7db9
000001c0: 79c6 8ab9 93d7 8439 94e1 92b9 1a94 83b9
000001d0: 089a fbb8 501c aab9 bcef afb9 7612 60b8
000001e0: 8484 8539 8ca3 1cb9 d037 d1b8 7161 bfb8
000001f0: c7a1 5fb9 7297 d5b9 ef89 96b9 8a2f bcb9

exp_avg_sq f4 [128]
2.0778762e-06 6.43568e-07 1.9136708e-06 2.947796e-06 1.0207358e-07 3.2524014e-07 2.9236918e-07 1.18689734e-07
1.1761172e-06 8.175235e-09 1.8645972e-06 2.6715197e-06 7.458646e-07 6.599812e-07 5.0401263e-07 4.3391637e-07
3.2392504e-06 3.8868034e-06 2.5660796e-08 2.2947597e-06 2.0221636e-07 8.972976e-07 1.9236659e-06 2.3885102e-07
3.7939847e-06 1.0049862e-06 5.0737725e-09 1.4161665e-06 6.237258e-07 2.127037e-06 1.871776e-07 1.6340218e-07
3.2661167e-06 4.7772323e-07 4.814167e-09 6.1657744e-07 1.7532194e-06 6.406003e-07 1.540518e-07 2.5497462e-07
4.1839508e-07 1.4776863e-07 1.0509845e-06 2.4059502e-06 4.239848e-06 6.7343086e-07 2.3378275e-06 1.5985802e-06
6.4905214e-07 6.141439e-08 2.8991142e-06 6.373339e-07 1.8187311e-06 9.0662945e-07 1.1982204e-06 1.3320651e-07
1.8183714e-08 3.806598e-06 1.357256e-07 9.3911603e-07 1.7527946e-06 5.8956994e-07 2.934e-07 2.9773796e-06
2.7792155e-06 3.5509916e-07 1.2094481e-06 1.0349062e-07 1.0030762e-06 2.1705828e-06 1.0687825e-06 5.1132133e-07
6.9447554e-09 4.493971e-07 1.7682648e-06 2.8133113e-06 2.1178598e-06 1.7419757e-06 8.8343506e-07 1.2317269e-06
8.978042e-07 2.290878e-06 3.772299e-08 1.489069e-06 1.4649183e-06 5.7102835e-07 3.6862302e-06 1.963926e-06
8.5707406e-08 3.0992792e-06 1.5447127e-06 7.560613e-07 1.4659583e-06 2.7558692e-06 2.0792838e-06 1.2757421e-06
1.1415643e-07 8.85796e-07 2.1254095e-06 5.2389476e-07 1.9457011e-06 3.2804953e-06 2.4047338e-06 1.0648338e-07
1.6222856e-06 5.2595266e-07 8.0616087e-07 1.4026723e-06 2.3798048e-06 1.2248809e-06 5.0950547e-07 1.0231932e-06
1.8483493e-06 1.458292e-06 1.6120764e-06 9.0775126e-07 5.6187406e-07 1.6198735e-06 3.441682e-06 4.6240253e-08
1.1540461e-06 3.7561531e-07 3.6460773e-07 2.847678e-07 6.026057e-07 3.314896e-06 1.509951e-06 2.0430427e-06
00000000: a471 0b36 a8c1 2c35 9d6c 0036 c0d2 4536
00000010: 8b33 db33 aa9c ae34 eaf6 9c34 5fe2 fe33
00000020: 14db 9d35 1073 0c32 1243 fa35 5c48 3336
00000030: 6d37 4835 9029 3135 7c4b 0735 03f5 e834
00000040: e661 5936 636b 8236 b06c dc32 acff 1936
00000050: cf20 5934 d2dd 7035 5418 0136 6f3b 8034
00000060: 299c 7e36 10e3 8635 6055 ae31 1c13 be35
00000070: 1c6e 2735 38be 0e36 fdfa 4834 a673 2f34
00000080: 752f 5b36 e43c 0035 dc69 a531 e182 2535
00000090: 2950 eb35 b8f5 2b35 7069 2534 72e3 8834
000000a0: c89f e034 55aa 1e34 8d0f 8d35 e975 2136
000000b0: 0444 8e36 d1c5 3435 92e3 1c36 cc8e d635
000000c0: 863a 2e35 ebe2 8333 678e 4236 4115 2b35
000000d0: 201b f435 1a5f 7335 8ad2 a035 8707 0f34
000000e0: 6932 9c32 db74 7f36 f8bb 1134 9017 7c35
000000f0: 9041 eb35 f042 1e35 9784 9d34 fece 4736
00000100: 8f82 3a36 75a4 be34 5254 a235 923e de33
00000110: 70a1 8635 54aa 1136 1673 8f35 bc41 0935
00000120: b79e ee31 ab44 f134 1e55 ed35 52cc 3c36
00000130: 8e20 0e36 d4cd e935 3225 6d35 d051 a535
00000140: a300 7135 fcbc 1936 de04 2233 05dc c735
00000150: 369e c435 c548 1935 f460 7736 fecb 0336
00000160: 250e b833 36fd 4f36 ed53 cf35 23f4 4a35
00000170: f2c1 c435 79f1 3836 d389 0b36 2a3a ab35
00000180: 2926 f533 70c7 6d35 42a2 0e36 c6a1 0c35
00000190: e492 0236 7b26 5c36 0361 2136 dbab e433
000001a0: 4fbd d935 312f 0d35 f466 5835 7443 bc35
000001b0: bcb4 1f36 9666 a435 f3c4 0835 a754 8935
000001c0: cc14 f835 88ba c335 865e d835 31ac 7335
000001d0: b1d3 1635 6e6a d935 a6f7 6636 b299 4633
000001e0: b9e4 9a35 2da8 c934 4ebf c334 30e2 9834
000001f0: c0c2 2135 7b75 5e36 85a9 ca35 351b 0936
