results/ofclrun2/TestAgent1/TestAgent1-999969.onnx (onnx, 111077 bytes, 6 tensors)

network_body._body_endoder.seq_layers.0.weight f4 [128, 39]
00000000: a275 5a3e 46bc 363d 21bc 0f3e 1896 81be
00000010: c679 f2bd 81c5 f13d cc37 60be b6b8 b83d
00000020: 24d0 36be 0cc7 f93b 58b8 45be 066c 2ebe
00000030: 11bc d03b ac42 98be 9028 d73d 1973 16be
00000040: ffb9 a13d 2fdc 223e 9d74 a43e e34f d23d
00000050: 3afb 0abf fe12 ef3d 4428 813e 5c2b 05be
00000060: 2adf e3bd e910 90bc 060c ecbc f364 d5bc
00000070: 9cac 4ebe 9199 863d 5bf6 c13c 4caa abbd
00000080: dc68 dbbd 4155 85be db5c 5d3d df42 e3bd
00000090: b4c6 a73e 8836 f4bd 7001 63bd d2be ae3d
000000a0: b44c 31be 041f b53e f9f3 3f3d e0e2 de3d
000000b0: 512d 903d 124f 093e ac73 df3d 6cad b4bd
000000c0: a6e7 62bd ca03 fcbc 7fd4 9e3e f5ce 2a3e
000000d0: ee11 46be bd90 993d 9d34 2f3c c54e 283e
000000e0: 2142 2cbd 9a29 abbd 9640 b3bd 7d12 d9bc
000000f0: 5812 683e c991 6cbc 9f02 abbe d7ee 0fbe
00000100: 6b1a 6b3e 0334 c9be 9e5f 80be 7ddf ccbe
00000110: 688c c4bb 6f63 5dbc cc64 71bc 87f6 efbd
00000120: 37e0 50be ba52 173e 7061 51be a146 b5bd
00000130: 2341 f2bd a8ae 343d f04b 1c3c 4311 5cbd
00000140: bbe4 583e 6def 023e 5e2f 3ebe 57b1 eabd
00000150: 641d 8a3d c319 9d3d 2a45 95be 9a35 763c
00000160: cf2f 36be 5315 31bb 00f5 333e b5f8 52bd
00000170: e836 233d 44d9 f1bb 1cd2 643e 10e5 1f3e
00000180: 1644 133d 927e 34bd 3866 37be 5f1f b4bc
00000190: 9376 9d3e 30f2 2fbd 17e3 8f3c f453 06bd
000001a0: a198 8d3e 6060 69be 9f0c dfba 523e 9c3d
000001b0: c265 1a3d d630 e7bd b268 8bbd 25a4 033e
000001c0: 420f a6be 3936 95bd 177f c43d d5be 45be
000001d0: cc7c 2abe b5cc 3a3e 100d 343e 9576 b7bd
000001e0: 505d 813e 6a3d 69be 7d49 1b3d 70e2 7fba
000001f0: bade b3be be0a 78bd 66f4 bebd 3577 2ebe
00000200: 92e6 653e face 1bbd 9948 15bd 0a72 ad3d
00000210: c0ac 8f3d a757 4d3d 55ce 84bd 8749 e23d
00000220: 7216 f6bd f1e3 67bc 4fe7 833e e68b f33d
00000230: 92cb a1bc 3049 523e 29a5 043e b5e4 18be
00000240: 2862 29be 75f2 6a3e e9cf cdbd dba1 0ebe
00000250: 0093 113c 79d5 fb3d 4cb9 20be 5de2 1fbe
00000260: 22af f0bd 6a52 273e 4d87 debc 4b83 b23d
00000270: 5ca2 0dbd dc80 a9bd 486b 1fbd c4af 813e
00000280: 3c6d 57bd 3d9c 383e 2f02 5dbe 59fa 2a3e
00000290: 0988 38bc 49b6 003e 3f67 e33c bd92 02bd
000002a0: 2e9c cbbb 6863 4c3e 7192 01bd bb23 153e
000002b0: d583 073d 5971 c7bd 2a8d 763e 9869 8abe
000002c0: bcee 513e 27c7 9bbc 70a9 9d3e 0083 cfbd
000002d0: 77d6 ac3b 1557 7bbc c7dc c8bd 3219 b23d
000002e0: 9877 223e 7495 623d e68a 153c ae3a dd3e
000002f0: 0560 883a 2762 223d 7800 bebd 88fe 903d
00000300: 5bff 133e a863 403e 6b41 39be e0e0 90be
00000310: 3dab 11bd df59 403e 1154 fdbd d25a 903d
00000320: 762f 3fba 00f6 c43c ed3b 733b 9a7c 293d
00000330: 1834 a13e f5d8 5cbc 2189 31be f84a d1bc
00000340: 2ac0 f8bd f7e7 fa3c a8ab 753d 6f94 9ebd
00000350: 7ac5 943e e8bb 8f3d 3cc6 273c d19f 773e
00000360: aade 023d a776 68bd 2372 53be 609f dabd
00000370: 18c7 02be 6f7a b6be 46c9 d43d 4d8c 39bd
00000380: 84a9 3c3e 19ea b03e 472a 42bc 968c 7dbd
00000390: 5185 c9bd 33a5 783e 73e4 3c3e 2fb7 93be
000003a0: bef7 2d3e 9224 61be 0243 00bd f932 463e
000003b0: d647 aa3d b907 3cbe 94a2 f63d 77f7 2d3e
000003c0: 9f0c 2b3e a704 e43d a87b 41be f8a7 6cbd
000003d0: da5b aa3e 950f 4d3e a12a 64be 53ba bebe
000003e0: 3dcd 5c3d eb8a 243e 4246 533d 7c8e 73bd
000003f0: 22d7 ad3e 5760 0cbe 7399 59bc d5af 18bd
0.21333936 0.044613145 0.14036609 -0.25309825 -0.11839633 0.11805249 -0.21896285 0.09019606
-0.17852837 0.007622605 -0.19308603 -0.17033395 0.0063700755 -0.29738367 0.105057836 -0.14692344
0.07896804 0.15904306 0.3212022 0.102691434 -0.5428959 0.11673544 0.25226033 -0.13004822
-0.111265495 -0.017586188 -0.028814327 -0.026049113 -0.20183033 0.06572259 0.023677042 -0.08382091
-0.1071336 -0.26041606 0.054043632 -0.11096739 0.32768786 -0.119244635 -0.055421293 0.0853249
-0.17314416 0.35375226 0.04686353 0.10883117 0.070398934 0.13409069 0.109107345 -0.0882214
-0.0553967 -0.030763526 0.31021497 0.1668051 -0.19342777 0.0749831 0.010693696 0.16436298
-0.042055253 -0.08357544 -0.08752553 -0.026498074 0.22663248 -0.014439055 -0.33400437 -0.14055954
0.22959296 -0.39297494 -0.2507295 -0.40014258 -0.005998183 -0.013512476 -0.0147335045 -0.11716943
-0.20398031 0.14777651 -0.20447326 -0.08851362 -0.1182883 0.044111878 0.009539589 -0.0537274
0.21181004 0.12786646 -0.18572757 -0.11459606 0.06743887 0.07670929 -0.2915433 0.015027428
-0.17791675 -0.0027020767 0.17573929 -0.051506717 0.039847285 -0.0073806364 0.22345775 0.15614724
0.035953604 -0.04406602 -0.17910087 -0.021987615 0.30754527 -0.042955577 0.01756434 -0.032794908
0.2765551 -0.2279067 -0.0017017311 0.07629074 0.0376947 -0.112886116 -0.068070784 0.12855585
-0.32433516 -0.07285733 0.09594553 -0.19311078 -0.16649169 0.18242152 0.17583108 -0.089581646
0.25266504 -0.22777334 0.03791188 -0.000976122 -0.35130864 -0.06055712 -0.09323959 -0.17037661
0.22451237 -0.038039185 -0.036446188 0.08469017 0.07015371 0.05013242 -0.06484667 0.110491805
-0.12016 -0.014153467 0.25762412 0.11891918 -0.01975039 0.20535731 0.12953629 -0.14930995
-0.1654135 0.22944053 -0.10049421 -0.1392893 0.008885145 0.12296576 -0.15695685 -0.15613694
-0.11752154 0.16340032 -0.027164126 0.087164484 -0.034578666 -0.08276531 -0.03892067 0.2532941
-0.05259441 0.1802835 -0.21582864 0.16697063 -0.011262902 0.12569536 0.027759193 -0.03187822
-0.0062136864 0.19959795 -0.031633798 0.14564411 0.03308471 -0.09738416 0.24077287 -0.27033687
0.20501226 -0.019015862 0.30793333 -0.10132408 0.0052745896 -0.015340586 -0.09807735 0.08696212
0.15865934 0.05531831 0.009127354 0.43208832 0.0010404593 0.039644387 -0.09277433 0.07079798
0.14452879 0.18788016 -0.18091361 -0.28296566 -0.035563696 0.18784283 -0.1236955 0.070485726
-0.0007293144 0.024043083 0.0037114576 0.041378595 0.31485057 -0.013479461 -0.17337467 -0.025548443
-0.121460274 0.030628188 0.059978157 -0.07743155 0.29056913 0.07018262 0.010240134 0.24182059
0.03195063 -0.05675378 -0.20649008 -0.106749296 -0.1277126 -0.35640284 0.10389952 -0.045299817
0.1842404 0.34553602 -0.0118509 -0.06190165 -0.09839881 0.24281769 0.18446521 -0.28850695
0.16989037 -0.21986607 -0.031313904 0.19355382 0.08314483 -0.18362321 0.12042728 0.16988932
0.16704033 0.111337 -0.18894827 -0.057777375 0.33273202 0.20025475 -0.22281887 -0.3725153
0.053906668 0.16068618 0.051580675 -0.059462056 0.33953196 -0.13708626 -0.013281214 -0.03727706

network_body._body_endoder.seq_layers.0.bias f4 [128]
00000000: 61dd e9bb 0700 8c3c 1d9e 893d e3d0 ff3c
00000010: 7935 8f3c c8f5 413c c4b0 693d 339a 27ba
00000020: 9879 c13b 2a67 f7ba b092 d03d 57ca 403d
00000030: 2caf 023d b226 903c fa2d 4ebc ed7f 1f3d
00000040: 3ac8 74bd 11c6 ca3d 3ce4 46bb 6d4e c13c
00000050: 9330 9abc 1a65 ea3c 47b6 553d 27d3 9b3c
00000060: f6a0 2e3c d160 293d e959 b23d 736a 1dbd
00000070: bc66 79bd 81b9 1cbd 3c60 3d3d 5a2c 85bc
00000080: b9f6 9e3c d7a3 743d 21e5 58bd dc6e 0cbd
00000090: 77d2 5fbd 724c a03d 20ed a23d 484c 1fbd
000000a0: 4965 b03b b09d a2bc db92 26bc 05c5 e8bc
000000b0: 770e 893d b74e 56bd 868c 903d ed0b 833d
000000c0: 0189 cb3c e7eb 513d 84f7 a13c 4863 5e3c
000000d0: 1d11 55bd 44b6 a83c 1fac a73d 0ec0 213c
000000e0: 4d97 a4bc 0e84 983d db5e 9b3b 210b 213d
000000f0: d320 e83c ee36 bb3d 6dad 173d 3440 423d
00000100: bb5d bdbc 87a1 9e3d 0798 933d 0e3c 29bd
00000110: dba7 ac3d d5be 1cbd 0183 833d 7349 d63c
00000120: 01fc 38bd d136 a23c b800 67bd 4df9 d03b
00000130: 05f5 d1bb bb00 b7bc 5e76 433d 0c5e 0fbd
00000140: 1723 0d3d a2a4 263c 7ef0 29bc c557 94bd
00000150: febd 8d3d 3f09 0b3d bcfd 33bc fd5e 75bd
00000160: ac0c fdbc f72a 953d 2c61 883d 475a 05bd
00000170: 14fc ab3d 41d9 8a3c a418 5c3d e004 25bc
00000180: a22a 1b3d 664f a23d a10b 993c 8e0c cb3c
00000190: 1035 e43c 493f 20bc e672 fd3c e16c 4d3a
000001a0: 4846 6d3d 9b90 e6bb b78a 573d ba0b b5bc
000001b0: 326c e53c c321 9f3c 49f8 8d3d 6bbf 6f3d
000001c0: 3114 c8bc 2ab7 4f3d a64e a3bc abea 51bc
000001d0: d174 233c 2d0c 8d3d 44df fabc 8ede c1bc
000001e0: c2bd 1f3d 8a28 673d 35aa 6c3d 1226 6abc
000001f0: 9c47 333d 5f9c ca3d 6915 8e3d b0e3 863d
-0.007136986 0.017089857 0.06719611 0.031227535 0.017481552 0.011838384 0.057053342 -0.0006393522
0.0059043877 -0.001887535 0.101842284 0.047067966 0.03190534 0.017596576 -0.012584204 0.03894036
-0.059761263 0.099010594 -0.003034844 0.023596967 -0.01882199 0.028612662 0.052175786 0.019021584
0.010658493 0.041352097 0.08708555 -0.038431596 -0.06088899 -0.038262848 0.046234354 -0.0162565
0.019404756 0.059726562 -0.05295289 -0.03428541 -0.054644074 0.07827081 0.07955384 -0.038891107
0.005383168 -0.019850582 -0.010166849 -0.028414259 0.06692212 -0.052321162 0.07058053 0.06398759
0.024845602 0.051250365 0.019771345 0.013573475 -0.052018274 0.020594724 0.08187126 0.00987245
-0.020091677 0.074470624 0.0047415323 0.039317254 0.028335964 0.091413364 0.037030626 0.04742451
-0.023115983 0.07745653 0.07206731 -0.04131704 0.084304534 -0.03826793 0.064214714 0.02615807
-0.045162205 0.01980153 -0.05639717 0.006377375 -0.0064073824 -0.022339216 0.047720306 -0.0350018
0.034457292 0.010171087 -0.010372279 -0.07243303 0.06921004 0.033944365 -0.010985788 -0.05990504
-0.030889831 0.072835855 0.06659159 -0.0325568 0.083976895 0.016949298 0.053734437 -0.010071963
0.037882455 0.079253 0.018682303 0.02478626 0.027857333 -0.009780713 0.030938577 0.00078363536
0.057928354 -0.0070362813 0.052622523 -0.022100318 0.028005693 0.019425279 0.06932122 0.05853216
-0.02442369 0.05071179 -0.019934963 -0.012812297 0.009976582 0.06887088 -0.03062404 -0.023665693
0.038999327 0.056435145 0.05777951 -0.014291303 0.043769464 0.09893107 0.069376774 0.06586397

network_body._body_endoder.seq_layers.2.weight f4 [128, 128]
00000000: f87d f53c b48b d6bd 19e3 da3d 05bc 363c
00000010: 449a f83d 5129 00bd 6c0d 5bbb a097 963d
00000020: 53ce 26be dd4b d3bd 27dc 56ba cb8f df3d
00000030: 089e 8f3d 601e a13d d485 533d 95be 923d
00000040: 5812 013d 3ede 9e3d a02d 863d 5872 20bd
00000050: 3351 b9bd f220 ccbb 4439 42be d9a6 ebbc
00000060: 1360 0f3e 2bb6 863b 5bcc 7c3c 454b e73d
00000070: 793f 583d 9b1a 0bbd b3ae 05be 2872 f2bd
00000080: 127e 77bd 0e68 0cbd 4a52 b43d 0f4d 0bbe
00000090: acc4 273d 2a4f c93c 33bc b8bd 5310 4b3c
000000a0: 1a9c 6dbd e37a 393e 55fc f1bc ea49 0bbd
000000b0: cc9e 693d 1d8e 10bd d7f3 0bbe c613 d7bd
000000c0: 6a60 0f3e f28c e63c 71a8 a13b 0d3f fbbc
000000d0: 4825 57bc 8c94 5fbd 1777 8fbc 6378 323d
000000e0: fe3a df3d a681 c0bd ebb8 603d 39b3 21bd
000000f0: 6740 02be b124 62be 8d2a 9f3d 8bb8 52be
00000100: 7cc7 ce3d 2897 0c3c 18ac b4bd fc9f 44bd
00000110: b643 803d b96a bdbc cb69 d33d 503d 06be
00000120: f40d c6bd a19d 863d 6a45 d03d 7441 023e
00000130: e2b9 043d cf26 4cbd b973 ff3c d0e2 91bc
00000140: fedb d1bc f8a3 7ebe 8ff2 05bd 1e9f 6d3c
00000150: b6d8 e93d 290d 2d3e 2048 473d a292 333c
00000160: 3a9c 433e 18e4 d7bc d826 883b 449c 11bd
00000170: 60c2 133d d2c0 f33d 5644 90bd d928 55bd
00000180: 751f 6f3e 6708 943c b152 e63d 8ef7 48bd
00000190: 616a aabc ded3 63be 3f32 7c3d 312a 723d
000001a0: 5626 863d 9b3e 6bbd a8e7 17be 2d99 ffbc
000001b0: 7f09 9c3c d9cd 773e 2005 9ebd b1b0 e7bd
000001c0: 1f9b 47bd e56e a13d 0350 7ebd 8062 2f3c
000001d0: 7a7b 8abc 9ec0 18be f4c7 6abd 88ea 5cbd
000001e0: a16b 013d 3e28 26be d7c7 9a3d 5800 01bd
000001f0: c312 b3bd 39f5 56bb 65fe 5e3d 283c 0bbd
00000200: 2583 bebc 6f32 533c 08a4 cd3d 0c2b 2e3e
00000210: 28bc a33d 8406 13be e5b9 883c 6851 76bd
00000220: da78 023c 21d2 1d3d 22af 0f3e 297e b3bd
00000230: fa4b 683e 372c 2dbc 976a 70bd f23b 873e
00000240: 4629 36bd 856b 033e d484 1b3d 443b 0bbd
00000250: 75e1 9ebd 9ac3 1a3e 0a26 5e3d e1a2 b73b
00000260: abd6 89bd 62fb f7bc c1f9 053d f17a f1bc
00000270: a906 d4bd e4e6 163c 6df2 a63b 6b19 e0bd
00000280: e4f3 f03c 9756 913d 0eb7 b4bd 83ac bbbd
00000290: e8a0 503e b240 e83c 5b1c a4bd fc7c c63d
000002a0: 5bbf e7bd 09c9 d0bc 8540 943d 1bce c43c
000002b0: a3f0 e2bd 5da1 363d e294 11bb 1dcf edbd
000002c0: 6bf1 c1bc af06 74bc 4188 debc d062 f33c
000002d0: fa25 263e 61fd cc3c 930c 8d3c 49e3 033e
000002e0: 43ce 35be ea3e 893d 5557 273c 4ccf babc
000002f0: dd2f ed3d 503e 88bd 49e3 d63d 7c90 7e3d
00000300: 872c b5bc e328 0dbd 0d0a 9c3d d1b1 113e
00000310: 0880 973d a448 053d 73e2 f2bc a000 763d
00000320: 50bc 7bbc d420 fd3d 001c 28bd 79b8 1dbe
00000330: 5694 93bd 8e2a 97bc 12b2 c93d 7a52 863e
00000340: b0b6 70bd 985e 413d 3b36 00bd 02db 81be
00000350: f0c6 6f3c 8971 23bd a6cb 283d f48c 053d
00000360: 6199 da3d 94d7 1abe e69e ec3d 8d72 0bbe
00000370: 3e90 073d abf0 123c 4ae3 a53d 8670 593e
00000380: d236 53bd df65 c5bc 52f3 0abe c12d b23c
00000390: 3a97 2ebd b630 1abe 9135 d03c 925f e6bc
000003a0: cda0 d4bc 4c20 08bd a6c6 e6bc 2264 133e
000003b0: 1485 d03d 2188 0c3e e894 873d 14f8 d6bd
000003c0: 468c c63d dd3c c9bd e7a5 413b 6d44 d3bd
000003d0: acc4 b6bd 5535 023e b7e2 0f3d ce71 8a3d
000003e0: c910 273e 0707 ccbd 1175 abbd 8600 053d
000003f0: ab71 87bd aac1 ef3c 8a97 3e3e bccc 16bd
0.029967293 -0.10475865 0.10687847 0.011153226 0.12138799 -0.031289402 -0.0033424748 0.07353139
-0.16289644 -0.10317204 -0.00081962574 0.10916098 0.07012564 0.07867122 0.0516413 0.07165257
0.031511635 0.07757233 0.06551671 -0.039171547 -0.09048691 -0.0062295133 -0.18967158 -0.028766083
0.14001493 0.0041110716 0.0154295815 0.112936534 0.052794907 -0.03396092 -0.13054924 -0.1183818
-0.060422964 -0.03427892 0.08804758 -0.13603614 0.040959045 0.024573881 -0.09020271 0.012394029
-0.0580102 0.18113284 -0.029539267 -0.034006037 0.057036206 -0.03529178 -0.13667236 -0.10501818
0.14001623 0.02814338 0.00493341 -0.030669713 -0.013131447 -0.054585025 -0.017512841 0.04357184
0.10899924 -0.093997285 0.05486385 -0.03947756 -0.1271988 -0.22084309 0.07771788 -0.2057821
0.100966424 0.00858096 -0.08821887 -0.048004135 0.06262915 -0.023122178 0.10322913 -0.13109326
-0.0967063 0.06573034 0.1016949 0.12720281 0.032403834 -0.0498417 0.03118311 -0.017808348
-0.025617596 -0.24867237 -0.032702025 0.0145032685 0.114182875 0.16899551 0.048652768 0.010960253
0.19102564 -0.02635388 0.004155021 -0.035549417 0.036074042 0.11902012 -0.07044284 -0.05204091
0.23351844 0.018070413 0.11246241 -0.04906421 -0.020802679 -0.2224879 0.061571356 0.059122268
0.06550281 -0.057432752 -0.14834464 -0.03120097 0.019047497 0.24199618 -0.07715821 -0.11312998
-0.04873192 0.078824796 -0.062088024 0.010704637 -0.016904581 -0.14917228 -0.057319596 -0.053934604
0.031596784 -0.16226289 0.07557648 -0.03149447 -0.08743813 -0.0032799973 0.05444183 -0.033992916
-0.023255894 0.012890442 0.10041052 0.17008609 0.07994872 -0.14357954 0.016690204 -0.06013623
0.007963384 0.038530473 0.14031652 -0.087642975 0.22685233 -0.010569624 -0.058695402 0.26412922
-0.044472955 0.12833984 0.03796847 -0.033992067 -0.07757846 0.15113679 0.054235496 0.0056041335
-0.06730398 -0.030271236 0.032708887 -0.029477568 -0.10352833 0.009210322 0.0050948174 -0.10942348
0.029413171 0.07096594 -0.088239774 -0.091637634 0.20373881 0.028351162 -0.08013221 0.09691808
-0.11315795 -0.025486486 0.072388686 0.02402406 -0.11081054 0.04458748 -0.0022213985 -0.11611769
-0.023674687 -0.014894172 -0.02716458 0.029710203 0.16225424 0.025023164 0.01721791 0.12879671
-0.17754464 0.06701453 0.010213693 -0.022803925 0.11581395 -0.0665251 0.1049257 0.06214951
-0.022115959 -0.03446282 0.076191045 0.14227988 0.07397467 0.03253998 -0.029648995 0.06005919
-0.015364721 0.12359777 -0.041042328 -0.15402402 -0.07206027 -0.018452909 0.09848417 0.262348
-0.058767974 0.047209352 -0.03130172 -0.25362402 0.014634833 -0.039903197 0.04120984 0.032605127
0.10673786 -0.15121299 0.11553745 -0.13617916 0.033096544 0.0089685125 0.080999926 0.2123433
-0.051565953 -0.024096427 -0.13569382 0.021750333 -0.04262469 -0.15057644 0.025416167 -0.028121743
-0.025955582 -0.033233926 -0.028170895 0.14393666 0.10181633 0.13723804 0.066201985 -0.10496536
0.09694724 -0.09826062 0.0029548348 -0.103157856 -0.08924231 0.12715657 0.03512832 0.06759988
0.16314997 -0.09962278 -0.08371938 0.032471202 -0.06613477 0.02926715 0.18612495 -0.036816344

network_body._body_endoder.seq_layers.2.bias f4 [128]
00000000: f464 11bd 6df8 aa3c 65c0 abbc 3440 16bd
00000010: d423 903b 39cc febb 67da 5abc 5d07 2dbd
00000020: aa37 01bd 942e 603d e0ef d73c 0833 953b
00000030: 54a2 01bd 839e c23c 0d35 2ebd 6320 86bc
00000040: 28fd e93b a225 85bc 5da0 5c3c b120 60bd
00000050: aec5 7ebc 2799 87bb d0cc 4f3b 68a7 bbbc
00000060: bc0c 973d ff01 df3c 3c26 6e3b d50b 0d3d
00000070: 766e 0d3c f7a0 503d 8081 e2bc 9458 023d
00000080: 9d6b a9bb adbc 8d3d 741e 3c3d e1ca 9c3d
00000090: 0179 edbc bde8 a53c f568 64bc 4800 1abc
000000a0: 4018 7b3b c90f af3c 5829 cd3a a822 3d3d
000000b0: 48ee f63c d0f2 f0bc 499e b1bd 298b 8abd
000000c0: a7c7 873d ddff bc3c 2978 253c f363 1b3d
000000d0: 8739 65bb 03af 3b3c b125 933d 816e a53c
000000e0: 3d95 993a 6ab8 08bd 88c9 6fbd 0327 4ebc
000000f0: 0e2c 3abc 14c8 a1bc 1e07 733c 744f 243d
00000100: 2bda a3bc 7e6b e8bb b2c2 7b3d fce1 593d
00000110: b23f 683d fd09 4d3d 7266 20bd e68a 513d
00000120: 623d 903d 71d7 d13a c6ab d3bc 193a a1bc
00000130: 0637 07bb d5bf f93c 4ed0 763c 23d3 4dbd
00000140: a427 873d 637c cabc 5408 8d3d 5378 083a
00000150: 2713 dc3c c4d0 733d 53f0 1ebd 4c8a 053d
00000160: 5237 313d d163 adbd fa33 aa3c d375 d43c
00000170: aa7f 323d 8c79 f23c 9cfa 863d 5806 88bd
00000180: 0ed5 503d cf4b 4d3c ff21 b43c ebba 5c38
00000190: 6979 d23c d25a 8cbd 2e8e 2e3d 6020 eb3c
000001a0: 4d03 783d c902 a53d 65cc 8dbd 3f4f 1d3a
000001b0: b75b 683d b8c3 613c 0808 17bd 5bfd bebb
000001c0: ea81 d43c 03ca d63c 5ac7 65bd df95 64bc
000001d0: 7b35 013d 7d62 7e3d 3e91 623d b354 6dba
000001e0: a4a1 0c3d 5ce3 7abd 0535 8f3d 3644 aabc
000001f0: 93bc 273d 7482 6fbc 18da ebbc 3a41 57bd
-0.035496667 0.020870412 -0.020965764 -0.036682323 0.0043988023 -0.00777581 -0.013357735 -0.04224335
-0.031547226 0.05473192 0.026359499 0.0045532025 -0.03164895 0.023757225 -0.042531062 -0.016372865
0.0071407743 -0.016253296 0.013465968 -0.054718677 -0.01555006 -0.00413813 0.003170777 -0.022906974
0.07375476 0.027222631 0.0036338707 0.034435112 0.008632293 0.050934758 -0.027649641 0.031822756
-0.005170299 0.06920753 0.04592748 0.076558836 -0.028988363 0.02025258 -0.013941039 -0.009399481
0.0038314015 0.021369832 0.001565258 0.04617563 0.030142918 -0.029412657 -0.086727686 -0.06764824
0.066298775 0.023071224 0.010099449 0.037937116 -0.0034976916 0.0114553 0.071849234 0.020194294
0.001171745 -0.033378996 -0.058541805 -0.012582543 -0.0113630425 -0.019748725 0.01483324 0.040114835
-0.020001492 -0.007092892 0.061464973 0.05319403 0.05670137 0.050058354 -0.0391602 0.051157854
0.07042958 0.0016009641 -0.025838744 -0.019681023 -0.0020632162 0.03048698 0.015064312 -0.050250184
0.06599358 -0.024717515 0.06886354 0.0005205918 0.026864601 0.059525266 -0.03880341 0.032602593
0.04326565 -0.08466304 0.020776737 0.02593509 0.04357878 0.029598974 0.06590769 -0.06641835
0.050984435 0.012530281 0.021988867 5.262617e-05 0.025692658 -0.0685326 0.042616062 0.028701961
0.060550023 0.08057172 -0.06923751 0.00060008833 0.05672809 0.013779573 -0.036872894 -0.005828542
0.025940854 0.026219374 -0.05609832 -0.013951748 0.031545144 0.062105644 0.055314295 -0.00090534537
0.03433384 -0.061251983 0.069925345 -0.020784479 0.040951323 -0.014618505 -0.028790519 -0.05255244

action_model._discrete_distribution.branches.0.weight f4 [38, 128]
00000000: a2d3 c73c e2a2 9fbc ae63 3e3d 27eb ac3c
00000010: 6914 3cba e025 2e3d 2404 353d 28e5 01bb
00000020: 5c45 b53c da28 8a3b 6528 833a e825 753b
00000030: eb41 a9bc ff2b 19bc da3a ea3c afe7 61bc
00000040: 206b d93b 2f42 39ba 5b15 a1bb 4472 213b
00000050: c75e bc3b 4e8c 00bc 1f41 2e3c be80 6c3c
00000060: 2595 f5bc 6907 79bc 6abd 68bc e18e eebc
00000070: 98bc 0e3b a24a 2abc 3791 45bb d721 ad3c
00000080: 1608 4cbc 4453 82bc 94a1 02ba 084d cfbc
00000090: b503 103c 7819 c53c b6fb d73c 3359 183d
000000a0: c912 0cbd 7551 a5bc 2f15 d93c 8421 f13b
000000b0: 2514 d73c 94ac 2c3d 7a6d 66bb 1abc 3dbb
000000c0: 7519 edbb 55af ffbb 7365 77bb 65ff d1bc
000000d0: a4f0 083c eaad a73b 24de d9bb 806f dc3c
000000e0: e677 813c 2513 e33c d843 38bc 7ada 233c
000000f0: 32cd 3f3c 8462 f5bc 35be 13bb 90d1 be3c
00000100: aa42 023d efaf 7b3a db6f d5bc eaae 8739
00000110: a315 99bd a501 ba3c 62d9 763c 6975 533a
00000120: c410 aebc 0b30 60bc 40cd e13c 1f18 efba
00000130: 0b16 ee3c ba86 bebb 2d18 673c 5dea ecbc
00000140: 355b fcbc 6aab 93bc 5b07 813b 0124 f53c
00000150: 3965 143c 2da4 02bd 9273 b03c 5b25 fa3c
00000160: bc30 a53b 642d e33c d896 0abd 7a75 8abd
00000170: fe3c 013c eca3 a63c 810e 22bc 6344 033d
00000180: 3dd5 ef3a 22ce 32bb 96f2 94bb bcec febc
00000190: fca3 c2bc 1863 1ebc cc1d aabb a231 f43c
000001a0: b920 1b3d 3ce9 6c3c b6ce 023c 598e a33b
000001b0: 8a9b 803b 33d3 dbbc 9c00 cd3c 704a e7bc
000001c0: 9fc3 dd3b 45ba a8bc 8261 f33c b8b5 74bc
000001d0: fb89 31bd b1ef a63c 81b1 413c 1e7b 5ebd
000001e0: 5828 303c 0369 253d cd1d 70bc 7289 85bc
000001f0: 79e3 373c 80dd 4c3d cc5f 91bc 6f05 5abb
00000200: 9748 d63b c300 aabb 8991 fc3a 1caa 793c
00000210: 332d 1cbb 5e88 d73c 4cb1 91bc 32ec 49bc
00000220: db50 a03b 564d 403c c3cc 45b9 94d3 b53b
00000230: 77a8 32bc 8388 0f3b f165 03bc cdab dfbc
00000240: 8a1f fe3b b6b0 cbbc 6c1a f1b9 900c 93bc
00000250: 6dc4 1dbd 38dc 6b3c cd6e 88bc 9b77 c0bc
00000260: e343 c33b bbc1 88ba 26e1 bfbc 0989 41bc
00000270: 7f11 babc e7c9 24bc 5c1e 6b3c 6eed 863c
00000280: 1c1f 2d3b e2bc 573b b031 97b9 39b0 9b3c
00000290: 3bc8 113b a4e4 7339 1f50 193c 5d47 92bc
000002a0: a208 dabb b371 e0bc e2db 65bc 3efb c63c
000002b0: 1722 bbbc d325 813b 973c cebc 4072 21bd
000002c0: d6b8 fdbc 0bf9 633c 7faf 0dbd 726b b0b9
000002d0: d678 563c 4998 3c3d 1399 963c 2b72 aa3c
000002e0: 8551 81bc 1a9c 363c b9ff d53b d80d 05bd
000002f0: 5e3a 433c 64ae 2ebc 6c9a ec3c 68bf 193c
00000300: 460c a63c dacd 09bd ea97 d93b 51c9 ee3c
00000310: 1326 723c b4db 563d 1f4d c63b 8b21 e93c
00000320: 77a3 eabc 45bc c73c 39c7 503d d477 b0bb
00000330: 5a68 813c 6335 7abc ac81 ca3a c6db 04ba
00000340: 3832 393b eb74 fcbc a4a8 db3c 4a30 72bb
00000350: 97dd 94bc 7ffd 0d3d 0f03 8d3c 2204 8e3c
00000360: 90c4 0f3d 8fdd 823b f0d9 7f3b 00ed c6bb
00000370: e1d6 153d 5b39 2abc 4b29 b73c 996d 26bc
00000380: c052 2e3c 0ff9 333d 1ee0 23bb e56d ebbc
00000390: 38b6 74bb f6a9 74bc 6aaf 0b3c 831e 893c
000003a0: 9862 d63c abd4 d13c cf3f aa3b bf94 3ebc
000003b0: 905a 133d c8cc f7ba e18a 7ebc c1e1 ecbc
000003c0: 053f 963c 3c83 afbc f075 2f3b 03f9 bb3b
000003d0: 0099 783c c51c 1fbc e8c5 4c3c c54b d5bc
000003e0: 2fb1 333d 618e 27bc c69d 643c 1e72 50bd
000003f0: 3ca0 08bb 0ad8 753c 3934 c8bc 62f2 8fbc
0.024392907 -0.019486848 0.04648178 0.021108223 -0.0007174672 0.04251659 0.044193402 -0.0019820426
0.0221278 0.0042162957 0.0010006545 0.0037406627 -0.020661315 -0.009348868 0.028592516 -0.013788148
0.0066350847 -0.0007067052 -0.004915876 0.0024634758 0.005748603 -0.007845951 0.010635643 0.014434991
-0.029978344 -0.015199521 -0.014205316 -0.029120864 0.002177989 -0.01039377 -0.003014637 0.0211343
-0.0124531 -0.015908845 -0.00049831835 -0.025305286 0.008789946 0.024059996 0.026365142 0.037194442
-0.034197602 -0.020180443 0.026499359 0.0073587317 0.026254723 0.04215677 -0.0035160468 -0.0028951229
-0.0072357007 -0.0078028836 -0.0037749677 -0.025634477 0.008358154 0.0051171677 -0.0066487957 0.026908636
0.015804242 0.02771909 -0.011246644 0.010000819 0.011706637 -0.029954202 -0.0022543792 0.023293287
0.031801857 0.0009601106 -0.026054313 0.00025879528 -0.0747483 0.022705862 0.015066477 0.00080665067
-0.021248229 -0.013683329 0.027563691 -0.0018241442 0.029063245 -0.0058144005 0.014104885 -0.028920347
-0.03080521 -0.018026073 0.0039376444 0.029924395 0.0090573365 -0.03189485 0.021539483 0.03053539
0.00504121 0.027731605 -0.033835262 -0.06760688 0.007888077 0.020341836 -0.009891153 0.03204764
0.0018297803 -0.002728351 -0.00454552 -0.031118743 -0.023759834 -0.0096671805 -0.0051915403 0.029808823
0.037873004 0.014459904 0.007983854 0.0049913344 0.0039247917 -0.026834106 0.025024705 -0.028233737
0.0067677046 -0.020596633 0.029709581 -0.014935903 -0.04334448 0.020377966 0.011822105 -0.054316632
0.010751806 0.04038335 -0.014655543 -0.01630089 0.011223667 0.050015926 -0.017745875 -0.0033267399
0.006539415 -0.005188079 0.0019269447 0.015238311 -0.0023830652 0.026310142 -0.017784737 -0.01232438
0.004892451 0.011737188 -0.00018863664 0.0055489037 -0.010904423 0.0021901436 -0.00801991 -0.0273036
0.0077552246 -0.024864536 -0.00045986788 -0.017950326 -0.038517404 0.014395766 -0.016654396 -0.023494532
0.0059590205 -0.0010433713 -0.023422789 -0.011812457 -0.02271342 -0.010057903 0.0143505 0.016470637
0.0026416248 0.003291898 -0.00028837984 0.019004928 0.002224459 0.00023259461 0.009357481 -0.017856294
-0.006653861 -0.027397966 -0.014029475 0.024289723 -0.022843404 0.0039412766 -0.025175376 -0.039415598
-0.030971926 0.013914357 -0.034591194 -0.0003364939 0.013090333 0.046043668 0.018383538 0.020806393
-0.015785942 0.011145616 0.0065307287 -0.032483906 0.011915771 -0.010661695 0.028882228 0.009384014
0.020269524 -0.03364358 0.006640424 0.02914873 0.014779585 0.05245562 0.006051674 0.028458377
-0.0286424 0.024381766 0.050971244 -0.0053853784 0.015796829 -0.015271517 0.0015450022 -0.0005068149
0.0028258692 -0.03081747 0.026813813 -0.0036955052 -0.018172069 0.03466558 0.017213373 0.017335955
0.035099566 0.003993697 0.0039039813 -0.006070733 0.036581878 -0.010389651 0.022358557 -0.010157966
0.010639846 0.043938693 -0.002500541 -0.028738925 -0.0037340056 -0.0149331 0.008525709 0.016738182
0.02617006 0.025614103 0.005195595 -0.0116321435 0.03597504 -0.0018905634 -0.015536041 -0.028916242
0.018340597 -0.021424882 0.0026773177 0.0057364716 0.015173197 -0.009711449 0.012498356 -0.026037106
0.043870147 -0.010226817 0.013953632 -0.05089008 -0.002084746 0.015005121 -0.024438964 -0.017571632

action_model._discrete_distribution.branches.0.bias f4 [38]
00000000: 6944 d8bc 5d9a f63b 5b94 ed3b 80b8 973b
00000010: 5bff 12bd b72e 0abc 3f37 cc3c bcbd 0ebc
00000020: f398 b43c 2300 d73c d29d febc 7ca8 bb3c
00000030: 223c 5ebb 64ad 56bb fff3 0bbc 59de 71bc
00000040: 91b4 8c3c 7c8f 833a 0a32 283b 7038 6f3d
00000050: af88 9f3b b0fb 07bc e38c 5a3c 0909 74bd
00000060: b70f 9bbb c55b eb3b 0cdf 8b3c 9b94 4d3c
00000070: ba2e a93c 8266 42bd f583 47bb 3101 6a3b
00000080: 5a22 313c ae09 26bc 22c1 b5bc 3fa2 b3bc
00000090: 931a a23b 346b 93bc
-0.026399808 0.0075257258 0.0072503514 0.0046301484 -0.035888057 -0.008433989 0.024928687 -0.008712228
0.022045588 0.026245182 -0.031081114 0.022907488 -0.0033910354 -0.0032757157 -0.00854206 -0.0147624845
0.017175945 0.0010037269 0.0025664591 0.058403432 0.004868589 -0.008299753 0.013339254 -0.05957893
-0.004732098 0.0071825706 0.01707413 0.012547637 0.020652164 -0.04746104 -0.0030443643 0.0035706277
0.010811413 -0.010134144 -0.02218682 -0.02192795 0.0049470155 -0.017995454
