results/ofclrun2/TestAgent1/TestAgent1-499985.onnx (onnx, 111077 bytes, 6 tensors)

network_body._body_endoder.seq_layers.0.weight f4 [128, 39]
000000 02 c1 71 3e b1 6b eb 3c 83 1a 0a 3e 9e a6 87 be
       0.23608783 0.028737875 0.13486676 -0.26494306
000010 94 7e 03 be 71 f4 0a 3e e7 18 58 be ff e3 a6 3d
       -0.12841254 0.1356981 -0.2110325 0.081489556
000020 cd 35 45 be f1 39 29 3c 9d b8 4c be 49 cd 2a be
       -0.19258805 0.010328756 -0.199923 -0.16679873
000030 16 a2 33 bb 28 6e 98 be c7 ff da 3d 21 78 14 be
       -0.0027409843 -0.29771543 0.10693317 -0.1449895
000040 18 d8 a1 3d 94 61 1a 3e e3 18 a5 3e 79 82 c4 3d
       0.07902545 0.15076286 0.3224555 0.09595198
000050 95 2c 0b bf a7 df db 3d 60 f5 88 3e de 54 18 be
       -0.543649 0.10736018 0.26749706 -0.14876124
000060 33 19 df bd 30 5d 16 bc 3d ce b8 bc 70 25 10 bd
       -0.10893478 -0.009177491 -0.02255928 -0.035191953
000070 37 67 52 be 14 82 95 3d 02 a7 06 3d 6d 93 96 bd
       -0.20547186 0.07300201 0.032874115 -0.07352338
000080 f6 ea e8 bd d5 54 8a be 10 e9 2f 3d 8f f6 c4 bd
       -0.1137294 -0.27017847 0.042946875 -0.0961734
000090 0f c7 a8 3e eb b7 0a be 70 01 63 bd a0 3f b6 3d
       0.3296437 -0.13546722 -0.055421293 0.08898854
0000a0 96 eb 2f be 1c 11 aa 3e 4e 22 2c 3d 07 03 ca 3d
       -0.17179713 0.33216178 0.042024903 0.09863859
0000b0 5c 26 8e 3d 5b e8 ec 3d b3 eb a1 3d 78 1d a1 bd
       0.0694091 0.11567756 0.07906284 -0.07866949
0000c0 fa 85 65 bd d8 dc 63 bd 30 20 a6 3e de d0 2a 3e
       -0.056035973 -0.055630535 0.32446432 0.16681239
0000d0 ef 84 34 be 15 12 96 3d 8a 59 51 3c e4 5b 1e 3e
       -0.17628835 0.073276676 0.012777695 0.15464741
0000e0 61 0e 30 bd ee df a8 bd 13 9d ca bd 8e e2 2a bd
       -0.042982463 -0.08245836 -0.09893241 -0.041719966
0000f0 ae 0b 63 3e ed a0 14 bc 66 48 a5 be a1 b1 11 be
       0.22172424 -0.009071571 -0.32281798 -0.14227916
000100 74 30 6c 3e 69 2c d4 be d5 77 83 be 20 d2 cf be
       0.23065358 -0.41440132 -0.25677362 -0.4059
000110 a0 c6 81 bc d0 2d 9b bb 19 e3 f5 bb 35 ee fa bd
       -0.015841782 -0.004735686 -0.007503879 -0.12252466
000120 6c 48 4b be 1f 05 17 3e f0 bf 48 be 4b 20 b1 bd
       -0.19851846 0.14748047 -0.19604468 -0.086487375
000130 a7 93 e9 bd a8 ae 34 3d 98 c3 8d 3c d2 b0 8a bd
       -0.114051156 0.044111878 0.01730518 -0.06772007
000140 32 30 60 3e 94 ec f1 3d e1 22 40 be d3 d4 f3 bd
       0.21893385 0.11812702 -0.18763305 -0.119058274
000150 a2 a9 87 3d 71 c5 89 3d e2 6b 95 be d7 b5 fe 3b
       0.06624152 0.06727112 -0.2918387 0.007773142
000160 54 4f 31 be 14 be e0 bb 82 9b 35 3e 1e 8e 35 bd
       -0.17315418 -0.0068585966 0.17735103 -0.044324987
000170 af 2a 2a 3d c1 d6 c0 bc e4 ea 5d 3e 06 f6 2a 3e
       0.041544612 -0.023539903 0.21671635 0.16695413
000180 48 53 8f 3c e1 1c 4d bd 5c 12 3b be 85 10 e7 bc
       0.017495766 -0.05007637 -0.18268722 -0.02820612
000190 ed ee 9b 3e 8c fc 17 bd 12 06 8c bb 1f 95 de bc
       0.30455723 -0.03710608 -0.0042731846 -0.027170716
0001a0 85 8b 8f 3e dd 3d 5c be 73 f7 71 bc ed 42 a8 3d
       0.28036132 -0.21507974 -0.014768469 0.0821589
0001b0 80 4b f8 3c 6d c4 f3 bd b4 4f 66 bd 27 cd 05 3e
       0.030309439 -0.119026996 -0.056228355 0.1306654
0001c0 b8 8d ac be 83 c2 8b bd 32 d8 c1 3d 3c c7 43 be
       -0.33701873 -0.068242095 0.09465064 -0.1911897
0001d0 cc 7c 2a be 28 0b 3a 3e 54 ad 2a 3e 47 68 c5 bd
       -0.16649169 0.18168318 0.16667682 -0.0963903
0001e0 cd ae 79 3e f0 5d 65 be 55 8f 07 3d 34 52 ab bb
       0.24383087 -0.22399116 0.033095676 -0.0052283052
0001f0 b7 a7 b5 be 3e 15 8a bd 87 fb c1 bd 1a 00 2b be
       -0.3547952 -0.06742333 -0.09471803 -0.16699257
000200 05 8e 5e 3e 01 df e9 bc bc 1a 01 bd b6 33 91 3d
       0.21733864 -0.02854872 -0.031519637 0.07089941
000210 00 ea 72 3d 4c 7e ff 3c bb e9 36 bd b9 9d d8 3d
       0.05930519 0.031188153 -0.044656496 0.10576958
000220 c6 d5 04 be 6e c2 98 bc 5d 28 6f 3e d6 18 03 3e
       -0.12972173 -0.018647399 0.23355241 0.12802443
000230 7a 82 f2 bc ef 9c 41 3e 81 eb 0c 3e cc b4 21 be
       -0.029603232 0.18907522 0.13761713 -0.15791625
000240 c5 84 20 be 9c 26 64 3e ee 71 be bd ea b9 18 be
       -0.15675648 0.22280353 -0.09299074 -0.1491467
000250 e2 be 6f 3b 07 9e f6 3d aa 29 11 be db 07 33 be
       0.003658228 0.1204186 -0.1417605 -0.17483465
000260 6b d3 d2 bd ec ed 25 3e f8 c1 a4 bc 4b 83 b2 3d
       -0.10294231 0.16204041 -0.020112023 0.087164484
000270 e6 4b 0b bd 49 4b c0 bd ca 1f 33 bd 9d 9b 84 3e
       -0.03400793 -0.093893595 -0.04373149 0.25899974
000280 0b bf 33 bd a1 eb 16 3e 49 4b 60 be bb 33 28 3e
       -0.043883365 0.14738323 -0.21903719 0.16425984
000290 3b f0 ce bc bc 0c db 3d 46 ed 16 3d 90 f2 11 bd
       -0.025261035 0.10695788 0.036847375 -0.035631716
0002a0 ca aa 31 3c 2b 91 51 3e a6 f7 01 bd ce 07 0c 3e
       0.010843942 0.20465533 -0.031730317 0.13674852
0002b0 e1 b5 54 3d 36 9d ce bd b5 8f 5c 3e ee 62 86 be
       0.051931266 -0.10088579 0.21539195 -0.26247352
0002c0 a3 3c 4d 3e 33 b9 cf bc 84 c8 94 3e ee 8c da bd
       0.20042662 -0.025356865 0.2905923 -0.106714115
0002d0 db 03 18 bc 0a 59 47 bb f4 43 c7 bd cb 1d a1 3d
       -0.009278263 -0.0030418062 -0.09729758 0.07867011
0002e0 fc 83 2a 3e 4b 56 93 3d 8a 94 35 3c a2 f5 df 3e
       0.1665191 0.071941935 0.011082778 0.4374209
0002f0 3d 3b 2d 3b a7 3a 1c 3d a8 90 ad bd 9d e1 83 3d
       0.0026433014 0.038141873 -0.084748566 0.06439517
000300 70 4b 10 3e 27 e6 3c 3e 6b 41 39 be 15 71 8d be
       0.14091277 0.18447171 -0.18091361 -0.27625337
000310 93 db 9c bc 88 ff 27 3e 82 fd eb bd 1a 28 7e 3d
       -0.01914767 0.16406071 -0.11522962 0.062049963
000320 5a ae 41 bc db 1e 46 3c 1d 69 18 bc 5c c3 31 3d
       -0.011821354 0.012092317 -0.009302405 0.0433992
000330 4b 27 9c 3e bb 46 22 bd d3 85 21 be 85 d8 02 bd
       0.30498728 -0.039618235 -0.15773706 -0.03194477
000340 eb cd d1 bd 20 fc 1c 3d ff d2 81 3d 1b 56 8d bd
       -0.10244354 0.038326383 0.063390724 -0.06901189
000350 94 8f 8e 3e ff 86 83 3d 5d 02 59 3c 62 ff 61 3e
       0.27843916 0.06422233 0.013245192 0.22070077
000360 d3 c1 25 3d bd ce 6a bd e5 6d 4d be ab 41 c3 bd
       0.04046805 -0.057326067 -0.20061453 -0.095340095
000370 08 83 11 be b5 ca ba be 2d 68 a2 3d b8 cd b9 bc
       -0.1421014 -0.36482778 0.07930026 -0.022681102
000380 b4 54 3c 3e a3 dd b7 3e 34 3c 02 3b a0 bf 84 bd
       0.18391687 0.35911283 0.001987231 -0.06481862
000390 6a 2c b8 bd 41 75 82 3e d7 ff 35 3e c2 3a 8f be
       -0.08992846 0.25480083 0.17773376 -0.27974516
0003a0 7a b5 29 3e 92 24 61 be 66 ac 4c bc 71 17 45 3e
       0.16573134 -0.21986607 -0.012492275 0.19247223
0003b0 f7 c8 7c 3d e0 a0 39 be c3 55 ea 3d 7d 36 17 3e
       0.061715093 -0.18127775 0.11442139 0.1476688
0003c0 3d fc 27 3e db a5 d4 3d 39 ac 49 be 96 4f 97 bd
       0.16404815 0.10383197 -0.19694604 -0.07388227
0003d0 79 fe a0 3e 9f f6 54 3e 21 c8 64 be 27 82 b7 be
       0.31444147 0.20797203 -0.22341968 -0.35841486
0003e0 12 fa 59 3d d5 9c 1e 3e 36 62 81 3d 96 00 9b bd
       0.053217 0.15489514 0.063175604 -0.07568471
0003f0 cb 43 a1 3e f3 d3 07 be cc 66 d3 bc a7 e3 1d bd
       0.31497034 -0.13264446 -0.025805853 -0.038547184

network_body._body_endoder.seq_layers.0.bias f4 [128]
000000 76 a3 3a bb 24 2d 8c 3b 15 d6 41 3d 32 9e bc 3b
       -0.0028478778 0.004277842 0.047323305 0.005756163
000010 6e 37 c2 3a 51 7c f2 3b 93 e5 e0 3c 18 e6 3b ba
       0.0014817545 0.0074000736 0.02745322 -0.00071677705
000020 d2 6f 97 3b ff f4 b3 ba 30 92 93 3d c2 b1 05 3d
       0.0046214843 -0.0013729631 0.072056174 0.032640226
000030 ec 20 fb 3c c5 ce 6a 3c d6 7d 03 3b 25 34 ba 3c
       0.030655347 0.014331524 0.0020064018 0.022729943
000040 7e 74 10 bd c4 d1 8d 3d 9d be 83 bb 19 e3 9e 3c
       -0.035267346 0.06924775 -0.0040205256 0.019395398
000050 00 95 87 bc 00 2f 2c 3c 6a 82 fe 3c 22 71 6e 3c
       -0.01655054 0.010509253 0.031068046 0.01455334
000060 f9 3d 61 3c a6 7c 89 3c 69 e2 80 3d 1a c6 37 bc
       0.013747686 0.01678307 0.06293184 -0.011216665
000070 3c d6 19 bd 63 62 c1 bc bf a5 ac 3c 8b eb 1f bc
       -0.037557825 -0.023606485 0.021075128 -0.009760748
000080 5d 0f 48 3c b6 e6 18 3d 7f 38 f2 bc 23 cc 73 bc
       0.012210694 0.037329398 -0.029567955 -0.014880213
000090 1f 10 11 bd ca 17 6e 3d c7 e1 59 3d 37 9f db bc
       -0.035415765 0.058128156 0.053193834 -0.026809318
0000a0 09 cf 8a 39 49 2f 32 bc 66 31 3c bb 7a f2 aa bc
       0.00026475664 -0.0108755315 -0.0028715967 -0.020867575
0000b0 d6 8e 58 3d d5 2e 42 bd 91 85 2d 3d 48 0c 46 3d
       0.052870594 -0.047407944 0.042363707 0.048351556
0000c0 8c 92 82 3c ec 8a f0 3c 0f 75 4a 3c de 34 af 3b
       0.01593902 0.029363118 0.0123570105 0.0053468784
0000d0 8e 43 23 bd 61 1b 3a 3b 71 94 6a 3d ed d7 cf 3a
       -0.039859347 0.0028397667 0.05727047 0.0015857198
0000e0 d5 93 f0 bb 6b d0 6f 3d ee 64 54 3b ca e5 c0 3c
       -0.0073418417 0.058548372 0.0032408792 0.023547072
0000f0 0a 83 b5 3c d9 97 8a 3d 28 c0 08 3d 7f ba 69 3c
       0.02215721 0.06767244 0.03338638 0.014265656
000100 60 ac 5b bc 3a af 39 3d 10 32 61 3d b6 20 0f bd
       -0.013407797 0.045333125 0.054979384 -0.034943305
000110 0e 3b 7d 3d 44 28 9d bc 71 54 36 3d f8 cc 25 3c
       0.061823897 -0.01918424 0.044514123 0.010119669
000120 95 a1 ff bc 5c 83 bf 3c 10 90 a9 bc 30 46 27 3a
       -0.031204978 0.023378067 -0.020698577 0.0006381003
000130 42 76 09 bc 19 b3 57 bc 51 5a ae 3c 1e ad ac bc
       -0.008390011 -0.013165259 0.0212833 -0.021078642
000140 9b c6 a4 3c 89 ed cf 3b 63 13 f1 bb cf 0e 5b bd
       0.020114234 0.006345455 -0.0073570474 -0.05348092
000150 b2 2c 34 3d fc 5a a4 3c ae 8f c1 bb 29 d0 1c bd
       0.043987937 0.020062916 -0.0059070205 -0.038284454
000160 cb 59 82 bc 09 8b 45 3d 91 9f 57 3d 72 d9 ea bc
       -0.015911957 0.048228297 0.05264241 -0.02866814
000170 a7 5a 70 3d 05 a0 d1 3b 3d 46 d4 3c d3 80 2d bc
       0.058680203 0.0063972496 0.025912398 -0.010589796
000180 fe ce ef 3c 17 d4 6d 3d a1 54 5b 3c a0 36 e0 3b
       0.029273506 0.058063593 0.013386876 0.0068424493
000190 d5 c4 92 3c 84 6f b5 3b 34 7c e2 3c 0e fc 37 3c
       0.017916122 0.0055369753 0.027647115 0.011229528
0001a0 e1 86 2c 3d 77 95 df 3b 90 7d 1d 3d a2 4c a0 bc
       0.042120818 0.0068232375 0.038449824 -0.019567791
0001b0 a6 64 36 3c fb f0 8a 3c df 23 5b 3d c6 61 2a 3d
       0.011132395 0.016960612 0.053501006 0.04159715
0001c0 19 0b 9d bc e6 3d 21 3d e2 94 97 bc 1d 4b 42 bc
       -0.01917033 0.03936567 -0.01850361 -0.011858729
0001d0 7f 5c 3d bb 56 ee 5f 3d 2d 75 0a bd a8 da 62 bc
       -0.0028894243 0.054670654 -0.033803154 -0.013846077
0001e0 db 27 b3 3c ff 23 43 3d 40 f9 1d 3d 67 2a 3b bc
       0.02186959 0.04764175 0.03856778 -0.011423684
0001f0 3b ac f0 3c da a7 89 3d a9 d4 67 3d 2f 25 38 3d
       0.029379 0.06721468 0.056599293 0.044957336

network_body._body_endoder.seq_layers.2.weight f4 [128, 128]
000000 8e 21 be 3c 8d 19 cc bd 28 fe e5 3d 2e 75 17 3c
       0.02320936 -0.09965811 0.11230117 0.009244246
000010 e7 c6 f5 3d 24 f8 b5 bc 3b 41 9c 3c ae 65 da 3d
       0.12000828 -0.02221305 0.019074073 0.10663925
000020 62 b0 11 be 3d ae d9 bd 62 7c e7 3b 24 08 d2 3d
       -0.14227441 -0.106289364 0.007064388 0.10255459
000030 7b 1f b1 3d ef e9 a0 3d bd 0c 18 3d 87 1c a0 3d
       0.086485825 0.07857119 0.037121523 0.07817941
000040 26 13 c8 3c d8 3d a2 3d dd e3 7b 3d 84 2b 29 bd
       0.024423193 0.07921952 0.061496604 -0.041301265
000050 73 44 9f bd 84 5c 69 bc 26 2d 27 be 06 6e a9 bc
       -0.077767275 -0.014243249 -0.16325817 -0.020682346
000060 1a 0c 0c 3e 28 dc ba 3a 15 24 f2 3c 44 fd c2 3d
       0.13676491 0.0014256286 0.02955822 0.09520963
000070 9e 52 4c 3d a6 1e f3 bc cc c3 10 be ca 4b f1 bd
       0.049883477 -0.0296777 -0.1413719 -0.11782034
000080 89 37 5a bd 05 5d 92 bc 81 31 b9 3d 52 11 05 be
       -0.05327562 -0.01786662 0.09042645 -0.12994888
000090 24 f0 17 3d d8 39 f6 3c 57 97 ae bd 2e c8 14 3d
       0.03709425 0.030056879 -0.085249595 0.03632372
0000a0 86 ec 85 bd 32 b4 3f 3e 8b a8 31 bd 87 08 d0 bc
       -0.06539254 0.18721083 -0.043373626 -0.025394691
0000b0 b6 36 6d 3d 24 fc 24 bd c8 43 0d be 4c de cb bd
       0.057913505 -0.040279523 -0.13795388 -0.09954509
0000c0 e7 05 09 3e 8c b6 09 3d f5 e7 51 3b 2b e8 0d bd
       0.13381158 0.033621356 0.0032029126 -0.03464524
0000d0 55 3d 2d bc c2 6e 2f bd 8f 00 99 bc 1a 68 24 3d
       -0.010573705 -0.042830236 -0.018677024 0.04013834
0000e0 8c 23 f0 3d a8 af b3 bd 76 04 68 3d 1e ef 3d bd
       0.1172553 -0.08773738 0.05664488 -0.046370618
0000f0 48 a1 05 be 2a fe 49 be f4 c5 8d 3d 5e 8e 34 be
       -0.13049805 -0.19725862 0.06922522 -0.17632434
000100 96 57 d5 3d fa 6a e7 3c 5d 8c 8b bd 74 db 10 bd
       0.10417096 0.028249253 -0.068138815 -0.035365537
000110 36 f7 a8 3d 7d e8 8e bc ac 28 de 3d 9e 78 fb bd
       0.08250277 -0.017444843 0.10847601 -0.12278865
000120 39 89 bc bd 14 19 a1 3d b1 66 d8 3d 28 43 06 3e
       -0.09205861 0.078661114 0.10566462 0.13111556
000130 83 90 39 3d 5b bf 7a bd 7f db e2 3c 57 76 43 bc
       0.045303833 -0.061217647 0.027692555 -0.01193007
000140 6c cc 17 bd ad 49 75 be 11 94 11 bd f0 04 6f 3c
       -0.037060186 -0.23953886 -0.035541598 0.01458858
000150 84 99 e7 3d 88 b8 23 3e 20 76 f6 3c d7 c0 cf 3c
       0.11308578 0.15988362 0.030085623 0.025360508
000160 4c 86 39 3e 0b 35 fc bc 74 b5 35 3c 90 f8 05 bd
       0.18117636 -0.030787012 0.011090625 -0.03270775
000170 fb fd 33 3d 1d 7f e1 3d e9 3f 67 bd 1c 71 80 bd
       0.043943387 0.11010573 -0.056457434 -0.06271574
000180 15 8f 70 3e 63 80 ae 3c 63 03 ee 3d dd d6 36 bd
       0.23492081 0.021301454 0.1162174 -0.044638503
000190 57 e2 7b bc b4 1b 69 be 98 7c 62 3d a5 6d 83 3d
       -0.015373788 -0.22764474 0.055294603 0.064173974
0001a0 1c c4 71 3d f6 54 42 bd 36 2d 09 be 9e a0 1d bd
       0.059024915 -0.047444306 -0.13396153 -0.038483255
0001b0 70 b7 26 3d 5c dc 63 3e 0e 1f 7b bd d2 1d e9 bd
       0.040702283 0.22252029 -0.061308913 -0.11382641
0001c0 a6 49 63 bd ef ac 8d 3d 10 27 7f bd 06 8d 3c bb
       -0.05549016 0.0691775 -0.062293112 -0.002877058
0001d0 13 08 51 bc d8 ca 29 be ca f9 3b bd 71 f6 84 bd
       -0.012758273 -0.16581285 -0.045892514 -0.064923175
0001e0 e1 c3 4a 3d aa bc 1b be 8a 47 a5 3d f4 5a cd bc
       0.04950321 -0.15208688 0.080702856 -0.025067784
0001f0 2d d5 99 bd 17 5a 73 3c 12 01 58 3d 36 cf b8 bc
       -0.07511363 0.014853022 0.052735396 -0.022559743
000200 6e 74 05 bd f1 5c d2 3c 1d 5d be 3d a1 5d 1a 3e
       -0.03258174 0.025679084 0.09295104 0.15074779
000210 22 f1 9f 3d 11 7d 13 be ee 23 0d 3b a9 d9 82 bd
       0.07809664 -0.14403178 0.0021536308 -0.06389172
000220 10 3f cc 3b 5d 4d 41 3d 4a 60 0f 3e 5c b8 a3 bd
       0.0062331036 0.04719292 0.14001575 -0.07994148
000230 0f be 5c 3e 85 80 93 bc 1e 22 4f bd 9d c3 86 3e
       0.21556877 -0.018005619 -0.050569646 0.26321116
000240 85 3d 24 bd a2 91 f4 3d 8d 61 8e 3c 9a 87 0a bd
       -0.040097732 0.1194184 0.0173805 -0.033820726
000250 52 e6 93 bd 99 45 18 3e 4f 3a 64 3d f0 24 4b 3c
       -0.072216645 0.148703 0.05571967 0.012398943
000260 fb c2 ae bd bd 0a 95 bc 3d 0c 1d 3d 19 f2 b7 bc
       -0.08533283 -0.018193597 0.03834175 -0.022454308
000270 97 ee c5 bd d1 ea 70 39 44 7e 95 3b 1b f8 c3 bd
       -0.09664648 0.0002297566 0.004562171 -0.09568807
000280 2d 17 42 3d c5 67 83 3d 37 28 c8 bd 3b 54 bd bd
       0.047385383 0.06416277 -0.097732954 -0.09244581
000290 0b 17 57 3e c3 cb 2e 3d 7c 3c ac bd 86 01 a8 3d
       0.21004884 0.04267479 -0.08409974 0.082034156
0002a0 89 99 f6 bd a1 a1 88 bc 09 78 92 3d fb 10 57 3c
       -0.12041003 -0.016678633 0.07151801 0.013126607
0002b0 f0 c5 df bd 2c ae 32 3d e1 fa 89 ba ff ff e5 bd
       -0.109264255 0.043623134 -0.0010527038 -0.11230468
0002c0 aa a4 c3 bc 92 2c 8a bc ad aa 00 bd 4b 63 f5 3c
       -0.023882229 -0.016866956 -0.03141277 0.029954573
0002d0 43 10 25 3e 9a 6a 36 3c ca 3d 9d 3c 48 3f 06 3e
       0.16119485 0.011133814 0.019194502 0.13110077
0002e0 e4 67 36 be 75 93 bb 3d ff 8c f8 ba 11 9f c2 bc
       -0.17813069 0.091589846 -0.0018962919 -0.02375749
0002f0 0f 09 e9 3d 6e db 8e bd 8a c8 ca 3d 84 ee 58 3d
       0.11378681 -0.06975447 0.09901531 0.05296184
000300 f6 cf 95 bb e8 24 a1 bc 12 cb a0 3d 0e 5f 0e 3e
       -0.00457191 -0.019670919 0.078512326 0.13903448
000310 bc 55 97 3d 2f fb 17 3d 6c cb 26 bd 34 3f 7a 3d
       0.073893994 0.03710478 -0.040721342 0.06109543
000320 56 54 d5 ba c0 70 e9 3d f1 47 03 bd 34 97 0d be
       -0.0016275744 0.113984585 -0.03205103 -0.1382721
000330 18 fa 92 bd 42 5c aa bc 9c 29 db 3d 37 5f 68 3e
       -0.07176608 -0.020795945 0.10701296 0.22692572
000340 a9 26 57 bd 33 b8 81 3d 24 5b e9 bc 33 e5 77 be
       -0.052527104 0.06333961 -0.028485842 -0.24208526
000350 63 53 e7 3a de b4 98 bc 6b 2f 1b 3d 44 e6 d0 3c
       0.0017648753 -0.018640932 0.03788702 0.025500424
000360 ce 63 cf 3d c1 68 14 be 15 df df 3d ef 57 02 be
       0.10126458 -0.14493085 0.109312214 -0.12728857
000370 e2 83 1c 3d bf d2 97 3c 2e a2 8d 3d 5d 1b 55 3e
       0.03821171 0.018533109 0.06915699 0.2081122
000380 c7 87 88 bd 87 b3 9c bc 80 44 12 be 9a be 1d 3c
       -0.066665225 -0.019128574 -0.14283943 0.0096279625
000390 e8 07 7c bd 13 5d 1d be 0a b9 ae 3c 4c b0 3b bc
       -0.061530977 -0.15367536 0.021328468 -0.011455607
0003a0 45 2d 53 bc 8e 74 3b bd 56 28 5f bc 60 87 0e 3e
       -0.012889211 -0.045765452 -0.013620457 0.13918829
0003b0 0e 00 c1 3d 5d f7 0e 3e 83 6a 65 3d 29 df ca bd
       0.094238386 0.13961549 0.05600978 -0.09905846
0003c0 37 c0 c7 3d 0b 77 ab bd da 16 38 3c 2e 08 d6 bd
       0.09753459 -0.08372315 0.011235917 -0.10450779
0003d0 c0 76 bd bd 8d da 07 3e ee 41 21 3d 18 5b a3 3d
       -0.092511654 0.13266964 0.039369516 0.07976359
0003e0 92 7b 19 3e fd c6 d3 bd 9f 26 a4 bd d4 4a 9c 3c
       0.14988545 -0.103406884 -0.08015179 0.01907865
0003f0 38 8f 6a bd 9c 32 9c 3c 12 c9 3b 3e d1 c7 5f bc
       -0.05726549 0.019067101 0.18338421 -0.01365848

network_body._body_endoder.seq_layers.2.bias f4 [128]
000000 d6 21 a1 bc a4 2a 4b 3c 5a 22 3a bc 98 1a ab bc
       -0.019669455 0.012400303 -0.011360729 -0.020886704
000010 53 e4 4b bc 84 17 08 3b f1 e3 6f bc fd ab ee bc
       -0.012444573 0.002076597 -0.014641748 -0.029134745
000020 63 a0 a8 bc ef 46 06 3d 26 61 56 3c 68 10 ff bb
       -0.02058429 0.03278249 0.013084685 -0.007783938
000030 d1 e0 67 bc ec 5d 94 3c 6a 17 05 bd 79 86 ef bb
       -0.0141527215 0.018111192 -0.032493033 -0.0073097316
000040 79 3c 41 bc f9 cb 64 bc c6 be 30 3c 78 8f 5a bd
       -0.011794203 -0.0139646465 0.010787671 -0.05335948
000050 d9 fd c0 bb 2b 67 81 bc a3 34 a9 bb de 86 e5 bc
       -0.005889636 -0.015796265 -0.0051637455 -0.028018411
000060 c7 36 48 3d 13 c1 8b 3c fb 88 5e 3b bb 1f bd 3c
       0.048880365 0.017059838 0.0033956158 0.02308642
000070 da 1a 87 3b e4 2a fd 3c 52 35 ff bc fb 30 aa 3c
       0.004123074 0.03090424 -0.031153355 0.020775309
000080 e8 f5 7a 3b da 6a 3a 3d d6 78 e6 3c eb ad 67 3d
       0.0038293544 0.045512058 0.028133791 0.056562345
000090 1c e4 9d bc 81 a8 a8 3b 4f bb 1c bb 60 bf 38 3c
       -0.01927381 0.0051470404 -0.0023915356 0.011276096
0000a0 6e 2a ab 39 b2 92 90 3c 7c 81 a0 ba 87 6d fb 3c
       0.00032647274 0.017648075 -0.0012245621 0.030691875
0000b0 0d 48 85 3c 7f 36 a8 bc 53 90 8f bd da 62 43 bd
       0.016269708 -0.020533798 -0.070099495 -0.047701694
0000c0 08 b6 36 3d ab 28 44 3c 2e 39 50 3c c8 15 1d 3d
       0.044607192 0.011972587 0.012708945 0.03835085
0000d0 b3 4c 02 bc 56 8b 8a 3b 20 13 61 3d 9b 8e c1 3c
       -0.007952857 0.004228036 0.05494988 0.02362757
0000e0 83 92 85 3b b0 d2 c7 bc 29 51 38 bd fd 4d 0b bc
       0.0040763034 -0.024392456 -0.044999275 -0.008502481
0000f0 bb c3 0e 3c 27 4c 63 bc 6c b7 3a 3c 08 be cb 3c
       0.008713658 -0.013873137 0.01139627 0.024870887
000100 b6 22 53 bc 58 41 ae bb 95 7a 27 3d 2e a3 12 3d
       -0.012886694 -0.005317848 0.040888388 0.03580015
000110 6a f6 39 3d 83 0a ec 3c 01 d2 b4 bc 0f fa 14 3d
       0.045401014 0.028813606 -0.022072794 0.036371287
000120 a9 e7 3c 3d cf 28 0d 3c d1 50 11 bc 5f d3 86 bc
       0.046119366 0.008615687 -0.008869366 -0.016458211
000130 9d 36 0a bc 1d d9 1a 3c 92 22 25 3c 83 78 21 bd
       -0.008435872 0.009451178 0.010079043 -0.03942157
000140 d5 4a 43 3d 4a 0c a0 bc f0 c2 37 3d dd f0 aa 3b
       0.047678787 -0.01953711 0.04486364 0.0052167014
000150 1f ec 74 3c a6 97 24 3d ab 38 09 bd 66 0a 08 3d
       0.014948874 0.040183686 -0.03350131 0.03321304
000160 8c 64 0c 3d 3a af 8e bd 87 10 36 3c e9 70 bc 3b
       0.034275576 -0.069670156 0.011112339 0.0057507646
000170 8e 1b be 3c 85 6c c8 3c 32 8b 41 3d a5 c2 30 bd
       0.023206498 0.024465809 0.047251888 -0.043154377
000180 a1 03 fd 3c a4 4c 87 3c 00 1f 64 3c 50 88 11 bc
       0.03088552 0.016516037 0.013923407 -0.008882597
000190 f0 8c 96 3c 4a 14 43 bd fd 77 07 3d ff a4 2e 3c
       0.018377751 -0.04762677 0.033073414 0.010659455
0001a0 17 3d 1d 3d 81 8d 69 3d 78 83 52 bd d4 be 58 3b
       0.038388338 0.057019714 -0.05139491 0.0033072727
0001b0 0e 5d 3f 3d b2 eb 15 bc 00 4f 00 bc d2 ec 02 bc
       0.046719603 -0.009150432 -0.007831335 -0.007991033
0001c0 9e ff b3 3c 9b 32 7e 3c 04 12 08 bd 2e 2d a0 bb
       0.021972474 0.015514995 -0.033220306 -0.0048881983
0001d0 d4 5c ab 3c 03 49 38 3d 7d bc 35 3d 67 37 14 3c
       0.020918287 0.044991504 0.04436921 0.009046412
0001e0 a9 c3 93 3c 1b 66 1c bd fc e7 70 3d c7 fc 75 bb
       0.018037634 -0.038183313 0.058814988 -0.00375347
0001f0 ee 0e d9 3c 8f 8e ca bc ea 65 9c bc e6 73 3a bd
       0.026496377 -0.02472618 -0.019091565 -0.045520686

action_model._discrete_distribution.branches.0.weight f4 [38, 128]
000000 ae 48 a8 3c 5c d1 90 bc f4 b7 2d 3d c7 6f fc 3a
       0.020542469 -0.017677955 0.04241176 0.0019259386
000010 a5 c8 10 bc a3 58 c8 3c 07 9a 48 3d 15 8b cc b8
       -0.0088369 0.024456328 0.048975017 -9.753384e-05
000020 7e fa 81 3b 7c dd a4 bb c8 50 a3 bb f9 4e 30 bb
       0.0039666286 -0.005031286 -0.004983995 -0.002690254
000030 6d 18 d3 bc 55 4e b1 bc d7 fd f0 3b 12 e6 f5 bb
       -0.025768483 -0.021643797 0.007354479 -0.007504233
000040 6f ae 63 3b 1a 39 46 bc e3 90 b0 bc 29 64 d1 3b
       0.0034741422 -0.012098575 -0.021553462 0.006390114
000050 39 fd 3f 3b 1b e0 88 3c 23 ab a4 3c 06 cd f8 3c
       0.002929522 0.016708424 0.020101136 0.0303712
000060 35 ab 6b bc 4f 72 e6 bc b3 c4 e5 bb d7 be cc bc
       -0.014384081 -0.028130678 -0.0070119738 -0.024993343
000070 5d 24 62 ba 98 46 41 bc c2 89 58 bb 41 2c 64 3c
       -0.00086266344 -0.011796616 -0.0033041094 0.013926567
000080 bf 59 95 bc 1e 5b 64 bc 6a d9 87 bb 06 1c b1 bc
       -0.01823127 -0.01393774 -0.004145791 -0.021619808
000090 dc 58 35 bc 87 a8 14 3d 50 6b a3 3c d3 de e7 3c
       -0.011068549 0.036293533 0.019948632 0.028304493
0000a0 07 31 fe bc df 06 ce bc 0a ca 06 3c 68 ee b0 3a
       -0.031029237 -0.02514976 0.008226881 0.0013498785
0000b0 54 21 20 3d a8 e6 26 3d 80 66 0b bc 32 51 10 3b
       0.039094284 0.040747315 -0.008508325 0.0022021052
0000c0 8e eb a7 bb 1d b0 eb 3b 10 00 b3 bb 9e 15 b4 bc
       -0.005124516 0.007192625 -0.005462654 -0.021982964
0000d0 24 fb 7c 3c 18 dd 90 3b 56 0a c2 bb 53 d4 5f 3c
       0.015440736 0.0044208877 -0.0059216423 0.013661462
0000e0 e2 50 0a bb 6b 50 93 3c 8f 15 b6 bc 97 4f 69 3a
       -0.0021105339 0.017982682 -0.022227077 0.00089001044
0000f0 33 94 a6 3c 67 00 2a bd 9e 9f 21 bc c4 68 25 3c
       0.020334339 -0.04150429 -0.009864716 0.010095779
000100 80 11 58 3c a5 6f 3d bc 67 16 18 bd 51 3c 3f 3b
       0.013187766 -0.011562263 -0.03713074 0.0029180238
000110 14 3a 93 bd f9 bc 7a 3c 59 fd ea 3b 5a 8d 91 bc
       -0.07188812 0.015303844 0.0071713147 -0.017767597
000120 c9 2b 9d 3a 98 55 0e bd 58 23 f2 3b 24 d0 63 bb
       0.0011991198 -0.034749597 0.007389467 -0.0034761513
000130 b5 fc 26 3d 49 2f 94 bc 39 32 1d 3c db 04 f2 bc
       0.040768344 -0.018088954 0.009594494 -0.02954333
000140 2a e6 e6 bc 9d f2 75 bc 7e a1 02 b9 5b b4 28 3d
       -0.028185923 -0.015011457 -0.00012457927 0.041187625
000150 4a e0 8c 3c 73 c7 0f bd f5 a8 b5 3c c0 18 94 3c
       0.017196793 -0.03510232 0.022175292 0.018078208
000160 85 19 81 3b f0 04 6f 3c 6f 01 9a bc e3 83 41 bd
       0.0039398097 0.01458858 -0.018799512 -0.047244918
000170 93 cf 84 bc a2 2b a1 bb c5 7b 14 3c d0 f9 bc 3c
       -0.01621226 -0.0049185315 0.009062712 0.023068339
000180 34 3c 9d 3b 63 cf d2 bb 99 c0 8d 3a b4 8a 33 3a
       0.0047984365 -0.006433414 0.0010814845 0.00068489765
000190 d4 e4 ae bb 08 75 af b9 07 27 33 3b 39 87 03 3d
       -0.005337337 -0.00033465796 0.0027336495 0.03211138
0001a0 79 7f 10 3d 65 bd 00 bb 0e df 4a 3a 82 89 9e 3c
       0.035277817 -0.0019644138 0.0007738926 0.019352678
0001b0 ff c8 33 bb 05 97 aa bc ac 8f aa 3c c6 28 31 bc
       -0.0027433035 -0.020823965 0.020820461 -0.010812944
0001c0 19 4e 1e 3c 77 f3 f0 ba 5c 33 89 3c 7d c6 17 bd
       0.009662175 -0.0018383105 0.016748123 -0.037054528
0001d0 8c 32 0b bd fe cb 3f 3c 92 d4 0d 3b c9 2e 3c bd
       -0.033983752 0.01170635 0.0021641594 -0.045943055
0001e0 e9 6f 86 3b a1 71 17 3d df 13 14 bc 0e 16 75 bc
       0.004102696 0.0369736 -0.009037941 -0.0149588715
0001f0 32 a5 44 3c ec 25 60 3d f2 5d 3b bc e7 d1 55 bb
       0.012002276 0.054723665 -0.0114359725 -0.0032626332
000200 03 28 8d 3c a4 49 6e 39 30 34 12 3b 07 cf 88 3c
       0.017230993 0.00022724882 0.0022308938 0.01670028
000210 d9 60 f3 bb 92 aa c4 3c 44 0d 91 bc 2e 90 85 bc
       -0.0074273166 0.024007116 -0.01770652 -0.016304102
000220 39 f5 d3 3b b0 e3 34 3b ee 96 7e bb a9 ef 0f 3a
       0.006468442 0.0027601533 -0.0038847285 0.0005490729
000230 50 cf e6 b8 a3 21 1a 3b 58 9a 1c bc c2 62 f7 bc
       -0.000110058696 0.0023518584 -0.009558283 -0.030198459
000240 49 93 93 3b 35 cd 90 bc 07 65 00 bc af dc 8e bc
       0.0045036417 -0.017675975 -0.007836587 -0.017439215
000250 d2 ed 93 bc 3a 29 b9 3b 70 fa 28 bc 3a 1c 0d bd
       -0.018057737 0.0056506665 -0.010313615 -0.034450747
000260 ed 22 40 ba 53 bc 9e ba 21 b9 e9 bc 0f 18 91 bc
       -0.0007329423 -0.0012110568 -0.02853066 -0.017711667
000270 77 69 cc bc 3f 81 e4 bb ee d7 6d 3c d5 13 fa 3b
       -0.024952633 -0.006973415 0.014516814 0.0076317587
000280 be e4 b0 3a 75 24 81 bb d6 3c 23 bc 8e 7c f9 3b
       0.0013495905 -0.0039411136 -0.009963235 0.007613725
000290 93 03 24 bc 3f 3a 10 bb ee 8e 69 3c 44 94 2f bc
       -0.010010618 -0.0022007374 0.0142552685 -0.010716502
0002a0 b7 84 6e 3b e8 a3 04 bd 1c 25 9c bc 1e f6 b4 3c
       0.0036395022 -0.032382876 -0.019060664 0.022090014
0002b0 62 d1 06 bd d0 d7 e7 3b 3d fb 7f bc 9f 90 de bc
       -0.032914527 0.0070752874 -0.015623865 -0.02716857
0002c0 27 d4 03 bd fb c5 59 3b ff ed a9 bc 50 8f d8 bb
       -0.032184746 0.0033229578 -0.020743368 -0.006608881
0002d0 9d 46 de 3c c8 fa 0a 3d 84 bd 80 3c f5 0f fa 3c
       0.02713328 0.03393057 0.015715368 0.030525187
0002e0 0e c7 63 bc 56 12 51 3c 93 70 5f 3c 61 3a fc bc
       -0.013902439 0.012760719 0.01363768 -0.030789556
0002f0 70 ff be 3c 09 81 8c bb ef 2f 9a 3c 63 8e ff 3b
       0.023315161 -0.004287843 0.018821685 0.0077989562
000300 8a 50 88 3c 9d a3 c1 bc fa f2 55 3b 87 b5 6c 3c
       0.016639967 -0.023637587 0.0032646046 0.014447576
000310 38 ad 66 3c ab 8e 20 3d cc fd 12 3c cc f0 5f 3c
       0.0140793845 0.03919856 0.008971643 0.01366825
000320 8c b2 eb bc 08 7b df 3c bf ed 72 3d c7 d6 b8 bc
       -0.028771661 0.027280346 0.059308764 -0.022563351
000330 e0 5e 77 3c a0 c1 a9 bc b0 27 a2 bc 1d ce 0e 3c
       0.015098304 -0.02072221 -0.019794315 0.008716133
000340 6d 36 93 3b 07 bf 6a bc 73 f6 bd 3c 39 20 d6 3b
       0.004492572 -0.014327771 0.023188805 0.006534603
000350 00 01 d3 bc 0d dc 06 3d cb d7 bd 3c d1 5c 27 3c
       -0.025757313 0.0329247 0.023174187 0.010215
000360 86 e0 f7 3c be 93 67 3b ce a3 27 ba fa 0d 8a b7
       0.030258428 0.0035335864 -0.0006394953 -1.645739e-05
000370 c8 e1 e6 3c 4e 2a 94 bc 2e 33 dc 3c 64 33 c7 bb
       0.028183833 -0.018086579 0.026879873 -0.0060791243
000380 27 55 78 bb 58 e1 1d 3d 20 c1 81 bb 96 50 96 bc
       -0.0037892552 0.038544983 -0.00395979 -0.018348973
000390 22 4f d7 ba 2b b2 13 bc 66 bf cb bb a8 40 92 3c
       -0.0016426782 -0.0090146465 -0.006217885 0.017853096
0003a0 85 7e 7b 3c 7d aa 85 3c b5 b3 fa 3b b1 5f fc bb
       0.015349989 0.016316647 0.0076508173 -0.007701837
0003b0 4f 6f ec 3c 1e 25 03 bb 28 a0 ec ba f8 d2 2d bc
       0.02886167 -0.0020011137 -0.0018053101 -0.010609381
0003c0 09 04 66 3c 6e 88 8d bc 6e a8 3e 3a d5 3b 3e 3c
       0.014039048 -0.017276969 0.0007273023 0.011610945
0003d0 b1 1a 3e 3c 4f ea be bb 86 6c 89 3b 8e 67 e4 bb
       0.011603043 -0.0058262716 0.004193845 -0.0069703525
0003e0 ba ae 08 3d 96 16 c5 bb 51 e4 60 3c 95 b7 18 bd
       0.033369757 -0.0060146553 0.01372631 -0.037284452
0003f0 da 66 2e bc c7 18 8e 3b 3a a2 1f bc 1c 10 7a bc
       -0.010644639 0.00433645 -0.009743268 -0.01526263

action_model._discrete_distribution.branches.0.bias f4 [38]
000000 b6 94 a6 bc 5b c0 05 3c aa 2a 80 3c 7f 55 59 3c
       -0.020334583 0.008163537 0.015645344 0.013265013
000010 57 c6 fa bc ce 6a a1 3b 75 06 a6 3b c8 33 53 bb
       -0.030612154 0.004926062 0.0050666877 -0.003222691
000020 0f 2e f8 3c 88 bd c9 3b 8c 78 dc bc 56 23 32 3c
       0.0302954 0.006156627 -0.02691295 0.010872683
000030 4a 8d fd bb e5 df 55 bc 29 8d 0a 3b 37 23 cb bc
       -0.0077377902 -0.013053869 0.0021141267 -0.024797065
000040 3b 3c 8e 3c eb 83 1c 3a be a0 44 3b 66 cf 33 3d
       0.017362705 0.0005970585 0.0030003036 0.043898962
000050 dd 34 68 bc 34 81 09 3c b4 35 7b 3b 12 03 37 bd
       -0.01417276 0.008392621 0.003833157 -0.044680662
000060 a8 8e f3 bb 9c 18 3d bc 3e d8 7d 3c f0 cc b3 3c
       -0.0074327774 -0.011541512 0.015493451 0.021948308
000070 2f 54 97 3c 97 b1 0e bd 15 69 7a 3c 93 b6 df bb
       0.018472759 -0.03483733 0.015283843 -0.0068271845
000080 fd 28 4f 3b f6 29 05 ba be dd 5a bc f1 45 c2 bc
       0.0031610124 -0.00050798 -0.0133585315 -0.023714991
000090 88 64 5c 3c 29 2a 94 bc
       0.013451703 -0.01808651
