results/DemoRun/TestAgent1/TestAgent1-19776.pt (torch, 597377 bytes, 33 tensors)

network_body._body_endoder.seq_layers.0.weight f4 [128, 39]
00000000: 222a 2cbc a2c8 4bbd 3136 693d 7d81 823b
00000010: 6ad5 233e 1113 88bd 9226 9fbc 68f6 2d3c
00000020: 5720 d0bd e9ae e23c 65dc c4bc cd0d 8dbd
00000030: a9fa 523e f5eb 7fbe bd6d bfbc 4dac 56bd
00000040: b882 f53d 166e f9bd 0303 18be 2cf7 8a3e
00000050: ec05 1fbd 9eae 593e 3167 213e 2943 66be
00000060: 7d60 8cbd f86e 73bc 45ee 813d 1f96 2b3e
00000070: 2a3e cc3d 1a9a d33c c1c4 283d 2608 16be
00000080: 9836 23bd 1475 003e 5b63 c2bd f3ca ac3d
00000090: 16d4 4fbe 457c 5ebe 8c67 403e 49d6 f6bb
000000a0: 30db 29be 683b 753e cd80 f7bd 432e 773c
000000b0: 184d 133e baa5 a0be 4785 23be 2414 06be
000000c0: 959d ec3c a6ce 533e 59c1 223e 8bb3 4ebe
000000d0: 6763 883e 8085 1abe 86de 8a3e 43ca bd3d
000000e0: 7815 b7be 2628 803d 3346 1b3e 2bb0 903c
000000f0: 8670 863e 376c 803d 8f08 68be 565f 4a3d
00000100: 333b 37bd 8050 e03d 2d05 e43d 0d10 c8bb
00000110: 4a4b 2fbe 17c1 953d e372 243e c172 12be
00000120: ecf1 f3bd 3c90 853e f64b dcbd 941e 90bc
00000130: 79f9 06be 9de2 1ebd 798d 2c3e c7a5 1fbe
00000140: 6b23 383e ce48 d73c 19ad 6b3e 77ef 53be
00000150: 1bb7 47bd 1b6a 10be 80c6 2e3e b1eb 4bbe
00000160: 64b9 f0bb a8b4 8cbd d6ee 863e a3ab 09bd
00000170: f971 4e3a 1d21 383e 4da1 e83d e5ed 60bd
00000180: 4e7f 69be 60ba aabe 5a72 403e eba8 333c
00000190: 3be5 2ebe 8185 b5bd b1f3 03be a3ad 21be
000001a0: 96be 48bc d353 563e 8558 1e3d 60a1 2f3e
000001b0: cd5b 1ebe 9358 593e 56c1 54bd cb4e 733d
000001c0: 3afc b33d 0954 14bd 58b4 df3a c0cd d73d
000001d0: 3ddf 4abe 5d2c 8abd f2a8 4e3e f3d5 fc3d
000001e0: f92c 76bd 127f febd 937a 6b3e 9dda 86bd
000001f0: ebd8 33bd bfcd adbc b2f1 243e 8eae df3d
00000200: 474b aa3c f7a4 1d3e ab20 07be 06bf 473e
00000210: 55cc 5a3e 9b9d 673d 6115 73be 61ed 62be
00000220: 8efe 94be ab97 e4bd 0513 8d3d 6ead 3dbe
00000230: b0bc 0bbe e891 c53d 4941 b0bd 1b87 82be
00000240: c770 5a3c 134c 00bd d2ca 32be bed8 bbbd
00000250: 1106 053d 7313 05be fd5e 5d3b c32d 43be
00000260: c4cc b33d 118e 4e3e 6296 8e3d d292 f03d
00000270: 8042 1a3e 812c ea3c ee74 8f3d 9421 0c3d
00000280: 592c 373e 5398 37bc 0f75 2dbb 5ffe d13e
00000290: fb56 7fbe 763f b4be 3fb1 973d 53da 3dbd
000002a0: a805 7d3c a187 093e fabd 8b3e 45a8 733e
000002b0: 558f 52be bffe 233d 2f1a a43d 5ca7 243e
000002c0: 25bd 253e 7dc3 26bd 1086 3b3d 4755 8ebe
000002d0: b98d 95bd eae3 b7bc 6d6d 26bd 175f 10be
000002e0: 7fb1 163d 0683 09bc a2a5 7ebd 084b 33be
000002f0: 26e2 b0bd 3e54 12bd fc75 11be af32 4cbe
00000300: adff 1e3d f165 9d3d 6913 ae3d 2e3f 4b3e
00000310: 884c 47bc a521 cfbd c8d2 92b9 50ae b8be
00000320: 1332 bdbd fad1 f23d 61dd a6be e6de 7f3d
00000330: a32f 03be 8931 3dbe 8413 10bc c305 a03b
00000340: 92a1 c73d ab65 a13d ee5b 6a3e c140 75be
00000350: 5cc1 ed3d 98d1 683e c3e5 c4bd 9f7c 913d
00000360: 9ed1 46be ea6c fb3c 6f07 38be f687 b0be
00000370: 57d2 b6bc 09c6 83bc 1c0a 8b3e da5d 62be
00000380: 0859 10bd 0816 063d 743c cf3e 398f 11be
00000390: 616e 883c 26c7 153a 3a47 0d3e f1fe 14be
000003a0: dc75 da3d a5d5 553e 16ff 503d 8b1e 9bbd
000003b0: ff36 a93d 6fea d8bc 1320 923d 20b1 0bbe
000003c0: 392b b6bd db65 9a3d 4453 703e 5786 a0bd
000003d0: 4275 1bbc d37b c93e 94fb 023c 68f0 4e3d
000003e0: 2758 2a3e 7286 90be b25f 2abe 678c 48bd
000003f0: eecc 443a c7f1 003a 32c7 82bc d3c8 7abd
-0.010508092 -0.049751885 0.056936447 0.0039827214 0.1599938 -0.06644262 -0.019427571 0.01061783
-0.10162418 0.027671294 -0.024030874 -0.06887398 0.20603432 -0.24992354 -0.023367757 -0.052410413
0.11987823 -0.121792 -0.14844899 0.27141702 -0.038824007 0.21258017 0.1576202 -0.22486557
-0.06854341 -0.014858 0.063442744 0.16756485 0.09972794 0.025830317 0.041203264 -0.14651546
-0.039846987 0.12544662 -0.09491607 0.08437147 -0.20295748 -0.21727093 0.187895 -0.007532869
-0.1658752 0.23948443 -0.12085114 0.015086713 0.14384878 -0.3137644 -0.1596881 -0.1309362
0.028883735 0.20684299 0.15894069 -0.20185678 0.26638338 -0.15089989 0.27122897 0.09267094
-0.35758567 0.06257658 0.15163498 0.017662128 0.26257724 0.0627064 -0.22659515 0.049407326
-0.04473419 0.10952854 0.111338 -0.006105429 -0.17118564 0.073122196 0.16059451 -0.14301588
-0.11911377 0.26086605 -0.10756676 -0.017592706 -0.13181104 -0.038790334 0.16850843 -0.15590583
0.17982261 0.026279833 0.2301525 -0.20696817 -0.048758607 -0.14102976 0.17067909 -0.19914128
-0.007346319 -0.06870395 0.26354092 -0.03361095 0.00078752596 0.17981382 0.11358891 -0.054914374
-0.22802469 -0.33345318 0.18793622 0.010965566 -0.17079632 -0.088633545 -0.1288593 -0.15788893
-0.0122524705 0.20930414 0.038658638 0.17151403 -0.15464707 0.21225195 -0.051942192 0.059401315
0.08788343 -0.036212955 0.0017067296 0.105372906 -0.19811721 -0.06746743 0.20181635 0.12345495
-0.060101483 -0.124265805 0.22995977 -0.06584666 -0.04390804 -0.021216271 0.16107824 0.109219655
0.020787848 0.1539496 -0.13196056 0.19506463 0.21367009 0.05654679 -0.23738624 -0.22160865
-0.2910046 -0.11161741 0.06888393 -0.1852319 -0.13646197 0.0964697 -0.08606202 -0.25493702
0.013332552 -0.03132255 -0.17460182 -0.091722 0.03247649 -0.129957 0.0033778541 -0.19060425
0.0877929 0.20171382 0.06962277 0.11746754 0.1506443 0.028585674 0.070047244 0.03421171
0.17888011 -0.0112057505 -0.0026467477 0.41014382 -0.24935524 -0.35204667 0.07406854 -0.04635079
0.015443243 0.13430645 0.27293378 0.23794658 -0.2056249 0.040037867 0.080128066 0.16079468
0.16185434 -0.040713776 0.04578215 -0.27799436 -0.07302422 -0.022447545 -0.0406317 -0.14098774
0.036790367 -0.008393055 -0.06216968 -0.17509091 -0.086368844 -0.03572487 -0.14205164 -0.1994121
0.03881805 0.076854594 0.08499796 0.1984832 -0.012164243 -0.10113839 -0.00028004334 -0.3607049
-0.092380665 0.11856456 -0.32590774 0.062468432 -0.1281114 -0.18475927 -0.008793715 0.0048834994
0.09747614 0.0788072 0.22886631 -0.23950483 0.11609146 0.22736204 -0.09614136 0.07103848
-0.194159 0.030691583 -0.17971586 -0.3447873 -0.022317095 -0.016085641 0.2715615 -0.22106114
-0.035241157 0.032735854 0.4047581 -0.14214791 0.016654195 0.00057135744 0.13796702 -0.14550377
0.10667011 0.2088228 0.05102452 -0.07574185 0.08262443 -0.026478974 0.07135024 -0.13641787
-0.08894963 0.07538959 0.23469263 -0.07838123 -0.009488406 0.39352283 0.007994551 0.050522238
0.1663519 -0.28227574 -0.16638067 -0.048962023 0.00075073435 0.000491884 -0.015964124 -0.061226677

network_body._body_endoder.seq_layers.0.bias f4 [128]
00000000: 0b8d 873a de5c d4b9 c985 82ba f6cd c3ba
00000010: 5514 00bb 080e 98bb b4eb 1b39 459d 573b
00000020: 0a6b de3a 99e4 343b 701f 12b9 b55e 9d3a
00000030: bad6 8a3b b50d 96bb 475d 0a3a 7433 9338
00000040: 1085 4a39 f4b1 6e3b b720 87b9 adee 243b
00000050: 969a 1739 9cab 6ab9 1840 3c3a a5ed 9e39
00000060: c71d 5d3b 0a6b 243b eeb8 823b ce1a 823b
00000070: c401 6c38 164a 1dbb 8ef1 14bb 0725 5f3b
00000080: 4e05 24ba db96 0bbb 71fb 5b3b b122 503b
00000090: 5b99 943b 85c0 243b 725b 53bb a171 04bb
000000a0: a20f 8dbb dc93 dcba 6c92 4cbb 43b1 983a
000000b0: 21be e13a 08bb bc3a 96d9 af3b 206a 0f3b
000000c0: e932 28ba ca0c 413b 2094 d4b8 2fa7 9abb
000000d0: a7d4 513b 74db 11ba 1c95 2039 174d 0f3a
000000e0: a0a2 023b fe8f a53b 9c85 743a 5959 183a
000000f0: f079 873b 5cf1 57ba 2777 22bb b816 33ba
00000100: 2586 003b eaea feb9 aaa4 f03a c8a2 a33a
00000110: c9f8 3bbb 941a 50bb 1aa8 6a3b 2ca1 6ebb
00000120: 102f beba 0dd2 d1b9 216c 32bb 4437 a03a
00000130: a1eb 933a c431 87ba 1d19 ff39 4a7c a43a
00000140: 28ce 933a 0290 b539 8245 09bb bae9 71bb
00000150: a100 a63a fddf c9ba ff22 9a39 afdc 71bb
00000160: 0993 3b3b d69b 96b9 5a38 7bba 2409 78b9
00000170: a32e 8dba de72 a43b ff4a c3ba cb4b ed3a
00000180: c619 8d3b 0565 66bb 7e12 b9ba ddc0 09bb
00000190: f18c df3a eac8 4e3b 7475 e0ba 56ee 2a3b
000001a0: 1189 063b fa2f 0c3a a439 233a 3a8c b939
000001b0: 6194 af3a 8a8b 10bb d73a 553b 78ab a3ba
000001c0: bc67 11bb 5fca 443b 0fb5 533b b674 f239
000001d0: 66cc 0dbb 7410 b53a 0073 873b 6da4 153a
000001e0: 635c f33a 57c5 d2ba e517 3fba 19ec 58b8
000001f0: 827a 743a ecdf 5abb 938d ed39 e903 84ba
0.0010341717 -0.00040504982 -0.0009958084 -0.00149387 -0.0019543369 -0.0046403445 0.00014869758 0.0032900136
0.0016969156 0.0027602075 -0.00013935356 0.0012006374 0.004237023 -0.0045792707 0.00052781816 7.01909e-05
0.00019313791 0.0036421986 -0.0002577358 0.0025166676 0.0001445807 -0.00022379908 0.00071811816 0.00030313167
0.0033739673 0.0025088214 0.0039893305 0.0039704805 5.626843e-05 -0.0024000457 -0.0022726986 0.003404917
-0.0006256894 -0.0021299634 0.0033566619 0.003175896 0.004534883 0.0025139165 -0.003225055 -0.002020933
-0.004304842 -0.0016828733 -0.0031215204 0.0011649508 0.00172228 0.0014399001 0.0053665144 0.0021883324
-0.00064162776 0.0029457086 -0.00010136538 -0.004719637 0.003201762 -0.0005564012 0.00015314337 0.00054665044
0.0019933358 0.0050525656 0.00093277707 0.00058116537 0.004134409 -0.00082375645 -0.0024790259 -0.00068316935
0.0019611206 -0.0004862168 0.0018359621 0.0012484426 -0.0028682223 -0.0031754123 0.0035805763 -0.0036411984
-0.0014509875 -0.00040020086 -0.0027225094 0.0012223502 0.0011285433 -0.0010314514 0.000486561 0.0012549248
0.0011276649 0.00034630304 -0.002094597 -0.0036912994 0.0012664982 -0.0015401837 0.00029399243 -0.003690522
0.0028621575 -0.00028726336 -0.0009583287 -0.00023654528 -0.0010771345 0.005018576 -0.001489967 0.0018104253
0.004306051 -0.0035155427 -0.0014119891 -0.0021019496 0.0017055554 0.003155286 -0.0017124848 0.0026082
0.0020528475 0.0005347725 0.00062265457 0.00035390427 0.0013395661 -0.0022055828 0.0032536292 -0.0012487015
-0.0022187075 0.003002785 0.0032303964 0.00046244793 -0.0021636724 0.0013814108 0.004133582 0.00057084
0.0018566962 -0.001608054 -0.00072896323 -5.1718296e-05 0.00093261164 -0.0033397628 0.00045309644 -0.0010071966

network_body._body_endoder.seq_layers.2.weight f4 [128, 128]
00000000: 4191 eabd dd72 e23c 8832 2b3d 4275 92bd
00000010: 3077 be3d 60cb 99bc 1ec1 4a3d 0473 cc3c
00000020: 8021 a93d 96fc 943c f975 50bd e4e0 c7bd
00000030: 13c8 17be f393 1a3d b38f 41bc 34af 2e3d
00000040: f2c1 593d 5aa6 ffbb bda6 403c 7ab7 f53d
00000050: dc70 4ebc 440f 10be 9947 82bc 03f5 d53c
00000060: f7bd 57bd 0a2f 373b afa6 da3c 5e31 57bd
00000070: 4fae 3b3e d128 57be e515 183d c9f5 94bc
00000080: e8ca 09be 897d 023d fe79 9e3d cbf0 12be
00000090: 35a5 0a3d 4e83 9fbd 4f7b c63b d13c 85bb
000000a0: ce6d 1f3e 5fb9 e23d e8f8 673d 21cc 0e3d
000000b0: e954 43bd 810d 9f3d 77a9 10bc 8bc3 2cbd
000000c0: 50c1 df3d f0f2 c43c 79e1 b43d 541e 9cbd
000000d0: f3a6 4b3d d3fd b43d 52e5 a4bd 98c8 ea3d
000000e0: f0cc db3d 49de 85bc a559 89bd 4150 1bbd
000000f0: ef2d 543c dc3e 2bbd 53f3 a4bc d760 023e
00000100: b5cf cabd c617 bd3d ce33 433e 11a0 77bd
00000110: a582 183d e304 553d c407 7e3e 657c 7cbd
00000120: 089c 293d ac59 b43d cb2c 18bd fa15 79bd
00000130: 5b95 28be 1b60 b8bd 51d4 e83c 2b46 6fbe
00000140: 9212 503d 541b 3abd 93ca a7bb a067 aa3c
00000150: 993e eebd 9ff4 063e c504 57bd 044e 7a3d
00000160: eedd 073c 70eb 16be b2df 123c cb9a cfbc
00000170: 5391 a63d 54f3 193d f003 633d e4bb 40be
00000180: 9fe0 c83b f8d6 b43d c27b bc3d 2d22 2fbd
00000190: cee9 75bd 68e6 04be 78f2 0f3d 64ba 6c3d
000001a0: 7ae6 a23d 7ce8 8abd 9c07 403e 2abb cd3d
000001b0: fac7 69be ca20 563d 42a5 2bbe 5012 353d
000001c0: 1fd3 34bd 58f9 06bd e3b7 11be 7284 73bd
000001d0: 3636 8d3d 4ade 083d 7dde 203d ffa8 cebd
000001e0: f292 cc3a f012 493d 2332 9fbc 1ee1 fdbd
000001f0: a6d2 38ba 97ab 4ebe 030c 38bc cfaa 603c
00000200: 9ea8 413c 396f aebb c758 7b3c 1d6c 8c3d
00000210: 722a 063d 6ca7 803d e211 183d 72af 14be
00000220: 7e6e 11be 76ca e9bd 4a08 2dbc 8ca6 df3d
00000230: 0dda 583d b865 e33d 3be4 1abd c53b 433d
00000240: 3a85 5bbe 2655 2bbd e0bd 5b3d bb71 773e
00000250: ea0e 50bd 8ba1 1fbe 8a09 5e3d f35f 4d3d
00000260: eb32 17bc 4eff b43d edde a33d 57fc c83c
00000270: 2c2f 0cbe f9ce 223d 7b64 f5bc 3f5b acbc
00000280: 02b3 01bd 14b0 1cbe 6eab fb3d 260d b73d
00000290: dd69 b33c 8d84 02b9 35cc bd3b 2e88 a73d
000002a0: 1d07 20bc cbd6 533c 43bc 1abd 23c8 e4bd
000002b0: 38df 4d3d c832 d63d 367e 02bd c47f 3a3e
000002c0: b30a 033e efe2 113d b762 abbc 69a6 7a3d
000002d0: 3b66 62be 6d9d e63d 5edb 1b3e c744 0bbe
000002e0: 3ee0 ef3d 7ded ccbb 75c1 1bbd 1633 c43c
000002f0: b9ea e33d 2531 a73c a2ec e53c 291d 1cbc
00000300: 048d f8bd 8425 d63d 6642 8dbc d6ed 33bd
00000310: 3658 84bc 1dbb 553d d93b acbd 91bb 2c3d
00000320: 03cb 96bc 030b 2ebe 321d 1b3e 8f92 d93c
00000330: 5c53 c63a 43f5 883d ce21 51bc 8b3f 53bc
00000340: 9fb5 babd 95b9 b0bd 0a6d e9bd ad6f 5cbc
00000350: 169f e2bd 1071 b73d 7da9 ae3c 6692 00bd
00000360: abfb 92bc 2f39 12ba f73e 643d 00e7 2f3d
00000370: 0c75 d6b7 b6d2 0fbe 796e abbc 9b0c 68be
00000380: 1d93 33bd 6f14 8ebc cd67 213d b899 443d
00000390: fb2d 7cbd 1f03 9c3d 4727 75bd 3b65 35be
000003a0: b4b3 b2bd 1f8f 86bd 0044 853d ccde 903c
000003b0: 754b 8b3c e89a 2f3e b89d a9bc 3d5b 1dbe
000003c0: 4b07 173d 4146 cc3d 313b 2dbe d72f 3f3e
000003d0: 38fc 39be f12c 0fbe fa81 1dbe 563b f93c
000003e0: 5206 26be 0234 cc3d f13a 4ebd 812f f73d
000003f0: a8e6 ccbc a3ee 493d 8c03 d33d 6001 9ebd
-0.11453486 0.027642662 0.041796237 -0.071512714 0.09300077 -0.018773735 0.049500577 0.024957187
0.08258343 0.018186849 -0.050893757 -0.09759691 -0.14822416 0.03773875 -0.011814046 0.042647555
0.053163476 -0.007801813 0.0117585035 0.11997886 -0.01260015 -0.14068323 -0.015903281 0.026117807
-0.0526714 0.0027951621 0.026690809 -0.052537315 0.18328212 -0.21011664 0.037130255 -0.018183606
-0.13456309 0.031858 0.07738112 -0.14349668 0.03384896 -0.07788716 0.00605718 -0.004066088
0.15569231 0.11070513 0.05663386 0.03486264 -0.0476884 0.077662475 -0.008829466 -0.04217867
0.10925543 0.024041623 0.08832068 -0.07622972 0.049719762 0.08837476 -0.08051552 0.114640415
0.10732448 -0.016341345 -0.067065515 -0.037918333 0.012950405 -0.041807994 -0.020135557 0.12732254
-0.09902898 0.0923305 0.1906273 -0.060455386 0.037233967 0.052006613 0.2480765 -0.06164207
0.04140857 0.08806166 -0.037152093 -0.060811974 -0.16463225 -0.09002706 0.028421553 -0.2336661
0.05079896 -0.04543622 -0.0051205843 0.020801365 -0.11633033 0.13179253 -0.052494783 0.061109558
0.008292658 -0.1473825 0.008964466 -0.025342366 0.08133187 0.03758557 0.055423677 -0.18821675
0.0061302925 0.088300645 0.092032924 -0.042757202 -0.060037427 -0.12978518 0.035143346 0.057794943
0.07954116 -0.06782624 0.18752903 0.10045464 -0.22830191 0.052277364 -0.1676226 0.044206917
-0.044146653 -0.032952636 -0.14230303 -0.05945248 0.068951055 0.033415116 0.03927468 -0.10090827
0.0015607758 0.049090326 -0.019433087 -0.12396453 -0.0007050432 -0.20182644 -0.011233333 0.013712599
0.011819987 -0.0053233174 0.01534099 0.068565585 0.032755323 0.06281933 0.03712643 -0.14520052
-0.14202306 -0.114155695 -0.010561058 0.10920438 0.052942324 0.11103386 -0.037815314 0.047664423
-0.2143754 -0.04182925 0.053647876 0.24164478 -0.050795473 -0.15588968 0.054208316 0.050140332
-0.009228448 0.08837758 0.08001504 0.024534388 -0.1368987 0.039748166 -0.02995514 -0.021039603
-0.031664856 -0.15301543 0.12288557 0.08938055 0.021901065 -0.00012447145 0.0057921656 0.08180271
-0.009767321 0.012929629 -0.037777197 -0.111709855 0.050261706 0.104589045 -0.031858645 0.18212801
0.1279705 0.03561681 -0.020921094 0.061193857 -0.2210931 0.11260495 0.152204 -0.13600455
0.11712693 -0.0062538967 -0.038026292 0.02395014 0.11128754 0.020409176 0.028066937 -0.009528437
-0.121362716 0.10456374 -0.017243575 -0.04392799 -0.016155344 0.0521804 -0.084098525 0.042171065
-0.01840735 -0.16996388 0.15147856 0.026559142 0.0015131044 0.06687405 -0.012764407 -0.012893568
-0.09116673 -0.08629147 -0.11397751 -0.01345436 -0.110654995 0.08957112 0.021321053 -0.031389616
-0.01794227 -0.0005577979 0.05572411 0.04294491 -2.5565292e-05 -0.14045224 -0.0209267 -0.22661059
-0.04384147 -0.017343728 0.039405633 0.04799816 -0.061567288 0.07617783 -0.05985191 -0.17714398
-0.08725682 -0.06570267 0.065071106 0.017684363 0.017003754 0.17148936 -0.020705089 -0.15366836
0.03687219 0.09974337 -0.16917111 0.18670593 -0.1816262 -0.13981988 -0.15381613 0.030423801
-0.16213349 0.09970857 -0.05034918 0.120696075 -0.02501233 0.049299847 0.10303411 -0.07715106

network_body._body_endoder.seq_layers.2.bias f4 [128]
00000000: 0133 09bb 4a85 7cbb 5185 2f3b 20d3 a4ba
00000010: 2bcd 7739 7751 aab9 7a3c fb3a 1a53 44bb
00000020: 3020 51ba 9ed4 de3a f540 713b cff3 243b
00000030: dfb7 b13a 36ab 7b39 b6df 1dba ac7f 08ba
00000040: 44d5 c339 894c 8aba fdbb a738 0667 d83b
00000050: c4d4 27ba d232 a7ba e180 4939 da45 ea3a
00000060: bb9f 43bb 22db c6ba f898 2e3b efb4 52bb
00000070: bd04 10ba 305d 873a 0dcc 53bb a4b4 483b
00000080: 78be d2b9 add3 91b9 d299 58ba 26d4 30bb
00000090: 043a 1ebb 3c87 51ba 21b8 dcb9 3ad2 d0ba
000000a0: 917b 79bb 9487 3239 bfbe 2bbb e181 003b
000000b0: 623a 70bb 1e7c beba 2f6a a5bb 2e5b 11bb
000000c0: 7027 89b9 9ad6 c03a 139e 52ba 55e0 7f3b
000000d0: 346f caba 8aeb e33a df95 7e3b e0a5 2bbb
000000e0: e82e 20bb 7121 1e3b c3fc ac3b c68d 823a
000000f0: c6e8 ec39 248a 15ba cb66 48bb 7748 283a
00000100: 701a 733b f481 623b 9d21 24bb 0c5d ed38
00000110: 368d 0bb9 09f8 0f3b 7ea9 74ba 8e8f e03a
00000120: 42d8 c83a 70c8 6e3b 2b18 88bb a71d 4eb9
00000130: 7b06 21bb f0f2 8dba 50dd 7aba c717 c139
00000140: ded3 b3ba 6eda 07ba c4e7 28bb 9dc3 92ba
00000150: c8ea 4ebb bce1 023a 983e 0a3b c8f4 3fbb
00000160: f869 0ebb f5e7 973a abd7 7f3b db6c 553a
00000170: 639b 2abb d71d 3f39 8826 473b ecd9 84bb
00000180: aef6 08ba 4245 f9ba 22b2 003b d052 99bb
00000190: 8e5e 503a e45d 503b 8cfb 2039 cb85 77ba
000001a0: 9153 52bb 252a 833a 6c0f 4b3a ca0b 60ba
000001b0: 1fff 733b a4ac 7f3b 703d 2f3b d69e 26ba
000001c0: 5a67 5a3b b29a 203b 9513 393b 60bd a33b
000001d0: 66b6 3abb 3e43 b038 4992 2f3b ee0a 943a
000001e0: 604d ab3a 672f 21bb 58b6 c23a 8e23 5f3a
000001f0: a3b4 b9bb b2f6 93bb 0215 8239 1a16 61ba
-0.0020934942 -0.0038531595 0.0026782344 -0.0012575127 0.00023632187 -0.00032485623 0.0019167804 -0.002995676
-0.00079775136 0.0017000621 0.00368124 0.0025169735 0.0013558826 0.00024001006 -0.000602241 -0.0005207013
0.00037352194 -0.0010551374 7.998196e-05 0.006604078 -0.0006402249 -0.0012756235 0.00019216865 0.0017873601
-0.0029849845 -0.0015171508 0.002664147 -0.0032151302 -0.000549387 0.0010327455 -0.0032317669 0.0030625248
-0.00040196232 -0.00027814266 -0.0008262667 -0.002698192 -0.0024143467 -0.0007992869 -0.00042098857 -0.0015931793
-0.0038068036 0.0001702591 -0.0026206223 0.0019608664 -0.0036655893 -0.0014532839 -0.0050480585 -0.0022179591
-0.0002616006 0.0014712394 -0.0008034419 0.0039043624 -0.0015444518 0.0017388922 0.0038846654 -0.0026191399
-0.002444202 0.002412882 0.005279155 0.0009960465 0.00045186857 -0.00057044835 -0.0030578848 0.00064194895
0.0037094615 0.0034562321 -0.002504445 0.00011318372 -0.00013308678 0.0021967909 -0.00093331176 0.0017132626
0.0015323239 0.0036435388 -0.0041532717 -0.00019656737 -0.0024570513 -0.0010829847 -0.00095697213 0.00036829544
-0.0013719758 -0.000518239 -0.0025772909 -0.0011197213 -0.0031573046 0.00049927435 0.0021094438 -0.0029290188
-0.0021730643 0.0011589514 0.003903846 0.0008141526 -0.002603256 0.00018226296 0.0030387957 -0.0040542986
-0.00052247464 -0.0019017833 0.0019637425 -0.0046790615 0.000794866 0.0031794244 0.00015352498 -0.0009442239
-0.0032093266 0.0010007067 0.00077461335 -0.00085466786 0.0037230921 0.0039012814 0.00267395 -0.0006356066
0.0033325762 0.0024506268 0.0028240432 0.0049969405 -0.0028490066 8.404859e-05 0.0026790074 0.0011294761
0.0013069324 -0.0024594904 0.0014855368 0.0008512073 -0.0056672855 -0.0045154924 0.00024811184 -0.0008586362

action_model._discrete_distribution.branches.0.weight f4 [38, 128]
00000000: 12f0 d9bb a32a 853c fc83 653b da8d 12bc
00000010: 0702 893c 36fa 1cbc 0f8c c7bc 208d f23b
00000020: 748a 483b 9bd3 f4bb 97c3 373b 4b32 e63b
00000030: 3acd 0f3c 4892 48bc 8322 e3bb b7f5 18bc
00000040: af2f 8bbb 998b 9d3c c042 81bc ed98 4a3b
00000050: 5707 ac3c 6fef 8139 ad90 513c 9014 00b8
00000060: 15f4 74ba 7260 0e3c 569c 3e3c 30fd 54bc
00000070: bcf0 19bc 82a5 a13b eea9 ebb8 3c7f 9dbc
00000080: 4420 53bb c330 893c 3872 523a 2710 cbba
00000090: cf16 93bc 1e42 efbb 7b10 ad3b be9f 5dbb
000000a0: 9ec6 2ebc 130b b83b eb47 923c 0b28 26bc
000000b0: fdaa ce3b 68f3 323c 91e9 083c a0fd b3b9
000000c0: fe9e 713c f557 c83c 74b6 1f3a 90da fb3b
000000d0: 75d1 93bc 0f8f 163c ad2d ad3b 3d3f f63b
000000e0: 57fc 303c ef1c f73b e2ed 04bc 78d4 babb
000000f0: 27b4 90bc 7051 14ba 8921 c13b 2fb4 8fbc
00000100: b196 2a3c d4f7 babb b26e 233c fc8e f73b
00000110: d25f ce3a e7eb c83b 77d8 353b 651f 4abb
00000120: e273 123c 865a 2abb b645 d63b 7a18 7ebc
00000130: 343d b1bb 069a d53b 7968 eb3b 41c4 7a3c
00000140: eb7e 6e3c 1051 b33b 02a9 463b 14f9 eebc
00000150: ce17 043c 8e2a 15bc 5188 5ebb f872 e13b
00000160: f345 1cbc 21a8 133c bbbd a2ba 13b7 c2bb
00000170: a090 823c 6030 823b 53ea a83b 49e2 1abc
00000180: 24bf 193c 1f74 433b 1658 cbba 0dcf 8abb
00000190: 5879 29bc 0442 453b 2892 6f3b d0e4 dd37
000001a0: 62a2 08bc b405 28bc 6cdc 8d3b 6fa7 59bc
000001b0: d307 9dbb 1625 53bc fcd4 2abc ef97 a1bc
000001c0: e367 8cbc ef6e d3ba 87f2 28bc 1daf d6bb
000001d0: ef19 eb3b e9ac 6bbb 5bde 61bb 9b1b acbb
000001e0: 7f1a e73b 56ec 833b 2796 90bc d901 0dba
000001f0: 9416 55bc 57af babc 5b29 0dbc 27a0 d4b9
00000200: b881 15bc a9dc 08bc 0d9d 20bc 9de0 2a3c
00000210: a572 823b a08b 8d3c 3554 3abb ee43 46bb
00000220: a124 52bb 8d96 be3b 53b6 14bc 3c47 0dbc
00000230: e433 843b 8ade 4e3a b5b7 83bc 3a4f 01bc
00000240: 1d75 0ebb d5a0 ce3b 7b34 213b 1dbe 0b3c
00000250: 3fde 45bc e79f 4ebb 02e9 a53b 7319 da3b
00000260: 9fc2 933b 1f91 863c 7329 b0bb 6509 e4ba
00000270: af3b f03a 0b63 af3b 2e1e 82bb 02b8 2b3c
00000280: 7abd 913b 1f06 63bb 409c 2eb9 08c9 c13b
00000290: 98d7 fdbb e214 9d3b b3c3 23bb 8c2c 46bb
000002a0: e197 f1bb 7e65 0f3c bb00 d4bb 4309 373c
000002b0: 4568 113c 47ee 6f3b 4aee 28bb ce59 1b3b
000002c0: c2bb d03b 56ce a73c 5820 1b3c c73a 64bc
000002d0: 722c e73a d324 dcbb e20c 5abb 9017 1d3c
000002e0: 2a0c a2bc 3c0a a6bb cd9d 653b a34d 0b3c
000002f0: 9bd1 2b3a 72ad f3bb 9042 7ebc 6370 cd3b
00000300: 065e 9cbb 5596 a7ba 0452 993c 64a9 c23c
00000310: cadf d3bb 236a 5fbc 0760 0ebc 7251 0bbb
00000320: 25b9 7dba 9b5f a33b a034 2b3b 02df f3b7
00000330: 46f2 87bb b654 ce3a 5c9e 86ba e261 cc3b
00000340: 5b48 b8bb 9be7 483c e54e 2abc ef4a 5f3b
00000350: 34af 803c 6ee3 083c 4c40 95bb 19d1 463c
00000360: ee40 8cbc 83cd ca3b 8c60 bf3b 3b6d 453a
00000370: feed 5838 c2d1 5dbc 3367 293c bd44 2bbc
00000380: ff26 18bb fa09 0ebc 83b8 7fba 3f2a 12bc
00000390: eb1e 32bc cca4 0a3c e837 90bb 552c 4cbb
000003a0: 9e6f d13b 0fc3 e83b 1cfd 683c 2c6d 9fbb
000003b0: 134d 3c3b b426 5e3b 838e f7bb b48e 32bc
000003c0: 47cb ef3c dd11 3fbb 9436 b1bb 26a1 69ba
000003d0: fcae ecbb 3614 a3bb 8ade 08bb e633 eabb
000003e0: 427d 9cba 9294 b9ba 7a87 463c 0b3b 6c3c
000003f0: d34f 1a3c ffad 3dbc 085e e1bb b00f 62bb
-0.006650933 0.016255682 0.0035021296 -0.008944953 0.0167246 -0.009581139 -0.024358777 0.0074020773
0.0030600103 -0.0074715144 0.0028040165 0.0070250384 0.008776957 -0.012241907 -0.0069316044 -0.009335927
-0.0042476277 0.019231604 -0.0157789 0.0030913905 0.020999594 0.0002478319 0.012790841 -3.053673e-05
-0.00093442324 0.008689987 0.011633953 -0.012999818 -0.009395774 0.00493306 -0.00011237325 -0.01922571
-0.0032215277 0.016746884 0.0008027884 -0.0015492485 -0.017955212 -0.007301583 0.0052815056 -0.0033817138
-0.010667471 0.0056165545 0.017856559 -0.010141383 0.0063070045 0.01092229 0.008356468 -0.00034330506
0.014747379 0.024456004 0.0006092556 0.007685967 -0.018044213 0.009189381 0.005284986 0.007514863
0.01080235 0.007541291 -0.008113356 -0.005701598 -0.017664028 -0.0005657887 0.0058938903 -0.017541973
0.010411904 -0.005705813 0.009975122 0.007554887 0.0015745109 0.0061316374 0.0027747431 -0.0030841467
0.008938761 -0.0025993898 0.006539072 -0.015508765 -0.0054089073 0.006518605 0.007184085 0.01530558
0.014556627 0.00547231 0.003031314 -0.029171504 0.008062316 -0.009104384 -0.0033955763 0.0068801604
-0.009538162 0.009012253 -0.0012416163 -0.0059422343 0.015938103 0.003973052 0.0051548867 -0.009453365
0.00938395 0.0029823852 -0.0015513923 -0.004236108 -0.010343872 0.0030099163 0.0036555622 2.6451802e-05
-0.008339496 -0.010255266 0.004329255 -0.013284548 -0.0047921925 -0.01288726 -0.010426756 -0.019725768
-0.01713938 -0.0016131083 -0.010311729 -0.006551637 0.0071747224 -0.0035961217 -0.003446481 -0.0052523143
0.007052719 0.004025976 -0.017649723 -0.00053789985 -0.013005871 -0.022788687 -0.008615817 -0.00040555114
-0.009125166 -0.008353391 -0.009803069 0.010429529 0.003980952 0.017278492 -0.002843154 -0.0030252892
-0.003206529 0.005816287 -0.009076673 -0.008622941 0.004034506 0.0007891437 -0.01607881 -0.007892424
-0.0021737285 0.0063057938 0.0024597931 0.008529213 -0.012076913 -0.0031528415 0.005063177 0.006655866
0.0045092846 0.016426621 -0.005376035 -0.0017397819 0.0018328334 0.005352383 -0.003970883 0.010480883
0.004447636 -0.00346411 -0.00016652141 0.0059138574 -0.007746648 0.004793749 -0.0024988472 -0.0030238954
-0.0073728417 0.008752225 -0.0064698136 0.011171642 0.008874957 0.003661053 -0.0025776797 0.002370465
0.0063700387 0.02048413 0.009468161 -0.013930029 0.0017637147 -0.006718257 -0.003327184 0.009588137
-0.01978119 -0.005067138 0.0035036684 0.008502397 0.0006554366 -0.007436448 -0.015518799 0.006269501
-0.0047719507 -0.0012785891 0.018715866 0.023762412 -0.0064658867 -0.013636145 -0.008689887 -0.0021258262
-0.0009678773 0.0049857623 0.0026123896 -2.9071703e-05 -0.0041487543 0.0015741799 -0.0010270583 0.0062372545
-0.00562386 0.01226225 -0.0103947865 0.0034071764 0.015708543 0.008355005 -0.004554784 0.012134814
-0.017120805 0.0061890497 0.0058403667 0.000753123 5.172006e-05 -0.01353878 0.010339546 -0.0104534
-0.0023216603 -0.008669371 -0.00097549724 -0.008921205 -0.010871629 0.008462142 -0.004401196 -0.0031154354
0.0063914796 0.007103331 0.014220502 -0.004865309 0.0028732463 0.003389758 -0.0075548305 -0.010898281
0.029271735 -0.0029154934 -0.0054081175 -0.00089122576 -0.007223008 -0.0049767746 -0.0020884597 -0.0071473
-0.0011939185 -0.0014158657 0.012117261 0.014418374 0.009418446 -0.011577128 -0.0068776645 -0.0034494214

action_model._discrete_distribution.branches.0.bias f4 [38]
00000000: bbef 1739 12c4 5cba fae4 173b 242e c53a
00000010: e741 dcba 8c69 21ba c0bc d43a ab42 c9b9
00000020: dca4 093b cdbf 6f3b 98d6 33bb 5dc9 d03b
00000030: 0cbb 39b8 828b 8bb8 026b f1ba 0325 99b9
00000040: 6a6d 3b3b bf7b 66bb aa9c ceba 97cb f0ba
00000050: a943 7c3a 1f11 7b3b 03a2 053b 5e34 e13a
00000060: 3d6b c0bb f4e5 223b d600 29bb dffe 123b
00000070: 14db 37bb 5f2e 9e39 3ef4 613b 8dbe 6aba
00000080: 9ac8 a03a ec71 26bb be5f baba 63fe 87bb
00000090: 7f0f 50bb 7b6c 57ba
0.00014489789 -0.0008421551 0.0023177252 0.0015043658 -0.0016804308 -0.00061573903 0.0016230568 -0.0003838738
0.0021002805 0.0036582828 -0.002744114 0.0063716606 -4.4281638e-05 -6.654022e-05 -0.0018418732 -0.0002921001
0.0028599151 -0.0035168973 -0.0015763242 -0.0018371221 0.0009623119 0.0038309766 0.0020390756 0.0017181744
-0.005872159 0.00248563 -0.0025787852 0.0022429747 -0.0028054165 0.00030170658 0.0034477855 -0.0008954786
0.0012266815 -0.0025397493 -0.0014219207 -0.0041501983 -0.0031747518 -0.0008217764

exp_avg f4 [128, 39]
00000000: 0000 0000 954f 8935 0000 0000 54b7 9fb4
00000010: 4a79 98b5 0000 0000 00d1 7f36 879a 2237
00000020: bc2d 6137 0000 0000 0000 0000 16dc 58b5
00000030: 0000 0000 0000 0000 0000 0000 0000 0000
00000040: a2f2 81b7 0000 0000 0000 0000 f60a a3b7
00000050: 4a07 6bb6 0000 0000 0000 0000 0000 0000
00000060: 0000 0000 b4d7 1bb7 0000 0000 0000 0000
00000070: ad25 34b6 447f 5035 42d1 8335 0000 0000
00000080: 05bd 15b7 0000 0000 a92d ca36 0000 0000
00000090: 2c2d e635 0000 0000 e28b 8bb2 0000 0000
000000a0: 3ecc 58b4 0000 0000 de42 b5b6 a58c 12b6
000000b0: 0000 0000 cee6 7436 aa15 02b6 5275 3037
000000c0: 0000 0000 0000 0000 dce3 b435 0000 0000
000000d0: 0000 0000 0000 0000 0000 0000 e22c 9fb5
000000e0: 0000 0000 0000 0000 03d9 82b6 4231 34b5
000000f0: 0000 0000 0000 0000 0000 0000 0000 0000
00000100: cfdf fab6 0000 0000 0000 0000 f890 b2b6
00000110: 0a2c 5536 10e6 bdb6 0000 0000 2f77 5836
00000120: 0000 0000 b657 a735 0000 0000 56e5 8ab5
00000130: 0000 0000 9773 14b2 0000 0000 cac2 56b6
00000140: 0000 0000 0909 f5b5 db3a a1b6 0000 0000
00000150: 90d2 b036 9456 8736 8475 cd36 0000 0000
00000160: 0000 0000 1c27 10b6 0000 0000 0000 0000
00000170: 0000 0000 0000 0000 ad7a 9fb6 0000 0000
00000180: 0000 0000 e76d dc36 8eed 68b5 0000 0000
00000190: 0000 0000 0000 0000 0000 0000 4b49 a5b6
000001a0: 0000 0000 0000 0000 b066 70b6 feda 6cb5
000001b0: 1ee3 dbb5 0000 0000 3b62 1837 0000 0000
000001c0: 918c 96b6 0000 0000 ecca e036 0000 0000
000001d0: 00cc 3c2c 0000 0000 e202 a9b6 0000 0000
000001e0: c8f7 11b4 c06f bbb6 0000 0000 ef90 fe34
000001f0: d0f5 f934 caf9 3335 0000 0000 0000 0000
00000200: be90 fe36 0000 0000 0000 0000 0000 0000
00000210: 0000 0000 de04 a8b4 0000 0000 0000 0000
00000220: 498a 4037 0159 50b6 0000 0000 0000 0000
00000230: 0000 0000 0000 0000 6aea 29b5 0000 0000
00000240: 0000 0000 6833 9a36 e09c 0cb4 1318 3bb6
00000250: 0000 0000 75ea 6436 0000 0000 ac17 e134
00000260: 0000 0000 c12f dd36 0000 0000 1a2d 3532
00000270: 0000 0000 61a6 e6b5 0000 0000 94f4 abb6
00000280: 3e37 4336 0000 0000 0792 0b37 f955 8cb6
00000290: 5eb8 1536 0000 0000 0000 0000 22b2 0f37
000002a0: 0000 0000 0000 0000 0000 0000 0000 0000
000002b0: 0cdf 8eb5 0000 0000 0000 0000 c23b ec35
000002c0: 69fe 9cb5 0000 0000 0000 0000 0000 0000
000002d0: 0000 0000 68df b6b6 0000 0000 0000 0000
000002e0: a1fb ed36 ca6c beb5 2a82 3036 0000 0000
000002f0: 7350 1eb7 0000 0000 992a 2336 0000 0000
00000300: ba92 45b6 0000 0000 9810 1030 0000 0000
00000310: 4128 a4b5 0000 0000 3c89 0a37 681a c535
00000320: 0000 0000 2c86 7d36 39ac b9b5 5cd7 0035
00000330: 0000 0000 0000 0000 44c2 74b6 0000 0000
00000340: 0000 0000 0000 0000 0000 0000 0abe 5236
00000350: 0000 0000 0000 0000 dbf4 8536 8afe a1b6
00000360: 0000 0000 0000 0000 0000 0000 0000 0000
00000370: dac0 3936 0000 0000 0000 0000 0ee3 c836
00000380: b8dd d435 3d42 43b5 0000 0000 c350 a2b5
00000390: 0000 0000 0f82 0c37 0000 0000 6d12 d835
000003a0: 0000 0000 c422 8132 0000 0000 1866 0d36
000003b0: 0000 0000 1793 0e37 b387 a636 0000 0000
000003c0: ba5f f436 74dd 12b7 053b 0934 0000 0000
000003d0: 0000 0000 7618 7db7 0000 0000 0000 0000
000003e0: 0000 0000 0000 0000 f664 81b5 0000 0000
000003f0: 0000 0000 36d8 18b5 3643 88b4 0000 0000
0.0 1.0230457e-06 0.0 -2.9749447e-07 -1.1360182e-06 0.0 3.8119615e-06 9.691931e-06
1.3421693e-05 0.0 0.0 -8.078654e-07 0.0 0.0 0.0 0.0
-1.5490983e-05 0.0 0.0 -1.9436218e-05 -3.5021972e-06 0.0 0.0 0.0
0.0 -9.288942e-06 0.0 0.0 -2.684402e-06 7.7671234e-07 9.821163e-07 0.0
-8.925102e-06 0.0 6.0253847e-06 0.0 1.7149482e-06 0.0 -1.6245341e-08 0.0
-2.019087e-07 0.0 -5.4020047e-06 -2.1837561e-06 0.0 3.649318e-06 -1.938412e-06 1.0517733e-05
0.0 0.0 1.3477361e-06 0.0 0.0 0.0 0.0 -1.1859486e-06
0.0 0.0 -3.8995654e-06 -6.7126905e-07 0.0 0.0 0.0 0.0
-7.4766353e-06 0.0 0.0 -5.32169e-06 3.1765107e-06 -5.6594217e-06 0.0 3.2255882e-06
0.0 1.2467997e-06 0.0 -1.0348547e-06 0.0 -8.641016e-09 0.0 -3.2001867e-06
0.0 -1.8256552e-06 -4.8050256e-06 0.0 5.2697214e-06 4.0333925e-06 6.1231567e-06 0.0
0.0 -2.1480437e-06 0.0 0.0 0.0 0.0 -4.7528506e-06 0.0
0.0 6.5693052e-06 -8.677242e-07 0.0 0.0 0.0 0.0 -4.9259156e-06
0.0 0.0 -3.5822559e-06 -8.8235527e-07 -1.6382871e-06 0.0 9.082777e-06 0.0
-4.4867124e-06 0.0 6.6993434e-06 0.0 2.682965e-12 0.0 -5.036928e-06 0.0
-1.359432e-07 -5.5860437e-06 0.0 4.741664e-07 4.6558716e-07 6.704619e-07 0.0 0.0
7.58664e-06 0.0 0.0 0.0 0.0 -3.129598e-07 0.0 0.0
1.1476289e-05 -3.1046222e-06 0.0 0.0 0.0 0.0 -6.3298523e-07 0.0
0.0 4.595542e-06 -1.3095587e-07 -2.7879184e-06 0.0 3.411112e-06 0.0 4.192674e-07
0.0 6.5918725e-06 0.0 1.05458415e-08 0.0 -1.7184758e-06 0.0 -5.1246698e-06
2.908942e-06 0.0 8.319045e-06 -4.1823337e-06 2.2310046e-06 0.0 0.0 8.564939e-06
0.0 0.0 0.0 0.0 -1.064474e-06 0.0 0.0 1.7600762e-06
-1.1696949e-06 0.0 0.0 0.0 0.0 -5.4500306e-06 0.0 0.0
7.092444e-06 -1.4187765e-06 2.630181e-06 0.0 -9.436265e-06 0.0 2.4313688e-06 0.0
-2.9440694e-06 0.0 5.2410476e-10 0.0 -1.2230668e-06 0.0 8.257393e-06 1.4685329e-06
0.0 3.7778036e-06 -1.3833697e-06 4.7997105e-07 0.0 0.0 -3.647191e-06 0.0
0.0 0.0 0.0 3.1403056e-06 0.0 0.0 3.992214e-06 -4.827806e-06
0.0 0.0 0.0 0.0 2.7679403e-06 0.0 0.0 5.986897e-06
1.585976e-06 -7.273955e-07 0.0 -1.2093445e-06 0.0 8.374932e-06 0.0 1.6098617e-06
0.0 1.5033386e-08 0.0 2.1070064e-06 0.0 8.498107e-06 4.962983e-06 0.0
7.2829107e-06 -8.753839e-06 1.278059e-07 0.0 0.0 -1.508567e-05 0.0 0.0
0.0 0.0 -9.640632e-07 0.0 0.0 -5.693904e-07 -2.5380876e-07 0.0

exp_avg_sq f4 [128, 39]
00000000: 0000 0000 05f9 882d 0000 0000 bd50 5c2d
00000010: 0f24 b22d 0000 0000 00ea 382d 88de 582d
00000020: 8d19 d22d 0000 0000 0000 0000 d412 062d
00000030: 0000 0000 0000 0000 0000 0000 0000 0000
00000040: 2e0b b52d 0000 0000 0000 0000 3a8d fa2d
00000050: e56b 372d 0000 0000 0000 0000 0000 0000
00000060: 0000 0000 8cd9 432d 0000 0000 0000 0000
00000070: de64 422d 9faa 982d 902c 4c2d 0000 0000
00000080: 0b25 872d 0000 0000 2981 922d 0000 0000
00000090: d4aa 152d 0000 0000 b0eb f324 0000 0000
000000a0: a536 2b2c 0000 0000 7e62 b82c ceea ba2c
000000b0: 0000 0000 145a 322c 07b4 922c a45c cf2c
000000c0: 0000 0000 0000 0000 7600 a62c 0000 0000
000000d0: 0000 0000 0000 0000 0000 0000 6f65 e32c
000000e0: 0000 0000 0000 0000 3442 cc2c 8f1b c22c
000000f0: 0000 0000 0000 0000 0000 0000 0000 0000
00000100: 149f b12c 0000 0000 0000 0000 c222 f52c
00000110: d658 a12c 2f47 932c 0000 0000 7601 ac2c
00000120: 0000 0000 0c5d 122d 0000 0000 0d6e 822c
00000130: 0000 0000 b0e8 e823 0000 0000 97e3 bf2c
00000140: 0000 0000 569c 1f2d 24e9 822d 0000 0000
00000150: a809 ed2c d85a d12c da03 1c2d 0000 0000
00000160: 0000 0000 4d0f 112d 0000 0000 0000 0000
00000170: 0000 0000 0000 0000 04be 3a2d 0000 0000
00000180: 0000 0000 4d6e a52c e1ae 0d2d 0000 0000
00000190: 0000 0000 0000 0000 0000 0000 2389 792c
000001a0: 0000 0000 0000 0000 bbe9 652d fb3f e82c
000001b0: 3601 732c 0000 0000 44b4 522d 0000 0000
000001c0: ebf1 4a2d 0000 0000 2bad ab2c 0000 0000
000001d0: c119 3f24 0000 0000 bc7d 4b2d 0000 0000
000001e0: b2f7 842c 9804 e92c 0000 0000 6ef1 de2c
000001f0: cec6 952c 4a80 952c 0000 0000 0000 0000
00000200: 70cc 312d 0000 0000 0000 0000 0000 0000
00000210: 0000 0000 f0e7 d72c 0000 0000 0000 0000
00000220: 881a f82c 0f49 cf2c 0000 0000 0000 0000
00000230: 0000 0000 0000 0000 300b 042d 0000 0000
00000240: 0000 0000 b41b 062d 4e02 da2c 3e2f b42c
00000250: 0000 0000 e999 3d2c 0000 0000 33c0 aa2c
00000260: 0000 0000 d623 652d 0000 0000 8ba3 3024
00000270: 0000 0000 9749 172d 0000 0000 5dd7 a82c
00000280: 7502 3e2d 0000 0000 9264 0e2d 36f0 462d
00000290: 12d7 0d2c 0000 0000 0000 0000 2ff1 1d2d
000002a0: 0000 0000 0000 0000 0000 0000 0000 0000
000002b0: b66a 9a2c 0000 0000 0000 0000 b8cc 272d
000002c0: 87d2 022d 0000 0000 0000 0000 0000 0000
000002d0: 0000 0000 84f9 102d 0000 0000 0000 0000
000002e0: 4f4e b82c 35ad f42c 22f0 092d 0000 0000
000002f0: f060 202d 0000 0000 b4ab ca2c 0000 0000
00000300: ce05 082d 0000 0000 f63b 3824 0000 0000
00000310: 9d21 8c2c 0000 0000 e3c1 ba2c 1d61 432c
00000320: 0000 0000 785d 122d 8625 f82b c954 f22c
00000330: 0000 0000 0000 0000 785e fe2c 0000 0000
00000340: 0000 0000 0000 0000 0000 0000 844c 712c
00000350: 0000 0000 0000 0000 4a26 ad2c c192 0a2d
00000360: 0000 0000 0000 0000 0000 0000 0000 0000
00000370: 361d d22c 0000 0000 0000 0000 ad5b bc2c
00000380: 0e60 0b2d 1519 af2c 0000 0000 d56e 552c
00000390: 0000 0000 6021 f52c 0000 0000 d99b ab2c
000003a0: 0000 0000 970c ec23 0000 0000 c60e fa2c
000003b0: 0000 0000 1fdc fa2c ef92 1f2d 0000 0000
000003c0: 5871 622d 9ad9 672d fbc2 772d 0000 0000
000003d0: 0000 0000 7428 9c2d 0000 0000 0000 0000
000003e0: 0000 0000 0000 0000 f62b 002d 0000 0000
000003f0: 0000 0000 23d5 e92c 9e53 3d2d 0000 0000
0.0 1.5571997e-11 0.0 1.252348e-11 2.025227e-11 0.0 1.05111475e-11 1.232759e-11
2.3885583e-11 0.0 0.0 7.621199e-12 0.0 0.0 0.0 0.0
2.0582282e-11 0.0 0.0 2.8484427e-11 1.0426303e-11 0.0 0.0 0.0
0.0 1.1132772e-11 0.0 0.0 1.105002e-11 1.735617e-11 1.1605952e-11 0.0
1.5364173e-11 0.0 1.6655637e-11 0.0 8.507601e-12 0.0 1.0578372e-16 0.0
2.4330895e-12 0.0 5.2405294e-12 5.3125065e-12 0.0 2.5345325e-12 4.1695566e-12 5.893579e-12
0.0 0.0 4.718055e-12 0.0 0.0 0.0 0.0 6.4629894e-12
0.0 0.0 5.8053787e-12 5.5168712e-12 0.0 0.0 0.0 0.0
5.048304e-12 0.0 0.0 6.9671777e-12 4.585758e-12 4.1858943e-12 0.0 4.8886962e-12
0.0 8.3198e-12 0.0 3.7070403e-12 0.0 2.5252037e-17 0.0 5.453814e-12
0.0 9.072817e-12 1.4882824e-11 0.0 6.737017e-12 5.950223e-12 8.8684286e-12 0.0
0.0 8.245693e-12 0.0 0.0 0.0 0.0 1.0615068e-11 0.0
0.0 4.701828e-12 8.053753e-12 0.0 0.0 0.0 0.0 3.5461154e-12
0.0 0.0 1.30690415e-11 6.60094e-12 3.453305e-12 0.0 1.1977145e-11 0.0
1.1536087e-11 0.0 4.879338e-12 0.0 4.1438337e-17 0.0 1.1567133e-11 0.0
3.7791653e-12 6.6227683e-12 0.0 6.3364236e-12 4.2569065e-12 4.2490777e-12 0.0 0.0
1.0106679e-11 0.0 0.0 0.0 0.0 6.1364178e-12 0.0 0.0
7.0515295e-12 5.891405e-12 0.0 0.0 0.0 0.0 7.505815e-12 0.0
0.0 7.6231695e-12 6.1961885e-12 5.1211526e-12 0.0 2.6943953e-12 0.0 4.853029e-12
0.0 1.30251e-11 0.0 3.8302443e-17 0.0 8.5996965e-12 0.0 4.7987573e-12
1.0800795e-11 0.0 8.094097e-12 1.13083345e-11 2.0156693e-12 0.0 0.0 8.97797e-12
0.0 0.0 0.0 0.0 4.3887905e-12 0.0 0.0 9.538308e-12
7.436391e-12 0.0 0.0 0.0 0.0 8.240856e-12 0.0 0.0
5.2382885e-12 6.954127e-12 7.840869e-12 0.0 9.1164715e-12 0.0 5.760248e-12 0.0
7.731994e-12 0.0 3.994943e-17 0.0 3.982771e-12 0.0 5.3079637e-12 2.7765075e-12
0.0 8.319893e-12 1.7631875e-12 6.8874667e-12 0.0 0.0 7.2296023e-12 0.0
0.0 0.0 0.0 3.4290635e-12 0.0 0.0 4.9212067e-12 7.876978e-12
0.0 0.0 0.0 0.0 5.971802e-12 0.0 0.0 5.3534594e-12
7.922564e-12 4.976584e-12 0.0 3.0330645e-12 0.0 6.967024e-12 0.0 4.877415e-12
0.0 2.5592503e-17 0.0 7.1070675e-12 0.0 7.1298657e-12 9.070729e-12 0.0
1.287178e-11 1.3179147e-11 1.4083619e-11 0.0 0.0 1.7753111e-11 0.0 0.0
0.0 0.0 7.285719e-12 0.0 0.0 6.6459212e-12 1.0761973e-11 0.0

exp_avg f4 [128]
00000000: cc33 ceb7 bcaf 4bb7 44fa 8236 7733 9437
00000010: 92df 4236 bf7f ee37 925a fcb6 61bb 1fb8
00000020: 8227 1db7 0a5a 9bb7 bcc7 eab4 949d 6bb7
00000030: 0030 a2b7 571b 9937 c841 56b7 0b11 f3b6
00000040: 357d b036 918e 07b8 20a4 5235 c23c 7ab7
00000050: 921e 7035 d2bd 7a36 d436 e3b7 8040 17b2
00000060: 2f03 18b8 aadd 7fb7 1f4c 8eb7 8a92 e0b7
00000070: 7171 aab7 92b1 af36 5cf9 e136 3493 e4b7
00000080: 23b7 85b7 cc40 7bb6 4204 a8b7 4469 f9b7
00000090: 3941 28b8 5b83 22b7 428d a937 256a 1037
000000a0: 4c5b f837 eca2 7036 0c61 6037 4d4c 82b6
000000b0: 404c bab6 3b62 dab7 e49d 38b8 3e7c f1b7
000000c0: 76d4 75b6 1866 c6b7 f8ab 3237 5457 ed37
000000d0: 147f c8b7 5866 a735 0054 02b7 20b1 2334
000000e0: 51e6 c7b7 2293 2cb8 7ed8 adb7 063a 49b7
000000f0: 8b6c 46b8 505d 1b36 b076 a537 a1a8 18b7
00000100: 6a2d 92b7 4ef6 70b7 1e6b 81b7 3d7d 87b6
00000110: 1891 b637 501c 1e37 8c60 a3b7 a876 a037
00000120: c933 88b7 6bab b837 1873 dc36 e377 90b7
00000130: 3661 a3b7 df28 46b6 3cf0 5136 acc8 4b35
00000140: 0007 fb34 5041 4436 0ecb f436 3c01 8037
00000150: 773e ee36 46af eeb5 2f06 83b7 9d08 bd37
00000160: 787a 04b8 ddc1 9eb7 1a8e 54b6 64d2 4f36
00000170: 02d7 25b7 d452 34b8 3910 41b6 fa58 8ab7
00000180: 90ee 23b8 4f4b a337 e4da 6a37 3ef9 b636
00000190: 50bd abb4 8c79 14b6 2880 e337 ca52 a3b7
000001a0: 3de5 87b7 7218 bbb6 2c8e 3336 4f7e 24b7
000001b0: 6a07 bcb7 b856 9137 7851 b0b7 dd55 1b36
000001c0: f603 9037 7eec 97b7 c7cd 8bb7 908c 36b7
000001d0: 32b0 eb36 a487 f0b6 4f1d abb7 e215 eab7
000001e0: a8fb 9236 eef3 ed36 399b 2cb6 dfd3 6bb6
000001f0: b034 75b7 1510 9f37 52bb 4db6 727f 8b37
-2.4581233e-05 -1.2140659e-05 3.9034367e-06 1.766694e-05 2.9038388e-06 2.8431297e-05 -7.520729e-06 -3.8083064e-05
-9.367128e-06 -1.8519368e-05 -4.3731222e-07 -1.40437805e-05 -1.9334257e-05 1.8251752e-05 -1.277071e-05 -7.2439484e-06
5.2597848e-06 -3.2319283e-05 7.846993e-07 -1.49153075e-05 8.945145e-07 3.7363393e-06 -2.708604e-05 -8.804022e-09
-3.624259e-05 -1.5250795e-05 -1.6963166e-05 -2.6771118e-05 -2.0318404e-05 5.2360783e-06 6.734552e-06 -2.7248265e-05
-1.5940115e-05 -3.7439631e-06 -2.0029143e-05 -2.9732131e-05 -4.0115065e-05 -9.686536e-06 2.0212148e-05 8.607783e-06
2.9606417e-05 3.585762e-06 1.3374036e-05 -3.8831845e-06 -5.5521086e-06 -2.6033367e-05 -4.4016066e-05 -2.8787294e-05
-3.6631513e-06 -2.365098e-05 1.0649666e-05 2.8293267e-05 -2.3901033e-05 1.2472256e-06 -7.768162e-06 1.5244996e-07
-2.3829898e-05 -4.1145024e-05 -2.072402e-05 -1.1994043e-05 -4.7307967e-05 2.3151115e-06 1.9724801e-05 -9.099168e-06
-1.7425704e-05 -1.4362462e-05 -1.5427879e-05 -4.037893e-06 2.1763655e-05 9.424126e-06 -1.9476072e-05 1.912874e-05
-1.6236578e-05 2.2014332e-05 6.5699096e-06 -1.7221964e-05 -1.9476382e-05 -2.952809e-06 3.1283262e-06 7.591541e-07
4.6757486e-07 2.9244293e-06 7.2954053e-06 1.5259364e-05 7.1002246e-06 -1.7783393e-06 -1.5619296e-05 2.2534567e-05
-3.158531e-05 -1.8925342e-05 -3.1673176e-06 3.0967867e-06 -9.884827e-06 -4.2992484e-05 -2.8768684e-06 -1.6492315e-05
-3.9084407e-05 1.9466182e-05 1.3998451e-05 5.4530383e-06 -3.1988975e-07 -2.2124468e-06 2.7120186e-05 -1.9469666e-05
-1.6200001e-05 -5.57588e-06 2.6755833e-06 -9.80457e-06 -2.2414799e-05 1.7325729e-05 -2.1018772e-05 2.3146779e-06
1.7167982e-05 -1.8110728e-05 -1.6665914e-05 -1.0880773e-05 7.0240576e-06 -7.168348e-06 -2.0398436e-05 -2.7905164e-05
4.3804357e-06 7.0915476e-06 -2.5720349e-06 -3.5141054e-06 -1.4615405e-05 1.8961766e-05 -3.0656415e-06 1.6629438e-05

exp_avg_sq f4 [128]
00000000: 387a b92f 5839 b42e f3b2 042f a9fb fa2e
00000010: 75df 0a2f 231e 9f2e 5455 ed2e 6803 7c2f
00000020: b0ba 1c2f 8921 0e2f 10b4 1b2f 9fec 4d2f
00000030: ec55 1c2f d3af ee2e 9479 432f d825 a02e
00000040: f95c 932f 4cd4 222f 3a12 142f fbe0 f52e
00000050: 6780 0a2f d6bc 082f b3f2 9a2e d538 ea2e
00000060: 906b 392f a83a cd2e 0fe4 392f be75 922f
00000070: a6f3 722e cd7b df2e 8b0d 1c2f 74ff fc2e
00000080: bfae 242f 6f54 662f 6372 152f 72d9 502f
00000090: f810 4a2f e608 642e 1f11 302f a7f0 012f
000000a0: 625c 3a2f 91a5 072f 6bcd ad2e e41b 2c2f
000000b0: e4e4 172f 2a1c 612f fd77 072f 8650 2e2f
000000c0: 3f58 b02e 16ca 062f d2dd b32e 3790 9a2f
000000d0: 91de 502f ba5b e52e 88ab e32e 34d2 aa2e
000000e0: b013 042f 837e 622f d559 f42e 1058 962f
000000f0: 4a3c a22f a340 322f fd7b 5a2f 9bf1 842f
00000100: 17e3 a12f 0270 1b2f 174c 0a2f 23b5 a92e
00000110: 4423 722e 37bd 202f 9582 de2e 4be4 632f
00000120: a418 152f a8c2 592f e8c9 d02e 3e1e ed2e
00000130: b90d 0b2f acde 142f 38f4 e62e b491 042f
00000140: 2141 3a2f c6d0 a22e 8737 a42e 36b8 042f
00000150: 5459 fc2e e6cd 132f 9cf1 6e2f 3c2b c82e
00000160: d76c 922e b2b1 032f 8bc0 092f 70e2 f32e
00000170: 44bb 2e2f 9de9 762f c6d3 212f 0d4c 352f
00000180: be72 522f 6d34 b52e 8126 b22e ac0b e02e
00000190: 1ba3 cc2e 5a85 fd2e bc77 222f 93c4 412f
000001a0: 4554 fa2e e2a8 e72e 7862 1d2f 4539 172f
000001b0: bed7 662f bfac 8d2f f3d7 2c2f 8302 352f
000001c0: 9bdb 0e2f 3e05 012f 11cd f22e 107b 532f
000001d0: a849 2c2f 8481 1e2f d0da f12e 2f7c 282f
000001e0: 4524 c62e 95fc 462f 7132 862e 94f9 fc2e
000001f0: 4d44 1b2f 9f81 312f ed5e e12e 31e1 112f
3.3738146e-10 8.1956386e-11 1.2068906e-10 1.14133876e-10 1.2630415e-10 7.235836e-11 1.07926695e-10 2.2920477e-10
1.4254442e-10 1.2926739e-10 1.4161139e-10 1.8728706e-10 1.4218643e-10 1.08542196e-10 1.777834e-10 7.28268e-11
2.6805205e-10 1.4809237e-10 1.3466997e-10 1.1181275e-10 1.2596645e-10 1.2436216e-10 7.046221e-11 1.06511834e-10
1.6863866e-10 9.33274e-11 1.6906675e-10 2.6640906e-10 5.5240833e-11 1.01628574e-10 1.4192929e-10 1.1505011e-10
1.4977795e-10 2.0948375e-10 1.359211e-10 1.8994742e-10 1.8377821e-10 5.18491e-11 1.601319e-10 1.1817979e-10
1.6949422e-10 1.2337e-10 7.903619e-11 1.5653218e-10 1.3814688e-10 2.0473637e-10 1.2320807e-10 1.5853815e-10
8.019229e-11 1.2259024e-10 8.179381e-11 2.8114908e-10 1.8996561e-10 1.0430008e-10 1.0353235e-10 7.7680445e-11
1.2012324e-10 2.0599526e-10 1.1111793e-10 2.7347413e-10 2.9510466e-10 1.6211969e-10 1.9871034e-10 2.418233e-10
2.9447086e-10 1.4136961e-10 1.257806e-10 7.7174066e-11 5.505575e-11 1.4619138e-10 1.0118587e-10 2.0726636e-10
1.3560225e-10 1.9805191e-10 9.494611e-11 1.0782884e-10 1.2646852e-10 1.353963e-10 1.0502571e-10 1.2057094e-10
1.693974e-10 7.403993e-11 7.46772e-11 1.2070775e-10 1.1475501e-10 1.3442722e-10 2.1731811e-10 9.102627e-11
6.658645e-11 1.197751e-10 1.2528482e-10 1.1090584e-10 1.5891738e-10 2.2456566e-10 1.4718102e-10 1.6488873e-10
1.9140153e-10 8.24024e-11 8.1013425e-11 1.0188414e-10 9.305819e-11 1.1528796e-10 1.4776352e-10 1.7623085e-10
1.1383653e-10 1.05346634e-10 1.431405e-10 1.3753716e-10 2.0995025e-10 2.5770494e-10 1.572003e-10 1.6462746e-10
1.2992844e-10 1.1734344e-10 1.1041313e-10 1.9234059e-10 1.5669477e-10 1.441603e-10 1.099828e-10 1.532363e-10
9.01044e-11 1.809773e-10 6.102575e-11 1.1503967e-10 1.4121433e-10 1.6144107e-10 1.02486776e-10 1.3267677e-10
