results/DemoRun/TestAgent1/TestAgent1-7140.onnx (onnx, 110624 bytes, 5 tensors)

network_body._body_endoder.seq_layers.0.weight f4 [128, 39]
0.044795737 -0.016466687 -0.1624229 -0.11010037 -0.12664405 -0.40799963 -0.2479594 -0.22783972
-0.010784236 0.2331859 -0.001279038 -0.04645342 0.2499446 -0.05482335 0.22943474 -0.023714678
0.107238464 -0.051377866 -0.10855911 -0.084960304 -0.22655569 -0.07545183 0.13754798 0.04349838
0.28453514 0.20817392 0.24524347 0.20652102 0.04863471 -0.11491954 -0.16377342 -0.008584482
0.027093938 -0.23028137 -0.106749564 -0.028429681 0.35776237 -0.13294938 0.063570604 -0.25077865
-0.008803481 0.062333286 -0.021476634 0.25838605 -0.100855194 0.17433183 -0.18576261 0.044885125
-0.20822115 0.08068952 -0.022128135 0.19278914 -0.05080136 0.09192882 -0.12649046 0.14473116
-0.24295026 -0.1606576 0.20917037 -0.14875217 -0.03597814 0.13619202 -0.14786233 -0.31157866
-0.26164597 -0.18019326 -0.048634104 0.020309653 -0.20478639 -0.36479008 0.024742942 -0.048726678
0.13728185 -0.15744273 0.029887678 -0.036356717 0.360975 -0.057497658 -0.12075177 -0.070878
-0.13445328 -0.004058403 0.030107133 0.098836355 0.029552327 -0.049731705 -0.035806384 -0.0520311
-0.03440592 0.20127761 0.096123934 -0.1534595 0.101835914 -0.01608898 -0.17946775 -0.17416553
0.31127694 -0.017937258 0.3464039 -0.18638285 0.09189376 0.11663007 -0.29647994 -0.024987862
0.07283625 -0.30190754 -0.03346235 -0.21786617 -0.1378721 -0.1268907 -0.40484902 0.07357252
-0.106309116 -0.03278139 0.23525779 0.088115305 0.059507504 -0.07422311 -0.27979687 0.04747487
0.11553278 0.1814987 0.09710094 -0.010531816 -0.03993352 0.15778366 -0.13135935 -0.035411775
-0.16054752 0.057833895 -0.04611373 -0.011397348 -0.045201078 0.047927182 -0.0808117 0.003628161
-0.11632041 -0.41412365 -0.35476252 -0.017438257 0.19137816 -0.012126282 0.14215899 -0.27102965
0.093105756 -0.028433522 -0.15171872 0.031025123 -0.21671438 -0.11463285 -0.12153323 0.041337874
0.11603852 -0.3041681 -0.029394621 0.05400432 -0.10624527 0.09744562 -0.032020863 -0.19261499
0.04010346 0.19641888 0.104445845 0.12703553 0.18872571 -0.04156185 0.40851676 -0.07932284
0.09120073 -0.028742164 -0.059565093 0.025002517 0.084033124 -0.103538714 0.18318318 -0.018436866
-0.25873488 -0.4724745 0.13437924 -0.29783028 -0.022747897 -0.08709671 -0.18720624 0.07676089
-0.03287809 -0.03578422 -0.12157407 0.15702082 -0.05805314 -0.10909512 -0.013127548 0.046198
0.09618703 0.08508682 -0.06374591 -0.07338104 0.09455655 0.1580034 -0.13791531 -0.345036
0.12479611 -0.0750668 0.28405198 0.13530682 0.25007716 0.2638603 0.101633355 -0.18719193
0.027178692 -0.13714164 0.098079056 0.05156444 0.023134518 -0.32294396 -0.017754713 0.053071585
-0.35915485 -0.073674135 -0.16373128 -0.14136712 0.046266306 -0.12736636 0.13104086 0.2791586
0.06253378 -0.46676415 0.2238811 0.038375515 -0.0026994545 -0.07769007 -0.07597263 -0.06882129
0.15200272 -0.23267004 -0.14438915 -0.24473685 -0.0015001914 0.19648021 -0.008016452 -0.14982757
-0.14707619 0.1904896 0.20525841 -0.03406648 0.09581256 0.11855281 0.3123254 -0.01135348
0.0515747 -0.14087044 -0.17144193 0.027537514 -0.08541674 0.17696148 0.18273655 0.10704123
00000000: bc7b 373d 25e5 86bc 3052 26be 4e7c e1bd
00000010: faae 01be 54e5 d0be 12e9 7dbe d14e 69be
00000020: 5db0 30bc 49c8 6e3e 65a5 a7ba f145 3ebd
00000030: 7af1 7f3e 738e 60bd f1f0 6a3e 4945 c2bc
00000040: d79f db3d 9971 52bd 3d54 debd abff adbd
00000050: 37fe 67be 7d86 9abd 61d9 0c3e 5b2b 323d
00000060: 97ae 913e 8b2b 553e 1b21 7b3e 3f7a 533e
00000070: 3135 473d f05a ebbd 38b4 27be eda5 0cbc
00000080: 1bf4 dd3c e1ce 6bbe 849f dabd 5de5 e8bc
00000090: a12c b73e e223 08be 4e31 823d 0f66 80be
000000a0: 7a3c 10bc 3051 7f3d c4ef afbc 2d4b 843e
000000b0: 2b8d cebd 0b84 323e 8e38 3ebe 77d9 373d
000000c0: ed37 55be 8c40 a53d 1046 b5bc 846a 453e
000000d0: 1615 50bd 2d45 bc3d b786 01be 6834 143e
000000e0: f4c7 78be 6d83 24be c230 563e 7d52 18be
000000f0: d05d 13bd ec75 0b3e 3969 17be 3d87 9fbe
00000100: 76f6 85be 9584 38be 8e34 47bd 6e60 a63c
00000110: 86b3 51be c4c5 babe b6b1 ca3c a095 47bd
00000120: 9d93 0c3e ab38 21be 01d7 f43c c8ea 14bd
00000130: b7d1 b83e aa82 6bbd b44c f7bd 7c28 91bd
00000140: 1fae 09be 5afc 84bb 3ca3 f63c b76a ca3d
00000150: b917 f23c 79b3 4bbd b7a9 12bd 901e 55bd
00000160: 39ed 0cbd b81b 4e3e a0dc c43d 7d24 1dbe
00000170: 598f d03d 09cd 83bc 65c6 37be 7358 32be
00000180: b15f 9f3e 28f1 92bc da5b b13e 25db 3ebe
00000190: cc32 bc3d bfdb ee3d 38cc 97be 58b3 ccbc
000001a0: 2c2b 953d a093 9abe d10f 09bd 4f18 5fbe
000001b0: 582e 0dbe a3ef 01be 5f48 cfbe 30ad 963d
000001c0: 98b8 d9bd c745 06bd 6be7 703e cc75 b43d
000001d0: 24be 733d 4902 98bd 8941 8fbe 0275 423d
000001e0: 739c ec3d ccda 393e dcdc c63d a38d 2cbc
000001f0: 5591 23bd 0a92 213e 1183 06be f00b 11bd
00000200: 9266 24be 3ce3 6c3d c0e1 3cbd f1bb 3abc
00000210: c424 39bd 4b4f 443d 9b80 a5bd 71c6 6d3b
00000220: 6539 eebd 0408 d4be 6fa3 b5be adda 8ebc
00000230: a3f8 433e 50ad 46bc 2092 113e 66c4 8abe
00000240: 3bae be3d 6bed e8bc 275c 1bbe 6628 fe3c
00000250: 60ea 5dbe a1c4 eabd 6ae6 f8bd e751 293d
00000260: 9ba5 ed3d ecbb 9bbe fdcc f0bc a233 5d3d
00000270: 1f97 d9bd 9291 c73d 4f28 03bd dd3c 45be
00000280: 8743 243d 0822 493e b4e7 d53d 9a15 023e
00000290: 5041 413e c23c 2abd 1c29 d13e 0374 a2bd
000002a0: 73c7 ba3d b074 ebbc 87fa 73bd 14d2 cc3c
000002b0: 8f19 ac3d 1b0c d4bd 5f94 3b3e e908 97bc
000002c0: e678 84be 2de8 f1be b69a 093e 367d 98be
000002d0: cc59 babc c35f b2bd feb2 3fbe d034 9d3d
000002e0: 2dab 06bd 7992 12bd d3fb f8bd 11ca 203e
000002f0: 21c9 6dbd 436d dfbd ed14 57bc 1d3a 3d3d
00000300: b5fd c43d 0042 ae3d 378d 82bd cc48 96bd
00000310: dda6 c13d a5cb 213e ac39 0dbe 8fa8 b0be
00000320: 1a95 ff3d 9fbc 99bd 436f 913e df8d 0a3e
00000330: 1d0a 803e b218 873e 2625 d03d 3eaf 3fbe
00000340: d9a5 de3c dc6e 0cbe acdd c83d 3c35 533d
00000350: 9a84 bd3c e958 a5be 5572 91bc 9761 593d
00000360: 25e3 b7be 77e2 96bd 2ca9 27be 8bc2 10be
00000370: bd81 3d3d 546c 02be 932f 063e e0ed 8e3e
00000380: b611 803d b6fb eebe 1641 653e a52f 1d3d
00000390: 55e9 30bb f91b 9fbd 8a97 9bbd 2df2 8cbd
000003a0: 9aa6 1b3e 0e41 6ebe c0da 13be 4c9c 7abe
000003b0: 12a2 c4ba 1c32 493e 7057 03bc 666c 19be
000003c0: 249b 16be b50f 433e 432f 523e 4b89 0bbd
000003d0: 6039 c43d d1cb f23d 1de9 9f3e f203 3abc
000003e0: fe3f 533d 5740 10be 798e 2fbe 5a96 e13c
000003f0: f9ee aebd 6435 353e 4a1f 3b3e 6f38 db3d

network_body._body_endoder.seq_layers.0.bias f4 [128]
0.0 0.0 0.0 0.0 0.0 0.0 0.0 0.0
0.0 0.0 0.0 0.0 0.0 0.0 0.0 0.0
0.0 0.0 0.0 0.0 0.0 0.0 0.0 0.0
0.0 0.0 0.0 0.0 0.0 0.0 0.0 0.0
0.0 0.0 0.0 0.0 0.0 0.0 0.0 0.0
0.0 0.0 0.0 0.0 0.0 0.0 0.0 0.0
0.0 0.0 0.0 0.0 0.0 0.0 0.0 0.0
0.0 0.0 0.0 0.0 0.0 0.0 0.0 0.0
0.0 0.0 0.0 0.0 0.0 0.0 0.0 0.0
0.0 0.0 0.0 0.0 0.0 0.0 0.0 0.0
0.0 0.0 0.0 0.0 0.0 0.0 0.0 0.0
0.0 0.0 0.0 0.0 0.0 0.0 0.0 0.0
0.0 0.0 0.0 0.0 0.0 0.0 0.0 0.0
0.0 0.0 0.0 0.0 0.0 0.0 0.0 0.0
0.0 0.0 0.0 0.0 0.0 0.0 0.0 0.0
0.0 0.0 0.0 0.0 0.0 0.0 0.0 0.0
00000000: 0000 0000 0000 0000 0000 0000 0000 0000
00000010: 0000 0000 0000 0000 0000 0000 0000 0000
00000020: 0000 0000 0000 0000 0000 0000 0000 0000
00000030: 0000 0000 0000 0000 0000 0000 0000 0000
00000040: 0000 0000 0000 0000 0000 0000 0000 0000
00000050: 0000 0000 0000 0000 0000 0000 0000 0000
00000060: 0000 0000 0000 0000 0000 0000 0000 0000
00000070: 0000 0000 0000 0000 0000 0000 0000 0000
00000080: 0000 0000 0000 0000 0000 0000 0000 0000
00000090: 0000 0000 0000 0000 0000 0000 0000 0000
000000a0: 0000 0000 0000 0000 0000 0000 0000 0000
000000b0: 0000 0000 0000 0000 0000 0000 0000 0000
000000c0: 0000 0000 0000 0000 0000 0000 0000 0000
000000d0: 0000 0000 0000 0000 0000 0000 0000 0000
000000e0: 0000 0000 0000 0000 0000 0000 0000 0000
000000f0: 0000 0000 0000 0000 0000 0000 0000 0000
00000100: 0000 0000 0000 0000 0000 0000 0000 0000
00000110: 0000 0000 0000 0000 0000 0000 0000 0000
00000120: 0000 0000 0000 0000 0000 0000 0000 0000
00000130: 0000 0000 0000 0000 0000 0000 0000 0000
00000140: 0000 0000 0000 0000 0000 0000 0000 0000
00000150: 0000 0000 0000 0000 0000 0000 0000 0000
00000160: 0000 0000 0000 0000 0000 0000 0000 0000
00000170: 0000 0000 0000 0000 0000 0000 0000 0000
00000180: 0000 0000 0000 0000 0000 0000 0000 0000
00000190: 0000 0000 0000 0000 0000 0000 0000 0000
000001a0: 0000 0000 0000 0000 0000 0000 0000 0000
000001b0: 0000 0000 0000 0000 0000 0000 0000 0000
000001c0: 0000 0000 0000 0000 0000 0000 0000 0000
000001d0: 0000 0000 0000 0000 0000 0000 0000 0000
000001e0: 0000 0000 0000 0000 0000 0000 0000 0000
000001f0: 0000 0000 0000 0000 0000 0000 0000 0000

network_body._body_endoder.seq_layers.2.weight f4 [128, 128]
-0.2073168 0.28974694 -0.063051224 0.02600886 -0.026785046 0.052776914 0.14811456 -0.11615248
-0.024408739 0.09906669 0.24922495 0.0655441 0.087333724 0.14627786 -0.07415734 0.13283302
-0.13273399 0.058729477 -0.07725258 -0.093302846 -0.002719348 -0.0934079 0.012677539 -0.005789501
-0.046555173 0.09570699 -0.07323446 -0.040288836 0.1551432 -0.1280008 -0.06385439 -0.02155146
0.13574943 -0.06097518 0.044831175 0.056630176 0.0475872 -0.03610482 0.04696494 0.07089957
-0.07115362 0.014799047 -0.044422276 0.007602177 0.06342147 -0.21064636 0.12915589 0.001726618
0.01148432 0.031391017 -0.082057945 -0.0018300429 -0.1009633 0.025151903 -0.15106797 -0.05572093
-0.062579 0.00053268735 0.0011409686 0.0022870898 -0.09181849 0.110957175 0.034059986 0.06396996
0.060359217 -0.02810689 -0.12657213 -0.093998164 0.18387812 -0.075850576 0.10016534 0.2634786
-0.06993815 -0.12883432 -0.04562325 0.017425664 0.10773744 0.11748589 0.02700636 0.06616619
-0.05369566 0.0037629507 0.16055764 -0.12419162 -0.07288576 0.13298316 -0.14090599 -0.016926669
-0.06905718 0.03432034 -0.23655985 -0.09149459 -0.05886419 -0.061440445 0.070190586 0.027951507
-0.028030584 -0.039854046 -0.024703877 0.021681605 0.0282486 -0.01374687 0.09312288 0.08650695
-0.17067373 0.14548005 0.112261996 -0.015859246 -0.077142365 0.025808929 -0.13679768 0.09973022
-0.0017194918 0.01745408 0.0113539705 0.036625914 0.030764004 -0.0849546 -0.13942204 0.015164172
0.02016779 -0.027402831 0.07956215 -0.072506316 -0.22820006 0.04382931 -0.15923294 0.0931162
0.00603818 -0.039131712 0.11429105 0.09365999 0.0065322993 0.03611445 -0.06678522 0.02473158
-0.02273288 0.08225411 0.09562008 -0.057572305 0.17325857 0.15284087 0.058784857 4.544943e-05
0.09358024 -0.040157247 -0.031836778 -0.18019289 -0.03415933 0.064462066 0.009849737 -0.08283076
0.043156184 -0.10963251 0.09581448 -0.0024252003 0.036393132 0.14343889 -0.02731495 -0.069655694
-0.0034603204 0.05485095 0.012052128 0.0042148517 -0.10370706 0.071849726 0.053709455 -0.12104996
-0.025407197 -0.035558254 0.2029754 0.10041156 0.021195548 -0.02476122 -0.09713503 -0.011665255
-0.0010290648 0.098775215 0.027793687 -0.04256412 0.019945508 -0.0068499236 0.050224733 0.049214818
0.1224578 -0.006798839 0.028847266 0.0030107512 -0.28352004 0.06706137 0.0040115016 0.09336292
-0.0864541 0.058241643 -0.06218075 0.043914728 0.092735 -0.04562587 0.049345944 -0.036059733
-0.03734424 0.1505789 -0.028786192 0.03650694 -0.13259849 -0.05934245 0.053172886 -0.07340485
-0.06561199 -0.08658646 -0.08030201 -0.020705393 0.051083293 -0.0039704125 0.13763052 0.08761653
0.011519532 -0.15020631 0.11221463 -0.10370116 0.077386394 0.23114155 0.0520129 -0.054483477
-0.084018916 0.0010544183 -0.14887185 0.078639045 0.0028343317 0.017835516 -0.058172375 -0.04552146
-0.04494128 0.009924427 -0.02276679 0.16854644 -0.033304516 0.09057756 0.08001416 0.04465274
-0.08469547 -0.0777832 -0.034938708 0.01691756 0.10105103 0.030033257 -0.068323925 -0.054444965
0.013830409 0.013394059 0.10254608 0.0008674637 0.1028377 0.039191794 -0.03416885 -0.0039783493
00000000: db4a 54be b659 943e 0021 81bd 8810 d53c
00000010: 506c dbbc 9b2c 583d 58ab 173e 5ae1 edbd
00000020: d6f4 c7bc 7ae3 ca3d d334 7f3e fc3b 863d
00000030: 06dc b23d ddc9 153e cedf 97bd 6105 083e
00000040: 6beb 07be 528e 703d 9a36 9ebd 9015 bfbd
00000050: 1737 32bb a44c bfbd 74b5 4f3c dbb5 bdbb
00000060: a3b0 3ebd 0702 c43d f3fb 95bd e805 25bd
00000070: dcdd 1e3e a412 03be 17c6 82bd b08c b0bc
00000080: e601 0b3e 1cc1 79bd e5a0 373d 0bf5 673d
00000090: ccea 423d a6e2 13bd 4f5e 403d cb33 913d
000000a0: fdb8 91bd b477 723c 22f4 35bd af1b f93b
000000b0: 1ee3 813d aeb3 57be 7141 043e b04f e23a
000000c0: bb28 3c3c de93 003d ff0d a8bd 0dde efba
000000d0: d9c5 cebd 5d0b ce3c 90b1 1abe a13b 64bd
000000e0: 6b29 80bd 0ba4 0b3a 8e8c 953a 00e3 153b
000000f0: 550b bcbd 843d e33d 7c82 0b3d af02 833d
00000100: 3a3b 773d 6c40 e6bc 209c 01be 1c82 c0bd
00000110: 8c4a 3c3e 8c57 9bbd 7c23 cd3d abe6 863e
00000120: bc3b 8fbd 25ed 03be 72df 3abd 44c0 8e3c
00000130: 72a5 dc3d 719c f03d 713c dd3c 2482 873d
00000140: fbef 5bbd d69b 763b 3969 243e 2d58 febd
00000150: 2145 95bd bd2c 083e a949 10be cca9 8abc
00000160: da6d 8dbd 7c93 0c3d bf3c 72be 8461 bbbd
00000170: 941b 71bd faa8 7bbd 15c0 8f3d 8ffa e43c
00000180: 65a0 e5bc ff3d 23bd c95f cabc 9f9d b13c
00000190: 9c69 e73c 8d3a 61bc 35b7 be3d 8e2a b13d
000001a0: 18c5 2ebe b9f8 143e 9ee9 e53d 40eb 81bc
000001b0: d1fc 9dbd 3f6d d33c b114 0cbe 5c3f cc3d
000001c0: 9260 e1ba dcfb 8e3c 0106 3a3c 0e05 163d
000001d0: cb04 fc3c adfc adbd a7c4 0ebe 2673 783c
000001e0: ec36 a53c e77b e0bc 7bf1 a23d 317e 94bd
000001f0: 47ad 69be 5d86 333d f60d 23be b5b3 be3d
00000200: eddb c53b 9348 20bd 6d11 ea3d cfd0 bf3d
00000210: e60c d63b bfec 133d b0c6 88bd e299 ca3c
00000220: 4e3a babc d874 a83d 76d4 c33d f0d0 6bbd
00000230: b26a 313e 5182 1c3e 64c8 703d f4a0 3e38
00000240: ffa6 bf3d ed7b 24bd 4867 02bd 7c84 38be
00000250: a7ea 0bbd b004 843d cb60 213c 2ca3 a9bd
00000260: 8ac4 303d 0287 e0bd 623a c43d 1cf0 1ebb
00000270: f710 153d a5e1 123e 9ac3 dfbc a5a7 8ebd
00000280: 8bc6 62bb 64ab 603d 4a76 453c bd1c 8a3b
00000290: 5e64 d4bd f325 933d 72fe 5b3d 0be9 f7bd
000002a0: c122 d0bc 88a5 11bd c9d8 4f3e 93a4 cd3d
000002b0: 49a2 ad3c 0bd8 cabc bbee c6bd a01f 3fbc
000002c0: afe1 86ba a94a ca3d 96af e33c b757 2ebd
000002d0: c364 a33c 5375 e0bb 73b8 4d3d 7a95 493d
000002e0: 28cb fa3d ccc8 debb 1a51 ec3c 0650 453b
000002f0: 8a29 91be 7957 893d ea72 833b 0f35 bf3d
00000300: d90e b1bd ca8e 6e3d 3eb1 7ebd eedf 333d
00000310: d9eb bd3d 31e2 3abd f91e 4a3d 5fb3 13bd
00000320: 46f6 18bd 5b31 1a3e 05d1 ebbc 4d88 153d
00000330: e6c7 07be 1211 73bd d0cb 593d 4855 96bd
00000340: 945f 86bd 3e54 b1bd 6175 a4bd 5b9e a9bc
00000350: b73c 513d 3c1a 82bb 04ef 0c3e 4c70 b33d
00000360: 6bbc 3c3c afcf 19be c9d0 e53d 4661 d4bd
00000370: c27c 9e3d 5fb0 6c3e 7b0b 553d 112a 5fbd
00000380: 1c12 acbd 6834 8a3a dd71 18be 820d a13d
00000390: 32c0 393b ca1b 923c 2846 6ebd b674 3abd
000003a0: 5914 38bd 109a 223c 6b81 babc 7097 2c3e
000003b0: 516a 08bd ba80 b93d 77de a33d cbe5 363d
000003c0: d274 adbd cc4c 9fbd e41b 0fbd b296 8a3c
000003d0: d8f3 ce3d 4e08 f63c 6aed 8bbd af01 5fbd
000003e0: f198 623c c172 5b3c ae03 d23d 8166 633a
000003f0: 929c d23d 9387 203d a3f4 0bbd d05c 82bb

action_model._discrete_distribution.branches.0.weight f4 [38, 128]
-0.001439624 -0.006233775 0.007726494 -0.0027590848 -0.0061162817 0.007789101 -0.010034456 -0.000793638
-0.014612922 0.0009061994 -0.009409315 0.0034975358 0.004774464 -0.0010831069 -0.00048106207 0.0029620768
0.011896635 -0.006057287 0.0010963262 -0.007889979 0.0040905806 -0.0053606355 0.0013540571 -0.015477926
0.00059426564 -0.0018061347 0.0023812898 -0.005925959 -0.00051220675 -0.003818482 -0.008376886 -0.007848985
0.0064500906 0.0062148008 0.0031892105 0.0069045187 0.008219167 0.008012153 -0.0016214503 -0.0032552616
0.0057191285 0.005148153 0.0067100003 -0.005571814 0.007842592 0.008052639 0.012803517 0.008459442
-0.007003481 9.074924e-05 -0.0011193729 0.004053711 0.006156215 -0.014913365 0.008064296 -0.006820546
-0.013888194 -0.0059351893 0.009546866 -0.008974126 0.0059234886 0.0015977841 0.0021008037 -0.0044683763
0.004507477 -0.005271766 -0.005491232 -0.009550681 -0.005594744 -0.0004034681 0.011928831 0.005378165
-0.007810648 0.0054282793 0.0048755086 -0.012028205 -0.013129929 -0.011104487 0.010697439 0.0003687021
0.0051714336 0.018486751 -0.008545483 -0.005693262 -0.0086415475 0.0009743641 -0.025434652 -0.005673794
-0.0011720592 0.0010131192 0.004671903 -0.01056842 0.007588122 -0.0022171994 -0.00014790717 -0.003300358
-0.012404962 0.007820531 0.001427356 -0.010005097 0.017080864 0.0023720944 0.018347522 0.004669638
-0.003241899 -0.012217029 -0.0055454476 0.01612229 -0.00090153253 0.010689603 -3.004888e-05 -0.0006066709
-0.007384059 -0.008869535 -0.014244886 0.0064727464 -0.006935028 -0.009390748 -0.0058844676 0.0147468895
0.0054677553 0.0023871823 -0.0063103675 0.00044518584 -0.0018650368 -0.0021728508 0.0036619387 -0.0051008165
-0.0010046592 -0.0029987993 -0.013406912 0.007157559 0.006366122 -0.0006352702 0.003041623 -0.0037888822
0.0070562824 -0.010593982 -0.009159159 0.0006214601 -0.00071963144 -0.02074715 -0.0010637987 0.016219286
-0.0058526215 0.0065981965 0.002045713 -0.0114653325 -0.002060808 0.0116143515 -0.014952771 0.0010613668
0.010914967 0.0042698714 -0.013109517 -0.0022623006 -0.0043189637 -0.003439823 -0.0038842626 0.00050101953
-0.016833879 0.009364417 0.0056072283 0.0032896816 0.011716329 0.0024969168 -0.014008029 0.008701108
0.0023104737 0.0040566176 -0.0068667973 0.0045939623 0.008980284 -0.007645264 -0.0049252617 0.010400659
0.003509715 -0.019140448 -0.003910338 -0.00748479 -0.0035214964 -0.0013091145 -0.0031795357 0.013918623
0.008502106 -0.010336395 -0.009939943 -0.006958881 -0.00076724234 0.011678498 -0.011430513 0.01303609
0.002458793 0.008640217 0.010887756 -0.0071326233 -0.0062470706 0.01663567 -0.0021693022 0.007930019
0.008510645 0.0038281404 0.0005612683 -0.0019929977 0.0027349938 0.02359275 0.006589006 -0.0074705305
-0.0037953213 -0.0058866474 0.01965156 0.015518767 0.0107008945 -0.003302217 0.0069668232 0.009892347
0.0073261163 0.009031744 -0.0012821341 0.0043651895 0.0047511263 -0.013870544 0.0069819475 0.015422982
-0.007954681 0.016735433 0.007980946 0.001117319 -0.01033798 -0.009114259 -0.00628865 -0.00030416777
-0.0011877489 0.013240116 -0.0032010917 -0.0074185 0.017934332 -0.012429622 -0.0060539404 -0.015344341
-0.010475545 0.006113988 0.0013215168 0.00103968 0.0008383901 -0.008199004 0.0069834576 -0.009063782
-0.006553024 -0.001630315 -0.011010403 -0.008209509 0.002851568 0.0100721745 0.011262002 -0.025203362
00000000: c4b1 bcba b244 ccbb 882e fd3b c3d1 34bb
00000010: 176b c8bb b73b ff3b 8f67 24bc 250c 50ba
00000020: 0a6b 6fbc 038e 6d3a 8729 1abc ea36 653b
00000030: 1b73 9c3b 09f7 8dba 0f37 fcb9 671f 423b
00000040: 1bea 423c 357c c6bb 9ab2 8f3a f844 01bc
00000050: 470a 863b 45a8 afbb 9e7a b13a 2097 7dbc
00000060: 7ec8 1b3a d3bb ecba 6a0f 1c3b 8c2e c2bb
00000070: 9d45 06ba 7f3f 7abb 353f 09bc 0799 00bc
00000080: 485b d33b 87a5 cb3b 1302 513b 4d3f e23b
00000090: afa9 063c 6845 033c d886 d4ba 3a56 55bb
000000a0: 8767 bb3b d6b1 a83b 90df db3b c393 b6bb
000000b0: 377e 003c 37ef 033c d8c5 513c 7999 0a3c
000000c0: 757d e5bb a150 be38 ecb7 92ba fed4 843b
000000d0: 13ba c93b 3057 74bc 1c20 043c e37e dfbb
000000e0: 4f8b 63bc fa7b c2bb 756a 1c3c 3608 13bc
000000f0: d319 c23b bd6c d13a a3ad 093b 756b 92bb
00000100: 75b3 933b c7be acbb cbef b3bb 767a 1cbc
00000110: 1d54 b7bb 9288 d3b9 2571 433c 513b b03b
00000120: 77f0 ffbb b5df b13b bbc2 9f3b f311 45bc
00000130: ea1e 57bc 98ef 35bc 5044 2f3c 5c4e c139
00000140: 2175 a93b 8771 973c 5b02 0cbc 8b8e babb
00000150: 4795 0dbc 786c 7f3a 555c d0bc 3ceb b9bb
00000160: c89f 99ba a4ca 843a c316 993b 2b27 2dbc
00000170: c8a5 f83b 6f4e 11bb 8717 1bb9 d24a 58bb
00000180: 2f3e 4bbc af21 003c 1f16 bb3a 6bec 23bc
00000190: 2bed 8b3c 2475 1b3b 8b4d 963c c303 993b
000001a0: 0a76 54bb ef29 48bc 96b6 b5bb e512 843c
000001b0: d354 6cba 7223 2f3c 7a11 fcb7 ff08 1fba
000001c0: faf5 f1bb 8751 11bc 6263 69bc 5519 d43b
000001d0: 3b3f e3bb a7db 19bc 7ed2 c0bb f09c 713c
000001e0: db2a b33b 4672 1c3b 33c7 cebb d567 e939
000001f0: 4074 f4ba 6366 0ebb 23fd 6f3b c024 a7bb
00000200: c5ae 83ba 8187 44bb aaa8 5bbc f589 ea3b
00000210: e79a d03b 4388 26ba f755 473b e54e 78bb
00000220: 6338 e73b 6292 2dbc 4c10 16bc 7be9 223a
00000230: a6a5 3cba edf5 a9bc 296f 8bba 4fde 843c
00000240: 59c7 bfbb af35 d83b 5e11 063b 17d9 3bbc
00000250: 9f0e 07bb 1f4a 3e3c 78fc 74bc 8f1d 8b3a
00000260: b1d4 323c 47ea 8b3b 4dc9 56bc 1b43 14bb
00000270: 1886 8dbb a76e 61bb 1d8f 7ebb da56 033a
00000280: 34e7 89bc 366d 193c d7bc b73b b397 573b
00000290: d8f5 3f3c 50a3 233b ef81 65bc 188f 0e3c
000002a0: 516b 173b 60ed 843b df02 e1bb f388 963b
000002b0: 0b22 133c 1f85 fabb 1764 a1bb 8767 2a3c
000002c0: 3f03 663b 6ecc 9cbc 4b22 80bb f842 f5bb
000002d0: e8c8 66bb 9896 abba c25f 50bb f00a 643c
000002e0: 6b4c 0b3c fc59 29bc 25db 22bc 5307 e4bb
000002f0: c320 49ba 2c57 3f3c 0c47 3bbc 5395 553c
00000300: b423 213b b28f 0d3c 8f62 323c c8b8 e9bb
00000310: 3ab4 ccbb 8747 883c da2a 0ebb e9ec 013c
00000320: 3b70 0b3c 8ae1 7a3b 1422 133a f49c 02bb
00000330: 953d 333b 9545 c13c 97e8 d73b 5acb f4bb
00000340: edba 78bb c7e4 c0bb 4ffc a03c 6d42 7e3c
00000350: ce52 2f3c 026a 58bb f349 e43b 8313 223c
00000360: eb0f f03b e1f9 133c 480d a8ba dd09 8f3b
00000370: 56af 9b3b 4741 63bc d2c8 e43b adb0 7c3c
00000380: 5a54 02bc bf18 893c 84c2 023c 0173 923a
00000390: a260 29bc f953 15bc 0511 cebb b578 9fb9
000003a0: 3dae 9bba 12ed 583c 68c9 51bb e316 f3bb
000003b0: 05eb 923c 9da5 4bbc 2260 c6bb d566 7bbc
000003c0: 9fa1 2bbc d957 c83b bf36 ad3a df45 883a
000003d0: 68c7 5b3a 1e55 06bc 7dd5 e43b 4280 14bc
000003e0: c0ba d6bb 4bb0 d5ba fa64 34bc 2d81 06bc
000003f0: 5fe1 3a3b c305 253c 4384 383c 4877 cebc

action_model._discrete_distribution.branches.0.bias f4 [38]
0.0 0.0 0.0 0.0 0.0 0.0 0.0 0.0
0.0 0.0 0.0 0.0 0.0 0.0 0.0 0.0
0.0 0.0 0.0 0.0 0.0 0.0 0.0 0.0
0.0 0.0 0.0 0.0 0.0 0.0 0.0 0.0
0.0 0.0 0.0 0.0 0.0 0.0
00000000: 0000 0000 0000 0000 0000 0000 0000 0000
00000010: 0000 0000 0000 0000 0000 0000 0000 0000
00000020: 0000 0000 0000 0000 0000 0000 0000 0000
00000030: 0000 0000 0000 0000 0000 0000 0000 0000
00000040: 0000 0000 0000 0000 0000 0000 0000 0000
00000050: 0000 0000 0000 0000 0000 0000 0000 0000
00000060: 0000 0000 0000 0000 0000 0000 0000 0000
00000070: 0000 0000 0000 0000 0000 0000 0000 0000
00000080: 0000 0000 0000 0000 0000 0000 0000 0000
00000090: 0000 0000 0000 0000
