results/DemoRun/TestAgent1/TestAgent1-5890.pt (torch, 201236 bytes, 11 tensors)

network_body._body_endoder.seq_layers.0.weight f4 [128, 39]
0	0x3d585886	0.052818798
1	0x3e88bd36	0.26706856
2	0x3c1b01aa	0.009460846
3	0x3d60033d	0.05469059
4	0xbe4d5b54	-0.2005437
5	0x3e7a105c	0.24420303
6	0x3e83664b	0.2566398
7	0xbda095e0	-0.078410864
8	0x3dc2f295	0.09518925
9	0xbbea2b4d	-0.007146275
10	0x3dc7950b	0.097452246
11	0xbe2cfefb	-0.16894142
12	0x3d6024f3	0.054722738
13	0xbe970539	-0.29496172
14	0xbde3e003	-0.11126711
15	0xbe9a4a72	-0.30134922
16	0x3cd2f0c8	0.02574958
17	0x3e0734a1	0.1320367
18	0xbcd7c091	-0.02633694
19	0xbe419856	-0.18905768
20	0xbe3bbb31	-0.18333127
21	0x3e46b7dd	0.19406076
22	0x3e884a32	0.26619107
23	0x3e571ed4	0.21007854
24	0x3ec06ae1	0.37581542
25	0xbdc97f71	-0.09838761
26	0x3d9212ac	0.07132468
27	0xbe978da9	-0.29600266
28	0x3d74c215	0.059755404
29	0x3e9b8c87	0.3038065
30	0x3d9d9e32	0.07696189
31	0x3d5fdae4	0.05465211
32	0xbe2eb883	-0.17062573
33	0x3e416304	0.18885428
34	0xbbeee8a0	-0.0072909147
35	0x3d82932f	0.06375729
36	0xbe10cbda	-0.14140263
37	0x3de656eb	0.11247047
38	0x3e1b50b4	0.15167505
39	0x3e3ef83d	0.18649383
40	0x3e07b0e3	0.1325107
41	0xbd2906d4	-0.041266277
42	0xbe059e13	-0.13048582
43	0xbe1f3249	-0.15546526
44	0x3ec5293b	0.3850802
45	0xbe0d60f7	-0.1380652
46	0xbd3aa034	-0.045562938
47	0x3e4929ea	0.19644895
48	0xbea7db4e	-0.32784504
49	0x3cb8032e	0.022462454
50	0xbe392498	-0.18080366
51	0xbc2d0786	-0.010560876
52	0xbe4b2320	-0.19837618
53	0xbe37ada0	-0.17937326
54	0xbcb0dad5	-0.021588722
55	0x3e6e19e4	0.23252064
56	0x3c93c70c	0.018039249
57	0x3e24920c	0.16071337
58	0xbe644a2e	-0.22293922
59	0x3c498ef1	0.012302146
60	0x3df7069c	0.120618075
61	0x3e35f20d	0.17768116
62	0x3ebdd1dd	0.37074175
63	0xbe51def0	-0.204952
64	0x3e474b20	0.19462252
65	0xbdfb7b03	-0.12279322
66	0x3e2001ea	0.1562573
67	0xbdeaec74	-0.11470881
68	0xbe35abf9	-0.17741384
69	0xbd54969a	-0.051901437
70	0xbdb005a7	-0.08594828
71	0xbd20cf56	-0.03926023
72	0xbde2370e	-0.11045657
73	0xbdf6cf00	-0.12051201
74	0xbdcac2b3	-0.09900417
75	0x3e29514b	0.16534917
76	0x3dfd5b0d	0.12370882
77	0xbd1df061	-0.03855932
78	0xbb5dc26b	-0.0033837806
79	0x3e2b3230	0.16718364
80	0x3e615d9f	0.2200837
81	0x3d046051	0.032318417
82	0x3e72210a	0.23645416
83	0x3e487128	0.19574416
84	0x3cc46278	0.023972735
85	0xbe0192bc	-0.12653631
86	0xbe44b615	-0.19210084
87	0xbdc61a48	-0.096729815
88	0xbe581cfa	-0.21104804
89	0x3d2bc55c	0.041936263
90	0x3e5929fb	0.2120742
91	0x3d619fdc	0.055084094
92	0xbe18fb1b	-0.14939539
93	0xbe0fa72a	-0.14028612
94	0xbdecb954	-0.11558786
95	0x3e04a4aa	0.1295344
96	0xbe505f3d	-0.2034883
97	0xbdb062a3	-0.086125635
98	0xbe7534f1	-0.23945977
99	0xbe0b4705	-0.1360131
100	0x3e3d4517	0.18483387
101	0xbefadcf2	-0.48996693
102	0x3e873b44	0.26412404
103	0xbe3ee926	-0.18643627
104	0x3d25027e	0.04028558
105	0xbe7b0a28	-0.24515593
106	0x3ea46c2f	0.32113788
107	0xbd92b3ef	-0.07163226
108	0x3e480607	0.19533549
109	0x3e608804	0.21926886
110	0xbe545d74	-0.20738775
111	0xbdbb8541	-0.091562755
112	0x3cabc27d	0.020966763
113	0x3e1a5060	0.15069723
114	0x3e328f37	0.17437445
115	0x3e86b957	0.26313278
116	0xbe08925c	-0.13337082
117	0x3dc8c8a9	0.09803898
118	0x3e42b5cd	0.19014664
119	0x3de56889	0.11201579
120	0xbe0e4bd4	-0.13896114
121	0xbd6514e6	-0.055928133
122	0xbd91ce06	-0.07119374
123	0xbe6a1782	-0.2286053
124	0xbd793747	-0.060843732
125	0x3e1b146c	0.15144509
126	0x3d75748c	0.0599256
127	0x3ca454e7	0.020060016
128	0x3d918438	0.07105297
129	0xbd779d25	-0.0604526
130	0x3e6967ac	0.22793454
131	0xbb9d6835	-0.004803682
132	0x3d3bc82e	0.045845203
133	0x3e65639d	0.2240128
134	0x3dfc4fa5	0.123198785
135	0xbc9fb22d	-0.01949414
136	0xbc8a7c4c	-0.016904972
137	0x3dc9747f	0.09836673
138	0xbe2d0d5e	-0.1689963
139	0xbe154072	-0.14575365
140	0xbe8156b8	-0.25261474
141	0xbe340e58	-0.17583597
142	0xbc652c79	-0.013987654
143	0xbe533d42	-0.20628837
144	0xbdb16362	-0.08661534
145	0x3e00930f	0.12556098
146	0x3e46f65f	0.1942992
147	0x3ea7e3e4	0.32791054
148	0x3e5f3467	0.21797334
149	0xbe14e2df	-0.1453967
150	0x3d862698	0.0655033
151	0x3e32f988	0.17478001
152	0x3d846aa9	0.06465656
153	0xbd5b9f22	-0.053618558
154	0xbe8672b2	-0.2625938
155	0xbccd422b	-0.025055965
156	0xbdfbbd64	-0.12291983
157	0x3e20bc1f	0.15696763
158	0x3ceef9a0	0.029171765
159	0xbad74409	-0.0016423474
160	0x3ebe337d	0.37148657
161	0x3d5c7223	0.053819787
162	0xbe413236	-0.1886681
163	0xbd3f752d	-0.046742607
164	0xbd5ea6ff	-0.05435848
165	0xbbaa8075	-0.0052033016
166	0x3d3aa348	0.045565873
167	0x3e42c9d5	0.19022305
168	0xbe043b8c	-0.1291334
169	0xbe40e4bd	-0.18837257
170	0x3e4e56cb	0.20150296
171	0x3ce6cd01	0.028173925
172	0xbd803ba0	-0.062613726
173	0xbd9f340a	-0.077735975
174	0x3e269248	0.1626674
175	0xbd42f143	-0.047593366
176	0xbe7fa8d5	-0.24966748
177	0x3c857173	0.016289448
178	0xbe68788c	-0.22702235
179	0x3ea025dd	0.31278887
180	0x3d3294da	0.043598987
181	0x3c39beee	0.011337025
182	0xbe6eee0a	-0.23332992
183	0x3cb74826	0.02237327
184	0xbe290fd3	-0.16509943
185	0x3c4a3225	0.012341057
186	0x3e345528	0.1761061
187	0xbeacf751	-0.33782437
188	0xbc426b72	-0.011866437
189	0x3dc81227	0.09769087
190	0xbd550f09	-0.05201629
191	0x3df0f79e	0.11765979
192	0xbde84fcb	-0.11343344
193	0xbe3e6998	-0.18594968
194	0x3eab71e2	0.33485323
195	0x3eb1f746	0.34758967
196	0xbe8c6d4e	-0.27427143
197	0xbecd5edb	-0.4011143
198	0x3d805e67	0.06268006
199	0xbe084896	-0.1330894
200	0xbde9852e	-0.11402355
201	0x3d400eab	0.04688899
202	0xbe8d935b	-0.27651486
203	0xbd0fe183	-0.035127174
204	0x3df9de08	0.12200552
205	0x3e3f2da8	0.1866976
206	0x3d9c3248	0.07626778
207	0x3dfd3e15	0.12365357
208	0xbe5321b4	-0.20618325
209	0xbdae6021	-0.08514429
210	0xbd4ff970	-0.05077499
211	0xbe246d60	-0.16057348
212	0x3e0bd5ac	0.13655728
213	0x3e802e8c	0.25035512
214	0x3e000241	0.1250086
215	0xbe4a27cd	-0.19741745
216	0x3b95d155	0.0045720735
217	0xbe30aa6a	-0.17252508
218	0xbc9be0f7	-0.01902817
219	0xbe5fb7e1	-0.21847488
220	0x3d96b59e	0.073588595
221	0xbcc95363	-0.024575895
222	0xbcf41f0c	-0.02979996
223	0x3dd7be58	0.10534352
224	0xbcf4137e	-0.02979445
225	0x3e1a7b37	0.15086065
226	0xbe0e9312	-0.1392329
227	0x3d33721c	0.043809995
228	0x3d465e36	0.04842969
229	0xbdbbaded	-0.09164033
230	0xbe8042a3	-0.2505084
231	0x3dd92514	0.10602775
232	0xbc81184c	-0.015758656
233	0x3d223bb1	0.039607707
234	0x3e86bdbb	0.26316628
235	0xbb292422	-0.002580889
236	0xbe692541	-0.22768117
237	0x3d91c220	0.071171045
238	0x3db5117e	0.08841227
239	0x3d97a1a0	0.074038744
240	0xbeae7b69	-0.3407853
241	0xbcc359ec	-0.023846589
242	0x3e26468b	0.16237848
243	0x3dd5fa90	0.10448182
244	0xbd467940	-0.048455477
245	0xbd5a672b	-0.053321045
246	0xbe03a760	-0.12856817
247	0xbc767002	-0.015041353
248	0xbe57d570	-0.21077514
249	0x3ccca1a2	0.024979416
250	0xbdde74f7	-0.10862153
251	0x3e18b5c4	0.14913088
252	0xbdfb7e69	-0.1227997
253	0xbde6521a	-0.112461284
254	0xbbbf09ac	-0.0058300104
255	0xbd86b600	-0.065776825

network_body._body_endoder.seq_layers.0.bias f4 [128]
0	0x00000000	0.0
1	0x00000000	0.0
2	0x00000000	0.0
3	0x00000000	0.0
4	0x00000000	0.0
5	0x00000000	0.0
6	0x00000000	0.0
7	0x00000000	0.0
8	0x00000000	0.0
9	0x00000000	0.0
10	0x00000000	0.0
11	0x00000000	0.0
12	0x00000000	0.0
13	0x00000000	0.0
14	0x00000000	0.0
15	0x00000000	0.0
16	0x00000000	0.0
17	0x00000000	0.0
18	0x00000000	0.0
19	0x00000000	0.0
20	0x00000000	0.0
21	0x00000000	0.0
22	0x00000000	0.0
23	0x00000000	0.0
24	0x00000000	0.0
25	0x00000000	0.0
26	0x00000000	0.0
27	0x00000000	0.0
28	0x00000000	0.0
29	0x00000000	0.0
30	0x00000000	0.0
31	0x00000000	0.0
32	0x00000000	0.0
33	0x00000000	0.0
34	0x00000000	0.0
35	0x00000000	0.0
36	0x00000000	0.0
37	0x00000000	0.0
38	0x00000000	0.0
39	0x00000000	0.0
40	0x00000000	0.0
41	0x00000000	0.0
42	0x00000000	0.0
43	0x00000000	0.0
44	0x00000000	0.0
45	0x00000000	0.0
46	0x00000000	0.0
47	0x00000000	0.0
48	0x00000000	0.0
49	0x00000000	0.0
50	0x00000000	0.0
51	0x00000000	0.0
52	0x00000000	0.0
53	0x00000000	0.0
54	0x00000000	0.0
55	0x00000000	0.0
56	0x00000000	0.0
57	0x00000000	0.0
58	0x00000000	0.0
59	0x00000000	0.0
60	0x00000000	0.0
61	0x00000000	0.0
62	0x00000000	0.0
63	0x00000000	0.0
64	0x00000000	0.0
65	0x00000000	0.0
66	0x00000000	0.0
67	0x00000000	0.0
68	0x00000000	0.0
69	0x00000000	0.0
70	0x00000000	0.0
71	0x00000000	0.0
72	0x00000000	0.0
73	0x00000000	0.0
74	0x00000000	0.0
75	0x00000000	0.0
76	0x00000000	0.0
77	0x00000000	0.0
78	0x00000000	0.0
79	0x00000000	0.0
80	0x00000000	0.0
81	0x00000000	0.0
82	0x00000000	0.0
83	0x00000000	0.0
84	0x00000000	0.0
85	0x00000000	0.0
86	0x00000000	0.0
87	0x00000000	0.0
88	0x00000000	0.0
89	0x00000000	0.0
90	0x00000000	0.0
91	0x00000000	0.0
92	0x00000000	0.0
93	0x00000000	0.0
94	0x00000000	0.0
95	0x00000000	0.0
96	0x00000000	0.0
97	0x00000000	0.0
98	0x00000000	0.0
99	0x00000000	0.0
100	0x00000000	0.0
101	0x00000000	0.0
102	0x00000000	0.0
103	0x00000000	0.0
104	0x00000000	0.0
105	0x00000000	0.0
106	0x00000000	0.0
107	0x00000000	0.0
108	0x00000000	0.0
109	0x00000000	0.0
110	0x00000000	0.0
111	0x00000000	0.0
112	0x00000000	0.0
113	0x00000000	0.0
114	0x00000000	0.0
115	0x00000000	0.0
116	0x00000000	0.0
117	0x00000000	0.0
118	0x00000000	0.0
119	0x00000000	0.0
120	0x00000000	0.0
121	0x00000000	0.0
122	0x00000000	0.0
123	0x00000000	0.0
124	0x00000000	0.0
125	0x00000000	0.0
126	0x00000000	0.0
127	0x00000000	0.0

network_body._body_endoder.seq_layers.2.weight f4 [128, 128]
0	0x3e05b2ec	0.13056535
1	0xbd4fe0ef	-0.050751623
2	0x3d03cdb6	0.032178603
3	0x3d80b1b1	0.06283892
4	0xbdcfdd4b	-0.1014963
5	0x3c09dc72	0.008414375
6	0x3c71bf8f	0.014755144
7	0xbd0e6d81	-0.0347724
8	0x3d0f4a04	0.034982696
9	0x3dace83a	0.08442731
10	0x3e147e78	0.14501369
11	0x3e1695dd	0.14705606
12	0xbbe3a22f	-0.006946824
13	0xbd0c7c89	-0.034298453
14	0xbdc0c276	-0.094120905
15	0xbce79a8a	-0.028271932
16	0x3e6ac9e5	0.22928579
17	0x3e1181b5	0.14209636
18	0xbe2f3af8	-0.17112339
19	0x3d0ec285	0.034853477
20	0xbd1d468d	-0.03839736
21	0x3d938f8b	0.07205113
22	0xbb776899	-0.0037751554
23	0xbdb90901	-0.090349205
24	0xbdc73196	-0.09726255
25	0x3c46eb99	0.012141132
26	0x3d3428be	0.043984167
27	0x3ccdeb75	0.025136689
28	0xbe0e53b1	-0.13899113
29	0x3da2e695	0.07954136
30	0x3e10e25b	0.14148848
31	0x3e1229b8	0.14273727
32	0x3d8b4189	0.06799609
33	0xbc0adcbe	-0.008475481
34	0xbde48d0b	-0.11159714
35	0x3cf99353	0.030465757
36	0x3c9a8879	0.018863903
37	0x3ce346c9	0.027743714
38	0x3c5dca3a	0.013536984
39	0x3d1304ea	0.03589336
40	0x3d90a358	0.07062405
41	0x3d3b07f1	0.04566187
42	0x3dc2f9e8	0.09520322
43	0x3dedb656	0.116070434
44	0xbdd8e639	-0.105907865
45	0xbdfa3f2b	-0.122190796
46	0x3cf62001	0.030044558
47	0x3d1cf3d0	0.038318455
48	0xbda27c20	-0.07933831
49	0xbc2a976d	-0.010412079
50	0x3df98b7f	0.1218481
51	0x3dd16ffd	0.10226438
52	0x3e11069c	0.14162678
53	0x3aeeddf5	0.0018224107
54	0xbe5c970f	-0.21542
55	0x3d95c886	0.073136374
56	0xbdb90a6e	-0.090351924
57	0xbcd56e84	-0.026053675
58	0x3da01fc1	0.078185566
59	0x3d2be09b	0.041962247
60	0xbda51ad9	-0.080617614
61	0x3cfdaacf	0.030965237
62	0x3d4e38d3	0.05034716
63	0x3ce1f868	0.02758427
64	0x3d36b646	0.044607423
65	0x3da6ba3a	0.08140989
66	0x3d933bc5	0.071891345
67	0x3d18ee50	0.037336648
68	0x3d81910d	0.06326494
69	0xbe1208b6	-0.14261135
70	0x3cbe2da2	0.023215119
71	0xbccf288d	-0.02528789
72	0xbe07310f	-0.13202308
73	0x3c105a77	0.008810631
74	0x3e8c9dcd	0.27464142
75	0x3d67d283	0.056597244
76	0xbe26732e	-0.16254875
77	0xbddb6a0b	-0.107135855
78	0x3cfd873b	0.030948272
79	0x3c66a800	0.01407814
80	0xbdadde26	-0.08489637
81	0x3c9771df	0.018486915
82	0x3da06ee9	0.078336544
83	0xbcc9aba6	-0.024617981
84	0x3d0e00fa	0.0346689
85	0xbcec0cd7	-0.028814716
86	0x3de79675	0.11307994
87	0xbd0fa937	-0.035073485
88	0x3d413ec9	0.047179017
89	0xbc2c0a9b	-0.010500575
90	0x3bf70aae	0.007539115
91	0x3b6636a0	0.0035127774
92	0xbd0a4be7	-0.033763792
93	0x3daef979	0.08543677
94	0xbdac79d1	-0.08421672
95	0xbdeb5a72	-0.114918604
96	0x3e364c87	0.1780263
97	0x3da56840	0.08076525
98	0xbdba45e3	-0.09095361
99	0xbc1ca42f	-0.009560629
100	0x3d8b1b22	0.067922845
101	0xbda60532	-0.0810646
102	0xbda0d96a	-0.078539684
103	0xb987fc86	-0.0002593735
104	0x3d6244ac	0.05524127
105	0x3c53a915	0.01291873
106	0x3dc0b82d	0.09410129
107	0xbd2dcb12	-0.04242999
108	0xbbffba64	-0.007804202
109	0xbd53b477	-0.051685777
110	0xbe095919	-0.13412894
111	0x3d4d69c7	0.050149705
112	0xbd55ad65	-0.052167315
113	0x3d907c9a	0.07055016
114	0x3d9eb269	0.07748873
115	0xbd611643	-0.05495287
116	0x3d24b977	0.040215936
117	0x3db12bdc	0.08650944
118	0xbe2cb16c	-0.16864556
119	0x3d8c2250	0.06842482
120	0x3c5421f4	0.012947548
121	0x3d985ef5	0.074399866
122	0x3dddd8cb	0.108323656
123	0xb9d0a441	-0.0003979523
124	0x3d6df672	0.058096357
125	0xbc8b6c59	-0.017019438
126	0x3d95f7da	0.073226646
127	0xbd5d3263	-0.05400313
128	0xbc9955f7	-0.018717749
129	0xbc97136a	-0.018441875
130	0xbd8da08e	-0.06915389
131	0x3d6d5f45	0.057952184
132	0xbdfb8230	-0.12280691
133	0xbd613f90	-0.05499226
134	0x3dee6145	0.116396464
135	0x3e05d7e8	0.13070643
136	0x3d4ac430	0.049503505
137	0x3da218e6	0.07914905
138	0x3cee1183	0.029061085
139	0x3d3f58cd	0.046715546
140	0x3db52f8b	0.08846959
141	0x3dd8396c	0.10557827
142	0xbd85f3f1	-0.06540669
143	0x3d88d0ab	0.06680425
144	0xbd521ff9	-0.051300023
145	0x3db3c909	0.08778579
146	0x3d0d740e	0.034534506
147	0x3b89d5b6	0.0042063845
148	0xbb6f09ff	-0.0036474464
149	0x3df26d86	0.11837296
150	0x3c948db8	0.018133983
151	0x3cf61275	0.030038098
152	0xbcc3726f	-0.023858277
153	0x3e0c1515	0.13679917
154	0xbd1e8873	-0.038704347
155	0xbde79f43	-0.11309674
156	0x3c78339c	0.015149023
157	0x3c8ef098	0.017448708
158	0x3e18bc09	0.1491548
159	0xbcbd962a	-0.023142893
160	0x3da0373a	0.07823034
161	0x3c4d9282	0.012547137
162	0x3d4d567c	0.050131306
163	0x3e17f2e8	0.14838755
164	0x3d5efcdd	0.054440368
165	0xbcaf5dec	-0.02140709
166	0x3cd11d12	0.025526557
167	0xbd5000b1	-0.05078191
168	0x3d6fac4d	0.05851393
169	0xbe05065e	-0.1299071
170	0x3e186292	0.14881352
171	0xbca64a37	-0.02029906
172	0x3de37bc1	0.111075886
173	0x3d348e78	0.04408118
174	0xbb14c952	-0.0022703004
175	0x3d52d06c	0.051468298
176	0xbdb21f00	-0.08697319
177	0xbb30ae3d	-0.0026959323
178	0xbcee963d	-0.029124374
179	0xbe2e5c84	-0.1702748
180	0x3ea3e758	0.3201244
181	0xbdb9d94b	-0.090746485
182	0xbe024c97	-0.12724529
183	0x3e0c97a9	0.13729729
184	0xbb9b7155	-0.004743735
185	0x3dc693af	0.09696137
186	0xbc931efa	-0.017959107
187	0xbdc626be	-0.09675358
188	0xbbd09c99	-0.006366324
189	0x3c9cac0a	0.019125003
190	0x3e013205	0.12616737
191	0x3bf04646	0.007332596
192	0x3e25acad	0.16179152
193	0x3dbbd645	0.09171728
194	0x3e33e338	0.17567146
195	0xbc1f7a3b	-0.009733732
196	0x3d0c0e70	0.034193456
197	0xbd086090	-0.033295214
198	0xbd8b430b	-0.06799897
199	0xbd503862	-0.05083502
200	0xbd94c9ce	-0.07265054
201	0x3e47328d	0.19452877
202	0x3d833c55	0.06407992
203	0xbc1a0fff	-0.009403228
204	0xbdc54b77	-0.096335344
205	0x3d5a7351	0.05333263
206	0xbd981842	-0.07426502
207	0xbbf1c893	-0.0073786466
208	0x3d3b2ced	0.04569714
209	0xbe6aedca	-0.22942272
210	0x3e3d2180	0.1846981
211	0x3d93b5e8	0.0721243
212	0x3c04c593	0.008103746
213	0xbc64ae9b	-0.013957645
214	0x3c8d700e	0.017265346
215	0xbc2fdf24	-0.010734353
216	0x3e50869c	0.2036385
217	0xbdf56126	-0.1198142
218	0xbda82ef4	-0.082120806
219	0x3e05feb1	0.13085438
220	0xbc1eff82	-0.0097044725
221	0xbdbfb2a5	-0.093602456
222	0xbca539c4	-0.020169146
223	0xbd53a393	-0.05166967
224	0xbe1eb68d	-0.15499325
225	0x3dab9db3	0.08379688
226	0x3d82f6a0	0.06394696
227	0x3ccc9a30	0.024975866
228	0xbd023167	-0.031785395
229	0x3dce8834	0.100845724
230	0x3d6dfd26	0.05810275
231	0x3e0ec064	0.13940579
232	0x3dc358b3	0.095384024
233	0xbceb6698	-0.028735444
234	0xbc98bf50	-0.018645912
235	0xbe257d05	-0.16160972
236	0x3d931972	0.07182588
237	0xbdd2dcc3	-0.10296013
238	0x3d9775d4	0.07395521
239	0xbd84ac55	-0.06478182
240	0x3dedfcca	0.11620481
241	0xbc0ad6c6	-0.008474058
242	0xbe115bdf	-0.14195202
243	0x3d8bf169	0.06833155
244	0x3cd6d06f	0.026222436
245	0x3caf80ad	0.021423662
246	0xbce078dc	-0.02740138
247	0xbcfd39c5	-0.030911336
248	0x3cd36034	0.02580271
249	0x3d45e67a	0.048315503
250	0xbdca5d88	-0.09881121
251	0x3e0bf5d0	0.13667989
252	0xbe2e82aa	-0.17042032
253	0xbd23aa77	-0.03995749
254	0x3c3bdbd7	0.011465988
255	0xbd13ffb3	-0.036132526

network_body._body_endoder.seq_layers.2.bias f4 [128]
0	0x00000000	0.0
1	0x00000000	0.0
2	0x00000000	0.0
3	0x00000000	0.0
4	0x00000000	0.0
5	0x00000000	0.0
6	0x00000000	0.0
7	0x00000000	0.0
8	0x00000000	0.0
9	0x00000000	0.0
10	0x00000000	0.0
11	0x00000000	0.0
12	0x00000000	0.0
13	0x00000000	0.0
14	0x00000000	0.0
15	0x00000000	0.0
16	0x00000000	0.0
17	0x00000000	0.0
18	0x00000000	0.0
19	0x00000000	0.0
20	0x00000000	0.0
21	0x00000000	0.0
22	0x00000000	0.0
23	0x00000000	0.0
24	0x00000000	0.0
25	0x00000000	0.0
26	0x00000000	0.0
27	0x00000000	0.0
28	0x00000000	0.0
29	0x00000000	0.0
30	0x00000000	0.0
31	0x00000000	0.0
32	0x00000000	0.0
33	0x00000000	0.0
34	0x00000000	0.0
35	0x00000000	0.0
36	0x00000000	0.0
37	0x00000000	0.0
38	0x00000000	0.0
39	0x00000000	0.0
40	0x00000000	0.0
41	0x00000000	0.0
42	0x00000000	0.0
43	0x00000000	0.0
44	0x00000000	0.0
45	0x00000000	0.0
46	0x00000000	0.0
47	0x00000000	0.0
48	0x00000000	0.0
49	0x00000000	0.0
50	0x00000000	0.0
51	0x00000000	0.0
52	0x00000000	0.0
53	0x00000000	0.0
54	0x00000000	0.0
55	0x00000000	0.0
56	0x00000000	0.0
57	0x00000000	0.0
58	0x00000000	0.0
59	0x00000000	0.0
60	0x00000000	0.0
61	0x00000000	0.0
62	0x00000000	0.0
63	0x00000000	0.0
64	0x00000000	0.0
65	0x00000000	0.0
66	0x00000000	0.0
67	0x00000000	0.0
68	0x00000000	0.0
69	0x00000000	0.0
70	0x00000000	0.0
71	0x00000000	0.0
72	0x00000000	0.0
73	0x00000000	0.0
74	0x00000000	0.0
75	0x00000000	0.0
76	0x00000000	0.0
77	0x00000000	0.0
78	0x00000000	0.0
79	0x00000000	0.0
80	0x00000000	0.0
81	0x00000000	0.0
82	0x00000000	0.0
83	0x00000000	0.0
84	0x00000000	0.0
85	0x00000000	0.0
86	0x00000000	0.0
87	0x00000000	0.0
88	0x00000000	0.0
89	0x00000000	0.0
90	0x00000000	0.0
91	0x00000000	0.0
92	0x00000000	0.0
93	0x00000000	0.0
94	0x00000000	0.0
95	0x00000000	0.0
96	0x00000000	0.0
97	0x00000000	0.0
98	0x00000000	0.0
99	0x00000000	0.0
100	0x00000000	0.0
101	0x00000000	0.0
102	0x00000000	0.0
103	0x00000000	0.0
104	0x00000000	0.0
105	0x00000000	0.0
106	0x00000000	0.0
107	0x00000000	0.0
108	0x00000000	0.0
109	0x00000000	0.0
110	0x00000000	0.0
111	0x00000000	0.0
112	0x00000000	0.0
113	0x00000000	0.0
114	0x00000000	0.0
115	0x00000000	0.0
116	0x00000000	0.0
117	0x00000000	0.0
118	0x00000000	0.0
119	0x00000000	0.0
120	0x00000000	0.0
121	0x00000000	0.0
122	0x00000000	0.0
123	0x00000000	0.0
124	0x00000000	0.0
125	0x00000000	0.0
126	0x00000000	0.0
127	0x00000000	0.0

action_model._discrete_distribution.branches.0.weight f4 [38, 128]
0	0x3a4336c6	0.00074468215
1	0x3bb26e5a	0.005445284
2	0xbb899dca	-0.004199718
3	0xbadb9938	-0.0016754037
4	0x3bd2b152	0.0064298296
5	0xba875b8f	-0.0010326969
6	0xbbb23d7f	-0.00543946
7	0xbc003cd5	-0.0078270035
8	0x3ad05b47	0.0015896343
9	0xbb966f1e	-0.004590883
10	0xbae1256f	-0.0017177294
11	0xbb956e02	-0.004560233
12	0x3c12eed4	0.008968074
13	0xbb73b3ff	-0.0037186143
14	0xbbe6ddba	-0.007045475
15	0x3b9a6fa0	0.004713014
16	0xbc5efb4d	-0.013609719
17	0x3c103edf	0.008804052
18	0xbb70a47d	-0.0036719136
19	0xbc38b7eb	-0.011274318
20	0x3bd0420f	0.006355531
21	0x3bfb3da2	0.0076672593
22	0xbc278257	-0.0102239465
23	0xbb16e4b9	-0.0023024513
24	0xbbfc528d	-0.0077002705
25	0xbb967bde	-0.004592403
26	0x3ac33819	0.0014894038
27	0xbc3091d7	-0.010776958
28	0x3c3b84f7	0.0114452755
29	0x3bee5b53	0.0072740703
30	0x3c4541e0	0.012039632
31	0x3c0e29f7	0.008676997
32	0xbbfef345	-0.007780465
33	0xbb86f85f	-0.0041189636
34	0xbbefbf6f	-0.007316522
35	0xbb01a0b4	-0.0019779624
36	0xbc2c59e2	-0.010519477
37	0x3c6530da	0.013988698
38	0xbb2efe07	-0.0026701705
39	0xbbe4234d	-0.006962216
40	0x3b8d64a5	0.0043149763
41	0x3ab2f928	0.0013654577
42	0x3b180b1d	0.0023199983
43	0xbbec94cf	-0.007219888
44	0xbb1e4b25	-0.0024153676
45	0x3c612c13	0.013743418
46	0xbaf47870	-0.0018651616
47	0xbb6f7665	-0.0036539074
48	0x39cc09da	0.00038917252
49	0xbb0904cb	-0.0020907398
50	0x3c65f65b	0.0140357865
51	0xbb857cef	-0.004073731
52	0x3bb45385	0.0055031204
53	0xbb2a679f	-0.0026001704
54	0x3c00f2c7	0.007870383
55	0xbcd27fd2	-0.025695715
56	0xb9944643	-0.0002828111
57	0x3c4ed440	0.0126238465
58	0xbb80e54d	-0.003933585
59	0x3bc0bc40	0.005881816
60	0xbbab4ef4	-0.005227918
61	0x3adf5735	0.001703954
62	0x3ba390b4	0.004991615
63	0xbb6daa8b	-0.0036264982
64	0x3b6e1c57	0.003633281
65	0xbca80c45	-0.020513663
66	0xbb964dc5	-0.0045869076
67	0xbc286661	-0.010278315
68	0x3bd980b0	0.006637655
69	0x3aecb635	0.0018059673
70	0x3ba9910f	0.005174763
71	0x3b197f07	0.0023421661
72	0x3adcae47	0.0016836607
73	0x3c3f2580	0.011666656
74	0x3be84967	0.0070888284
75	0xbb768e47	-0.0037621425
76	0x3c087a8a	0.008329997
77	0xbc9bd4f5	-0.019022444
78	0x3bbf6aaf	0.005841575
79	0x3b366943	0.0027833737
80	0xbb977c33	-0.00462296
81	0xbc80ea0b	-0.0157366
82	0x3b9962b3	0.0046809553
83	0x3c9f1d49	0.019423144
84	0x3b859fed	0.0040779025
85	0x3ccb7024	0.024833746
86	0x3b84087b	0.0040293313
87	0xbc4fefd8	-0.012691461
88	0xbc0921e9	-0.008369901
89	0xbb99d661	-0.0046947454
90	0x3bb545ba	0.0055319937
91	0xbbb2dfd1	-0.00545881
92	0xbcaaebf2	-0.02086446
93	0x3cc3fdfc	0.02392482
94	0x3b6e169d	0.0036329397
95	0xbc4bdeb7	-0.012443236
96	0x3c912bef	0.017721144
97	0xbccb1a8b	-0.02479293
98	0x3b5d4232	0.003376138
99	0x3c61f2da	0.0137908105
100	0x3b02aa90	0.001993809
101	0x3c740b2a	0.01489524
102	0xbb4cd972	-0.0031257537
103	0x3c27ef1f	0.010249882
104	0xbc43d327	-0.011952198
105	0xbbc232bf	-0.0059264596
106	0x3b346161	0.0027523863
107	0x3c2f0192	0.010681527
108	0x3b55a6d5	0.003260066
109	0x3b89c701	0.0042046313
110	0xbad2cbbb	-0.0016082445
111	0xbc14c725	-0.009080683
112	0xbb8bed86	-0.0042702584
113	0x3c3401ac	0.010986727
114	0x3a80aae1	0.0009816551
115	0x3b05ab2f	0.0020396223
116	0x3ba29891	0.004962035
117	0x3c0c5b23	0.008566651
118	0x3aef7923	0.0018270354
119	0xba9cc68e	-0.0011961029
120	0xbb80f284	-0.00393516
121	0x3c2ed91d	0.010671881
122	0xbb7490bb	-0.0037317711
123	0x3be9fd85	0.0071408176
124	0xbc371bee	-0.011176093
125	0x3a6a981b	0.0008949057
126	0xbba7f770	-0.0051259324
127	0x3c50379f	0.012708574
128	0xbc24a89e	-0.010049967
129	0xb916900e	-0.0001435878
130	0x3ba5cb73	0.0050596534
131	0x3adb78cd	0.0016744375
132	0x3c0c7842	0.008573594
133	0xbc023d4d	-0.007949186
134	0x3b13d583	0.0022557683
135	0x3b969dfa	0.004596469
136	0x3c0754d5	0.008259972
137	0x3be56c45	0.007001432
138	0xbbfcafaa	-0.0077113705
139	0xbba71f07	-0.0051001343
140	0xbcbf1e9f	-0.023330031
141	0x3c5f2bbb	0.013621266
142	0xbba6fc0f	-0.0050959657
143	0x3b90eb46	0.004422578
144	0xbbb5c3e1	-0.005547032
145	0xbba2efbd	-0.0049724267
146	0xbb5a19b7	-0.0033279487
147	0xbc7e1017	-0.015506766
148	0x3c4c5445	0.012471263
149	0x3c42a7d3	0.011880833
150	0xbbd9362a	-0.0066287713
151	0x3b807e42	0.003921301
152	0xbb30d2a8	-0.002698103
153	0x3c36ca0a	0.011156568
154	0xbbbbe4e8	-0.005734075
155	0x3c91c273	0.017792916
156	0xbbee7b7a	-0.007277903
157	0x3c7b15ab	0.01532499
158	0x3bf738c3	0.0075446083
159	0xbbac9a5f	-0.005267426
160	0x3c3a718e	0.011379613
161	0x3c821e0d	0.01588347
162	0x3c0220b6	0.007942369
163	0x38e4b827	0.00010906188
164	0x3c243ecd	0.0100247385
165	0x3ab14a72	0.0013526215
166	0xbbd97b52	-0.0066370154
167	0xbcae9838	-0.021312818
168	0xbbb877c9	-0.005629514
169	0x3bfcef6a	0.00771897
170	0x3ae9de02	0.0017842653
171	0x3ca97588	0.020685926
172	0x3bb0789f	0.005385473
173	0x3bc2dd14	0.0059467647
174	0x3a59fae8	0.0008315281
175	0x3c55aa1b	0.013041045
176	0xbaf30be7	-0.0018542976
177	0xbbd3cc5b	-0.00646357
178	0xbbd2e578	-0.006436046
179	0x3b7b72bb	0.0038367945
180	0xba0bb8d3	-0.000532997
181	0xb99ba866	-0.0002968937
182	0xba69fd67	-0.00089260045
183	0x3b8461cb	0.004039978
184	0x3c652d17	0.013987801
185	0x3c31aa0b	0.010843764
186	0xbb5a310b	-0.0033293392
187	0x3b34d907	0.0027595179
188	0x3c2533f3	0.010083186
189	0xbbb0e5ee	-0.0053985035
190	0x3b4e3d2a	0.0031469562
191	0x39ee183f	0.00045412962
192	0x3b967cac	0.0045924988
193	0xbc3309e3	-0.01092765
194	0x3bde60cf	0.006786443
195	0xbb1cb5b4	-0.0023912014
196	0xbb8824b5	-0.0041547664
197	0x3befe380	0.0073208213
198	0xbba72baa	-0.0051016407
199	0x3bc3d297	0.005976032
200	0xbb04b91b	-0.0020251933
201	0x3b802981	0.0039111977
202	0x3bccc9dd	0.00624965
203	0xbb0ccede	-0.0021485607
204	0xbbaa87a7	-0.0052041593
205	0xbb994fe1	-0.0046787118
206	0xbc088350	-0.008332089
207	0xbbb2aab7	-0.0054524797
208	0xbc7220b7	-0.014778308
209	0x3c1d95a5	0.009618198
210	0xbbe024cb	-0.0068403236
211	0xbade7238	-0.0016971296
212	0xbc021720	-0.007940084
213	0x3be2d7af	0.006922684
214	0xbbb3f851	-0.005492248
215	0xbc6c1db5	-0.01441138
216	0xba7a0dd0	-0.00095388014
217	0xbc0847fa	-0.008317942
218	0xbc0576d7	-0.008146009
219	0x3c78d8fd	0.015188453
220	0x3b6adb6a	0.0035836347
221	0x3b8fb76f	0.0043858807
222	0xbc70feb7	-0.014709166
223	0x3c90120c	0.01758673
224	0xbc238cb7	-0.0099822795
225	0xbc55fa63	-0.013060185
226	0xbc374b26	-0.01118735
227	0xbba09134	-0.004900122
228	0x3ade324b	0.0016952244
229	0x3bb74db4	0.0055939797
230	0x3a9bdae3	0.0011890795
231	0xbbd22100	-0.0064126253
232	0x3bc2a47c	0.005940018
233	0xbb36b694	-0.002787982
234	0xbb92d043	-0.004480393
235	0x3c156b66	0.009119844
236	0x3c28aa55	0.010294517
237	0x3903f7c9	0.0001258544
238	0x3c8d438b	0.017244121
239	0xbb44aafc	-0.0030009141
240	0xb7813a07	-1.540502e-05
241	0x3cd8cb4b	0.026464125
242	0x3c0089c6	0.007845348
243	0x3b264ca7	0.0025375278
244	0xbc8006bb	-0.01562821
245	0xbc5d4dc3	-0.013507309
246	0xbc07d07e	-0.0082894545
247	0xbc2618e6	-0.010137772
248	0x3bf84ef2	0.0075777704
249	0x3ba58e4f	0.005052365
250	0x3c36d2cf	0.011158659
251	0xbc368b0f	-0.011141553
252	0xbbdd9f23	-0.0067633553
253	0x3bb88f41	0.0056323116
254	0xbab1b2af	-0.001355728
255	0x3ba6857e	0.0050818315

action_model._discrete_distribution.branches.0.bias f4 [38]
0	0x00000000	0.0
1	0x00000000	0.0
2	0x00000000	0.0
3	0x00000000	0.0
4	0x00000000	0.0
5	0x00000000	0.0
6	0x00000000	0.0
7	0x00000000	0.0
8	0x00000000	0.0
9	0x00000000	0.0
10	0x00000000	0.0
11	0x00000000	0.0
12	0x00000000	0.0
13	0x00000000	0.0
14	0x00000000	0.0
15	0x00000000	0.0
16	0x00000000	0.0
17	0x00000000	0.0
18	0x00000000	0.0
19	0x00000000	0.0
20	0x00000000	0.0
21	0x00000000	0.0
22	0x00000000	0.0
23	0x00000000	0.0
24	0x00000000	0.0
25	0x00000000	0.0
26	0x00000000	0.0
27	0x00000000	0.0
28	0x00000000	0.0
29	0x00000000	0.0
30	0x00000000	0.0
31	0x00000000	0.0
32	0x00000000	0.0
33	0x00000000	0.0
34	0x00000000	0.0
35	0x00000000	0.0
36	0x00000000	0.0
37	0x00000000	0.0

network_body._body_endoder.seq_layers.0.weight f4 [128, 39]
0	0xbe97cddd	-0.2964925
1	0xbdf5f58a	-0.120097235
2	0x3de16357	0.11005276
3	0xbdad7e02	-0.084713
4	0x3e88a838	0.2669084
5	0xbd6f13b2	-0.058368392
6	0xbdbe916f	-0.09305083
7	0x3cefb25d	0.029259855
8	0xbe7e2581	-0.24818994
9	0xbe145e97	-0.14489208
10	0xbe30d08f	-0.17267059
11	0x3e682a7c	0.22672457
12	0x3b62db9f	0.0034615768
13	0xbe956e8b	-0.291859
14	0xbe08cd62	-0.13359597
15	0x3e1d154f	0.1534016
16	0xbe65a702	-0.2242699
17	0xbe37f6e5	-0.17965277
18	0xbabe0a2b	-0.001449888
19	0x3dc7b866	0.09751968
20	0x3e61bcc7	0.22044669
21	0xbe1ca199	-0.1529602
22	0x3da31b4d	0.079641916
23	0x3c9ab15f	0.018883405
24	0x3e88a35b	0.2668713
25	0x3c2fe2ca	0.010735223
26	0x3df14a94	0.11781803
27	0xbdcc9539	-0.099893995
28	0xbbe17fd7	-0.006881695
29	0x3e27c290	0.16382813
30	0xbda3d9e5	-0.080005445
31	0xbdbc4e62	-0.09194638
32	0xbc71d1fb	-0.014759536
33	0x3e9a7c21	0.30172828
34	0xbe67fd86	-0.22655305
35	0xbbae22e9	-0.00531422
36	0x3de5064f	0.11182844
37	0xbc90a34e	-0.017655995
38	0xbe1c8628	-0.15285552
39	0x3dc21e4b	0.09478434
40	0xbe0b0315	-0.13575394
41	0xbcb43e5a	-0.022002388
42	0xbe55f7e9	-0.20895351
43	0x3ea9c3e5	0.33157268
44	0x3ec3dcb2	0.38254315
45	0x3d329083	0.04359485
46	0xbddb37ff	-0.1070404
47	0x3eaf6459	0.34256247
48	0xbe75fb78	-0.24021709
49	0xbdcc25ae	-0.09968124
50	0xbd958ce2	-0.07302262
51	0xbdaef23c	-0.08542296
52	0xbd26bb58	-0.04070601
53	0xbd842dbb	-0.06454035
54	0xbe631553	-0.22176103
55	0x3dd92ab3	0.10603847
56	0x3e0521a4	0.13001114
57	0xbd0a9a63	-0.03383864
58	0xbd0cb9da	-0.03435693
59	0x3d9345e2	0.071910635
60	0x3e5aed7a	0.21379653
61	0xbb661c51	-0.0035112093
62	0xbd8df1c6	-0.0693088
63	0x3d384cda	0.044995166
64	0x3d85a0bb	0.065247975
65	0xbddab2a9	-0.10678608
66	0x3d89aac9	0.06722028
67	0xbe52eba9	-0.2059771
68	0xbe29e7c6	-0.16592321
69	0x3ed5fadd	0.41792956
70	0x3d7cfa88	0.061762363
71	0x3e1ecc53	0.15507631
72	0xbe65284a	-0.2237865
73	0x3ddcac53	0.10775056
74	0xbdaa08c6	-0.08302455
75	0x3d3533c8	0.044238836
76	0xbe035a55	-0.12827428
77	0xbd1b9ce0	-0.037991405
78	0xbe53fafc	-0.20701212
79	0xbdc37feb	-0.09545883
80	0xbe1748b4	-0.14773828
81	0xbdb9a7de	-0.09065221
82	0xbe0b3422	-0.13594106
83	0x3d170c66	0.03687706
84	0xbe8d57b8	-0.27605987
85	0xbdab9225	-0.08377484
86	0x3e142935	0.14468844
87	0x3e64e62a	0.22353426
88	0x3ea5464e	0.322802
89	0xbe27f6e3	-0.16402774
90	0x3dc93ba0	0.09825826
91	0xbe8b338a	-0.2718776
92	0xbdd53a1e	-0.104114756
93	0x3e07d584	0.13265043
94	0x3e248ca7	0.1606928
95	0x3ba03cf7	0.00489008
96	0xbe69a523	-0.22816901
97	0xbddbbfd5	-0.107299484
98	0x3babe58e	0.005245871
99	0xbdacbc13	-0.0843431
100	0xbde64a85	-0.11244682
101	0xbe12a9e1	-0.14322616
102	0xbead81cd	-0.33888093
103	0x3e53d7d8	0.20687807
104	0xbe89efcb	-0.2694076
105	0x3e50f403	0.20405583
106	0xbd52c9d6	-0.051462017
107	0x3cc5a396	0.024125855
108	0xbdd49e72	-0.103817835
109	0xbbc37aba	-0.005965558
110	0x3ddb2be4	0.10701731
111	0x3dbf8996	0.09352414
112	0xbb980dca	-0.0046403157
113	0x3e9a131b	0.300927
114	0xbe1fc986	-0.15604219
115	0xbd5c05b5	-0.05371638
116	0x3d7a23bf	0.061069246
117	0xbe1d370b	-0.15353028
118	0x3e83f192	0.2577024
119	0x3e219994	0.15781242
120	0xbe341868	-0.17587435
121	0xbd9c0914	-0.07618919
122	0xbdd8abd1	-0.105796464
123	0x3e772d6d	0.24138422
124	0x3e0d57e3	0.13803057
125	0x3c1eea32	0.009699391
126	0xbd0a954e	-0.033833794
127	0x3cd46434	0.025926687
128	0xbe840088	-0.25781655
129	0x3d6541e3	0.055971038
130	0xbe00b2ad	-0.1256816
131	0xbc566066	-0.013084507
132	0xbdcf8858	-0.101334274
133	0x3d87dfef	0.06634509
134	0x3f07252a	0.5279108
135	0xbd1b0373	-0.037845086
136	0xbe2659b5	-0.16245158
137	0xbe5b0167	-0.21387254
138	0xbe36d022	-0.17852834
139	0x3e5b43c0	0.21412563
140	0xbd49d308	-0.04927352
141	0xbe3f68cb	-0.18692319
142	0x3e06439f	0.13111733
143	0xbdb02a90	-0.08601868
144	0xbe05b7c3	-0.13058381
145	0xbded406e	-0.115845546
146	0x3d554015	0.052063067
147	0xbda0c4f9	-0.078500696
148	0xbd68ad42	-0.056805857
149	0xbdf16e36	-0.11788599
150	0xbe07b977	-0.13254343
151	0x3e4a9bfe	0.19786069
152	0x3d7778c2	0.060417898
153	0x3c31c4af	0.010850116
154	0x3e23cd6c	0.15996331
155	0x3e9d97a8	0.30779767
156	0xbc9a83c6	-0.018861663
157	0xbd76d757	-0.060263958
158	0x3e648c1c	0.22319072
159	0xbe1b0bc0	-0.15141201
160	0x3e201c01	0.15635683
161	0xbe042813	-0.12905912
162	0x3e7627e0	0.24038649
163	0xbe49b69c	-0.19698566
164	0x3e139051	0.14410521
165	0x3dd68fad	0.10476623
166	0xbc974262	-0.018464271
167	0x3db27684	0.08714011
168	0x3db36fb0	0.08761537
169	0xbd25af02	-0.040450104
170	0x3caf77c8	0.02141942
171	0x3d240aca	0.04004935
172	0x3e9b2f0d	0.30309334
173	0xbda1eda1	-0.07906652
174	0xbdb1c4e4	-0.08680132
175	0x3e5787ed	0.21047945
176	0x3dbc49ca	0.09193762
177	0x3dffaa07	0.12483602
178	0xbd2bf731	-0.041983787
179	0xbd804ebf	-0.062650196
180	0xbdd6b4c6	-0.104836985
181	0xbddee3a9	-0.108832665
182	0xbd8acfdc	-0.06777927
183	0xbb821481	-0.0039697294
184	0xbe87dc43	-0.26535234
185	0xbd2d0daf	-0.042249378
186	0x3e505dfd	0.20348354
187	0x3d89c75b	0.06727477
188	0x3e78fb17	0.24314533
189	0x3dcd3560	0.10019946
190	0x3e52a64c	0.2057125
191	0xbdda5e95	-0.10662571
192	0xbe65804c	-0.22412223
193	0x3e65e636	0.224511
194	0xbb92e8cf	-0.0044833194
195	0xbdce92db	-0.10086604
196	0x3d518020	0.05114758
197	0x3d8d6f94	0.069060475
198	0xbe36bf17	-0.17846332
199	0x3d58927c	0.052874073
200	0xbdb296a2	-0.08720137
201	0x3e648fda	0.223205
202	0xbca36504	-0.019945629
203	0x3dadf2e9	0.08493597
204	0x3d4b664c	0.049658105
205	0xbe022e51	-0.12712981
206	0x3dec748f	0.11545669
207	0x3af731b6	0.001885942
208	0xbd0e6f8b	-0.034774344
209	0x3cc5c026	0.024139475
210	0x3e83d1ad	0.25745907
211	0x3def8e53	0.11697068
212	0x3db29ae8	0.08720952
213	0x3de50f53	0.111845635
214	0x3de50723	0.11183002
215	0x3d8ac0e3	0.067750715
216	0xbc4c03f6	-0.012452116
217	0xbcd79159	-0.026314424
218	0x3e89e05c	0.26928985
219	0xbe806513	-0.25077114
220	0xbce4a666	-0.027911376
221	0x3e00e0f9	0.1258582
222	0x3cd1dfd9	0.025619434
223	0x3e46b9b5	0.19406779
224	0xbd81865f	-0.063244574
225	0x3d21ab7d	0.039470185
226	0xbe46c54a	-0.19411197
227	0x3d08da7b	0.033411484
228	0x3ec08ed4	0.3760897
229	0xbc80577f	-0.015666721
230	0xbd356373	-0.044284295
231	0x3dad13f4	0.084510714
232	0xbd827329	-0.06369621
233	0xbe8be064	-0.27319634
234	0x3df947f5	0.12171928
235	0xbd4e70fe	-0.050400726
236	0xbd0762ed	-0.033053327
237	0x3c305399	0.010762119
238	0xbd282d0f	-0.041058596
239	0xbd894955	-0.0670344
240	0x3e9e3b82	0.30904776
241	0xbe2034f2	-0.15645197
242	0x3e0fcbfd	0.14042659
243	0x3e689366	0.22712478
244	0xbdd0edab	-0.102015816
245	0x3d784275	0.060610253
246	0xbe4b13c2	-0.19831756
247	0x3e18eccd	0.14934082
248	0xbe0deb1d	-0.1385922
249	0x3b944634	0.0045249704
250	0xbd5afc69	-0.053463373
251	0xbdc3baed	-0.09557138
252	0x3d730ef1	0.05934042
253	0x3e1e86e1	0.1548114
254	0x3d41b488	0.04729131
255	0xbe504f08	-0.20342648

network_body._body_endoder.seq_layers.0.bias f4 [128]
0	0x00000000	0.0
1	0x00000000	0.0
2	0x00000000	0.0
3	0x00000000	0.0
4	0x00000000	0.0
5	0x00000000	0.0
6	0x00000000	0.0
7	0x00000000	0.0
8	0x00000000	0.0
9	0x00000000	0.0
10	0x00000000	0.0
11	0x00000000	0.0
12	0x00000000	0.0
13	0x00000000	0.0
14	0x00000000	0.0
15	0x00000000	0.0
16	0x00000000	0.0
17	0x00000000	0.0
18	0x00000000	0.0
19	0x00000000	0.0
20	0x00000000	0.0
21	0x00000000	0.0
22	0x00000000	0.0
23	0x00000000	0.0
24	0x00000000	0.0
25	0x00000000	0.0
26	0x00000000	0.0
27	0x00000000	0.0
28	0x00000000	0.0
29	0x00000000	0.0
30	0x00000000	0.0
31	0x00000000	0.0
32	0x00000000	0.0
33	0x00000000	0.0
34	0x00000000	0.0
35	0x00000000	0.0
36	0x00000000	0.0
37	0x00000000	0.0
38	0x00000000	0.0
39	0x00000000	0.0
40	0x00000000	0.0
41	0x00000000	0.0
42	0x00000000	0.0
43	0x00000000	0.0
44	0x00000000	0.0
45	0x00000000	0.0
46	0x00000000	0.0
47	0x00000000	0.0
48	0x00000000	0.0
49	0x00000000	0.0
50	0x00000000	0.0
51	0x00000000	0.0
52	0x00000000	0.0
53	0x00000000	0.0
54	0x00000000	0.0
55	0x00000000	0.0
56	0x00000000	0.0
57	0x00000000	0.0
58	0x00000000	0.0
59	0x00000000	0.0
60	0x00000000	0.0
61	0x00000000	0.0
62	0x00000000	0.0
63	0x00000000	0.0
64	0x00000000	0.0
65	0x00000000	0.0
66	0x00000000	0.0
67	0x00000000	0.0
68	0x00000000	0.0
69	0x00000000	0.0
70	0x00000000	0.0
71	0x00000000	0.0
72	0x00000000	0.0
73	0x00000000	0.0
74	0x00000000	0.0
75	0x00000000	0.0
76	0x00000000	0.0
77	0x00000000	0.0
78	0x00000000	0.0
79	0x00000000	0.0
80	0x00000000	0.0
81	0x00000000	0.0
82	0x00000000	0.0
83	0x00000000	0.0
84	0x00000000	0.0
85	0x00000000	0.0
86	0x00000000	0.0
87	0x00000000	0.0
88	0x00000000	0.0
89	0x00000000	0.0
90	0x00000000	0.0
91	0x00000000	0.0
92	0x00000000	0.0
93	0x00000000	0.0
94	0x00000000	0.0
95	0x00000000	0.0
96	0x00000000	0.0
97	0x00000000	0.0
98	0x00000000	0.0
99	0x00000000	0.0
100	0x00000000	0.0
101	0x00000000	0.0
102	0x00000000	0.0
103	0x00000000	0.0
104	0x00000000	0.0
105	0x00000000	0.0
106	0x00000000	0.0
107	0x00000000	0.0
108	0x00000000	0.0
109	0x00000000	0.0
110	0x00000000	0.0
111	0x00000000	0.0
112	0x00000000	0.0
113	0x00000000	0.0
114	0x00000000	0.0
115	0x00000000	0.0
116	0x00000000	0.0
117	0x00000000	0.0
118	0x00000000	0.0
119	0x00000000	0.0
120	0x00000000	0.0
121	0x00000000	0.0
122	0x00000000	0.0
123	0x00000000	0.0
124	0x00000000	0.0
125	0x00000000	0.0
126	0x00000000	0.0
127	0x00000000	0.0

network_body._body_endoder.seq_layers.2.weight f4 [128, 128]
0	0x3d3b12d1	0.04567224
1	0x3dab0047	0.08349662
2	0x3d7906b0	0.060797393
3	0x3d3554c4	0.044270292
4	0xbe52c78d	-0.20583935
5	0x3e1b3951	0.15158583
6	0x3ddbdf1a	0.107359126
7	0x3cf92243	0.030411845
8	0x3cb0c2b2	0.021577213
9	0xbc44ad91	-0.012004272
10	0xbdcbb4e4	-0.099466115
11	0xbd19762d	-0.037466217
12	0x3d1478fe	0.0362482
13	0x3e120cd2	0.14262703
14	0xbdce5334	-0.100744635
15	0xbc843ce3	-0.016142314
16	0xbc04ecc4	-0.00811309
17	0x3e03145b	0.12800734
18	0x3da6eb93	0.08150401
19	0x3ca41821	0.020031037
20	0xbd4a34f3	-0.049366903
21	0x3d30340b	0.043018382
22	0xbd175e45	-0.036955137
23	0xbd6b6be0	-0.057475924
24	0xbb84abef	-0.0040488164
25	0x3ca3d751	0.020000132
26	0xbe52b250	-0.20575833
27	0x3dfb3e41	0.12267733
28	0xbda9b123	-0.08285739
29	0xbca09dc4	-0.019606479
30	0xbde7d0e1	-0.11319137
31	0x3de23c3e	0.110466465
32	0x3d8d0247	0.068852
33	0x3d291074	0.041275457
34	0xbd4d0e86	-0.05006268
35	0xbd85d271	-0.06534279
36	0xbc118f0b	-0.008884202
37	0xb942abea	-0.00018565325
38	0x3e1ce7ba	0.15322772
39	0x3df7c4cc	0.12098083
40	0x3d5b9d4d	0.05361681
41	0x3c5fb139	0.013653093
42	0xbd343494	-0.043995455
43	0xbe203aed	-0.15647478
44	0x3e032628	0.12807524
45	0xbc570532	-0.013123797
46	0xbd1c5212	-0.038164206
47	0xbc8a8907	-0.016911043
48	0x3e16f0c8	0.14740288
49	0x3e14546c	0.1448533
50	0x3c703304	0.014660601
51	0x3a2d00e5	0.00065995596
52	0x3c52f2f6	0.012875309
53	0xbbb6ef85	-0.005582752
54	0xbe154d03	-0.14580159
55	0xbcff2b5e	-0.031148609
56	0xbcbc8f36	-0.023017507
57	0x3d966b64	0.07344702
58	0x3cfd854e	0.030947354
59	0xbcd10d4f	-0.025519041
60	0x3dbf3a88	0.09337336
61	0xbabf05de	-0.0014573892
62	0xbd47226e	-0.04861682
63	0xbb83c460	-0.0040212125
64	0xbd3c1889	-0.045921836
65	0xbe0df986	-0.13864717
66	0x3d4c688f	0.049904402
67	0xbd1d3a7f	-0.038385864
68	0x3c3bcce5	0.011462425
69	0xbe2ec70b	-0.17068116
70	0x3df15e7d	0.117856
71	0x3d042964	0.032266036
72	0x3d50137e	0.05079984
73	0xbd6a4522	-0.057194836
74	0x3dd6fb8c	0.104971975
75	0x3abb08cf	0.0014269593
76	0x3ddeb3fc	0.10874173
77	0xbe2b27c2	-0.16714385
78	0xbc70683d	-0.01467329
79	0xbba7be11	-0.005119093
80	0xbd77be99	-0.060484502
81	0xbd41a5ef	-0.047277387
82	0x3d9bd02e	0.076080665
83	0x3d9e0f7e	0.07717799
84	0xbe08a768	-0.1334511
85	0xbe0be1b5	-0.13660319
86	0xbd1b3961	-0.037896518
87	0xbb2bc5e5	-0.0026210484
88	0xbdc7029f	-0.09717297
89	0x3d620a22	0.055185445
90	0x3d6c4a1e	0.05768787
91	0xbe2add02	-0.1668587
92	0xbb8c7a51	-0.004287042
93	0xbd316c18	-0.043315977
94	0x3e334ef9	0.17510594
95	0xbd798048	-0.060913354
96	0xbc4e20dc	-0.0125810765
97	0xbe094221	-0.13404132
98	0x39c5faf9	0.00037761757
99	0x3dcde946	0.10054259
100	0xbd46ee84	-0.04856731
101	0x3d0d2546	0.034459375
102	0xbc9e68f1	-0.01933715
103	0xbdc2e49f	-0.09516262
104	0xbe01aff3	-0.12664776
105	0x3d83da60	0.06438136
106	0xbe3d6113	-0.18494062
107	0xbdc5c66b	-0.09656986
108	0x3cecddea	0.02891441
109	0x3e0c7411	0.13716151
110	0xbca949da	-0.020665098
111	0xbdbae8cb	-0.09126433
112	0xbe0a53a3	-0.13508467
113	0xbc6314fd	-0.013859984
114	0xbd781c5b	-0.060573917
115	0xbac97567	-0.0015370072
116	0xbe034ec0	-0.1282301
117	0x3dc2bed1	0.095090516
118	0xbc93b557	-0.018030806
119	0xbcb464a5	-0.022020647
120	0xbe025971	-0.12729432
121	0xbb497938	-0.0030742418
122	0x3dddbd63	0.10827138
123	0x3dac0340	0.083990574
124	0xbbd7e5a9	-0.006588657
125	0x3c75ba46	0.014998024
126	0x3ca16d72	0.019705508
127	0x3c0b338d	0.008496177
128	0x3ce7b9b2	0.028286789
129	0xbd5f68cc	-0.0545433
130	0x3a5e5314	0.00084810075
131	0x3ceaa941	0.02864516
132	0x3e385a99	0.1800331
133	0xbe06b710	-0.1315577
134	0xbd38ab1f	-0.04508507
135	0xbd7dfc91	-0.062008444
136	0xbd5b97b1	-0.05361146
137	0xbd6332c2	-0.05546833
138	0xbd1fa6fe	-0.038977616
139	0x37e54c59	2.733448e-05
140	0x3d9f5022	0.07778956
141	0xbd0c2e26	-0.034223698
142	0x3d18b993	0.037286352
143	0xbd493853	-0.04912598
144	0x3baf001a	0.0053405883
145	0xbd390288	-0.04516843
146	0x3d641a96	0.055689417
147	0x3d9881b1	0.07446612
148	0x3ca7264a	0.020404
149	0x3dd1c1cf	0.10242044
150	0xbd0eefa5	-0.03489651
151	0xbbf27056	-0.0073986454
152	0x3d6fe6ba	0.058569647
153	0xbc1eb5e4	-0.009686921
154	0x3c7fee1f	0.015620737
155	0x3d902232	0.07037772
156	0xbdd3b978	-0.1033811
157	0x3dc7257d	0.09723947
158	0xbd96d5c1	-0.07364989
159	0x3c9f75ee	0.019465413
160	0xbd6a6578	-0.057225674
161	0xbd026544	-0.031834856
162	0x3d9ff436	0.078102514
163	0xbc18b426	-0.0093202945
164	0x3c81d6ff	0.015849588
165	0xbacb2da7	-0.0015501276
166	0xbd1c804e	-0.0382083
167	0xbdf1ed28	-0.11812812
168	0x3e19c673	0.15017109
169	0x3d7cb2b6	0.06169387
170	0xbe0188d5	-0.12649854
171	0xbe6eec4e	-0.2333233
172	0xbca47773	-0.02007649
173	0x3de4bb5d	0.11168549
174	0xbd2c18e7	-0.042015936
175	0x3e1bf971	0.15231873
176	0xbdbeed72	-0.09322633
177	0xbd52a2a0	-0.051424623
178	0xbdd89dd2	-0.10576977
179	0x3dc6adcf	0.0970112
180	0x3ccce421	0.025011124
181	0x3e49f065	0.1972061
182	0x3c444a93	0.0119806705
183	0xbc963918	-0.018337771
184	0xbddc80cb	-0.10766753
185	0x3d58284c	0.052772805
186	0xbd052394	-0.032504633
187	0xbcffcab6	-0.03122459
188	0x3d91fa25	0.071277894
189	0xbd99f200	-0.07516861
190	0x3d72bb47	0.059260633
191	0xbe095e50	-0.13414884
192	0x3d6aea0b	0.057352107
193	0x3d237845	0.03990962
194	0x3dd5f267	0.10446625
195	0xbd7f83ee	-0.062381677
196	0x3d85b24e	0.065281495
197	0x3ddefc90	0.10888016
198	0x3d93d41c	0.07218191
199	0xbddad205	-0.10684589
200	0xbd917125	-0.07101659
201	0x3d4d5299	0.0501276
202	0x3ca9262f	0.02064809
203	0xbcb97a4f	-0.02264133
204	0x3d03e9ea	0.0322055
205	0xbe056f95	-0.13030846
206	0x3c807034	0.015678503
207	0xbe1a6d51	-0.15080763
208	0xbdc09786	-0.09403901
209	0x3c0effed	0.00872801
210	0xbc1e4162	-0.009659143
211	0x3d72a3a1	0.05923808
212	0x3dfee370	0.12445724
213	0xbe2da17f	-0.16956137
214	0xbd0895e3	-0.033346068
215	0x3d248d22	0.040173657
216	0x3cd8bf6b	0.026458463
217	0x3d19bad2	0.03753168
218	0x3e03cd56	0.12871298
219	0x3b6f2a47	0.0036493705
220	0xbd26ba71	-0.040705148
221	0x3d2e6cd8	0.04258427
222	0xbe092af8	-0.13395298
223	0xbd54ec57	-0.051983204
224	0xbd9eb4b8	-0.07749313
225	0x3d9c1fb9	0.07623238
226	0xbd33de00	-0.043912888
227	0xbb807b3b	-0.00392094
228	0x3d96eced	0.07369409
229	0x3bf90510	0.0075994805
230	0xbd25dbed	-0.04049294
231	0x3d8c414e	0.068483934
232	0xbd7d7f3a	-0.06188891
233	0x3e25dace	0.16196749
234	0x3d144bba	0.03620503
235	0xbd47581e	-0.04866802
236	0xbd51c879	-0.051216576
237	0xbdbe5529	-0.09293587
238	0xbce4afdf	-0.027915893
239	0xbc8c733c	-0.017144792
240	0x3d9a1d04	0.075250655
241	0x3d5bc430	0.053653896
242	0xbda5a6f0	-0.080884814
243	0xbd265637	-0.040609565
244	0xbdc2479f	-0.09486317
245	0xbcd1775d	-0.025569612
246	0xbd0dc3b0	-0.03461045
247	0xbd148a90	-0.036264956
248	0xbe14f775	-0.14547522
249	0xbd2b01d9	-0.04174981
250	0x3d3a3fe8	0.045471102
251	0x3e4f51bc	0.20246023
252	0xbd8024e7	-0.062570386
253	0xbdaf630d	-0.08563814
254	0x3d1c087c	0.03809403
255	0x3b0fa716	0.002191966

network_body._body_endoder.seq_layers.2.bias f4 [128]
0	0x00000000	0.0
1	0x00000000	0.0
2	0x00000000	0.0
3	0x00000000	0.0
4	0x00000000	0.0
5	0x00000000	0.0
6	0x00000000	0.0
7	0x00000000	0.0
8	0x00000000	0.0
9	0x00000000	0.0
10	0x00000000	0.0
11	0x00000000	0.0
12	0x00000000	0.0
13	0x00000000	0.0
14	0x00000000	0.0
15	0x00000000	0.0
16	0x00000000	0.0
17	0x00000000	0.0
18	0x00000000	0.0
19	0x00000000	0.0
20	0x00000000	0.0
21	0x00000000	0.0
22	0x00000000	0.0
23	0x00000000	0.0
24	0x00000000	0.0
25	0x00000000	0.0
26	0x00000000	0.0
27	0x00000000	0.0
28	0x00000000	0.0
29	0x00000000	0.0
30	0x00000000	0.0
31	0x00000000	0.0
32	0x00000000	0.0
33	0x00000000	0.0
34	0x00000000	0.0
35	0x00000000	0.0
36	0x00000000	0.0
37	0x00000000	0.0
38	0x00000000	0.0
39	0x00000000	0.0
40	0x00000000	0.0
41	0x00000000	0.0
42	0x00000000	0.0
43	0x00000000	0.0
44	0x00000000	0.0
45	0x00000000	0.0
46	0x00000000	0.0
47	0x00000000	0.0
48	0x00000000	0.0
49	0x00000000	0.0
50	0x00000000	0.0
51	0x00000000	0.0
52	0x00000000	0.0
53	0x00000000	0.0
54	0x00000000	0.0
55	0x00000000	0.0
56	0x00000000	0.0
57	0x00000000	0.0
58	0x00000000	0.0
59	0x00000000	0.0
60	0x00000000	0.0
61	0x00000000	0.0
62	0x00000000	0.0
63	0x00000000	0.0
64	0x00000000	0.0
65	0x00000000	0.0
66	0x00000000	0.0
67	0x00000000	0.0
68	0x00000000	0.0
69	0x00000000	0.0
70	0x00000000	0.0
71	0x00000000	0.0
72	0x00000000	0.0
73	0x00000000	0.0
74	0x00000000	0.0
75	0x00000000	0.0
76	0x00000000	0.0
77	0x00000000	0.0
78	0x00000000	0.0
79	0x00000000	0.0
80	0x00000000	0.0
81	0x00000000	0.0
82	0x00000000	0.0
83	0x00000000	0.0
84	0x00000000	0.0
85	0x00000000	0.0
86	0x00000000	0.0
87	0x00000000	0.0
88	0x00000000	0.0
89	0x00000000	0.0
90	0x00000000	0.0
91	0x00000000	0.0
92	0x00000000	0.0
93	0x00000000	0.0
94	0x00000000	0.0
95	0x00000000	0.0
96	0x00000000	0.0
97	0x00000000	0.0
98	0x00000000	0.0
99	0x00000000	0.0
100	0x00000000	0.0
101	0x00000000	0.0
102	0x00000000	0.0
103	0x00000000	0.0
104	0x00000000	0.0
105	0x00000000	0.0
106	0x00000000	0.0
107	0x00000000	0.0
108	0x00000000	0.0
109	0x00000000	0.0
110	0x00000000	0.0
111	0x00000000	0.0
112	0x00000000	0.0
113	0x00000000	0.0
114	0x00000000	0.0
115	0x00000000	0.0
116	0x00000000	0.0
117	0x00000000	0.0
118	0x00000000	0.0
119	0x00000000	0.0
120	0x00000000	0.0
121	0x00000000	0.0
122	0x00000000	0.0
123	0x00000000	0.0
124	0x00000000	0.0
125	0x00000000	0.0
126	0x00000000	0.0
127	0x00000000	0.0

value_heads.value_heads.extrinsic.weight f4 [1, 128]
0	0x3dde43b4	0.10852757
1	0xbdcc4a5f	-0.09975123
2	0xbe5843a7	-0.21119557
3	0x3d8ba56c	0.06818661
4	0x3df7a010	0.120910764
5	0x3bf7e560	0.0075651854
6	0xbde187d3	-0.110122345
7	0x3de3f2d8	0.11130303
8	0x3db2d260	0.08731532
9	0x3e27368c	0.16329402
10	0x3d58bb48	0.05291298
11	0xbd1c9f8c	-0.038238093
12	0xbe1d8fd0	-0.15386891
13	0xbdae5f78	-0.08514303
14	0xbdbeb7da	-0.09312411
15	0x3c5e3170	0.0135615915
16	0x3e25071c	0.16115993
17	0xbd966fe6	-0.07345562
18	0x3dfe15f4	0.12406531
19	0x3e55cb94	0.2087844
20	0xbdb692e4	-0.08914736
21	0x3b76db80	0.0037667453
22	0xbe005b92	-0.12534931
23	0xbe4d49f6	-0.20047745
24	0x3d8a330c	0.06748018
25	0x3da03da8	0.0782426
26	0x3e026fe2	0.12737992
27	0xbdeed002	-0.11660768
28	0x3d9c66b0	0.076367736
29	0xbe23b3b8	-0.15986526
30	0xbe406a30	-0.18790507
31	0x3e4eba24	0.20188195
32	0xbe133402	-0.14375308
33	0xbddae335	-0.106878676
34	0x3e34987a	0.1763629
35	0xbc970038	-0.018432721
36	0x3d98faa4	0.07469681
37	0x3e18c444	0.1491862
38	0xbe078224	-0.13233238
39	0xbd90e654	-0.070751816
40	0xbd68e0b8	-0.056854934
41	0x3e0240ae	0.12719986
42	0x3e1976ea	0.14986768
43	0x3c541d40	0.012946427
44	0xbdae6f62	-0.08517338
45	0xbe43273c	-0.19057935
46	0x3d4dce98	0.05024585
47	0x3e28f902	0.16501239
48	0x3c46d6b0	0.012136146
49	0xbdbc7f54	-0.092039734
50	0xbc9eab60	-0.019368827
51	0xbcea43b0	-0.028596729
52	0x3e41d3d2	0.1892846
53	0x3dcbce1c	0.099514216
54	0x3e19bf1c	0.15014309
55	0x3e041290	0.12897706
56	0xbe22aa92	-0.1588538
57	0xbcd3ac20	-0.025838912
58	0xbda39bfe	-0.079887375
59	0x3d08ef00	0.033431053
60	0x3dec7e30	0.11547506
61	0xbd81f18c	-0.063448995
62	0xbdd8af0a	-0.10580261
63	0xbe5b31f5	-0.21405776
64	0xbe061750	-0.1309483
65	0x3e46b456	0.1940473
66	0xbe1929a4	-0.14957291
67	0xbe350dcf	-0.17681049
68	0x3de8da0c	0.11369714
69	0x3cc1df88	0.023666158
70	0x3dab9aec	0.083791584
71	0x3e5a1024	0.2129522
72	0x3e42476a	0.18972555
73	0x3bc41040	0.0059833825
74	0xbd978a4c	-0.07399425
75	0x3e104f3c	0.14092726
76	0x3e2deb60	0.1698432
77	0x3d2f57d8	0.042808384
78	0xbe0830e4	-0.132999
79	0x3e2e5a3c	0.17026609
80	0x3e20dc90	0.15709138
81	0x3e269ed0	0.1627152
82	0x3cf06010	0.029342681
83	0x3d631d08	0.05544761
84	0x3df4af00	0.11947441
85	0x3d4db880	0.05022478
86	0xbe0c4226	-0.13697109
87	0x3e1f9dbe	0.15587518
88	0x3c9fb6e8	0.019496396
89	0xbe4e8042	-0.20166114
90	0x3e1b6208	0.15174115
91	0x3cfe7a18	0.031064078
92	0xbe150aac	-0.14554852
93	0x3e46f344	0.19428736
94	0xbd65a540	-0.056065798
95	0x3e567554	0.20943195
96	0x3e0bb2d6	0.13642439
97	0x3e5c1a30	0.21494365
98	0x3e30859a	0.17238465
99	0x3de306f8	0.110853136
100	0x3d9fdbec	0.07805619
101	0x3db88768	0.09010202
102	0xbdc8fb85	-0.098135985
103	0x3dcedcc4	0.101007015
104	0xbd1138b4	-0.035454467
105	0x3c4ec9b0	0.012621328
106	0xbc5d02b0	-0.01348941
107	0x3e4a456c	0.19753045
108	0x3e118076	0.1420916
109	0x3e002aae	0.12516281
110	0xbe358543	-0.17726617
111	0x3e46b836	0.19406208
112	0x3dd20750	0.10255301
113	0x3d0f9fa8	0.03506437
114	0x3e512922	0.20425847
115	0xbe22e273	-0.15906696
116	0xbe51c944	-0.20486933
117	0xbe05d842	-0.13070777
118	0x3deb9fc8	0.11505085
119	0xbd97cde2	-0.07412316
120	0x3e091050	0.13385129
121	0xbe3b91bf	-0.18317316
122	0xbe10fcba	-0.14158908
123	0x3e1836d6	0.14864668
124	0xbe5c692d	-0.21524496
125	0xbdf693cf	-0.12039911
126	0xbde24332	-0.11047973
127	0xbdc82e35	-0.09774438
