results/DemoRun/TestAgent1/TestAgent1-323776.pt (torch, 597434 bytes, 33 tensors)

network_body._body_endoder.seq_layers.0.weight f4 [128, 39]
0	0xbd09bdf2	-0.03362841
1	0xbda88975	-0.08229343
2	0xbdd52345	-0.10407118
3	0xbe153d19	-0.14574088
4	0xbd402549	-0.046910558
5	0x3db238cd	0.0870224
6	0xbd44b5ee	-0.048025064
7	0xbde66979	-0.11250586
8	0x3df38fa3	0.11892631
9	0x3e7e939d	0.24860997
10	0x3e123bda	0.14280644
11	0x3b01aa03	0.0019785173
12	0xbdb191bf	-0.08670377
13	0xbc2bdc3a	-0.010489518
14	0xbdc6c205	-0.09704975
15	0xbe2ca6d7	-0.1686052
16	0xbe6162f1	-0.220104
17	0xbe3e063f	-0.1855707
18	0xbcd7712d	-0.026299084
19	0xbe40657d	-0.18788715
20	0xbe9811e6	-0.29701155
21	0x3d6b6ec7	0.057478692
22	0xbe2fe494	-0.1717704
23	0xbd9251b1	-0.07144488
24	0x3e001ac6	0.12510213
25	0xbe458b8c	-0.19291514
26	0x3dde1f82	0.108458534
27	0x3cd9ed25	0.026602337
28	0xbdeeb06d	-0.11654744
29	0xbcfcb861	-0.030849637
30	0xbc976e32	-0.018485162
31	0x3cf2d7e5	0.029643962
32	0x3e824aec	0.25447786
33	0x3e2df041	0.16986181
34	0x3e6a6f84	0.22894102
35	0xbc832ded	-0.01601311
36	0xbe09c949	-0.1345569
37	0xbc075a00	-0.008261204
38	0xbd173764	-0.03691806
39	0x3c29cad9	0.010363304
40	0x3c76e7f5	0.015069951
41	0xbc9e990b	-0.019360086
42	0xbe395f84	-0.18102843
43	0xbdb999e9	-0.09062559
44	0xbcbb71a6	-0.02288134
45	0xbd239d68	-0.039945036
46	0xbe246066	-0.16052398
47	0xbe8ec37a	-0.27883512
48	0xbdfc1cb4	-0.12310162
49	0x3d25f968	0.040521055
50	0xbe81cd47	-0.25351927
51	0x3d8e6f24	0.06954792
52	0xbe006bc6	-0.12541112
53	0xbec1237e	-0.3772239
54	0x3b240a14	0.002503042
55	0x3e88fcc8	0.26755357
56	0x3e10cb3b	0.14140026
57	0xbe20d3da	-0.15705815
58	0x3e445e22	0.19176534
59	0x3dadcaf2	0.08485974
60	0xbd7abbfa	-0.061214425
61	0x3e94af0c	0.290398
62	0xbeaf1a4b	-0.34199747
63	0x3d8e37ce	0.06944238
64	0xbdc415c4	-0.09574464
65	0x3ece2b83	0.40267572
66	0x3d8e7e2c	0.06957659
67	0x3d3ba0fd	0.045807827
68	0x3c045582	0.008077027
69	0xbe7bda42	-0.24594977
70	0x3c5d0e8a	0.013492236
71	0x3dd37eab	0.103268944
72	0xbd4ea183	-0.050447
73	0x3c8b1cc1	0.016981484
74	0x3d16ba52	0.036798783
75	0xbeb08da4	-0.34483063
76	0x3e44f9bc	0.19235891
77	0x3d93a938	0.0721001
78	0xbdeb4201	-0.114871986
79	0xbdc89290	-0.097935796
80	0xbc9dd6df	-0.019267498
81	0xbd8cd025	-0.06875638
82	0xbe1b5a3f	-0.15171145
83	0xbe2a15d4	-0.1660989
84	0xbe3fbe0c	-0.18724841
85	0x3e0779ec	0.13230103
86	0xbd3261c3	-0.043550264
87	0xbeb54b2a	-0.35408908
88	0xbd07eb5f	-0.03318345
89	0x3abd789c	0.00144555
90	0xbd7cda94	-0.06173189
91	0xbdbcdfe3	-0.092223905
92	0xbe0071ef	-0.12543462
93	0x3d05fc11	0.032711092
94	0x3bb48957	0.0055095362
95	0xbe6cb6c8	-0.231166
96	0x3ec69374	0.38784373
97	0xbdc206a7	-0.09473925
98	0xbd17b34c	-0.037036225
99	0xbdda0d60	-0.10647082
100	0x3d30607f	0.043060776
101	0x3e0fd52f	0.14046167
102	0x3e170b6a	0.14750448
103	0x3e072b7e	0.13200185
104	0x3e825079	0.2545202
105	0xbe991610	-0.29899645
106	0x3e148af5	0.14506133
107	0x3db777a1	0.08958364
108	0xbc253582	-0.010083558
109	0x3df13933	0.11778488
110	0x3d83a972	0.064288035
111	0x3e510181	0.2041073
112	0x3db59bf7	0.088676386
113	0xbd9203f6	-0.07129662
114	0xbea929dd	-0.33039752
115	0x3dced1ab	0.10098585
116	0xbecbdf11	-0.39818624
117	0x3d0b5a41	0.03402162
118	0xbe47731e	-0.19477507
119	0x3d188550	0.03723651
120	0xbdb7fda6	-0.089839265
121	0x3e411473	0.18855457
122	0x3def796a	0.1169308
123	0x3cd61fdc	0.026138239
124	0xbe03b72c	-0.12862843
125	0xbd73ce6e	-0.05952304
126	0x3d69e284	0.057100788
127	0x3e099db1	0.13439061
128	0xbe86d2b9	-0.26332644
129	0x3e8389fa	0.25691205
130	0x3dac09fb	0.08400341
131	0xbe039b6e	-0.1285226
132	0xbdb34dfa	-0.08755107
133	0xbe756dbc	-0.23967642
134	0xbe48cdec	-0.19609803
135	0xbe375a64	-0.17905575
136	0xbd5eec76	-0.054424725
137	0xbe6e778b	-0.2328779
138	0xbea222eb	-0.31667265
139	0xbdbaac5f	-0.091149084
140	0xbe3ae5c7	-0.18251716
141	0xbeb15cfd	-0.34641257
142	0x3d92a0fb	0.07159611
143	0x3e1161a7	0.14197408
144	0x3b04a324	0.002023884
145	0xbd2e9548	-0.042622834
146	0x3daa6025	0.08319119
147	0xbe30f6ae	-0.17281601
148	0xbe1dff33	-0.15429382
149	0x3d93e5d8	0.072215736
150	0xbe965ac5	-0.29366127
151	0x3eac406c	0.336429
152	0xbdc3470d	-0.09535036
153	0x3dbe0e8c	0.09280118
154	0xbe8c449d	-0.27396098
155	0xbd29268a	-0.04129652
156	0xbe3fc011	-0.18725611
157	0x3d94787a	0.072495416
158	0xbde7c1e8	-0.113162816
159	0x3e5b6629	0.2142569
160	0xbdeae6c9	-0.114698
161	0x3e94887e	0.29010385
162	0xbc4924aa	-0.012276808
163	0xbe8c1690	-0.27360964
164	0xbdd51d21	-0.104059465
165	0xbcf2c772	-0.029636119
166	0xbd2f8891	-0.04285485
167	0x3e1b5b7c	0.15171617
168	0xbe441be3	-0.19151263
169	0x3dcb9334	0.09940186
170	0xbd80a062	-0.062805906
171	0xbdee0123	-0.116213106
172	0x3ea307b7	0.31841823
173	0x3e32e5cd	0.17470475
174	0x3e9aa967	0.3020737
175	0x3e58b274	0.21161824
176	0xbe07dfed	-0.13269015
177	0x3a90a850	0.0011036489
178	0xbb6cb12f	-0.0036116352
179	0x3d2ba005	0.041900653
180	0xbb69b1fa	-0.003565906
181	0x3d910de8	0.070827305
182	0x3e37b9d5	0.17941983
183	0xbe2d0391	-0.16895892
184	0x3cfe0216	0.031006854
185	0x3de8e57b	0.11371895
186	0xbe53cb24	-0.20682961
187	0xbe183fd2	-0.14868096
188	0xbd0bebd4	-0.03416045
189	0xbc6ec5e9	-0.014573553
190	0x3e033053	0.12811403
191	0x3d2e591f	0.04256546
192	0x3da70464	0.08155134
193	0xbe0f7ac4	-0.14011675
194	0x3c8c3b21	0.017118039
195	0x3e062103	0.1309853
196	0x3e010946	0.12601194
197	0xbd70fde6	-0.058835886
198	0x3d8147b8	0.063125074
199	0xbe0b8708	-0.13625729
200	0x3e9a97d8	0.30193973
201	0xbde56b74	-0.11202136
202	0xbd2a48fb	-0.041573506
203	0xbe8ddeee	-0.27709144
204	0xbe6547de	-0.22390696
205	0x3bfb1208	0.0076620616
206	0x3e89abbd	0.26888838
207	0xbdeacd18	-0.114649
208	0x3ddb6fc4	0.10714677
209	0x3ca0092a	0.01953562
210	0xbe494d91	-0.19658495
211	0xbe401edf	-0.18761776
212	0x3de96611	0.11396421
213	0xbe5711eb	-0.21002929
214	0x3dc4253a	0.09577413
215	0x3dd3183e	0.10307358
216	0xbe511be0	-0.2042079
217	0xbe3bc9d5	-0.18338712
218	0xbd075ea9	-0.03304926
219	0xbe82c893	-0.2554365
220	0xbdcf1a46	-0.10112433
221	0xbe04ffb3	-0.12988167
222	0x3db067d2	0.08613552
223	0xbea838cb	-0.3285583
224	0x3c07c32a	0.008286277
225	0xbd711281	-0.058855537
226	0x3e0ae173	0.13562565
227	0xbe84eba4	-0.2596103
228	0x3e56d7df	0.20980786
229	0x3e9cecce	0.30649418
230	0x3e00250f	0.12514137
231	0xbd90d175	-0.07071201
232	0xbdebeac8	-0.1151939
233	0xbe965cdf	-0.2936773
234	0x3d8e8d66	0.06960563
235	0x3df96304	0.12177089
236	0x3e4aef99	0.19817962
237	0xbe5270d3	-0.20550852
238	0xbd34a0ec	-0.04409878
239	0xbd261508	-0.0405474
240	0x3da68218	0.08130282
241	0xbdd90a4e	-0.105976686
242	0xbe13e93c	-0.1444444
243	0xbda3b7cc	-0.07994041
244	0x3f034911	0.51283365
245	0x3e0f445a	0.13990918
246	0x3d96cc71	0.07363213
247	0x3ddfd04f	0.109284036
248	0xbe304cc1	-0.1721678
249	0x3c439793	0.011937994
250	0x3e1e6a19	0.1547016
251	0x3e885f0c	0.26635015
252	0x3d6ff440	0.058582544
253	0x3e065725	0.1311918
254	0x3e2513cf	0.16120838
255	0xbe18124e	-0.14850733

network_body._body_endoder.seq_layers.0.bias f4 [128]
0	0x3b2421b9	0.0025044514
1	0x3c7a39cd	0.01527257
2	0xbc60634d	-0.01369555
3	0x3c324646	0.010881012
4	0x3cf1a9cd	0.029499913
5	0x3bad5ffd	0.0052909837
6	0x3cfc88d9	0.030826973
7	0x3d1c9a39	0.038233016
8	0xbb2d06b0	-0.002640169
9	0x39cc91d8	0.00039018574
10	0x3c9c2291	0.019059451
11	0x3c961a27	0.018323017
12	0x3c04284d	0.008066249
13	0xbc55cdeb	-0.013049583
14	0x3c0b33f3	0.008496272
15	0x3c982743	0.018573409
16	0x3ca7e4f3	0.020494914
17	0xbd07e729	-0.033179436
18	0x3cd75e60	0.026290119
19	0xbc84e0da	-0.016220499
20	0xbc6effad	-0.014587325
21	0xbc976802	-0.018482212
22	0x3b30e536	0.002699209
23	0xbc49bc05	-0.012312894
24	0x3c04ccfe	0.008105515
25	0xbc6566dd	-0.014001575
26	0x3c9f9e4c	0.019484662
27	0x3c43fe3e	0.0119624715
28	0xbb129992	-0.0022369367
29	0xbd18f94b	-0.03734712
30	0x3cdaa69d	0.026690776
31	0xbb96b7f3	-0.004599565
32	0x3c3ccd67	0.011523581
33	0x3c2bc746	0.010484522
34	0xbbd8d208	-0.0066168346
35	0xbbcbbefb	-0.006217835
36	0x3c3a6179	0.011375778
37	0x3d08af1b	0.03337012
38	0x3ca9537a	0.020669688
39	0xbc2c4d5d	-0.010516492
40	0x3d00bb20	0.031428456
41	0xbb534e42	-0.003224269
42	0x3bd75a0a	0.006572013
43	0x3b1802c1	0.0023195
44	0xbc3bd452	-0.011464195
45	0xbc2d6ed9	-0.01058551
46	0xbc970093	-0.018432891
47	0x3cbd1143	0.02307952
48	0xbb3e7d17	-0.0029066259
49	0x3c4efe6c	0.012633901
50	0xbd04ed51	-0.032452885
51	0x3c81c174	0.015839316
52	0x3cb042c3	0.02151621
53	0x3c25d7ab	0.01012222
54	0x3cd60244	0.026124127
55	0x3d151e04	0.03640558
56	0xbbce58b5	-0.006297196
57	0x3cdc0d39	0.026861774
58	0x3c0cf5d6	0.008603534
59	0xbc4dff02	-0.012573006
60	0xbc45bf74	-0.012069572
61	0x3b94e022	0.0045433203
62	0x3ca45f44	0.020064957
63	0xbccd739a	-0.025079537
64	0x3d0e4b4b	0.034739774
65	0xbd0ee495	-0.03488596
66	0x3cab7b47	0.020932807
67	0xbcedf951	-0.029049547
68	0x3cd3a393	0.025834834
69	0x3cae6824	0.021289892
70	0x3c9c843b	0.019106021
71	0xbc8cc3b4	-0.017183162
72	0xbc665a27	-0.01405958
73	0x3c418922	0.01181248
74	0xbb98d7dd	-0.004664405
75	0xbc8155b0	-0.01578793
76	0xbd034832	-0.032051273
77	0xbc9e7695	-0.019343654
78	0xbb0cc8a0	-0.0021481887
79	0x3c0a9a13	0.008459586
80	0x3c73eb7b	0.014887686
81	0x3d1b62c4	0.037935987
82	0xbc96875b	-0.01837509
83	0xbb90317b	-0.00440043
84	0x3a5fd6a0	0.00085387565
85	0x3bc073cf	0.0058731805
86	0x3b8a89be	0.004227846
87	0xbcf86601	-0.030322077
88	0x3c5c51a8	0.013447203
89	0x3c36a819	0.011148476
90	0x3cb7c037	0.022430522
91	0x3bd741be	0.0065691164
92	0x3c57faca	0.013182351
93	0xbcab37ae	-0.020900574
94	0xbce6a7d4	-0.028156199
95	0xbc0a7fe8	-0.008453347
96	0xbd12edf8	-0.035871476
97	0xbbbf4b29	-0.005837817
98	0x3d1693e8	0.03676215
99	0x3b148e8e	0.0022667977
100	0xba0baa69	-0.00053278223
101	0x39bcef62	0.00036036508
102	0xbcd54733	-0.026034927
103	0xbc991a36	-0.018689256
104	0xbc1cc951	-0.009569482
105	0x3c30e865	0.010797595
106	0x3cff608f	0.031173972
107	0x3cab6faf	0.020927278
108	0x3c3ec23b	0.011642988
109	0x3b8af9d9	0.00424121
110	0xbb753f47	-0.003742175
111	0x3c1134df	0.008862703
112	0x3cbe0868	0.023197368
113	0xbd13341c	-0.035938367
114	0x3c5d70d6	0.013515672
115	0x3ba9c4e9	0.005180944
116	0x3ccf01b9	0.025269376
117	0x3be86102	0.0070916424
118	0x3b4f1782	0.0031599705
119	0x3c01bc27	0.007918394
120	0x3d1ce81a	0.038307287
121	0x3c5ba462	0.013405891
122	0x3c62f327	0.013851917
123	0xbc976173	-0.018479085
124	0x3c85501b	0.016273549
125	0xbd1ce244	-0.03830172
126	0x3c4ed207	0.012623317
127	0xbc81cbcb	-0.015844246

network_body._body_endoder.seq_layers.2.weight f4 [128, 128]
0	0xbe0c12b6	-0.13679013
1	0x3cbe801f	0.023254452
2	0xbca81db1	-0.02052197
3	0x3e7977fd	0.24362178
4	0xbcded4bf	-0.027201055
5	0xbd46cf45	-0.04853751
6	0xbe2d1554	-0.16902667
7	0xbb371d7d	-0.002794116
8	0x3d677579	0.056508515
9	0x3dc1c90a	0.09462173
10	0xbae42a8d	-0.0017407701
11	0xbce8c753	-0.028415358
12	0xbc9a06a8	-0.018802002
13	0x3d6dedbe	0.058088057
14	0x3c93b6f6	0.018031579
15	0xbd369763	-0.044577967
16	0x3e9f448c	0.31106985
17	0xbd619ae4	-0.055079356
18	0x3d2d0626	0.04224219
19	0x3d8f4f68	0.069975674
20	0xbd5d2665	-0.053991694
21	0x3e68e55c	0.22743744
22	0x3c9da0bb	0.019241681
23	0xbd9d249e	-0.07673
24	0x3e0957d0	0.13412404
25	0x3d340c02	0.043956764
26	0xbc986f3f	-0.018607734
27	0xbe051a98	-0.12998426
28	0x3d5221c4	0.051301733
29	0x3d9c428d	0.07629881
30	0x3d16c59e	0.036809556
31	0x3df150bd	0.11782978
32	0xbd2bda82	-0.041956432
33	0x3dc85590	0.09781945
34	0xbd3022f2	-0.043002076
35	0xbc0c4d68	-0.008563377
36	0xbdb71dc5	-0.08941225
37	0xbdb4431d	-0.08801863
38	0x3b587131	0.0033026452
39	0xbdd909ca	-0.1059757
40	0xbe4d4711	-0.20046641
41	0x3d9470e0	0.07248092
42	0x3e7ca5aa	0.24672571
43	0xbdaa3ea4	-0.08312729
44	0xbdd2c699	-0.10291786
45	0x3dd1abb8	0.10237831
46	0x3ded2373	0.11579027
47	0xbdc5abce	-0.0965191
48	0xb9ef4f46	-0.00045644696
49	0x3b00a3ab	0.0019628804
50	0x3dc95d49	0.09832246
51	0x3cd63989	0.026150482
52	0xbc4f59e1	-0.012655706
53	0x3e10be14	0.14135009
54	0xbd8f55d0	-0.06998789
55	0xbd683a86	-0.056696437
56	0x3cda9319	0.02668147
57	0xbbc09791	-0.005877443
58	0xbb894733	-0.004189396
59	0x3dabd2cd	0.083898164
60	0xbd49cd5a	-0.049268104
61	0xbb89a2dd	-0.004200323
62	0x3e01b7e3	0.12667803
63	0xbd5b9dcc	-0.053617284
64	0x3df1fc70	0.11815727
65	0x3e1859cd	0.14878006
66	0xbe83b632	-0.25724941
67	0x3cf8d87a	0.030376662
68	0xbcc972fe	-0.024590965
69	0x3c05a2ac	0.00815646
70	0xbda38925	-0.079851426
71	0xbd3941d4	-0.045228794
72	0x3d97b8e2	0.074083105
73	0xbd6d6d4c	-0.05796556
74	0x3d0d853a	0.034550883
75	0x3d0b06c3	0.033941995
76	0x3e4188ab	0.18899791
77	0x3d1db5d5	0.038503487
78	0xba659b49	-0.0008758796
79	0xbe024be9	-0.1272427
80	0xbdf3dcd9	-0.11907358
81	0xbe62983a	-0.22128382
82	0x3e2b14f3	0.1670721
83	0xbcb5796d	-0.022152627
84	0x3cf3bfd6	0.02975456
85	0xbd492078	-0.04910323
86	0xbd42554a	-0.04744462
87	0xbdc9253d	-0.09821556
88	0xbe2ae99e	-0.1669068
89	0x3ba9ba26	0.0051796613
90	0xbb3eeeab	-0.0029133956
91	0xbdb91f60	-0.090391874
92	0xbd142f5c	-0.036177978
93	0xbc20ed41	-0.009822191
94	0x3d37a052	0.044830628
95	0x3dc41f7c	0.09576318
96	0x3c458788	0.012056239
97	0xbcddc834	-0.027073003
98	0x3dd473bb	0.10373636
99	0xbd2b6f3e	-0.041854136
100	0xbd5037f7	-0.050834622
101	0x3c8cdbcb	0.01719465
102	0x3d29d7f7	0.041465726
103	0xbdb4d662	-0.08829953
104	0x3dde04fb	0.10840794
105	0xbd8e3d7b	-0.0694532
106	0x3e4a6609	0.19765486
107	0xbdd03267	-0.101658635
108	0xbdb9f22c	-0.09079394
109	0x3d948f1b	0.07253858
110	0x3d03c256	0.032167755
111	0xbd91ec8f	-0.07125198
112	0xbd24f0b2	-0.040268607
113	0x3dd2b28c	0.10287961
114	0x3db7c1d9	0.089725204
115	0x3ca7ab82	0.020467523
116	0xbc118c64	-0.008883569
117	0x3d945285	0.07242302
118	0x3dadcbb8	0.08486122
119	0x3bda8a31	0.0066693057
120	0xbd886bc2	-0.06661178
121	0x3b81964a	0.0039546834
122	0xbe353a52	-0.17698029
123	0x3bac8f1f	0.005266085
124	0x3e19b0d0	0.15008855
125	0x3d0b95da	0.034078456
126	0x3ce80b59	0.028325723
127	0x3ce0d1d7	0.02744381
128	0xbe18160f	-0.14852165
129	0x3cccaad0	0.024983793
130	0xbddcdee8	-0.107847035
131	0x3c52039c	0.012818243
132	0xbd0c0b03	-0.03419019
133	0xbe06ed47	-0.13176452
134	0x3cc13bff	0.023588179
135	0x3d89beee	0.0672587
136	0xbd585eb1	-0.05282468
137	0x3d9a9dec	0.075496525
138	0xbd16e9f5	-0.036844213
139	0xbda6ceb4	-0.08144894
140	0xbda3f53f	-0.08005761
141	0xbd8512ca	-0.06497724
142	0xbd3a9fef	-0.04556268
143	0x3c65f838	0.014036231
144	0xbdbbf191	-0.091769345
145	0x3c837db2	0.016051147
146	0x3d506da0	0.050885797
147	0x3d395035	0.045242507
148	0x3d8d40f2	0.06897153
149	0xbe0a25a3	-0.1349092
150	0x3df98100	0.12182808
151	0xbd03ea2c	-0.032205746
152	0x3d5d7c82	0.054073818
153	0xbd11452e	-0.035466366
154	0xbd4bf93a	-0.049798228
155	0x3e0c18c4	0.13681322
156	0x3d674874	0.05646558
157	0x3ccae149	0.024765627
158	0x3e1335f0	0.14376044
159	0xbe4a651a	-0.1976513
160	0x3dd9b032	0.1062931
161	0x3cedefac	0.029044949
162	0x3d469e64	0.048490897
163	0x3dc09c0f	0.09404766
164	0x3d525905	0.051354427
165	0x3c14b907	0.009077317
166	0xbced0728	-0.028934076
167	0x3d28dc07	0.04122546
168	0x3dc4c346	0.09607558
169	0xbd94c646	-0.0726438
170	0x3db7957c	0.08964059
171	0xbd595462	-0.05305899
172	0x3d76a686	0.060217403
173	0xbdba0efb	-0.090848885
174	0xbc991f73	-0.018691754
175	0xbe2fc793	-0.17165975
176	0xbdac4b01	-0.08412743
177	0x3e210a5e	0.15726611
178	0x3da82846	0.082108065
179	0xbd5da447	-0.054111745
180	0x3d8cbc4f	0.068718545
181	0xbc4f7203	-0.01266146
182	0x3ba9175d	0.005160256
183	0x3d0e106c	0.03468363
184	0xbdfb3693	-0.122662686
185	0xbc94c42d	-0.01815995
186	0xbd94cd0f	-0.07265674
187	0xbc8449b2	-0.016148422
188	0xbba2c3fe	-0.0049672117
189	0x3d4a08aa	0.04932467
190	0x3d028a34	0.031870082
191	0xbe5bcddf	-0.21465252
192	0xbd828564	-0.063730985
193	0xbda26304	-0.07929042
194	0xbbcb3dd2	-0.006202438
195	0xbe16c33e	-0.14722916
196	0xbe009770	-0.12557769
197	0x3dc67320	0.09689927
198	0x3d43fde7	0.047849562
199	0xbe01aa67	-0.1266266
200	0xbd647499	-0.05577526
201	0xbdf7f010	-0.12106335
202	0x3d491adb	0.049097877
203	0xbe5d696f	-0.21622251
204	0x3dca3e8d	0.09875212
205	0x3e011abf	0.12607859
206	0xbd4b5b8b	-0.04964785
207	0xbcd28c6d	-0.025701726
208	0x3d5c0e54	0.053724602
209	0x3df41812	0.119186535
210	0x3ddf2921	0.108965166
211	0xbe506629	-0.20351471
212	0x3ca7936a	0.020456035
213	0x3d42c1db	0.047548156
214	0xbd92e79e	-0.07173084
215	0xbd833e32	-0.06408347
216	0x3ce40ccb	0.027838131
217	0x3e446b41	0.19181539
218	0x3a92f537	0.0011211996
219	0xbcefd27e	-0.029275175
220	0xbdb180c6	-0.0866714
221	0x3bb1d9e6	0.005427587
222	0xbd88859e	-0.066661105
223	0xbd13e8f0	-0.03611082
224	0xbd560d0f	-0.052258547
225	0x3d5bf86b	0.053703707
226	0x3dc286ca	0.09498365
227	0x3d8b8a61	0.06813503
228	0x3ca588ee	0.020206895
229	0xbd30c3a3	-0.043155324
230	0xbd748bf3	-0.05970378
231	0x3da1028a	0.078618124
232	0x3d3d70f5	0.046250302
233	0x3e0efbc3	0.13963227
234	0xbd77efde	-0.06053149
235	0x3cd20690	0.025637895
236	0x3d416b9f	0.047221776
237	0xbdbb159c	-0.09134981
238	0x3e025ade	0.12729976
239	0xbe01fec8	-0.12694848
240	0xbd279ba7	-0.040919926
241	0xbd17c9ac	-0.037057564
242	0xbd879ee4	-0.06622103
243	0xbbf6c290	-0.007530518
244	0x3ce70101	0.02819872
245	0xbdd212cf	-0.10257494
246	0x3c962fa0	0.018333256
247	0x3e02a620	0.12758684
248	0x3d4bb718	0.04973516
249	0xbdfccae8	-0.12343389
250	0x3e31d2f7	0.17365633
251	0x3e08719b	0.13324587
252	0x3dadeb47	0.08492141
253	0xbdca819c	-0.09888002
254	0xbc80ac38	-0.01570712
255	0xbc95b551	-0.018274935

network_body._body_endoder.seq_layers.2.bias f4 [128]
0	0xbc8a4f62	-0.016883556
1	0x3c39fd8e	0.011351956
2	0x3c793fc9	0.0152129615
3	0xbb077b1e	-0.0020672749
4	0x3beee5ca	0.0072905766
5	0x3b81847f	0.0039525623
6	0x3bd221cf	0.0064127217
7	0x3d125fcf	0.0357359
8	0x3c95cf08	0.018287197
9	0xbb8d2c01	-0.004308224
10	0xbbd047ac	-0.0063562
11	0x3c875ea7	0.016524626
12	0x3ba2c82e	0.004967711
13	0x3a450a9c	0.00075165345
14	0x3b2cee78	0.0026387256
15	0xbce4d0c0	-0.027931571
16	0x3d04c08d	0.032410193
17	0x3d20c735	0.03925248
18	0x3c2981f4	0.010345925
19	0x3c962930	0.018330187
20	0xbc5933c3	-0.01325697
21	0x3c3cc7d0	0.011522248
22	0xbcd730da	-0.026268411
23	0xbc0260a8	-0.007957615
24	0xbc40f47c	-0.01177704
25	0x3d0f6dde	0.035016887
26	0x3bd06975	0.0063602277
27	0xbc5f3cf3	-0.013625371
28	0x3c857a05	0.016293535
29	0xbc76d25b	-0.015064801
30	0x3c1dfb21	0.009642393
31	0xba34085d	-0.00068677013
32	0x3c2933e2	0.010327311
33	0xbb4c2b65	-0.0031153795
34	0x3a1bf09b	0.0005948634
35	0xbd1e29c5	-0.038614053
36	0x3b74464d	0.0037273348
37	0xbbf0480c	-0.0073328074
38	0x3c3e2ad1	0.011606888
39	0x3c2bd367	0.010487414
40	0xbb870be9	-0.004121293
41	0xbc7663d9	-0.015038454
42	0xbcb87cd1	-0.022520455
43	0x3c9f078f	0.019412784
44	0xbc8c08ae	-0.017093983
45	0xbc847f04	-0.016173847
46	0x3b0eb9aa	0.0021778145
47	0xbc188522	-0.009309085
48	0x3c7a8606	0.015290743
49	0xbae27291	-0.0017276575
50	0x3d20bc3c	0.039242014
51	0x3aa64b68	0.0012687268
52	0xbc6c5201	-0.014423848
53	0xbc4671bd	-0.012112078
54	0x3d0613d7	0.032733764
55	0xbc74c982	-0.014940621
56	0xbcc8b7a2	-0.024501625
57	0xbc935ed6	-0.017989557
58	0x3cbbb30d	0.022912527
59	0x3bb5de42	0.005550177
60	0xbca5cf94	-0.020240583
61	0xbc943223	-0.018090313
62	0xbbc4cc3d	-0.0060057924
63	0x3cc76ee9	0.024344878
64	0xbcca00e6	-0.024658632
65	0x3c7ada8c	0.015310895
66	0xbceba175	-0.028763512
67	0x3c5a983f	0.013341962
68	0x3ce32970	0.02772972
69	0xba17bf19	-0.00057886686
70	0x3c3fe56a	0.011712411
71	0x3c9b5e68	0.018965915
72	0x3cd6d2ed	0.026223624
73	0xbc1ed03d	-0.009693203
74	0xbc3140bf	-0.010818659
75	0x3caf0359	0.021363901
76	0x3c55b24a	0.013042996
77	0xbbb17e85	-0.0054166936
78	0xbbe47872	-0.006972366
79	0xbbb22f9c	-0.0054378044
80	0x3ce149eb	0.027501067
81	0xbb9aa8ef	-0.0047198455
82	0x3b9e7bcf	0.0048365365
83	0x3bb436d8	0.005499702
84	0x3b457090	0.0030126907
85	0xbc05aa3e	-0.008158265
86	0x3acfe1c2	0.0015860128
87	0xbb05727c	-0.0020362427
88	0xbcb8a2c0	-0.022538543
89	0xbc48a121	-0.012245447
90	0x3c6d341f	0.014477759
91	0x3c4925f2	0.012277113
92	0x3ccfba9a	0.025357533
93	0xb782f888	-1.5612939e-05
94	0xbc9bddfe	-0.019026753
95	0x3c49c553	0.012315112
96	0x3c0630a2	0.008190306
97	0x3b06fc6f	0.002059724
98	0x3cef78a3	0.029232329
99	0xbba674cd	-0.0050798417
100	0xbc093217	-0.008373759
101	0x3c429d47	0.011878318
102	0xbba9ab52	-0.0051778937
103	0x3c765702	0.015035393
104	0xbaabab82	-0.0013097378
105	0xba2f326a	-0.00066832325
106	0x3c3be298	0.011467598
107	0x3c81d68d	0.015849376
108	0x3bad3736	0.0052861227
109	0x3cff1957	0.031140013
110	0x3c839729	0.01606329
111	0xbc88bc12	-0.016691241
112	0x3d1ba3ea	0.037998118
113	0x3acaa3b8	0.0015460169
114	0x3c3ce941	0.011530221
115	0x3bc0b189	0.005880539
116	0xbc6e8086	-0.01455701
117	0x3b6ba194	0.0035954462
118	0xbbaed500	-0.00533545
119	0xbc1a3c1c	-0.009413745
120	0xbcbd1242	-0.023079995
121	0x3c5557ed	0.013021451
122	0xbb277b0b	-0.0025555517
123	0xbc723b33	-0.014784622
124	0xba20676f	-0.00061189284
125	0x3c97e3cb	0.018541237
126	0x3bc73230	0.006078981
127	0x3ce3039f	0.027711688

action_model._discrete_distribution.branches.0.weight f4 [38, 128]
0	0x3aebf41e	0.001800183
1	0x3cc2ad4d	0.023764277
2	0x399d0352	0.00029947847
3	0x39c9b0fd	0.00038469574
4	0x3c13979f	0.009008317
5	0x3b879aee	0.004138342
6	0xbbed5d38	-0.0072437786
7	0xbbb985e7	-0.0056617144
8	0xbcb3dbfb	-0.02195548
9	0xbca5a11f	-0.02021843
10	0x3cad6f31	0.021171184
11	0x3ad403df	0.001617547
12	0xbbfcad84	-0.0077111144
13	0xbb9d03d6	-0.004791717
14	0xbc3df76d	-0.011594635
15	0x3c49162d	0.0122733535
16	0x3c11c844	0.008897845
17	0x3b2b1918	0.0026107486
18	0xbae12b9b	-0.0017179133
19	0xbc952ef6	-0.01821087
20	0x3946c165	0.00018954797
21	0xbcd8157a	-0.026377428
22	0x3ccc0558	0.024904892
23	0x3c104cb7	0.008807353
24	0x3d02acee	0.0319032
25	0xbc921abb	-0.017835012
26	0x3c08af11	0.00834252
27	0xbc5ae6ca	-0.013360688
28	0xbc0f36da	-0.008741105
29	0xbacb08d8	-0.0015490307
30	0xbc897b90	-0.016782552
31	0xbb659293	-0.0035029992
32	0x3ca201f3	0.01977632
33	0x3b863176	0.0040952517
34	0xbc198c8e	-0.00937189
35	0xba736fff	-0.0009286403
36	0xba91471e	-0.0011083817
37	0xbbed4c9a	-0.0072417976
38	0xbc766452	-0.015038567
39	0x3c2717a3	0.0101985065
40	0x3c022e4d	0.007945609
41	0xbbfc94af	-0.007708154
42	0xbc4199cd	-0.011816454
43	0xbb7fd4c3	-0.0039036728
44	0x3bad3ffd	0.005287169
45	0x3b38a398	0.0028173681
46	0x38afcfc7	8.383352e-05
47	0x3c7150db	0.01472875
48	0xbbd7f663	-0.006590651
49	0xbc459640	-0.012059748
50	0xbc49074c	-0.012269806
51	0xbc349c97	-0.011023662
52	0xbc98216d	-0.018570626
53	0xbc1d84c2	-0.009614171
54	0xbba16532	-0.0049253935
55	0x3d1cc6ad	0.03827541
56	0xbba98374	-0.005173141
57	0x3d153dae	0.036435775
58	0xbca4c884	-0.020115145
59	0xbc9e5a25	-0.019330094
60	0xbb2df25f	-0.002654217
61	0x3ca3d7ef	0.020000426
62	0x3c0657a5	0.008199607
63	0xbc9b2d71	-0.018942567
64	0x3c7578f7	0.014982454
65	0xbb0956b0	-0.002095621
66	0x3cde9516	0.0271707
67	0xbab9c95a	-0.0014174387
68	0xbc8e975e	-0.017406162
69	0xbc359868	-0.0110837
70	0xbcc3fff8	-0.023925766
71	0xbb4299ae	-0.002969365
72	0xbcdf0b0b	-0.027226945
73	0x3c5f0eee	0.013614399
74	0x3add7b00	0.0016897619
75	0xbc255187	-0.010090238
76	0xbc9336d5	-0.017970482
77	0x3c2e2dd7	0.010631046
78	0x3c062c78	0.008189313
79	0xbc76bf50	-0.015060261
80	0xbc65d372	-0.014027463
81	0xbcb73845	-0.022365699
82	0xbc4d5ad6	-0.012533864
83	0xb9017006	-0.0001234413
84	0x3c965b74	0.018354155
85	0x3be72bbe	0.007054775
86	0xbc47f2b3	-0.01220386
87	0xbcb5957c	-0.022166006
88	0x3c42bdba	0.011886055
89	0xbb88a8e3	-0.0041705235
90	0xbb96f4ea	-0.0046068328
91	0xbc91cca9	-0.017797785
92	0xbc821c6f	-0.015882699
93	0x3b6ecc12	0.0036437553
94	0x3bcfe48b	0.006344383
95	0xbc10402f	-0.008804365
96	0xbc12daea	-0.008963326
97	0xbc374bd7	-0.011187515
98	0xbc44b021	-0.012004883
99	0xbc0d01eb	-0.008606414
100	0xbc34de2a	-0.011039296
101	0xbc8c8a39	-0.017155753
102	0x3c12ddae	0.008963985
103	0x3b461afc	0.0030228486
104	0xbc4c7d89	-0.012481102
105	0x3bb14441	0.005409748
106	0x3c2b902a	0.010471383
107	0x3b0c85d6	0.0021442077
108	0xbc4a8c09	-0.012362489
109	0x3c451a6b	0.012030224
110	0xbca6381e	-0.02029043
111	0xbcd3920a	-0.025826473
112	0xbc4dfbca	-0.012572238
113	0x3b7f78d4	0.0038981931
114	0xbcd37caf	-0.02581629
115	0xbc8366d5	-0.016040245
116	0xbba26e27	-0.004956979
117	0xbc1e9b17	-0.009680531
118	0xbc7711ca	-0.015079925
119	0xbc897252	-0.016778145
120	0x3d289462	0.041157134
121	0xbc8563bd	-0.01628291
122	0xbb9960d2	-0.0046807313
123	0xbbb52ded	-0.0055291564
124	0xbcb3d9ec	-0.0219545
125	0xb9675561	-0.00022061683
126	0x3bd8c241	0.0066149537
127	0xbc2ce535	-0.010552694
128	0xbb7eb5e7	-0.0038865746
129	0xbc6eac7f	-0.014567493
130	0xbcad6959	-0.021168398
131	0xbcb9d27a	-0.02268337
132	0x3c12cb17	0.008959553
133	0x3b2d7406	0.002646686
134	0x3b96b7b1	0.0045995344
135	0xbb63f762	-0.0034784903
136	0xbcfcebdb	-0.030874183
137	0x3bdf50af	0.006815038
138	0xbbd1af97	-0.006399106
139	0x3b8004cb	0.0039068214
140	0x3caeaf70	0.02132389
141	0x3cb76d80	0.02239108
142	0xbb19a553	-0.0023444488
143	0xbd017303	-0.031603824
144	0xbba5748c	-0.005049294
145	0xbc04ccaa	-0.008105436
146	0x38b993a2	8.848986e-05
147	0xbb8315a6	-0.0040003834
148	0x3c38310b	0.0112421615
149	0x3b9f0de4	0.004853951
150	0x3ba2413f	0.0049516256
151	0xbcf1910e	-0.029488113
152	0x3b5559a6	0.0032554655
153	0x3cafbb04	0.02145148
154	0xbca1e87d	-0.01976418
155	0x3b397d87	0.002830358
156	0x3c87fe14	0.016600646
157	0xbb810ccc	-0.003938293
158	0x3bdab203	0.0066740527
159	0xbca34f98	-0.019935414
160	0xbca15cde	-0.019697603
161	0xbbfd7e4b	-0.0077360026
162	0xbbfab5bc	-0.007651059
163	0xbc025545	-0.0079549
164	0x39bb5dbd	0.0003573726
165	0xbb430d0b	-0.0029762413
166	0x3c1f47c5	0.009721701
167	0x3b43155d	0.0029767372
168	0x3bec6f6c	0.007215431
169	0xbc7014db	-0.01465341
170	0xbca8ae7c	-0.020591013
171	0x3c61569b	0.0137535585
172	0x3b942d7d	0.004522024
173	0xbc5534d6	-0.013013085
174	0xbd0f87b7	-0.035041537
175	0xbc3908c1	-0.011293591
176	0x3cb3d676	0.021952849
177	0xbc65f981	-0.014036537
178	0x3a771156	0.00094248855
179	0x3a3835b4	0.00070270454
180	0x3c33735f	0.0109528
181	0xbc96ea21	-0.018422188
182	0xbb8f7162	-0.00437753
183	0xbc5328f9	-0.012888187
184	0x3c993511	0.018702062
185	0xbb761000	-0.0037546158
186	0xbbba5dbd	-0.005687444
187	0x3ccf10b2	0.025276516
188	0x3d1c560f	0.03816801
189	0x3b3cf177	0.0028830448
190	0x3cd79236	0.026314836
191	0xbc6a3ff9	-0.014297479
192	0x3b0bea29	0.0021349287
193	0x3c86a368	0.01643534
194	0xbd17cd22	-0.037060864
195	0xbc34b64f	-0.011029794
196	0x3caeceb5	0.0213388
197	0x3cf077bb	0.029353967
198	0x39ec8f83	0.00045120352
199	0x3c854c4f	0.016271738
200	0x3c6a65d7	0.014306507
201	0xbcfbfe9a	-0.030761052
202	0x3cbf61d1	0.023362072
203	0x39e7c48c	0.00044206192
204	0xbc64ad95	-0.013957401
205	0xbccdca29	-0.025120812
206	0xbaa40f80	-0.0012516826
207	0xbc129cde	-0.008948533
208	0x3c096bbe	0.008387504
209	0xbd109272	-0.03529591
210	0xbc0e2d04	-0.008677725
211	0xbc4f3a57	-0.012648187
212	0x3c332720	0.010934621
213	0xbc13f813	-0.0090313135
214	0x3bd8c24d	0.0066149593
215	0x3cb607e2	0.022220556
216	0x3d0580c6	0.03259351
217	0xba9d683e	-0.0012009216
218	0xbd0279ea	-0.031854548
219	0x3cc17910	0.023617297
220	0xbb22133b	-0.00247307
221	0x3c77d761	0.015127034
222	0xbb86e1dc	-0.00411628
223	0x3a6558b0	0.0008748872
224	0xbc33687b	-0.010950203
225	0xbc9636af	-0.018336622
226	0xbbf2c6a7	-0.007408935
227	0x3babf8fc	0.005248187
228	0x3bef2159	0.0072976765
229	0x3ceb06d9	0.028689789
230	0xbd124cd2	-0.035717793
231	0x3b944481	0.004524768
232	0x3cb005b3	0.021487093
233	0x3b9c03af	0.0047611813
234	0xbcca42e1	-0.024690093
235	0xbc52de3c	-0.012870368
236	0x3c08ea3f	0.00835663
237	0x3cfaaaf1	0.03059909
238	0x3b14af2b	0.0022687416
239	0xbbce912a	-0.006303926
240	0x3c41c74c	0.011827301
241	0x3b217f78	0.0024642628
242	0x3c79ab3f	0.015238582
243	0xbb8d77d1	-0.0043172617
244	0x3ca77e5d	0.020445997
245	0xbb84b93e	-0.004050403
246	0x3ca7a705	0.020465383
247	0x3b82b2df	0.0039886083
248	0xbc926106	-0.01786853
249	0x3c8e9a7c	0.017407648
250	0xbb76a865	-0.0037636992
251	0x3bf66f69	0.0075206053
252	0xbc564837	-0.013078741
253	0xbd13fd8e	-0.03613048
254	0xbd02b1b2	-0.031907745
255	0x3d046c59	0.03232989

action_model._discrete_distribution.branches.0.bias f4 [38]
0	0xba958e5f	-0.0011410228
1	0xbbeea0a9	-0.007282336
2	0xbb798951	-0.0038076232
3	0x3cb8a14a	0.022537846
4	0xbbfe6d92	-0.0077645266
5	0xbc0a6b99	-0.008448505
6	0x3c06e2bf	0.008232771
7	0x3bc22aed	0.0059255273
8	0x3b32a909	0.0027261397
9	0xbcbc4b1a	-0.02298503
10	0x3bf906ce	0.007599688
11	0xbc057513	-0.008145588
12	0xbbccee85	-0.0062540197
13	0xbc1dc23d	-0.00962883
14	0xbc1a8e2b	-0.00943331
15	0xbca21a61	-0.019787969
16	0xbc5abd9d	-0.013350871
17	0xbb101648	-0.0021985937
18	0x3b1bdd94	0.0023783194
19	0x3c0078ff	0.007841348
20	0xbb045e00	-0.002019763
21	0xbc48a4e2	-0.012246342
22	0x3ba20588	0.004944507
23	0x3c7902af	0.015198394
24	0xbbbef0aa	-0.0058270292
25	0x3c14c4c3	0.009080115
26	0x3c8499c2	0.016186599
27	0x3cb0e5ea	0.021594007
28	0xbb8ffa33	-0.0043938397
29	0xbbf86aed	-0.007581106
30	0x3c59c224	0.013290916
31	0xbca7dd61	-0.020491304
32	0x3ba1556b	0.0049235127
33	0xbbd03545	-0.0063540065
34	0x3b02c8aa	0.001995603
35	0x3c8cba0f	0.017178563
36	0x3c21271b	0.009835984
37	0xbb2e8f8e	-0.0026635858

exp_avg f4 [128, 39]
0	0x2de3f765	2.5916777e-11
1	0xadffd581	-2.9084958e-11
2	0x2df268bc	2.7558726e-11
3	0x00000000	0.0
4	0x36329517	2.6610849e-06
5	0xac5fd085	-3.1805958e-12
6	0xb62f94e4	-2.6163698e-06
7	0x2dc25373	2.2092305e-11
8	0x37c1fa48	2.312394e-05
9	0xb77297d6	-1.4459676e-05
10	0xaf07c248	-1.2347201e-10
11	0x2f0dda4f	1.2901434e-10
12	0x365d99d9	3.3021117e-06
13	0x2b8835d7	9.678325e-13
14	0x2e0b264d	3.163896e-11
15	0xae5ffe5f	-5.0930257e-11
16	0x00000000	0.0
17	0x2e52e27c	4.794963e-11
18	0xb71981e0	-9.1497495e-06
19	0x2d0a80f0	7.873022e-12
20	0x2e362e47	4.142311e-11
21	0x363f11da	2.8471609e-06
22	0x362a4ee3	2.5377892e-06
23	0x2ea6c591	7.583901e-11
24	0xadc9557b	-2.2889015e-11
25	0xadc945b6	-2.2882012e-11
26	0x36c73c4a	5.9376807e-06
27	0x2da80279	1.9100487e-11
28	0x36a236f4	4.8343736e-06
29	0x2ec25269	8.8367376e-11
30	0x2e5b3f10	4.9850846e-11
31	0x2d6a4a91	1.3317917e-11
32	0xaea7ee68	-7.63663e-11
33	0xaf5bfd03	-2.0007822e-10
34	0xb7d4caf1	-2.5366871e-05
35	0x2d8442cc	1.5036326e-11
36	0x2d043456	7.514952e-12
37	0xae8e9826	-6.4844394e-11
38	0xb0af2fa4	-1.2746466e-09
39	0x2c67a012	3.2915931e-12
40	0xaf10784e	-1.3139465e-10
41	0xaf084eb6	-1.2397092e-10
42	0x00000000	0.0
43	0x36c0f58b	5.750631e-06
44	0xaeeaede3	-1.0683345e-10
45	0xb65a1382	-3.2495886e-06
46	0xadd3f77c	-2.4097828e-11
47	0x384e1057	4.9129445e-05
48	0xb448f3c0	-1.8715127e-07
49	0x2ec0ee1c	8.773446e-11
50	0x2f18c628	1.3894719e-10
51	0xb5962b48	-1.1188467e-06
52	0xae205335	-3.645369e-11
53	0xae8e4c92	-6.471014e-11
54	0xaf2787a0	-1.5236745e-10
55	0x00000000	0.0
56	0xac3dac66	-2.6954216e-12
57	0x35f545e0	1.8274259e-06
58	0x2ebf0eff	8.688338e-11
59	0x2e94b187	6.761796e-11
60	0x36570246	3.203882e-06
61	0x36ee6055	7.1041673e-06
62	0x2e84a6a5	6.032267e-11
63	0xaea68bbb	-7.573627e-11
64	0x2ed430e1	9.6493265e-11
65	0xb6476377	-2.9711207e-06
66	0xae17b065	-3.4490095e-11
67	0x360c7e69	2.0935206e-06
68	0xaee9dda8	-1.0634987e-10
69	0x2ed40e31	9.643165e-11
70	0xaeab0dc7	-7.778627e-11
71	0xaeedeaf0	-1.08192455e-10
72	0xae2360f0	-3.7148007e-11
73	0xb7d666b3	-2.5558611e-05
74	0xae7cb2da	-5.745702e-11
75	0xae644d34	-5.1909768e-11
76	0x2fc8de61	3.6537798e-10
77	0x32cfa3d5	2.4172474e-08
78	0xae765c7d	-5.601607e-11
79	0xab92f471	-1.044177e-12
80	0x2ddaca75	2.487364e-11
81	0x00000000	0.0
82	0xb5b8ecdb	-1.3778002e-06
83	0x2e0f3074	3.255747e-11
84	0xb71e7bc0	-9.446347e-06
85	0xae4f5c5d	-4.7148386e-11
86	0xb7ecc1d0	-2.8223643e-05
87	0x360ebde2	2.1270175e-06
88	0xaf16cc30	-1.3714962e-10
89	0x2f3701f8	1.6644452e-10
90	0x3544e937	7.335506e-07
91	0x2f56c422	1.9532867e-10
92	0x2e4d7e96	4.6724034e-11
93	0xae5410c6	-4.8218117e-11
94	0x00000000	0.0
95	0x2ef0887d	1.09381816e-10
96	0xb516172c	-5.5913074e-07
97	0xaf0032ca	-1.1659576e-10
98	0xaebb976a	-8.530672e-11
99	0x3547009d	7.413417e-07
100	0x36039082	1.9604636e-06
101	0x2f0b375d	1.2661645e-10
102	0x2dc5fb55	2.2507921e-11
103	0xaedabeb0	-9.947365e-11
104	0x362bc5bd	2.5596084e-06
105	0x2e399a6b	4.220128e-11
106	0xb700caa3	-7.676575e-06
107	0xaefdba9e	-1.1538258e-10
108	0x2d222adf	9.218153e-12
109	0xaf19b6a3	-1.3980155e-10
110	0xabdc33c5	-1.5646309e-12
111	0x2d5a9178	1.2424166e-11
112	0x386285ce	5.4007214e-05
113	0xaef630a1	-1.1195423e-10
114	0x2f291a65	1.5379838e-10
115	0x2eda4fbf	9.927658e-11
116	0x31711fc8	3.5088181e-09
117	0x2e6ff902	5.4563472e-11
118	0xaea99972	-7.7124876e-11
119	0x2c8ce0a3	4.003979e-12
120	0x00000000	0.0
121	0x3645214e	2.9374673e-06
122	0x2ecdb2cb	9.354081e-11
123	0xb62bbecc	-2.5592044e-06
124	0xae5243f9	-4.7808844e-11
125	0x37ac1805	2.0515183e-05
126	0xb5a8e0c7	-1.2582394e-06
127	0xadc55faa	-2.243879e-11
128	0x2e43168c	4.4357892e-11
129	0x36b6c61f	5.447087e-06
130	0x2f50a64a	1.8976568e-10
131	0x2d2bbfcc	9.762812e-12
132	0xad94d8db	-1.6921955e-11
133	0x00000000	0.0
134	0xae135c65	-3.3505993e-11
135	0xb6783f8c	-3.699187e-06
136	0x2f1765d4	1.3769547e-10
137	0x2eb9173d	8.416954e-11
138	0x3643e45e	2.9190192e-06
139	0x35a218b4	1.207713e-06
140	0xae29defb	-3.8624198e-11
141	0xaba907f4	-1.201038e-12
142	0x2e7dfc3b	5.7749566e-11
143	0x36613ce4	3.3563056e-06
144	0x2e039286	2.991609e-11
145	0x3635d2ba	2.709376e-06
146	0x2e817b23	5.888114e-11
147	0x2eebc10e	1.0720856e-10
148	0xae1f874b	-3.627258e-11
149	0xae62d3dc	-5.157462e-11
150	0xad91f30b	-1.6592524e-11
151	0xb811282c	-3.4608107e-05
152	0x2e161074	3.4120665e-11
153	0xad792fb6	-1.4164605e-11
154	0xae6c512d	-5.3732286e-11
155	0x30e1a74c	1.6418453e-09
156	0x2d822cdc	1.479921e-11
157	0x2dd07571	2.3699017e-11
158	0xae82dc7a	-5.95088e-11
159	0x00000000	0.0
160	0x35bc8a57	1.4047354e-06
161	0xaf3b1fc8	-1.7018842e-10
162	0x376ad778	1.3997655e-05
163	0x2eeb0ac7	1.0688477e-10
164	0x385c673d	5.2548236e-05
165	0xb6f4cc3a	-7.2955418e-06
166	0x2f1c190c	1.4197016e-10
167	0xadf5f2ce	-2.7961102e-11
168	0xb6a39884	-4.8755337e-06
169	0xafacc4ff	-3.1426592e-10
170	0xae741eee	-5.5506648e-11
171	0xaf3cbe34	-1.7166074e-10
172	0x00000000	0.0
173	0xaf426c11	-1.768259e-10
174	0x36f6132b	7.3336028e-06
175	0xaf4d0665	-1.8646913e-10
176	0x2f235172	1.4853699e-10
177	0xb58faf2b	-1.0705311e-06
178	0x36b619ee	5.4270413e-06
179	0xaeda89f9	-9.938001e-11
180	0x2e82ff2b	5.9570425e-11
181	0x2e9e4154	7.196613e-11
182	0xb665b96e	-3.4231593e-06
183	0xaec52b72	-8.96624e-11
184	0x36263a56	2.4769884e-06
185	0xade9beb8	-2.657373e-11
186	0x2e4e45ae	4.6900865e-11
187	0x2e0e7b30	3.2396474e-11
188	0xaf01e853	-1.181502e-10
189	0x2f0a798f	1.2594213e-10
190	0xb8a8cb39	-8.0487174e-05
191	0x2e8a7182	6.2956765e-11
192	0x2db79122	2.0869143e-11
193	0x2f1153a9	1.3217395e-10
194	0xafb5ad3b	-3.3046796e-10
195	0xad144a4d	-8.429324e-12
196	0xaf64af9d	-2.079887e-10
197	0x2f29326f	1.5388378e-10
198	0x00000000	0.0
199	0x35be4371	1.4175731e-06
200	0xae4e550c	-4.6914514e-11
201	0x35add4a6	1.2951393e-06
202	0xaf2f2e26	-1.5932552e-10
203	0x3821d3b1	3.8582544e-05
204	0xb739cd73	-1.1074694e-05
205	0xafc7fe94	-3.6378778e-10
206	0x2e8aa7a7	6.3052945e-11
207	0x35df2dac	1.6628087e-06
208	0xb006a0c1	-4.897736e-10
209	0x2e41985b	4.4018438e-11
210	0xaeae7237	-7.9328925e-11
211	0x00000000	0.0
212	0x2e84a278	6.031525e-11
213	0xb7036167	-7.830887e-06
214	0xae6ccdce	-5.384298e-11
215	0x2f1e6078	1.4404289e-10
216	0x359d1ae8	1.1705242e-06
217	0xb704eff5	-7.9236825e-06
218	0x2eab831f	7.7994715e-11
219	0xaf28272a	-1.5293425e-10
220	0x2e115f23	3.305368e-11
221	0x377e04e9	1.5140723e-05
222	0xaea76e02	-7.613822e-11
223	0x35b8056c	1.3710646e-06
224	0x2eeb47de	1.0699329e-10
225	0x2eaeb03b	7.943909e-11
226	0x2f838bae	2.392801e-10
227	0xad88b279	-1.5540668e-11
228	0xafbdd951	-3.4533312e-10
229	0xb805d09a	-3.1903946e-05
230	0x2ea65f2b	7.565711e-11
231	0xaee82c68	-1.0558027e-10
232	0xae80f774	-5.8647226e-11
233	0x31949c9c	4.3251713e-09
234	0xaee9472d	-1.06082566e-10
235	0xaf492cee	-1.8296806e-10
236	0x2f0571d6	1.2136722e-10
237	0x00000000	0.0
238	0xb607496c	-2.0159305e-06
239	0xaefd7c49	-1.15271855e-10
240	0x372eb559	1.04134315e-05
241	0xadf422f4	-2.775511e-11
242	0x38a2f6ed	7.7707555e-05
243	0xb72c9d21	-1.0288583e-05
244	0xae88d7fc	-6.2229305e-11
245	0x2e9d845a	7.163044e-11
246	0xb6aa285f	-5.0710946e-06
247	0xb0114411	-5.284742e-10
248	0xae464dc5	-4.508906e-11
249	0xaf423751	-1.766385e-10
250	0x00000000	0.0
251	0xafb7ff28	-3.3468806e-10
252	0x36fb8aef	7.496557e-06
253	0xae0c4b1f	-3.1899035e-11
254	0x2f594a5d	1.9762454e-10
255	0x35ffda2f	1.906248e-06

exp_avg_sq f4 [128, 39]
0	0x2f28b886	1.5345067e-10
1	0x2ed9811b	9.890951e-11
2	0x2e61569b	5.1235998e-11
3	0x00000000	0.0
4	0x2f04d062	1.2079363e-10
5	0x2f5e0e78	2.0195923e-10
6	0x2f8ff055	2.6182315e-10
7	0x2f0b7c34	1.2686102e-10
8	0x3011edac	5.3088445e-10
9	0x2f88deef	2.489666e-10
10	0x2f846a77	2.4086308e-10
11	0x2f38a78d	1.6794229e-10
12	0x2e85791d	6.069654e-11
13	0x2f8815b6	2.4753682e-10
14	0x2e59ac85	4.9493316e-11
15	0x2f8c83fa	2.5559627e-10
16	0x00000000	0.0
17	0x2e9b50a1	7.0629065e-11
18	0x2f33bfe9	1.6348135e-10
19	0x2ea9a620	7.71474e-11
20	0x2e72b837	5.5188045e-11
21	0x2f6491d2	2.0788285e-10
22	0x2f054416	1.2120469e-10
23	0x2f19f09e	1.4000753e-10
24	0x2f1c9f96	1.4244814e-10
25	0x2e2ecf65	3.9747223e-11
26	0x2fa28926	2.9565078e-10
27	0x2ec7424f	9.061251e-11
28	0x2ef78b40	1.1256995e-10
29	0x2f02f8c3	1.1911809e-10
30	0x2eed47b8	1.0790252e-10
31	0x2f538555	1.9237707e-10
32	0x2f50deb8	1.8996615e-10
33	0x2ee16765	1.0250182e-10
34	0x30b4ae91	1.3146338e-09
35	0x2ee42a12	1.0375713e-10
36	0x2f3e4192	1.7303695e-10
37	0x2ef3743e	1.10710094e-10
38	0x2731af47	2.4658702e-15
39	0x2fc087fd	3.5021222e-10
40	0x2f8441cf	2.405742e-10
41	0x2f103516	1.3115584e-10
42	0x00000000	0.0
43	0x2f8eddfb	2.5987376e-10
44	0x2fac64ce	3.1358244e-10
45	0x301ec797	5.77637e-10
46	0x2f81ef21	2.3634875e-10
47	0x3023b5d3	5.955744e-10
48	0x2f8f700d	2.6091165e-10
49	0x2fdd2c9a	4.0231357e-10
50	0x2f66170f	2.092657e-10
51	0x2f4e8d48	1.8785784e-10
52	0x2fe58e29	4.1755868e-10
53	0x2e3eebf8	4.341058e-11
54	0x3076b1f9	8.9747193e-10
55	0x00000000	0.0
56	0x2fb44b9f	3.279554e-10
57	0x2f89540b	2.497987e-10
58	0x2fcb52fa	3.6984443e-10
59	0x2f908819	2.629015e-10
60	0x2fa7ac63	3.049961e-10
61	0x3024d167	5.996043e-10
62	0x2f2cd43a	1.5718707e-10
63	0x2fa4a5a0	2.994911e-10
64	0x2ee23162	1.0286062e-10
65	0x30a4304d	1.1946298e-09
66	0x2f5f0569	2.0283654e-10
67	0x2faa60c6	3.0991582e-10
68	0x2f92b6c1	2.66871e-10
69	0x2f1afc68	1.4095891e-10
70	0x2fd05bbe	3.7900166e-10
71	0x2fb1e1b3	3.235648e-10
72	0x2f2c9926	1.5697718e-10
73	0x30e3301f	1.6530101e-09
74	0x2f6e21a7	2.165793e-10
75	0x2f57c994	1.9625751e-10
76	0x2fb28c2b	3.2477607e-10
77	0x27c33710	5.418307e-15
78	0x2f37a873	1.6703598e-10
79	0x2f12038c	1.3279883e-10
80	0x2ee56f47	1.0433481e-10
81	0x00000000	0.0
82	0x2f18a646	1.3883392e-10
83	0x2f420820	1.7647084e-10
84	0x2f89af72	2.5044816e-10
85	0x2f9ed70a	2.8892827e-10
86	0x3006f8bb	4.9102383e-10
87	0x2efa1d0c	1.13738435e-10
88	0x2f965a6d	2.7349092e-10
89	0x2f939fd8	2.685272e-10
90	0x2ec78a26	9.0740124e-11
91	0x2fbe646e	3.4632158e-10
92	0x2e8cdd99	6.4058266e-11
93	0x302f4795	6.3766353e-10
94	0x00000000	0.0
95	0x2efdbab7	1.1538275e-10
96	0x30078d9f	4.931397e-10
97	0x2f08ac68	1.2430379e-10
98	0x2f12e6c3	1.3360606e-10
99	0x2f5e6d47	2.0229605e-10
100	0x2f9c6bee	2.8452923e-10
101	0x2f99a8f7	2.7950595e-10
102	0x2f80241a	2.3308716e-10
103	0x2f0841a8	1.2392454e-10
104	0x30353698	6.5925e-10
105	0x2e64d88e	5.2033537e-11
106	0x2f7ef1ae	2.3187027e-10
107	0x2f8aef96	2.527229e-10
108	0x2f3bab65	1.7068442e-10
109	0x2fb3c23d	3.2697925e-10
110	0x2f524178	1.9122648e-10
111	0x2f3d09ee	1.7192978e-10
112	0x3075c6a4	8.9412766e-10
113	0x2f1890d1	1.3875769e-10
114	0x2f2b65c4	1.5588514e-10
115	0x2f49e8c0	1.8363533e-10
116	0x278974c4	3.8151736e-15
117	0x2f8a46a3	2.5152244e-10
118	0x2ee0769c	1.020741e-10
119	0x2ee73340	1.05137676e-10
120	0x00000000	0.0
121	0x2fa1f4f5	2.9459782e-10
122	0x2f9f9f28	2.903502e-10
123	0x2ffb5a39	4.572074e-10
124	0x2f29dbb1	1.544851e-10
125	0x30495769	7.324759e-10
126	0x2f940cec	2.6930225e-10
127	0x2fb929e3	3.3681066e-10
128	0x2f151fb3	1.3562733e-10
129	0x2f41d7d9	1.7629932e-10
130	0x2fe28557	4.1203904e-10
131	0x2e8cb9d0	6.39947e-11
132	0x3000fbc9	4.6923937e-10
133	0x00000000	0.0
134	0x2ef2b6ae	1.1037336e-10
135	0x2f49427a	1.8304461e-10
136	0x2f266bce	1.5135912e-10
137	0x2ebfccfd	8.7220876e-11
138	0x2f098586	1.2507514e-10
139	0x2f7a7019	2.2777193e-10
140	0x2f41ec7a	1.7637261e-10
141	0x2eb11235	8.052262e-11
142	0x2ec670a8	9.024009e-11
143	0x2ff25645	4.4080842e-10
144	0x2f037d18	1.1958823e-10
145	0x2f5c812c	2.0054775e-10
146	0x2f75e3eb	2.2363593e-10
147	0x2f0c2bb3	1.2748451e-10
148	0x2f42b3c9	1.770807e-10
149	0x2f7d54a5	2.3040288e-10
150	0x2e867827	6.114958e-11
151	0x3105f9c7	1.949603e-09
152	0x2ee49bd5	1.0395921e-10
153	0x2fe260a6	4.1177833e-10
154	0x2eaebae1	7.9458e-11
155	0x277e8772	3.5323006e-15
156	0x2f744302	2.2215477e-10
157	0x2f95e45e	2.7265207e-10
158	0x2ebb850d	8.52741e-11
159	0x00000000	0.0
160	0x2f767c07	2.2417633e-10
161	0x3020ed85	5.8545196e-10
162	0x300de9c6	5.1627713e-10
163	0x2f1c9fd5	1.4244901e-10
164	0x3054f12b	7.746787e-10
165	0x2f9a2302	2.803731e-10
166	0x2fbb7aa7	3.4102252e-10
167	0x2fe24aa3	4.1162193e-10
168	0x2ecb3104	9.240078e-11
169	0x302dbf9e	6.320934e-10
170	0x2eae205c	7.918352e-11
171	0x300fada9	5.2269883e-10
172	0x00000000	0.0
173	0x2fcbfeed	3.710662e-10
174	0x301945a4	5.576004e-10
175	0x2fb2e000	3.2537173e-10
176	0x2f274549	1.5213177e-10
177	0x2fa9b26a	3.0867692e-10
178	0x2f9ba1be	2.830926e-10
179	0x2fb17c9b	3.228465e-10
180	0x2f8076a5	2.3367366e-10
181	0x2f10b140	1.3159696e-10
182	0x3051318a	7.6104156e-10
183	0x2ee03591	1.0195856e-10
184	0x2f991dea	2.7851793e-10
185	0x2fa1ce58	2.9432345e-10
186	0x2f1b2457	1.4110078e-10
187	0x2f8da822	2.5767216e-10
188	0x2f8793b2	2.46613e-10
189	0x2f2cd894	1.5720253e-10
190	0x30f9932d	1.8158964e-09
191	0x2f347936	1.6413967e-10
192	0x2fe3c6ab	4.1432222e-10
193	0x2f36afb5	1.6615227e-10
194	0x27b4e8e9	5.0212558e-15
195	0x303a0ff1	6.768906e-10
196	0x2fc82737	3.6407652e-10
197	0x2f300808	1.600996e-10
198	0x00000000	0.0
199	0x2f948db4	2.702173e-10
200	0x3050b418	7.592589e-10
201	0x303e76ee	6.9290607e-10
202	0x2ffda8f4	4.614048e-10
203	0x30488dcf	7.29611e-10
204	0x2f9563ac	2.7173763e-10
205	0x301e3e0e	5.756825e-10
206	0x304b3d81	7.393837e-10
207	0x2f3b572e	1.7038523e-10
208	0x30878919	9.861508e-10
209	0x2f290ccc	1.5375007e-10
210	0x3036ca81	6.649899e-10
211	0x00000000	0.0
212	0x2fe94c73	4.2436774e-10
213	0x2fa86c77	3.063609e-10
214	0x2ff633ac	4.4783854e-10
215	0x2fd816ae	3.9306286e-10
216	0x2fb6b028	3.3230774e-10
217	0x2fbb06ea	3.4020015e-10
218	0x2ff82be0	4.5142112e-10
219	0x2f5966b5	1.9772524e-10
220	0x2f18cd9b	1.3897365e-10
221	0x3023343a	5.9373273e-10
222	0x2f98d5ed	2.7800642e-10
223	0x2f481a5f	1.8199263e-10
224	0x2fdb3af5	3.987776e-10
225	0x2fa215f6	2.9483233e-10
226	0x3035360d	6.5924227e-10
227	0x2f4bd41d	1.85381e-10
228	0x2fb36db6	3.2637865e-10
229	0x317915f9	3.624676e-09
230	0x2fc27320	3.5370196e-10
231	0x302044b5	5.83053e-10
232	0x2f83a1e2	2.3943786e-10
233	0x27fc5284	7.0033514e-15
234	0x300a6b7f	5.035687e-10
235	0x2fd9712e	3.955249e-10
236	0x2fa2f5f6	2.9642394e-10
237	0x00000000	0.0
238	0x2fcf0aed	3.7660844e-10
239	0x300d781a	5.1466176e-10
240	0x3088ee16	9.96297e-10
241	0x2fbfa70c	3.4861392e-10
242	0x30a9eb92	1.2363321e-09
243	0x2fd97b32	3.9559606e-10
244	0x30b7c8de	1.3372092e-09
245	0x30317368	6.4556227e-10
246	0x2f8fa384	2.6127733e-10
247	0x308b212d	1.012301e-09
248	0x2ee3911c	1.03485415e-10
249	0x309b7a51	1.1312499e-09
250	0x00000000	0.0
251	0x3015a960	5.444658e-10
252	0x301a7dcc	5.620364e-10
253	0x2fe8a92b	4.2320755e-10
254	0x2fe9ca08	4.2526005e-10
255	0x2fd1f294	3.818924e-10

exp_avg f4 [128]
0	0xb6d504f9	-6.3484736e-06
1	0x381717b2	3.6023273e-05
2	0x37791755	1.4846989e-05
3	0xb64b7bb0	-3.0321353e-06
4	0xb76a484e	-1.3964322e-05
5	0x35ff29b8	1.9011122e-06
6	0xb7387d2a	-1.0996397e-05
7	0xb7dd0e4f	-2.6351916e-05
8	0xb85368c3	-5.0403887e-05
9	0xb880a62f	-6.13447e-05
10	0x38037155	3.1338383e-05
11	0x36ba1d50	5.5466444e-06
12	0x3884246c	6.3010346e-05
13	0xb5c2b896	-1.4507848e-06
14	0x38cf4bb0	9.884627e-05
15	0x38a8aac7	8.042674e-05
16	0xb7e0f110	-2.6815134e-05
17	0xb85e7dea	-5.304619e-05
18	0xb847c7a0	-4.7631213e-05
19	0x38130317	3.505041e-05
20	0x3865ed6a	5.4818964e-05
21	0xb88c40ee	-6.687814e-05
22	0x38a73926	7.973825e-05
23	0xb82368a5	-3.8959686e-05
24	0x38418adc	4.614411e-05
25	0x3831f0ca	4.242434e-05
26	0x37d9501a	2.5905716e-05
27	0xb833b10c	-4.2841813e-05
28	0x3801f31a	3.0982403e-05
29	0x3718633c	9.083011e-06
30	0xb8cf414c	-9.882692e-05
31	0xb883b8cb	-6.280987e-05
32	0x36a3b794	4.87915e-06
33	0xb7844622	-1.5768284e-05
34	0x3866e719	5.50515e-05
35	0xb907e57e	-0.00012960096
36	0x384df63d	4.9105136e-05
37	0x384f908c	4.9487266e-05
38	0x38977ea9	7.2238334e-05
39	0x37abeafb	2.049421e-05
40	0xb5ab8560	-1.277931e-06
41	0x38c27291	9.2719805e-05
42	0x384d64fb	4.8969854e-05
43	0x382e7a5d	4.1598792e-05
44	0xb79b80f1	-1.8537483e-05
45	0x38339e9c	4.2824642e-05
46	0x375c8904	1.3144923e-05
47	0x38e8dc0e	0.000111036104
48	0xb6a95644	-5.046635e-06
49	0xb663b1c8	-3.3929118e-06
50	0x37c56bd4	2.3534441e-05
51	0xb6730592	-3.6213064e-06
52	0x386e6e97	5.6846617e-05
53	0x382b7a22	4.0883322e-05
54	0x3816923b	3.5898975e-05
55	0xb74f0d86	-1.234131e-05
56	0xb85b2021	-5.224359e-05
57	0xb82ad01b	-4.072497e-05
58	0x37b98461	2.2115362e-05
59	0xb7831e60	-1.5630561e-05
60	0x381a9a0a	3.685992e-05
61	0x34d7cc00	4.01953e-07
62	0xb707e199	-8.099153e-06
63	0xb7dd5f99	-2.638977e-05
64	0x3802287a	3.1032112e-05
65	0x3812552d	3.488844e-05
66	0x3804274d	3.1507854e-05
67	0xb83b9459	-4.4722434e-05
68	0xb85121dc	-4.9861017e-05
69	0x38b11352	8.4436164e-05
70	0xb8716251	-5.7550442e-05
71	0xb867cdbd	-5.52663e-05
72	0xb8560402	-5.102531e-05
73	0x37d57ef4	2.5450696e-05
74	0xb8a773d7	-7.9847574e-05
75	0xb83a4e10	-4.4418557e-05
76	0x38a61d6f	7.920979e-05
77	0x38055773	3.1791114e-05
78	0x382a1a9c	4.055594e-05
79	0x37926c16	1.7454888e-05
80	0xb75c0dba	-1.3116218e-05
81	0x379487af	1.7706157e-05
82	0x387aa2ee	5.9756385e-05
83	0x38bc0f3f	8.9673784e-05
84	0x37b6690b	2.1745005e-05
85	0xb8a58f5a	-7.8945144e-05
86	0xb855c33f	-5.0964994e-05
87	0x37cfee6c	2.4787347e-05
88	0x388bf687	6.673956e-05
89	0x37aefbc5	2.0859656e-05
90	0xb78c53fb	-1.6728407e-05
91	0x38d075f4	9.9401834e-05
92	0x37602a0c	1.336123e-05
93	0x367e0e0a	3.7857121e-06
94	0x37e99f33	2.7849897e-05
95	0xb8cfb3a6	-9.903991e-05
96	0xb8483413	-4.7732214e-05
97	0x388dc5c9	6.760244e-05
98	0xb7dd11d4	-2.6353555e-05
99	0x384c2eb9	4.8680904e-05
100	0x38121a14	3.48334e-05
101	0x375d6c1a	1.3197796e-05
102	0x38af8822	8.370007e-05
103	0xb8075d0f	-3.2273176e-05
104	0x36c65312	5.9105305e-06
105	0x38006998	3.061592e-05
106	0x38cb99aa	9.7084165e-05
107	0x3836ce5b	4.3584365e-05
108	0xb49b0c00	-2.887973e-07
109	0x37563e17	1.276985e-05
110	0x383a120f	4.4362674e-05
111	0x37be1fa6	2.2664502e-05
112	0x36d719f0	6.410519e-06
113	0x37cf3e5d	2.4705363e-05
114	0xb81771ff	-3.6107373e-05
115	0x37a91cd1	2.0159789e-05
116	0x3890a8e3	6.897913e-05
117	0xb807db7b	-3.2390915e-05
118	0x3748dcf8	1.1972377e-05
119	0x38a41ed0	7.825869e-05
120	0xb841627d	-4.610651e-05
121	0x35230e40	6.074297e-07
122	0xb7eb3c26	-2.8042192e-05
123	0xb7af1451	-2.0871086e-05
124	0xb87e7124	-6.066369e-05
125	0x382809bc	4.0063387e-05
126	0x38c1aeae	9.235494e-05
127	0x3512ae48	5.464285e-07

exp_avg_sq f4 [128]
0	0x31e8fcbb	6.780821e-09
1	0x32687a70	1.3532016e-08
2	0x32260062	9.662559e-09
3	0x32205157	9.33172e-09
4	0x325eb84c	1.2964005e-08
5	0x3299c24b	1.7899898e-08
6	0x32aa053a	1.9792981e-08
7	0x32a93771	1.9699401e-08
8	0x3267f390	1.3501349e-08
9	0x32861d68	1.5613026e-08
10	0x32750611	1.4262256e-08
11	0x326046af	1.3054588e-08
12	0x31e9603e	6.792134e-09
13	0x326e158a	1.3858321e-08
14	0x32b3bfee	2.0925622e-08
15	0x328f9fcd	1.672006e-08
16	0x32c5bf7a	2.3020892e-08
17	0x328a4369	1.6095969e-08
18	0x32711584	1.4032938e-08
19	0x32335f47	1.0440835e-08
20	0x328da4ff	1.6489592e-08
21	0x32592314	1.2639038e-08
22	0x327d15cf	1.4731497e-08
23	0x32697117	1.3588099e-08
24	0x31db1668	6.376286e-09
25	0x3266f368	1.3443106e-08
26	0x3269e6b8	1.3614844e-08
27	0x3249678c	1.1723284e-08
28	0x322f4257	1.0201425e-08
29	0x32676632	1.3469206e-08
30	0x329f5bd3	1.8551793e-08
31	0x329c54b7	1.8199314e-08
32	0x326d1fd1	1.380245e-08
33	0x322e4620	1.0144078e-08
34	0x324360fc	1.1372546e-08
35	0x3268ed93	1.35581955e-08
36	0x322f6823	1.0210019e-08
37	0x327288a3	1.41173215e-08
38	0x32329445	1.0394676e-08
39	0x3219d6ca	8.9546095e-09
40	0x32a30e48	1.8982192e-08
41	0x32728d45	1.4118375e-08
42	0x32294c70	9.854475e-09
43	0x32133864	8.569348e-09
44	0x3215e6ba	8.725403e-09
45	0x3248dbcc	1.1691508e-08
46	0x3244b614	1.1450101e-08
47	0x3273d2ed	1.4192421e-08
48	0x328137c5	1.5042938e-08
49	0x32a55b7e	1.9250134e-08
50	0x324cf3f4	1.1929831e-08
51	0x329152db	1.69179e-08
52	0x32b96d24	2.1586466e-08
53	0x3281da26	1.5116779e-08
54	0x323e36ef	1.1071946e-08
55	0x325ec60a	1.296713e-08
56	0x3234c5b5	1.0522332e-08
57	0x32884af2	1.5866565e-08
58	0x32524332	1.2238887e-08
59	0x3272a7f7	1.4124445e-08
60	0x321a71c0	8.9898435e-09
61	0x32783127	1.4446676e-08
62	0x32b101fc	2.0606414e-08
63	0x322ecfc0	1.017537e-08
64	0x32f032ad	2.7962722e-08
65	0x32a2e23d	1.8962163e-08
66	0x326e5ede	1.3874994e-08
67	0x3223b7bc	9.529625e-09
68	0x3260099a	1.3040699e-08
69	0x32b8009f	2.1420702e-08
70	0x3278227d	1.4443342e-08
71	0x3284e0f2	1.5469116e-08
72	0x3235b334	1.0576333e-08
73	0x32301f45	1.0251658e-08
74	0x320aec8f	8.086444e-09
75	0x32972871	1.7597104e-08
76	0x3284d9ae	1.5465812e-08
77	0x3280bc0d	1.4986677e-08
78	0x322009e0	9.315471e-09
79	0x324556dd	1.148666e-08
80	0x325344de	1.2297475e-08
81	0x326537ea	1.3342268e-08
82	0x323bd24d	1.09326495e-08
83	0x32293135	9.848283e-09
84	0x3236e046	1.0644788e-08
85	0x329ab0a1	1.8008281e-08
86	0x3297e108	1.7681046e-08
87	0x32054e44	7.7594144e-09
88	0x32ba4cc9	2.1688168e-08
89	0x32594cff	1.2648569e-08
90	0x3242522a	1.1310968e-08
91	0x322010e1	9.317064e-09
92	0x32553a8c	1.2411544e-08
93	0x321249a1	8.51506e-09
94	0x326de8c9	1.3848145e-08
95	0x328fcbdf	1.67401e-08
96	0x3230ceb1	1.02915445e-08
97	0x32510a83	1.2167791e-08
98	0x3286f448	1.571074e-08
99	0x320fdd8d	8.37407e-09
100	0x31eafb08	6.8388353e-09
101	0x3268a844	1.35424365e-08
102	0x32658b60	1.33612446e-08
103	0x327edece	1.4835406e-08
104	0x3288d61f	1.5929855e-08
105	0x31f4de5e	7.126615e-09
106	0x32bc7c62	2.1942643e-08
107	0x3296a6b5	1.7538108e-08
108	0x324915c3	1.1704688e-08
109	0x32214511	9.387137e-09
110	0x323395b7	1.04532125e-08
111	0x328d716b	1.6466137e-08
112	0x3232bd27	1.0403972e-08
113	0x3299a64c	1.7887167e-08
114	0x3262dfc7	1.3205812e-08
115	0x32072b3f	7.867867e-09
116	0x326f2207	1.3919368e-08
117	0x3213abee	8.595618e-09
118	0x322411f3	9.550138e-09
119	0x3294ac6e	1.730788e-08
120	0x32bc9fe8	2.1958797e-08
121	0x31f82631	7.222092e-09
122	0x3213647d	8.5793745e-09
123	0x319f8806	4.642973e-09
124	0x3273575f	1.41643275e-08
125	0x32614a1a	1.31135725e-08
126	0x3276559c	1.433855e-08
127	0x32788ddd	1.4467756e-08
