results/DemoRun/TestAgent1/TestAgent1-35042.onnx (onnx, 111077 bytes, 6 tensors)

network_body._body_endoder.seq_layers.0.weight f4 [128, 39]
00000000: 0f88 773c e139 063e 616a 65be f449 ae3c
00000010: bc37 75bd 22c3 963c 1c9d 3f3e 79d2 513e
00000020: d859 21be 6d94 993c 717a 843e 8f16 c7bc
00000030: 098d 60be 1805 273e 4472 2a3e ad54 b0bb
00000040: 53c6 6abd 4856 4f3d 3c8d 9e3e 9711 5cbd
00000050: d653 8d3e cacd 283e 20b3 12be 84a4 9f3b
00000060: ddac c0bd 3cd5 0f3d d044 bc3e 9a4c 62be
00000070: 9be8 2f3e 0eea d63d 5bb2 a63e b214 57bd
00000080: 499b 0abe 2a45 023e e998 93be 38cf 2d3d
00000090: 0583 95be dfa0 34bc 311e ee3d 60eb 093d
000000a0: 24bf 35bd 462f 363d e9ab b53d 4f28 e8bc
000000b0: 4927 aebd 03ec b73e b143 46be dba3 0e3e
000000c0: e5dd 8abd eea5 19be 9b77 e6bd 0933 4e3d
000000d0: 79dd c03e 8edc d0bc 3d1a fdbd d3f2 a2be
000000e0: 1600 be3c e8b1 043e 8462 0ebe d52d 113d
000000f0: 7e28 9dbd 945f e9bd 3d7b 00be 10cc 46be
00000100: de63 2fbd bd11 17bd 9b7a 273e d8ca 543d
00000110: 1555 7a3d c316 f53a e031 a8bd f1e5 353d
00000120: 43cb 263e 1121 50be 7c01 c1bd 97d5 7dbe
00000130: f50a 713d 3257 c939 c138 d0bd a84d 863d
00000140: 34d1 c5bc c87c f5bd 75d9 463e 18ca 50bd
00000150: 0115 d63e b9d3 e93d 4d03 a13d 372e 3c3e
00000160: 3584 0bbe 1c09 c6bd 5d93 22be ab18 5b3d
00000170: 56dd 563d a003 db3e 1213 b8bd ce89 e6bd
00000180: 3797 8d3e 6d0b 763e 50cd 1abe ab0c 0bbe
00000190: a7a3 17be 107e 21bd e7a2 b339 d8a0 43be
000001a0: dfe8 27be 4809 d23e 7905 aabd 4e9a ac3e
000001b0: 5fab c43d a11e cfbc 74a4 55be 373a d9bd
000001c0: 2584 00be 51b8 a43c 5a84 80bd 1792 3ebb
000001d0: 6bcf 783d f0ed 873e efc5 723e bc5d 8b3e
000001e0: 4024 db3e 8d3b 0a3e 8f90 393e c667 7dbe
000001f0: dfe7 293d 2e15 abbd dfa7 873e d98f 5f3e
00000200: ba29 183e 0d8b 8fbd 694f 66bd ae62 233e
00000210: 62be a6bd 38dd 85bc 6796 9a3e 8e3f a0be
00000220: 69cb d4bd 3f35 c13d edad 633d a5b0 1ebe
00000230: 0281 e7bd 4275 69be 3928 903e 0e82 323e
00000240: e871 1a3e 04b3 2cbd f0a5 e03a 0113 9f3d
00000250: 2dd4 933d c8c3 b7bd c147 ccbe 8811 b5bc
00000260: 8a11 b5be 23da ad3e 3277 7b3e b4ab 7abd
00000270: 41c4 a03e cf69 3fbe 4b9e 3eba 0c78 c33b
00000280: 03c2 1d3e f11f 2fbe f7fc e03c ff3f 4d3e
00000290: ed97 063e 7e7f 2a3c 5254 aabd 19e8 54bd
000002a0: 9542 edbd 4e31 a63d 91a2 373e 9a27 c6be
000002b0: b68a 70be bb08 d4bd d86e 4c3e b9de 1a3e
000002c0: 7844 7cbc 5ac8 d63d 8fb6 933c 9718 babd
000002d0: d0b2 983d 383d e23d 9305 6ebe d826 84be
000002e0: 5ad5 9a3d acbe 91be 6823 4c3e 0536 0bbe
000002f0: 1546 0fbe 2442 30be f2ad 31bb ca8f 82be
00000300: 4050 2f3e f852 143e 0507 cb3b d126 ed3d
00000310: 27dd f3bc ae05 41be 487b 723d a387 d2bd
00000320: 1683 e2bc eb0a 9abd 0e5e 913d ff96 713e
00000330: 5988 2ebe 011f 603e 428e f1bc de67 c4bd
00000340: e521 b8bc 9006 923d 54c2 e93d c097 2a3e
00000350: 8758 01bd 8829 303e 96c6 023e b06d 05be
00000360: 972c 493e 723f 53bd e0d4 3c3e f391 853c
00000370: c590 493b 04f8 58bd a0c2 e2bd 15f1 f6bc
00000380: 637f c1bd 98d2 eb3d 0ed2 fbb7 1236 5cbe
00000390: ba61 72be b737 00be 769b b93e 4ae4 dd3d
000003a0: 28a8 593d 5299 5c3d a6a0 a33c af90 cd3d
000003b0: 4bb1 abbe 8546 86be 0f3b 28be ae65 083e
000003c0: 00d5 903d f5ef 10be 44ec 7a3e 5f5b 5e3e
000003d0: cdfc 51be dbda ecbd 883a 8f3c 546e 613e
000003e0: 0b0f 863d 0cde 953e 7663 7dbe a00c 5fbe
000003f0: e849 0ebe 6619 513d 6c5a 44be 42dc 26be
0.0151081225 0.13108017 -0.22403862 0.021275498 -0.059867606 0.018403593 0.18712276 0.20490445
-0.15756929 0.018747533 0.25874665 -0.024302749 -0.219288 0.16310537 0.16645151 -0.005381188
-0.057318043 0.050619394 0.30967128 -0.053727712 0.27603024 0.16484752 -0.14326143 0.0048719067
-0.09407971 0.035115466 0.3677125 -0.22099534 0.17178576 0.10493861 0.3255795 -0.05250997
-0.13535799 0.12721696 -0.288276 0.042433947 -0.29201522 -0.011024683 0.11626852 0.033671737
-0.04437174 0.044478677 0.0887068 -0.028339533 -0.08503587 0.3592225 -0.1936176 0.13929693
-0.06780604 -0.15004703 -0.11253282 0.05034164 0.3766897 -0.025495794 -0.1235852 -0.31825885
0.0231934 0.12958491 -0.13904768 0.0354441 -0.07673739 -0.11395183 -0.12547012 -0.19413781
-0.04281985 -0.03688215 0.16355364 0.05195126 0.061116297 0.00186988 -0.08212638 0.044408742
0.16288476 -0.20325114 -0.09424111 -0.2478851 0.05884834 0.00038402673 -0.10167075 0.065577805
-0.024147607 -0.11986691 0.19418891 -0.05097398 0.418129 0.11417336 0.07861958 0.18377005
-0.13624652 -0.09669706 -0.15876527 0.053490322 0.052457176 0.42776203 -0.089880124 -0.11256753
0.2765443 0.24027796 -0.15117383 -0.13579051 -0.14808522 -0.039426863 0.00034262912 -0.19104326
-0.16397427 0.41022706 -0.08301825 0.33711475 0.09602999 -0.02528316 -0.20863515 -0.10606807
-0.12550409 0.02010742 -0.06275244 -0.0029078776 0.060744684 0.2654872 0.23708318 0.2721995
0.42801094 0.1349928 0.18121551 -0.24746618 0.041480895 -0.08353649 0.26495263 0.21832217
0.14859667 -0.07008944 -0.056228075 0.15955612 -0.081417814 -0.016340837 0.30192873 -0.31298488
-0.1039036 0.09433984 0.05558579 -0.15497072 -0.11303903 -0.22798637 0.28155687 0.17432424
0.15082514 -0.04216291 0.0017139297 0.077672966 0.07218204 -0.08972889 -0.39898494 -0.022103086
-0.35364944 0.33955488 0.24557188 -0.061198905 0.3139973 -0.18692707 -0.00072715123 0.0059652384
0.15406041 -0.17102028 0.027464373 0.20043944 0.13143893 0.010406373 -0.08316864 -0.051979158
-0.11584965 0.08114873 0.17933108 -0.3870209 -0.23490414 -0.10353228 0.19964159 0.15124024
-0.015397184 0.10487433 0.018031387 -0.090867214 0.07455981 0.11046833 -0.23244314 -0.25810885
0.07560225 -0.28465784 0.19935381 -0.13594826 -0.13991578 -0.1721273 -0.0027111736 -0.25500327
0.17120457 0.14484775 0.006195905 0.11579669 -0.02976854 -0.18849823 0.0591996 -0.10279777
-0.027650397 -0.07521614 0.07098018 0.23592757 -0.170442 0.21886827 -0.02948678 -0.095901236
-0.0224771 0.07130158 0.11414018 0.1665945 -0.031578567 0.17203343 0.12771067 -0.13030124
0.19645916 -0.051574178 0.1844058 0.016304946 0.0030756455 -0.0529709 -0.11072278 -0.030144254
-0.09448125 0.11514777 -3.0019346e-05 -0.21505001 -0.23670092 -0.12521254 0.3625142 0.10834558
0.053138882 0.053857155 0.019974064 0.10037362 -0.335337 -0.26225677 -0.16428779 0.13320038
0.070718765 -0.14154036 0.2450419 0.21714543 -0.20506592 -0.11565181 0.017483965 0.22014743
0.06545838 0.2927097 -0.24744973 -0.2178216 -0.1389538 0.051049612 -0.19175118 -0.16294959

network_body._body_endoder.seq_layers.0.bias f4 [128]
00000000: 97d6 823a 364f d7ba dc6f 743b 8183 dcba
00000010: dc6d a23b aba4 ca3a 4612 a63a 9e4d cdbb
00000020: 2426 023c 8323 1a3c df60 40bb d858 4a3b
00000030: 3eee 023a 5aec 733b e4e6 8bbb a46c ef3b
00000040: 6350 bdba 98da 92ba 185c 21bb 0ec1 54bb
00000050: bf31 463b cf8a 7dbb 1947 1ebc 3d2f 19ba
00000060: 7fab 083b 06af 793b 0aee 0fbb 8d1c 81ba
00000070: 5cbb c23b 961f 92bb 49dd 9abb bd35 6fbb
00000080: 6490 92bb d4a0 ba3b 2923 883a fe8f 35bc
00000090: 3a69 ec38 176c cfbb 4a61 a03b a281 9e3b
000000a0: 76a0 6ebc 5d93 2aba e8a5 cc3b ee2c cd3a
000000b0: cda3 d1ba 8f48 b43b a897 ee3b 0557 01bb
000000c0: 07b7 803a 12d4 cfbb f023 02bc ed9c 9eb9
000000d0: 594c d43b d056 a9ba 9eb7 27bb 26bb 1eba
000000e0: 0e3c 093c 111f 95bb daf9 1d3c 0380 6b3b
000000f0: e0ab a039 2cc6 b03b 89e4 143b e54f 723b
00000100: 19e8 503b a530 6bbb 464d 74bb ce89 0f3c
00000110: be78 35bb 51c6 923b 17fe 40ba 46ec 5ebc
00000120: 9235 14bb 1273 e33b 1f56 3c3c 014d 7ebb
00000130: 8c4e 05bb 5406 91ba bfaf 20bc 48f4 ddbb
00000140: ec11 b6ba a949 283a 043b 153c 5ecc 063c
00000150: 773e f839 101f 0d3c a98f 463b 3956 9cbb
00000160: a0df b43b dff5 02bb e20a 2ebc 44be 103c
00000170: 12b4 19bc 5c41 4aba 4a25 733b 2f41 093c
00000180: 975c 0dbc 20f5 b93b b3de 1c3b 8619 2dbb
00000190: 3405 133c 72d9 d7b9 9bf7 463c 0080 7dbb
000001a0: 8beb fdba 4426 daba 5571 503c b0b5 a33b
000001b0: 313d 113b 0cc2 ea39 bcaf e53b 61ba d8bb
000001c0: 9701 d639 00f2 82ba 9620 93ba ca77 7e39
000001d0: cf04 aabb e677 133b 4efd 733b 9916 14ba
000001e0: 49ad 9b3b 4d10 933b 228d 8a3a 5b6b 3d3b
000001f0: c5f7 793b f6d3 003b 70e9 fb3b 4878 323c
0.0009982166 -0.0016426805 0.0037298119 -0.0016823859 0.004956944 0.0015460452 0.0012670241 -0.006265356
0.007943664 0.009407881 -0.0029354615 0.003087571 0.00049946073 0.0037219734 -0.0042694677 0.007306652
-0.0014443513 -0.0011204062 -0.0024621543 -0.0032463702 0.0030242053 -0.0038687473 -0.009660506 -0.0005843526
0.0020854173 0.0038098707 -0.002196195 -0.0009850428 0.005942745 -0.0044593317 -0.0047260863 -0.0036500536
-0.004472779 0.0056954417 0.0010386455 -0.011081694 0.00011272957 -0.006330024 0.0048944103 0.004837231
-0.014564624 -0.0006506944 0.0062453635 0.0015653649 -0.0015994251 0.0055018137 0.0072812624 -0.0019735706
0.0009820171 -0.0063424194 -0.0079431385 -0.00030253027 0.006478828 -0.0012919549 -0.0025591622 -0.0006055109
0.008376135 -0.0045508225 0.009642089 0.0035934455 0.00030645635 0.0053947177 0.0022719225 0.003697389
0.0031876622 -0.0035887149 -0.0037277504 0.008760883 -0.0027690376 0.0044792076 -0.0007362081 -0.013606137
-0.0022614938 0.0069412077 0.011495142 -0.0038803222 -0.0020341007 -0.0011064508 -0.009807526 -0.0067735054
-0.0013890839 0.00064196676 0.009108309 0.008227436 0.00047348786 0.008613363 0.003029803 -0.0047710207
0.0055198222 -0.0019982976 -0.010622712 0.008834425 -0.009381311 -0.0007715428 0.0037101083 0.008377357
-0.008628032 0.005674973 0.002393645 -0.0026412918 0.0089734085 -0.00041170005 0.012143995 -0.003868103
-0.0019372565 -0.0016643484 0.012722333 0.004996024 0.0022161717 0.00044776534 0.0070094746 -0.006614015
0.00040818445 -0.0009990335 -0.0011224921 0.00024267953 -0.0051885615 0.0022501885 0.0037229839 -0.0005649119
0.004750882 0.004488027 0.0010570625 0.00289031 0.0038142067 0.0019657589 0.00768774 0.010892935

network_body._body_endoder.seq_layers.2.weight f4 [128, 128]
00000000: 2491 863d b216 a83d 25a3 2cbe c345 bf3d
00000010: 1b11 c6bd 01e3 f0bc 32aa b93d fe41 a23d
00000020: 298f 2e3d 7bf0 7fbd 466c a0bd aaf9 9a3c
00000030: 9290 3f3e 988f b33d 415c 033d 8402 0dbd
00000040: 912f a33d b1b3 1dbe cbf9 b13d d793 87bd
00000050: a028 423d c354 51bd 8a6c a43c 9c66 4e3d
00000060: d76b 303d 1a23 33be dfdb c9bd 229e 773d
00000070: 5487 c7bd 4431 e4bd c73f 813d 2c2b 2dbc
00000080: a82e 943c 3b44 c1bc 7dba 7abb 6bb3 c53c
00000090: 0043 993c f2fb d83d c3b5 25bd b298 b33d
000000a0: 530a 683d a0ee 043d 301e a6bd 02df af3c
000000b0: 433c c63d f639 68bd 6a48 563e 8e21 043d
000000c0: 259b b3bd dff8 adbc ffb3 5a3d f4c0 03bc
000000d0: 2870 c5bd 8129 27bd a22c 123e 703e e43a
000000e0: f013 aa3d f6c1 a0bd fc8f e23d 7d98 6b3c
000000f0: 926e f03d bd33 853d fa16 95bd 5b71 003e
00000100: 87d1 48bd 5c8f fd3d 8760 a63d 185c 2dbc
00000110: 301a 5f3d ab30 a73d af00 5f3d a1f2 263e
00000120: 95e5 21bc 924f 6fbe 84e1 853c a3cd b63b
00000130: 963e 9bbd 61f2 443d 9e18 a73d 89cc 083c
00000140: bce8 073e 2968 033e bfa3 9cbe 9e57 463d
00000150: a470 4d3e ce91 123e 4c79 d63c c519 4a3c
00000160: 9fc7 b5bd 8844 abbc 60b9 633d 9138 e8bd
00000170: 1af2 0a3e 23f9 653e 888d 223e c8e3 71bd
00000180: 53b9 14be 54a8 613c e10b b23c 7157 06be
00000190: 88ab 63be b4ae c7bd 5a1e 053e 77a5 1fbe
000001a0: 59d6 b3bd 0398 353e cbe1 f8bd 721f 423c
000001b0: b51b e6bc afa4 20be c56b 91bd 83f2 b3bd
000001c0: 564d 00be 4c88 553c f648 ff3d e45e d73d
000001d0: 6943 cc3d f268 e0bd ac84 c8bd d349 d2bd
000001e0: b1df 3c3e 163a 12bd 1b02 2ebe 1011 0ebd
000001f0: 2d04 8cbd fbd5 3f3d 9bfa 89bd 2abb 47bd
00000200: 30ed 23bd d963 9b3d e3ab f2bd 349a 83bb
00000210: 5a95 293d 6895 d7bd b116 a2bd 7e3f 45bd
00000220: dd72 5e3d b94f 05bb f373 8bbd 067e 6cbd
00000230: 48d9 123e 022d 683d e871 4ebe ca05 e53d
00000240: 93a2 e0bd 26c5 0abb db8c 0cbd 7f50 b4bc
00000250: 2f18 06be ebdf e63b 13d9 a0bd f4a8 083d
00000260: 8687 8e3c 5b1d 623c 2cc9 ce3d a877 adbd
00000270: 974b aa3d fffb 4fbd 4b6f 3e3d cbad a43d
00000280: 37e6 31be 08f6 b2bc 88d9 3b3d af65 29be
00000290: c764 1a3b 0976 67bc c87e 023e 60df 0fbd
000002a0: b618 45be f9bd 0dbe a653 64bd ee9f bd3d
000002b0: 3123 cd3c 5190 dc3d 64e7 b2bc ef1e fb3d
000002c0: 8ed4 873d f1f4 183c 85a7 993c 7d40 0cbe
000002d0: 6a4c e7bc 1edc 96bc 0012 983d de93 65bc
000002e0: daf1 a0bc c6dc 0ebd b182 1f3c 81aa c23d
000002f0: 4f78 073d 3fb1 11bc 736f afbc 4cc2 be3d
00000300: b1eb d4bc f820 0e3e b075 793b aaea 2f3d
00000310: 5841 603d a77c b1bc b966 bc3d b881 0fbb
00000320: 2d0f 58bd 9208 133d 86d9 7c3c c017 3c3d
00000330: 78b7 74bd cb7d 37bd 9caa b7bd 1bc4 43bd
00000340: fe09 473e a5e7 01be 9fba aa3c df9b 18be
00000350: 4b7b ddbd c3af ae3d 512c 3f3e 7ceb 98bd
00000360: 7245 dc3d 2273 153e 8374 58be 7fad 66bd
00000370: 68f7 8e3d 2ee6 223d c9b8 8bbd d7de 5cbd
00000380: 4566 fbbd c451 613d 8559 e0bd bf89 8e3d
00000390: 6237 f0bc b29f 47bd b020 0d3e 1ba2 1cbe
000003a0: f14c a03d 2aa2 8cbc 9476 873d e7ea 843b
000003b0: 0291 3ebe ac6f 5b3d f605 013d 2bb9 993d
000003c0: fa3e 80bd 0642 d5bd fb6f c6bd a815 213c
000003d0: d12d f43d a035 89bd ee55 c13d 8309 73bd
000003e0: 6f02 e5bc 211f 0f3d 95a3 84bd c8dd c8bd
000003f0: c9cd 913d 4ce1 c53d e0c8 8dbd 4970 103e
0.06570652 0.08207454 -0.1685911 0.09339478 -0.09671231 -0.029405119 0.09065665 0.07922743
0.042616997 -0.0624852 -0.078331515 0.018917877 0.18707493 0.08767623 0.032070402 -0.034426227
0.07968057 -0.15400578 0.08690222 -0.06619995 0.047402024 -0.051106226 0.020071287 0.050390825
0.043071594 -0.17493859 -0.0985639 0.06045354 -0.09742609 -0.11142209 0.06310993 -0.010569375
0.018088654 -0.023592105 -0.0038258128 0.024133405 0.018708706 0.1059493 -0.040456545 0.08769359
0.05665047 0.032454133 -0.081112266 0.021468643 0.09679463 -0.0566959 0.20926061 0.032258563
-0.08769826 -0.021236835 0.053394314 -0.008041609 -0.09640533 -0.040811066 0.14274839 0.0017413627
0.08304584 -0.07849495 0.11062619 0.014379618 0.117398396 0.06504009 -0.07279773 0.12543242
-0.049027946 0.12380859 0.0812388 -0.010581039 0.054468334 0.081635796 0.05444401 0.16303493
-0.009881397 -0.23370197 0.016342886 0.005578713 -0.07580297 0.048082713 0.08158992 0.008349546
0.13272375 0.12832703 -0.30593678 0.048423402 0.200625 0.14313433 0.026180886 0.0123352455
-0.08875965 -0.020906702 0.05559671 -0.11338914 0.13568917 0.2245832 0.15874302 -0.05905512
-0.1452382 0.013773043 0.02173418 -0.13119294 -0.22233403 -0.09750119 0.1299986 -0.15590464
-0.08781118 0.17733769 -0.121524416 0.011848317 -0.028089384 -0.15687822 -0.071006335 -0.0878649
-0.12529501 0.013032984 0.12465088 0.10516146 0.09973795 -0.10957517 -0.0979093 -0.10267987
0.18444706 -0.035699926 -0.1699299 -0.03468424 -0.06836734 0.046834927 -0.06737252 -0.048762478
-0.04002112 0.07587404 -0.11849191 -0.004016185 0.0414022 -0.10526544 -0.07914484 -0.048156254
0.05430876 -0.0020341708 -0.06809225 -0.057737373 0.14340699 0.056683548 -0.2016064 0.11182745
-0.109685086 -0.0021174639 -0.034314018 -0.02201104 -0.13095163 0.007045736 -0.078539036 0.03336425
0.017398607 0.013800944 0.10096964 -0.08470088 0.08315199 -0.05077743 0.046492856 0.08040961
-0.17372976 -0.021845832 0.04586175 -0.16542695 0.0023558603 -0.014127263 0.12743676 -0.035125136
-0.19247708 -0.13842 -0.055743836 0.0925902 0.025041195 0.10769714 -0.021838851 0.122617595
0.066323385 0.009335742 0.018756637 -0.13696475 -0.02823468 -0.018415507 0.07425308 -0.014012305
-0.019646574 -0.034878515 0.009735749 0.09505177 0.03307372 -0.008892356 -0.021415448 0.09314403
-0.025991293 0.13879764 0.0038064532 0.042948402 0.054749817 -0.021665884 0.0919928 -0.0021897387
-0.052748848 0.035896845 0.015432721 0.045921087 -0.059745282 -0.0447977 -0.08968088 -0.047794443
0.19437405 -0.12686022 0.020840941 -0.1490321 -0.10814532 0.08529618 0.18669249 -0.0746679
0.10755433 0.14594701 -0.21138196 -0.056317803 0.06980783 0.039770298 -0.06822354 -0.053923454
-0.12275366 0.05500962 -0.109545745 0.06959867 -0.029323284 -0.04873628 0.13782 -0.15296213
0.078271754 -0.01716717 0.06614414 0.004056323 -0.18610004 0.053573295 0.031499825 0.07506021
-0.06262012 -0.104129836 -0.09689327 0.009831823 0.11922801 -0.06699681 0.09440218 -0.059335243
-0.027955262 0.034941796 -0.06476513 -0.098079264 0.071193285 0.096621126 -0.069230795 0.14105333

network_body._body_endoder.seq_layers.2.bias f4 [128]
00000000: 6889 0abc 66a5 973b 25cd f0b9 ffe1 debb
00000010: 1788 183a 8e56 ccbb f992 8e3b e84d 9fbb
00000020: ad6a 843a efb1 03bc f9e4 243b a82d 203c
00000030: efff 4aba a8c9 20ba d9aa 5ebb 4166 d53b
00000040: fc17 10bc f24d 28bb 1bf0 6fbb 2c5f 343c
00000050: 5180 193c 5b9d d839 10b6 dbbb 224e b0bb
00000060: db14 05bc 344f 75bb fb96 80bb 8b6c 093b
00000070: f17a 723a a31a 1d3c d04f c73a a4be 5c3a
00000080: 33af 433c d00b 8ebb 7999 30bc 2fd1 91bb
00000090: 6807 4dba ba41 edbb 97b4 3f3b 6c87 8d3b
000000a0: 7d2b bd3b 21c5 2bbc 45b0 7ab9 d684 8a3b
000000b0: df3d a0ba f254 ba3b 11e3 4d3c bbbf ecba
000000c0: d024 9139 812a 033b c620 223c 8ed6 debb
000000d0: 9f19 0a3b 5f19 ddbb 0e64 08bc 1ade 16ba
000000e0: 81cb 343b 382f 20bb 3ee7 093b 1f01 513b
000000f0: 059b a83b 38f8 6abb 474f d6b9 c407 87ba
00000100: 52da 36bc 874a 853b 5cb0 543b 035f 8abb
00000110: dc63 d3bb bb31 413b 2775 3c3b 1a56 efb8
00000120: 2680 6439 74e3 7f3b a7ac 6c3b d762 c63b
00000130: f7a1 743b 296f 39bb 72dc e3bb 230f 79bb
00000140: 1040 0fbb 62a2 533a 8d6b b23a 04f4 703b
00000150: 0efd 38bb 5eb5 a03b 99e4 9939 f9ec 2e3c
00000160: 06a3 c03a 648f dbbb 42e7 2abc 0e05 42bb
00000170: aede eeba ae81 a13b aca7 e53b 96a2 933b
00000180: 6146 2dbb b22a e73b d7da 61bb c0ae d2ba
00000190: 92a6 9bbb a0d4 453a 83c6 02bc f00d 56bb
000001a0: 1dd7 1abb 3ded 9abb e1e5 183b facb 2d3c
000001b0: eea0 0e3b 3941 e63b ea9a 2dbb 8514 ff3b
000001c0: 2adb 73bb dbf6 1f3c 38be d0bb c024 faba
000001d0: 757a 1b3a 3cf2 d8ba 2466 5b3b 761a d93a
000001e0: 055a 753b 9f8e 863b 5498 e53b 107f 82bb
000001f0: 2194 cd3b 2210 8c3b 087e 16bb c295 a5bb
-0.008455612 0.0046278713 -0.00045929212 -0.006801843 0.0005818619 -0.006235904 0.0043510166 -0.004861582
0.0010102593 -0.008038028 0.0025160892 0.00977651 -0.00077438256 -0.0006133565 -0.0033976345 0.0065124338
-0.008794781 -0.0025681225 -0.003661162 0.011009019 0.009368972 0.0004131597 -0.006705053 -0.005380408
-0.008122648 -0.0037431242 -0.0039242483 0.0020969238 0.0009249887 0.00958887 0.0015206281 0.00084207417
0.011943626 -0.0043349043 -0.010778778 -0.0044499855 -0.0007821233 -0.007240501 0.0029251927 0.004319122
0.0057730065 -0.010484011 -0.00023907523 0.004227261 -0.001222547 0.005686396 0.012566344 -0.0018062511
0.00027683983 0.0020014348 0.009895509 -0.0068004793 0.00210724 -0.0067474092 -0.008324636 -0.00057551416
0.0027587118 -0.0024442207 0.0021042372 0.0031891537 0.005145433 -0.0035853516 -0.00040876327 -0.0010301997
-0.01116045 0.0040677222 0.0032453751 -0.004222752 -0.006451113 0.0029479105 0.0028756352 -0.00011412446
0.00021791513 0.0039045485 0.003611365 0.006054263 0.0037327984 -0.0028295016 -0.0069537694 -0.0038003407
-0.0021858253 0.0008073208 0.0013612375 0.0036766538 -0.0028227004 0.004904433 0.00029352753 0.010676616
0.0014697022 -0.006700443 -0.010431113 -0.0029605064 -0.0018224323 0.004928789 0.0070085134 0.0045054657
-0.0026439654 0.00705465 -0.0034462714 -0.0016073808 -0.0047500813 0.0007546637 -0.007981899 -0.0032662116
-0.0023626753 -0.004727988 0.0023330378 0.010607714 0.0021763402 0.007026818 -0.002649004 0.0077844285
-0.003720949 0.009763445 -0.006370332 -0.0019084439 0.0005931028 -0.0016551684 0.0033477629 0.0016563672
0.003743769 0.004106357 0.0070066843 -0.003982432 0.006273762 0.004274384 -0.0022963304 -0.005053253

action_model._discrete_distribution.branches.0.weight f4 [38, 128]
00000000: 9889 4c3b 55c3 54bc b082 15bc 0d80 e93b
00000010: 8b3e 11bc c497 173a a66e 72bb 95af 3dbc
00000020: f85d bfbb 5c06 db3c bfbf fc39 bead a8ba
00000030: 0881 2dbc e64b 1dbc d2be 08bc dbcf ecba
00000040: a8aa 673c 4845 e63b 62ad ed3b a888 e5bc
00000050: 68b2 9ebc 8234 543c 669a 0aba 56e6 b83c
00000060: 72dc 923b 7a46 dc3a 8f9c d53c ba47 95bb
00000070: eaea 83bc 2882 38bb 0be5 9cbb c77c 1fbc
00000080: 5cbc 9cba b2c9 893c 9bd1 513b 687e 0f3c
00000090: 7c7e b039 c4c3 b3ba 399b c5bb 77d2 a1bb
000000a0: 6d9e adb9 292f d23c 5aae cbb8 c84a b1bb
000000b0: b1f4 b83b ba46 d1bb 0306 7c3b 4525 293c
000000c0: a0b8 f93b 67c2 a5bb 3ce1 e63b d6ba acbb
000000d0: 15e8 47bc f281 173c 23bd 333c a64e 52bc
000000e0: 947d 81bc 7dbe 8e3c d87c 443c 2525 233c
000000f0: 1adb efba d16f 413c 41ab 2abc 85d1 7ebb
00000100: a3de 4e3b d198 1ebc f725 583b 8b19 d43b
00000110: abdf f53c 067b fd39 4f68 893b d3ca f93a
00000120: 45e4 313c e7ee c3ba 0b27 8938 8da3 afba
00000130: b02a 1b3c 28b7 2838 114c 183c e05a b33b
00000140: 3e5c 3ebb 38a9 fdba f495 063c 1e6a 223a
00000150: bff3 453c c853 25bc 8192 d63b 3148 d3bc
00000160: 321e 85bb 8f4e 263c 7e80 9b3c 1847 813c
00000170: 3287 0d3c 4a3c f43b b7d1 a4bb 3a8b 73bc
00000180: 5d85 b8bb 40a2 3ebb 6b0d c33c 2c73 503c
00000190: bcb3 f0b7 eb37 b63b 27a7 403c 08c4 bb3c
000001a0: c259 5838 8996 853a 19e8 343b 2161 c5bc
000001b0: b477 d43b 9b1f a53b f53c 793c 8b81 4abb
000001c0: 2b9b d73a 1caa 34bb 2b95 873c eba6 813a
000001d0: 4b71 043c 496e cfba d29a e6b9 47ed be3b
000001e0: 607f 463b 125b 4dbc 915b 113c 2ca9 623b
000001f0: 3ba4 bdbb 29be e9bb 83b7 a0ba e8eb afbb
00000200: cacb 693c 0864 86bb 77e9 913b 69c2 51bc
00000210: fd9f bdbb 96b7 bf3b 1113 aa3a feaf a63c
00000220: cdfd aebb 44b1 4fbb 5bdc 36bb fee2 013d
00000230: 4c94 9f3b 8d1a 87bb 9f2b 8cbb 9231 e13c
00000240: 2090 ee3a 0812 9cba 4c90 773b 653c 52bb
00000250: 0bda f53b 6d25 54bb 64b0 10bc 18d1 a4bb
00000260: 5ed3 8f3c 017f 12bb 36b2 243c 758e d3bb
00000270: 619b e23b eeed 5a3a 29c8 84bb a829 4abb
00000280: 2666 683c 0ced 24ba 4163 8b3a a412 823c
00000290: 2c37 0a3a 530e 1fbc 1ddc 123c c1f1 fa3b
000002a0: dad1 a7bb eb81 6fbc b8ad 87bb 9fb5 03bc
000002b0: 0329 953b 16ed 0bbb c1af af3b 20e6 503c
000002c0: b871 743b 2ed9 6f3b 3d0d 17bc f4ec 4b3b
000002d0: af91 413c 13d6 cc3b 452d a7ba d858 00bc
000002e0: ee5e e93b 15bb 49bc c881 b0ba 9e1b dfbb
000002f0: 173f 0c3c 7011 cc3b 2255 35bb f7e5 ed3b
00000300: 8ce3 a03c 17ba f3bb 0aa6 15bc dd91 b6bc
00000310: a04c 29bc 23e9 9bba 8039 9239 e1ae 10bb
00000320: 0182 19bb 8ed9 733c 717f ec3a 89f5 1cbc
00000330: 5833 573c eca1 a2bb e5ba 1dbc 04f8 e4ba
00000340: e631 ed3b e049 7f3a 0caf 8ebb e402 9b3b
00000350: 5ac2 98bb 9cd5 b9bb a821 12bc 1078 30bc
00000360: e967 46bb a69e 973b 826f 99ba b158 dabc
00000370: b50f 09bc f6c8 5cbc 502b a93b 43e6 47bc
00000380: 5fe2 a43b 2e9c 8ebc 38ae adbb fcff 123c
00000390: 31ff 763b 543d 263b 0ad2 d5bb 5934 0a3b
000003a0: 4e02 cebb 5a59 49bc 6d57 b53c acdc 6a3c
000003b0: 4d22 703c 44f1 04bc fd85 113b bac8 9dbb
000003c0: 0b44 a5bb d8b1 29bb 461b 2eba 8ecf d3bc
000003d0: 85ca 51bb 809f 4c3c a482 5dbc 1c60 1ebc
000003e0: 252a 1bbc 4c7d 36bc 5006 483a 46d0 29bc
000003f0: 2bf5 3c3c 1d2d 003c c504 8ebc d53c 64ba
0.0031209942 -0.012986024 -0.009125397 0.0071258605 -0.008865009 0.0005782808 -0.003699222 -0.011577507
-0.0058400594 0.02673643 0.00048208048 -0.0012869162 -0.0105898455 -0.009600615 -0.008346276 -0.0018067317
0.014139809 0.007027302 0.007253335 -0.028019264 -0.01937218 0.012951972 -0.00052872894 0.02257077
0.0044818455 0.0016805672 0.02607563 -0.0045556696 -0.016103227 -0.002815375 -0.0047880462 -0.009734339
-0.0011957991 0.016819809 0.0032015804 0.008758165 0.00033663574 -0.0013714959 -0.006030467 -0.0049384194
-0.00033115168 0.025657253 -9.71227e-05 -0.005410526 0.005644404 -0.006386605 0.0038455732 0.010323827
0.007620886 -0.005058575 0.007045893 -0.005271296 -0.012201329 0.00924729 0.010970387 -0.012836134
-0.01580695 0.017424816 0.011992656 0.009957586 -0.001829955 0.011806444 -0.010416807 -0.0038882208
0.0031565807 -0.009679989 0.0032981613 0.0064727715 0.03001388 0.0004834758 0.0041933428 0.0019057639
0.010857646 -0.0014948518 6.5399414e-05 -0.0013400182 0.009470627 4.02249e-05 0.009295479 0.0054734796
-0.002904668 -0.0019352799 0.008214463 0.0006195622 0.012082039 -0.010090776 0.0065482263 -0.02579126
-0.0040624375 0.010150566 0.018982168 0.01578097 0.00863819 0.007453476 -0.005029883 -0.014864737
-0.0056311325 -0.0029088408 0.02381011 0.012722772 -2.8693925e-05 0.005560865 0.011758602 0.022920623
5.1582007e-05 0.0010191958 0.0027604161 -0.024094166 0.0064839963 0.005039168 0.015212287 -0.0030899968
0.0016449442 -0.0027567213 0.016550621 0.0009891664 0.008083652 -0.0015825714 -0.0004398437 0.0058266255
0.0030288324 -0.01253392 0.008871929 0.0034585698 -0.0057874 -0.0071332646 -0.0012261722 -0.0053686984
0.0142697785 -0.00410128 0.00445288 -0.012802699 -0.0057868944 0.0058507426 0.0012975653 0.020347591
-0.005340314 -0.0031691352 -0.0027902338 0.031710617 0.0048699733 -0.004123038 -0.004277661 0.027489457
0.0018200912 -0.0011907229 0.0037775217 -0.0032079455 0.0075027994 -0.003237094 -0.008831117 -0.0050298087
0.017556842 -0.0022353532 0.010052254 -0.006456191 0.0069154953 0.00083514943 -0.0040521813 -0.0030847583
0.01418451 -0.0006291426 0.0010634438 0.01587803 0.00052725035 -0.009708005 0.008963612 0.007658214
-0.005121452 -0.014618377 -0.004140582 -0.008038907 0.004552008 -0.002135103 0.0053615277 0.012750179
0.0037299227 0.0036597955 -0.009219465 0.0031116577 0.011814519 0.0062511056 -0.001275458 -0.007833682
0.007121912 -0.01231267 -0.0013466412 -0.006808712 0.008559964 0.0062276646 -0.0027669151 0.00726008
0.019639753 -0.007437955 -0.009133825 -0.02228635 -0.01033321 -0.0011895042 0.0002789013 -0.0022076892
-0.0023423436 0.014883412 0.0018043352 -0.0095800245 0.0131348 -0.0049631502 -0.009627079 -0.0017468934
0.0072386144 0.0009738486 -0.0043543633 0.004730569 -0.0046618404 -0.005671216 -0.008919157 -0.010770813
-0.0030274338 0.0046270667 -0.0011706206 -0.02665362 -0.008365561 -0.013475647 0.005162634 -0.012200895
0.0050318683 -0.017408457 -0.0053003095 0.008972164 0.0037688727 0.0025366144 -0.0065252827 0.002108833
-0.006286896 -0.0122893695 0.022136414 0.014334839 0.014656615 -0.008114163 0.0022205107 -0.0048151882
-0.0050435117 -0.0025893357 -0.00066416373 -0.025855806 -0.003201158 0.0124892 -0.013519917 -0.009666469
-0.009470497 -0.011138272 0.0007630335 -0.010364598 0.011533062 0.007823256 -0.017336259 -0.00087065744

action_model._discrete_distribution.branches.0.bias f4 [38]
00000000: dd86 0cbc 5bb5 c03a ae00 f83a f2f8 35bb
00000010: 9180 a43b cbab bc3b 07e8 feba e2fe 313b
00000020: c5cb 0abc fd4b 073b a4e2 333b df5c 89bb
00000030: e8eb 41b9 5d87 a13a cc0f 083b 3a03 87bb
00000040: fc3d 8bbb 4a31 533b 86f7 c8ba 3789 033c
00000050: 808c 083a 5a09 8cbb f672 033c ee26 0f3b
00000060: 0d74 6ebb 489b d1ba cf9d 46bb ac39 67bb
00000070: acd2 edbb bbd0 d0ba 4398 363b 8198 ebbb
00000080: 2110 11bc eb92 463a bfa0 143b 8c37 83bb
00000090: 4d91 433b 9501 133c
-0.008577076 0.0014702486 0.0018921101 -0.0027766791 0.005020209 0.005757784 -0.0019447812 0.0027159979
-0.008471434 0.0020644658 0.002744832 -0.0041919793 -0.00018493796 0.0012323667 0.0020761369 -0.0041202577
-0.0042493325 0.0032225423 -0.0015332557 0.00802832 0.00052089244 -0.0042735757 0.008023014 0.0021843272
-0.003638509 -0.0015991712 -0.0030306464 -0.0035282178 -0.00725778 -0.0015931347 0.002786175 -0.0071898107
-0.008853943 0.0007574993 0.002267882 -0.0040044244 0.0029841245 0.008972545
