results/DemoRun/TestAgent1/TestAgent1-58429.onnx (onnx, 111077 bytes, 6 tensors)

network_body._body_endoder.seq_layers.0.weight f4 [128, 39]
00000000: d0da 633d 882a e8bd a518 aabe 5967 403e
00000010: 0c95 3fbe 5631 853c b9a5 673d fea0 d13d
00000020: 07a7 823e ea80 9f3e 66bd a53e 9cb5 f7bc
00000030: 3079 2dbe 0946 44be e687 073e 68aa 3dbd
00000040: b901 9bbd 6606 693d e8ba 833d a7e5 c73d
00000050: a520 583e bdf9 093d 4b59 9cbe cfff aabd
00000060: 69b9 96bc 5d0a 673c 8b9e 85bd a91e 6cbd
00000070: e383 963d ed2a e5bd 5df3 05be d822 89bc
00000080: 7657 3f3e 8069 d7bd ab38 fabd 2de1 8a3e
00000090: 6e12 453e 28cc cebd 0edb 9abe 8739 61bd
000000a0: 739f fdbc 75bf 6abe 18a5 3d3e ce46 ce3d
000000b0: e785 203e b987 183d b2ea 593e 0fce 8a3e
000000c0: 81d7 95bd a492 363e 4542 a53d 3d00 9dbe
000000d0: 2e51 81bd 9c1b 633e 461f 94bd 650c 6abc
000000e0: 5fe1 89bb e279 bf3d f62e c6bd f49f 96bd
000000f0: 7f83 ba3d a399 e43d ada4 873e 1e3d 31bb
00000100: 8d17 a7be d2da dbbd c392 ccbd 40c7 c3bd
00000110: cf77 c43d 231b 8f3e ab14 15be e6ce 1ebe
00000120: 82eb acbd 160f b2bd 8fab 66bd 6a0c bebe
00000130: b3a1 91bc 304f 503d 199f 413e 4c29 26bc
00000140: 6876 d9ba 34d9 49be 1636 3dbe 6d8e d5bb
00000150: 605e cfbd 0c81 333e c03c e83d b0a7 c4bc
00000160: a402 8d3e 0257 50bd 4981 ee3d 905d a33d
00000170: 5de2 93bd df33 923d 76ce 4abd f987 0bbd
00000180: 2006 e1be 5d0b 78bd 00be 003d a6fe 9fbd
00000190: 2fe9 343d 0894 f23e e13b d63d 4a1c 5b3e
000001a0: 681d 37bd 4f51 943c a7cf db3c 8688 d1bd
000001b0: 2964 233e f1fe 25bd 4faf 283d 87d8 093d
000001c0: f317 73be 2151 333e 14be febd 42d0 673c
000001d0: ef3b edbd d074 8bbe 2326 f53d a8cc 223c
000001e0: b389 2ebd 0b91 9b3d 49d4 093e 6c4e 563d
000001f0: 3d78 a3bd 56d2 aabd 1692 ac3d c185 843d
00000200: 43e6 493e 9b91 dc3d 713e 9b3b ba8f 23be
00000210: b2b5 67bd 7b9b 52be c9dd 473d 80ca a13d
00000220: 7d4c 3a3e 0a65 1e3d cc73 b53b c2e0 4d3d
00000230: b7f0 72be a0f2 5a3e ec56 aa3d 4895 d1be
00000240: a605 24bd 18ff a13e 097f 583e 01f0 e8bc
00000250: e5ad ca3d 4c00 26be 5215 873e 7c0a 91bd
00000260: 4a4d ac3c 85fc f93d 9d2f d7be ad9c 9f3e
00000270: 6a51 273e 29c5 2f3e c2b1 dfbd 64ef 503d
00000280: 5b62 c83c 8660 dc3c 30af 973d 7c3b d93c
00000290: 70cf 96bd e42f 13be c48a f5bc 39fb c0bd
000002a0: c1df 643d 996c b83c 8079 6ebe 5cd9 1c3e
000002b0: 733b 563e d85a fc3d d316 cdbe e841 843e
000002c0: a67a 223d 6290 853d 48b0 18be 1094 1bbe
000002d0: 9e11 dabe b705 43be d697 bebe 2eb0 e3bd
000002e0: f471 793d c600 70be f4fd 53bd aeed ba3b
000002f0: 6600 4a3e 696b 38bd eee1 fa3d f4f7 b13e
00000300: 30ca 6f3d 9cb0 94be 9d12 05be 56de 813d
00000310: b325 60be 0d01 eebb 9574 9c3e 828c 573d
00000320: 86b4 1c3e 53e1 7cbe 5de2 3dbd 4527 83bd
00000330: 5dfc 063d 7b06 16bd c02b 93bd ffc9 e3bb
00000340: 2a95 043e 5acb 40bd 6b3c f7bb 2df8 993d
00000350: 3275 3c3e a0ba aabd 81dc aa3d d29c dbbd
00000360: 644d 073e 5f0e e93c a751 51bc f4ef b43c
00000370: 9e3a c33c ce15 adbd 6c42 443d 6aec 6e3d
00000380: da73 523e e1fb 133e 101d 123e 2b81 393e
00000390: 2dd5 05be 8ba9 093d e270 43be 818c 31be
000003a0: 1849 b0bd 138d 14be 724e 5dbe 50d5 903e
000003b0: 116d af3c b2d7 6a3d f35b 383b fff3 87bd
000003c0: c42e 4cbd c532 863e 743a 3abe 020f 20be
000003d0: 81e0 533d 8c72 33bc 9af1 0bbe ff72 a6bd
000003e0: 93c0 c43c af36 cd3e cd00 9ebe d86d 11be
000003f0: 62af 8e3d d9c1 133d 2881 91bd 1b93 96be
0.055628598 -0.11336237 -0.33221927 0.18789424 -0.187092 0.016258877 0.05655453 0.10235785
0.25518057 0.3115304 0.32371062 -0.030237965 -0.1694076 -0.19167341 0.13235435 -0.04630509
-0.07568688 0.056890868 0.06432134 0.097605996 0.21106203 0.033685435 -0.30536875 -0.08349573
-0.018398957 0.014101592 -0.0652438 -0.057646427 0.07349374 -0.11189828 -0.13081117 -0.016740248
0.18685707 -0.105181694 -0.1221784 0.2712492 0.19245312 -0.100975335 -0.3024525 -0.054986503
-0.03095982 -0.22924598 0.1852001 0.10072099 0.1567608 0.03723881 0.21280935 0.27110335
-0.07316495 0.17829376 0.080692805 -0.30664244 -0.06314312 0.22178501 -0.072325274 -0.014285182
-0.0042077745 0.09349419 -0.09676926 -0.073547274 0.09107112 0.111621164 0.26492825 -0.0027044485
-0.32635155 -0.10735096 -0.0998893 -0.09559488 0.09593164 0.2795039 -0.14558665 -0.15508613
-0.08443357 -0.08694284 -0.056315955 -0.37118846 -0.0177773 0.05085677 0.18908347 -0.010141682
-0.0016591074 -0.19711763 -0.18477663 -0.0065172226 -0.101254225 0.17529696 0.11339712 -0.02400574
0.27541077 -0.050864227 0.11645753 0.0797683 -0.0722091 0.071388 -0.049513303 -0.03406522
-0.43949986 -0.060557712 0.031431198 -0.07812242 0.044167694 0.47378564 0.1046064 0.2139751
-0.04470578 0.018105177 0.026832415 -0.10231118 0.15956177 -0.040526334 0.041182812 0.033653762
-0.23739605 0.17511417 -0.12438598 0.014148774 -0.11583697 -0.27237558 0.119701646 0.009936489
-0.04261179 0.07596024 0.13459887 0.052320883 -0.07981918 -0.083409 0.08426301 0.06470824
0.19716744 0.107699595 0.004737668 -0.15972796 -0.056569763 -0.20567124 0.048795495 0.07899952
0.1819324 0.038670577 0.0055374857 0.050263174 -0.23724638 0.21381617 0.0831736 -0.40934205
-0.04004445 0.31639934 0.2114221 -0.028434755 0.09896449 -0.16211051 0.26383454 -0.07082078
0.021032948 0.122063674 -0.42028514 0.31174222 0.16339651 0.17165054 -0.109225765 0.05100955
0.024460962 0.026901495 0.07406461 0.026517622 -0.07363784 -0.14373738 -0.029973395 -0.09422917
0.05587745 0.02251272 -0.23288536 0.15317291 0.20921116 0.123220146 -0.40056476 0.25831532
0.039667748 0.065216795 -0.14910996 -0.151932 -0.42591566 -0.19045149 -0.37225217 -0.11117588
0.06089969 -0.23437795 -0.05175586 0.005704603 0.19726714 -0.04502431 0.12250124 0.34759486
0.05854243 -0.29040992 -0.12995382 0.06341235 -0.21889381 -0.007263309 0.30557695 0.052624233
0.15303239 -0.2469533 -0.046358455 -0.064039744 0.032955516 -0.036627274 -0.07186079 -0.00695157
0.12947527 -0.04706893 -0.007545044 0.07518039 0.18404081 -0.08336377 0.08342839 -0.107232705
0.13213116 0.028449235 -0.012775815 0.022087075 0.023831662 -0.084514245 0.047914907 0.05833093
0.20552006 0.14451553 0.14268899 0.1811568 -0.13069601 0.033608954 -0.1908603 -0.17338754
-0.086076915 -0.1450694 -0.21611956 0.28287745 0.021414312 0.05733461 0.0028130978 -0.066383354
-0.049849287 0.2621061 -0.1818636 -0.15630725 0.051727775 -0.010952603 -0.13666382 -0.081274025
0.024017608 0.40080783 -0.30859986 -0.14202058 0.06967045 0.03607354 -0.07104713 -0.29409108

network_body._body_endoder.seq_layers.0.bias f4 [128]
00000000: b232 5dba b345 d8bb 9023 69bb f8d4 943a
00000010: d9fd 213b 8e71 ebb9 49f9 eabb 21d8 5ebb
00000020: 6e2a d23b 920d 8dbb 9d5a 1c3b 7452 ae3b
00000030: 607e 3d3b a6b1 9ebb 9228 8b3b 49c8 5fbb
00000040: 55d6 ce3b 3746 853a 5362 2bbb ec46 923a
00000050: 5616 1c3c 4c8d 9c3a 702a 4cbb a732 413c
00000060: 1acf 453a 707b 08bc f5f6 a439 c445 403b
00000070: d1d6 5c3a ec04 60bb 0a4c ddbb 40bd cd39
00000080: 0dd0 a23b 41bf a73b 29d9 663c 858e 32bb
00000090: 732f d3bb 3945 703b 8a20 ae3b 475c 10bb
000000a0: e8a8 503b 6d85 f8bb 41fd 003c 7b2f a53b
000000b0: 73c5 d73a 960e 9cbb 1ed4 1c3b f11e 673b
000000c0: d583 acbb 8790 6bbb 0655 4fbb fe7b 583b
000000d0: 712d 663b 8e1f 313b 1da9 a33b 461f 743c
000000e0: 1ca9 833c a40d 8f3a 1335 353c 137a 8d3b
000000f0: c207 183a 3ace 813c fc31 a03b 85cd ba3b
00000100: 123a 383b eacc 223c 98ef 5a3c 60f9 c9bb
00000110: 6eae 403b b6ec 0d3b b9dd e6bb ea9d a4ba
00000120: 44c3 14bc dff1 d1bb 746c 54bc c43e c4b9
00000130: 22de a5bb 6e06 053c 542d ee3b dd4c c1bb
00000140: c205 46bb 74f3 caba 5200 d03b 33fb 9c3b
00000150: fc7e 333b 3cbc ffbb 7bcb 913b 7f6e a63a
00000160: 2d42 053c 1933 ed3b 2680 dc3b 4a89 903b
00000170: efc4 1e3c 8286 bd3b 668c 813c 6143 24bc
00000180: fab2 26bb 406f f8ba 3134 9f3b 8a1e 733b
00000190: 0423 9e3c 6863 be3a fca4 093c 7fe5 d33b
000001a0: ac7c 213c 122f 033b 3854 1c3c 316f 233b
000001b0: 38bb 24b9 eb22 133a 7897 cd3b a3aa 3abb
000001c0: dbe7 3c3c 91c8 6cbb 002a 1d3c 6447 333c
000001d0: b557 24bb 7594 493c ebfd f83b 4a12 b5bb
000001e0: 9141 343c d9e9 85bb dfaf e4bb f085 d33b
000001f0: 71d8 d8bb ca27 e3ba 48a0 b43b dd67 943b
-0.0008438035 -0.0066001057 -0.0035574175 0.0011354974 0.0024717955 -0.00044907298 -0.0071708304 -0.0034003335
0.0064137494 -0.004304596 0.002385772 0.005319888 0.0028914437 -0.0048429547 0.0042467797 -0.003414648
0.0063121715 0.001016802 -0.0026151135 0.0011160052 0.00952681 0.0011943965 -0.0031153224 0.011791862
0.0007545814 -0.008330211 0.00031464515 0.0029338459 0.0008424344 -0.0034182621 -0.0067534493 0.0003924165
0.0049686492 0.005119235 0.014089861 -0.0027245593 -0.0064448654 0.0036662354 0.0053139376 -0.0022027658
0.0031838957 -0.007584265 0.00787288 0.0050410605 0.0016462043 -0.004762481 0.0023930143 0.0035266245
-0.005264739 -0.00359443 -0.0031636371 0.003303289 0.00351223 0.0027026865 0.004994525 0.014900034
0.016071849 0.0010914099 0.011060017 0.004317531 0.0005799496 0.015845407 0.004888771 0.0057007694
0.0028110784 0.009936551 0.013362788 -0.006163761 0.0029400843 0.0021655983 -0.0070454744 -0.0012559269
-0.009079758 -0.006407007 -0.01296531 -0.00037430797 -0.0050618807 0.008119209 0.007268587 -0.0058990554
-0.0030215834 -0.0015483932 0.0063476944 0.0047906875 0.002738892 -0.0078044217 0.0044493056 0.0012697725
0.008133453 0.0072387573 0.0067291437 0.0044108974 0.009690507 0.005783857 0.015814018 -0.01002583
-0.0025436268 -0.0018954054 0.0048585166 0.003709706 0.019303806 0.0014525475 0.008401152 0.006466567
0.009856384 0.002001707 0.009541564 0.0024938101 -0.00015710003 0.0005612808 0.00627416 -0.0028483055
0.011529888 -0.003613029 0.009592533 0.010942314 -0.0025076692 0.012303461 0.0075986288 -0.005525862
0.01100196 -0.0040867147 -0.0069789733 0.0064551756 -0.0066175987 -0.0017330584 0.005512271 0.004528983

network_body._body_endoder.seq_layers.2.weight f4 [128, 128]
00000000: 718e d23d 16c2 d5bd 229b 99bc e055 203d
00000010: 383b a43d 37f0 8abc df56 b53c d643 0f3e
00000020: f4e2 2bbd 54fc 2dbd e579 e93b d84a b73d
00000030: a923 06bd 54ca 7dbd 4426 df3c e31a 94bc
00000040: da1a 393e 0487 403c 5883 233e 9751 26be
00000050: 0da8 9d3d a6c6 f7bc a9b2 13be d6e0 0d3e
00000060: 2eff 5a3d 2e2f 00ba 4d1e 023c 58fb c2bd
00000070: 95ba a4bc 177b 9cbc 8cef 7b3d 17c9 ddbd
00000080: 9635 c63d 6d91 c43d 5e25 a6b9 6121 943d
00000090: 64c2 74bd fab5 df3d 65f2 c13d d5a2 113e
000000a0: 5f26 24bd 58b8 d83d 90da 8e3d feb7 793d
000000b0: f620 b7bd dfb6 bebc 558e 973d c3c7 293e
000000c0: 0359 c73d dfc3 973d 47d3 4bbb dfc9 13bd
000000d0: 31e8 26bc a935 4fbc 107c d33a cd71 633b
000000e0: 16e0 88bb 3ac9 ee3d fa14 9abd 86ec 9c3c
000000f0: 825c dfbd c994 01be 773f 7e3d 4135 dd3d
00000100: 537b 4abb 2b8b f83c 4d15 8a3d 03ed 673d
00000110: 2a6b efbd be48 043e 3868 0cbc 0972 29bd
00000120: 6139 3f3d 819d 023d 6a58 d3bd 0b1b bb3d
00000130: 6072 85bc 297f f8bd 873b c63d 034d 963c
00000140: 6221 37be 4dd1 3b3e 0124 e33d e827 83bc
00000150: 6edf 873d 15c8 1bba f2d3 043e 13fe 663d
00000160: 5028 9e3d 0e72 cfbd 37f6 a43d 8789 13bd
00000170: 030b 393d 2cc8 1a3e 95d6 91ba a3d0 b5bd
00000180: 5dc3 b03d 3760 f2bd 487d 15bc 0125 d23d
00000190: 128f f73c 6de1 65bd 4205 b13b 13f1 a13d
000001a0: 02a6 b43c a149 dcbd 1828 86bc 45b7 97bb
000001b0: 6825 8c3d 2b33 dc3c 5f1f 7f3d 9d47 06be
000001c0: 3702 91bc de06 d63d 0b4a 0d3e aa42 033d
000001d0: 852e 843d dbe7 b03c a899 083e 45f0 e7bd
000001e0: e275 90be 9134 d7bd 160e e0bd 8894 ab3d
000001f0: 14ec a63d cdc9 a1bd a6ca aa3d 69da 8f3d
00000200: 03a6 223d 7527 2bbd c2a5 723d 9f34 1dbd
00000210: 119f c83d 9002 e4bd 09f7 18bd 7fd7 513e
00000220: 2d5f 0e3e c215 8bbb 92d6 0f3d fd9d 3bbe
00000230: 5787 edbd 4e70 093d 6d3a ae3b d976 a93c
00000240: ed17 1a3d bfdf d13d 0d51 d23c caa4 f5bd
00000250: 9107 50be 5e32 18bc 6e6c bdbd 5add d43c
00000260: 493b 29bd 8525 23bd 1c47 683d d0de 7ebd
00000270: 813a 01be fd0e 1a3e a41f e3bc cbb2 1abd
00000280: 6be0 aa3c c406 1e3e 6446 64bd c034 1bbe
00000290: a2ac e3bc 609f 563e 9961 b43d c0fa d03c
000002a0: f048 a13d 8383 f9bc 286d cd3d 27fc 04bd
000002b0: 6bb2 adbd 9e4d 81bc e68a 4a3d 25bb d3bd
000002c0: 73be a1bd 62d3 a6bd a43a 373c 6deb c93d
000002d0: 8730 243e 282e 59bd fd42 143d 64cf ae3d
000002e0: d8fa 8e3d 4d32 a1bc 102a 833d bbe7 9e3c
000002f0: 11c7 df3d cc17 bf3d ae16 413c 4e4c a7bd
00000300: aa60 5f3e e3c6 3c3c 02e4 453d 4ac9 22bd
00000310: 236f 95bd e736 9abd e9d9 da3d 741b c2bc
00000320: 37df 1a3d 4a39 073e 6706 aebd 914a b7bd
00000330: f0b2 ecbd 9788 ac3b dfe4 8dbd a34f af3d
00000340: db90 943d b58b 25bd 0a09 d83d b237 f9bc
00000350: 4be0 b33d f283 9c3d cdaf efbd 4c73 0cbe
00000360: afd1 423d e2cb 24be bf48 023d 7adf da3b
00000370: f886 c6bc b8cd b5bd 71f5 a6bd 96d3 36bd
00000380: 389f 623d 50af da3c c037 93bd 8480 bf3d
00000390: 0877 60be 8a7f 82bd ea4e cdbd b605 ccbd
000003a0: 9819 b6bd 89de 14bd 1a13 dfbd 1059 d83d
000003b0: 9ba6 803d 2cf8 b3bd 938d 55bd bea5 003e
000003c0: 292e 423d a95f ce3d cd77 fa3d 7ea7 6dbd
000003d0: c2ff 143e a92e 0b3e e777 3f3d 928e 0ebd
000003e0: 586c c03c ffae a1ba 11cb 983d be2d 073e
000003f0: c3be 003d e344 823d 55dd b5bb fbac f6bd
0.10281075 -0.104374096 -0.01875073 0.039144397 0.080191076 -0.016960246 0.02213615 0.13990721
-0.041964486 -0.042476967 0.0071251267 0.08949822 -0.032748852 -0.061960533 0.027239926 -0.018079227
0.1807665 0.01175094 0.15968072 -0.16242062 0.07698069 -0.03024609 -0.14423622 0.138553
0.053466015 -0.0004889843 0.007941795 -0.09520596 -0.0201085 -0.019101663 0.061507747 -0.108293705
0.096781895 0.0959805 -0.00031689828 0.07232929 -0.059755698 0.10923381 0.09470061 0.14222272
-0.040075656 0.10582036 0.06975281 0.060966484 -0.08941834 -0.02328056 0.074001946 0.1658011
0.097337745 0.07410406 -0.0031101273 -0.03608119 -0.010187195 -0.012647071 0.0016134996 0.0034705282
-0.0041771038 0.11659475 -0.07523532 0.019155752 -0.10906316 -0.12654413 0.062072244 0.10801173
-0.003089626 0.030339798 0.06742344 0.056622516 -0.11690362 0.12918374 -0.00856977 -0.041368518
0.04668558 0.03188849 -0.10319598 0.091360174 -0.01628989 -0.12133629 0.09679323 0.018347269
-0.17883828 0.1834156 0.110908516 -0.01601024 0.06634413 -0.00059425953 0.12971476 0.056394648
0.07722533 -0.10129176 0.08054774 -0.03601983 0.045176517 0.15115422 -0.0011126572 -0.08877685
0.086310126 -0.11834758 -0.009124108 0.10260964 0.030219588 -0.056123186 0.005402238 0.079073094
0.022051815 -0.10756231 -0.01637654 -0.0046300017 0.06843072 0.026879868 0.062285777 -0.13113256
-0.017701251 0.104505286 0.13797776 0.032045998 0.064541854 0.021594932 0.13339865 -0.11325125
-0.28214937 -0.10508073 -0.10940187 0.083779395 0.08150497 -0.078998186 0.08339433 0.0702408
0.039709102 -0.041785676 0.05924011 -0.03838026 0.097959645 -0.11133301 -0.037344966 0.20492361
0.13903494 -0.004244537 0.03511674 -0.18321986 -0.1159808 0.033554368 0.0053170235 0.020686554
0.037620474 0.10247754 0.025673414 -0.11994322 -0.20315386 -0.009289352 -0.09249197 0.025984455
-0.041316304 -0.039830703 0.05670844 -0.06222421 -0.12619974 0.1504478 -0.027725048 -0.037768167
0.020858964 0.15432268 -0.055731192 -0.15156841 -0.027792279 0.20959234 0.08807678 0.025510192
0.0787524 -0.030458217 0.100305855 -0.032467034 -0.08481296 -0.015784081 0.04944887 -0.10338429
-0.078976534 -0.08145787 0.011183415 0.09859357 0.16034137 -0.053022534 0.036196698 0.0853565
0.069814384 -0.019677306 0.06404507 0.019397607 0.10926641 0.09330711 0.011785192 -0.08168851
0.21814218 0.011522028 0.04831315 -0.039742745 -0.07296588 -0.07530003 0.10686094 -0.023694731
0.03781053 0.13205448 -0.08497315 -0.08949769 -0.11557567 0.005265306 -0.06928419 0.085601114
0.072541915 -0.040416438 0.10548599 -0.030422065 0.08783015 0.07642354 -0.11703453 -0.13715857
0.04756325 -0.160934 0.031807657 0.0066794725 -0.02423428 -0.08877128 -0.08152283 -0.044635378
0.055327624 0.026694924 -0.07188368 0.09350684 -0.21920407 -0.063719824 -0.10024817 -0.09962027
-0.088916 -0.03634504 -0.10892315 0.10563862 0.062817775 -0.087875694 -0.05213697 0.12563226
0.047407303 0.100768395 0.122298814 -0.05802106 0.14550689 0.13592018 0.046745207 -0.034803934
0.023489162 -0.0012335478 0.07460607 0.13201043 0.031431925 0.06360795 -0.0055500665 -0.12044712

network_body._body_endoder.seq_layers.2.bias f4 [128]
00000000: 00d5 fd3b 1c0f f13a 5dd1 4abb 405d 9ebb
00000010: 9e37 d2bb 031f 01bc ccdf 83bb da59 de3a
00000020: 525e 813b 5f90 0c3c e29e 363b 14af 3bbc
00000030: d5d0 513c a7ec ea39 6eb6 d73b 60ee d73b
00000040: 250f 123b a968 68bb ac4d f139 1ab2 93bb
00000050: 97ba 2ebb 6cec aebb a644 853c a558 313c
00000060: 6f1e e2bb 0357 17ba f5e3 2c3b ea42 e3ba
00000070: d19e 413c 1a86 243c 022d c93b 1798 e03b
00000080: b117 b43a 01e5 23bb 0638 353b 1c92 7abc
00000090: 0da3 ccbb ad2d 8c3c d3d7 0e39 eb29 553c
000000a0: ff23 0a3b ff19 96bb 2a39 9d3b 3e18 533b
000000b0: e56a 09bb 1d9f bdb9 5057 9abb 536a a23a
000000c0: 5676 e2bb 4c1a 96bb 31c1 263b 9821 663b
000000d0: 434b ccbb 7686 afba 69e7 64bb 9551 8e38
000000e0: 6246 b83a 5085 1abb 361a df3b e52e ef3a
000000f0: 4257 6e3b 9f30 93ba 6bf8 56bb 74d9 53bb
00000100: 1717 cb3a b9bf 85ba 0b22 f9bb 08ba 603b
00000110: 9638 bc3b e1d2 0c3a bee0 8c3b 8573 7c3b
00000120: 7c4f 86ba 071b 1e3c de7f 8bbb 8aae debb
00000130: fd50 ca3a c937 71bb e09e 1f3c 0645 83bb
00000140: 293f 263c b965 a2ba d3c4 193c 2942 df3b
00000150: bfe3 aab9 cfb7 8cbb 0a25 513b 84e0 90b7
00000160: eb25 11bc cd5b 8ebb b9dd 6b3c 0a53 03bb
00000170: 5dc8 98bb 09da 383c 3e76 9dba bf96 d9b9
00000180: 902e 0e3c d79a dabb 71b0 9f3b a059 723b
00000190: be64 c8ba 3a97 fd3a 65c0 76bb 8728 983b
000001a0: 8072 8d3b e09f 583c 0a22 c83b 5e2e 4dbc
000001b0: 1fa8 9dba 6acc dcba 0947 a93b c2db aa39
000001c0: 422a 1abc 8c5d b43b 7257 3c3c 70b7 523c
000001d0: 1077 a33b 4394 80bb 6076 003c ba31 853b
000001e0: c4f1 2a3b 6d6f e33b b87d 83ba 2d24 d43b
000001f0: ffaf b2bb e885 5e38 ee2e 773b 73db 653a
0.007746339 0.0018391344 -0.0030947544 -0.0048328936 -0.0064153215 -0.007880929 -0.0040244814 0.0016964034
0.0039480114 0.008579343 0.0027865698 -0.011455316 0.012806137 0.00044808278 0.0065830266 0.006589696
0.002228686 -0.0035462773 0.00046024972 -0.0045073153 -0.002666151 -0.0053382423 0.016268086 0.010824357
-0.0069006006 -0.00057731586 0.002638099 -0.0017338668 0.01181765 0.010041738 0.0061393986 0.006854068
0.0013739971 -0.0025008323 0.00276518 -0.015293624 -0.006245023 0.017111624 0.00013622576 0.013010482
0.0021078584 -0.0045807357 0.0047980743 0.0032210494 -0.0020968255 -0.00036167438 -0.0047101155 0.0012391306
-0.0069110794 -0.0045807716 0.002544474 0.0035115238 -0.006234558 -0.0013391513 -0.003492797 6.7862835e-05
0.0014059062 -0.0023577996 0.0068085445 0.0018248229 0.0036367928 -0.00112297 -0.0032801877 -0.0032325657
0.0015494552 -0.0010204233 -0.007602935 0.003429057 0.0057440503 0.00053719996 0.0042992523 0.0038521003
-0.0010247077 0.0096499985 -0.0042571863 -0.006795709 0.0015435513 -0.0036806932 0.009742469 -0.004006031
0.0101468945 -0.0012389935 0.009385305 0.006813307 -0.0003259461 -0.0042943726 0.0031912946 -1.7270686e-05
-0.008859138 -0.0043444396 0.0143961245 -0.0020038509 -0.004662557 0.011282452 -0.0012013388 -0.0004150178
0.008678094 -0.0066712904 0.0048733284 0.003697969 -0.0015288813 0.0019347437 -0.0037651297 0.004643503
0.004316628 0.013221711 0.0061075734 -0.012523262 -0.0012028253 -0.0016845588 0.0051659388 0.0003258866
-0.009409489 0.0055043157 0.011495458 0.012861118 0.0049885586 -0.003923924 0.007840723 0.0040647658
0.0026084045 0.006940773 -0.0010031974 0.006474039 -0.0054531093 5.3053634e-05 0.0037717181 0.0008768357

action_model._discrete_distribution.branches.0.weight f4 [38, 128]
00000000: 3211 51ba 9717 fa3c 3097 e1bb bb96 4cbc
00000010: 177a 25bc bc65 a83c 600d 083b 3a71 2bbc
00000020: 34b6 d2bb 4227 a2bb 0e07 3bba cb40 033d
00000030: ca74 64bc 0e1a a4bb fb7e a03c d296 4a3b
00000040: 1e9f a8bb 0b41 3fbb a13b 323c 395d 913c
00000050: 9ebf 3b3a 34e3 cfb9 6db3 86bb 2b56 8a3c
00000060: c3b0 a33a 52c7 67bc 6744 013b 580a c23a
00000070: f3ab fe3b 0958 cbbb fea4 e2bb 0816 c6bc
00000080: 7658 a33b 9099 af3a ea4b a6ba c181 0e3d
00000090: 006d d83c 29c5 d9bc b934 bf3c a4c7 9abc
000000a0: a85c ddbb d0cf 9b3c 2873 5e3b f97b 04bc
000000b0: ee12 903c 64f9 0abc 82e4 103d d680 e5bb
000000c0: da0f 01bc 7088 3dbc 0501 033c 72c0 533a
000000d0: 575f 5a3c 1c9a 513c a3b4 9dbb 6408 4a3c
000000e0: 791a dd3c 53ee 9d3b c726 933c 9d60 05bc
000000f0: 62e8 a3bc 02ff 4bbb d57a 843b ebf0 c03b
00000100: 1b0e e0ba 187f 72ba 77af 83bb 9bf0 113c
00000110: a5a6 4c3c 6d7c 513c 6efa 1c3c 2f2a 88bc
00000120: ef44 9f3c f5fb 823b 21e9 0b3c 5b5b d13c
00000130: 4e7c 6b3a a028 193c b7b6 993b b852 a93c
00000140: d4b0 56bc e97e c8bb 08f9 f0ba 035a 79bc
00000150: 8fec 0fbb 5ec1 ab3b d5e7 c03a 134c 13bb
00000160: 05e8 edbb 1c85 c73c 7805 dfbb 8970 9fbb
00000170: eecf a2bb e76d 373b 5785 54b9 356a 7a3c
00000180: 8125 723c 60f1 b3bb 3a08 993c 40a4 38bb
00000190: 0c4c a23c f6ba ddbb 8da8 d6bc 35c5 c7bb
000001a0: 5988 483c d74f 71bb 53aa 00bd 2410 d33c
000001b0: 7bd0 a83c 1f5d 243b f24c b7bb 172c 6dbc
000001c0: 5b62 9a3b 8db2 d03c ba48 6dbb 8cd6 7f3c
000001d0: 5f65 7d3b 1638 cd3b c3b9 72bc 6933 113c
000001e0: f402 083a 4d56 debb 2533 363b fb21 863c
000001f0: ccf0 843b 59bb afba ae02 e4bb 76b0 a2bc
00000200: 7f9a d0bc d840 943a 37bd 9f3b 3e8f 27bc
00000210: ae95 b5bb b7a5 a53b bac4 633c b3e9 83bb
00000220: 686a 54ba b3fe 2ebc b6b3 cd3b 9d9a 853c
00000230: 2e61 6bbc 24ee 2dbc cafb 8fbb 1ae5 ad3c
00000240: b4c6 6dbb cf04 ce3b a517 36bb 9f69 7e3c
00000250: bd6a 80bb f8e6 b8b7 600e c4bb 6dab a7bb
00000260: 4b2a 33bb e812 a0bb e082 aebc ae57 05bb
00000270: 34e6 13bc 322d 2dbc 638a f5bc 4834 9fb9
00000280: e615 1a3a caff 67ba 7796 7abc c0b9 b03c
00000290: 72cb 763b a2ad 1ebc 365d 1639 bfe3 ddbb
000002a0: 2680 f8ba 323e d1ba 0a6e 003c bfc2 ffbb
000002b0: 0cb2 15bb e543 763c dfe8 f23b 0efa 713b
000002c0: fc37 573a 8d4d 9c3c 0dbb ebbb 4345 423b
000002d0: a46f ca3b 8001 71bc 63fe 383b ffde 913c
000002e0: 06b9 8c3b a970 5f3b 12fe 87bb 808f 903c
000002f0: 2bcb 57bc e9de 9539 be2a 57bb e86a a33c
00000300: 893d e039 c583 cc3c 551c 35bc 3a14 a03a
00000310: 3eff db3a 96f7 103b ce9d 92bc f07d 66bc
00000320: b93b a4bb 5da4 25bb 9d8e 873c 0c39 fc3c
00000330: f06b 8f39 d280 063c f175 523c a507 3d3c
00000340: c488 92bc ead0 adbb 0a45 03bc e62d aabc
00000350: c0c5 12bb e4be 89bb 0899 b7bb a0b1 523c
00000360: b6b7 41bc 8bb0 20bb 456d 42bb ccab 833b
00000370: 9d58 af3b b66c 57bc 68e3 853c be83 a33c
00000380: 5b88 54bc c622 283c 632c 02bc 7946 573b
00000390: 309e 96bb 41e2 723b 2e02 8e3b 05ee 1239
000003a0: aaa5 683c d137 0bbc 54d5 b63b 69d3 d03b
000003b0: 2ac1 20ba 6590 91bc 02a7 94bc 790c 96bc
000003c0: c4cf 7a3a c62e c9ba b655 e3bb 11d0 ec3a
000003d0: c43b 58bb c358 833c 6ea6 e0bc 5d3d e93b
000003e0: 07bc 583c c26e 9bbb 32ab c83b ab4e a8bc
000003f0: 5745 6a3b 50eb 61bc edcb b73b 6e0d babb
-0.00079752796 0.030528827 -0.006884478 -0.012487109 -0.010099909 0.020556323 0.0020759925 -0.010464007
-0.0064304117 -0.0049485276 -0.0007134535 0.032044213 -0.01394386 -0.005007989 0.019591799 0.003091265
-0.0051459214 -0.0029183056 0.010878474 0.017744647 0.0007162037 -0.00039651396 -0.0041107447 0.016886791
0.0012488592 -0.014146643 0.001972461 0.0014804108 0.007771963 -0.006205563 -0.0069166413 -0.024180427
0.0049849106 0.0013397206 -0.0012687419 0.03479171 0.026419163 -0.026583271 0.02334057 -0.018894024
-0.0067554303 0.019019991 0.003394315 -0.008086198 0.017587151 -0.008482311 0.035374172 -0.007003884
-0.007877314 -0.011568174 0.007995849 0.0008077688 0.013328395 0.01279309 -0.0048127933 0.012331102
0.026990162 0.00481967 0.017962826 -0.00814071 -0.02000827 -0.0031127338 0.004042963 0.0058880947
-0.0017094048 -0.0009250506 -0.00401872 0.0089074625 0.012490903 0.012786013 0.009581191 -0.016621677
0.01944205 0.003997321 0.008539469 0.025556257 0.00089830614 0.009348065 0.0046909708 0.020669326
-0.013103683 -0.0061186445 -0.0018384764 -0.015219214 -0.0021961068 0.005241557 0.0014717529 -0.0022475764
-0.007260325 0.024355464 -0.006806072 -0.00486571 -0.004968635 0.002798909 -0.00020267568 0.015284111
0.014779449 -0.0054914206 0.01868068 -0.0028174073 0.019811653 -0.0067666722 -0.026203418 -0.006096507
0.012239539 -0.003682127 -0.031412434 0.025764532 0.020607224 0.0025079919 -0.0055938894 -0.014475844
0.004711432 0.025475765 -0.0036206678 0.015615117 0.0038665158 0.0062627895 -0.014814797 0.008862355
0.00051884283 -0.00678519 0.002780148 0.016373625 0.0040570255 -0.0013407274 -0.0069583273 -0.019859534
-0.025464294 0.0011310829 0.004874851 -0.010227023 -0.005541525 0.005055155 0.013901884 -0.004025662
-0.0008103014 -0.010680842 0.0062775267 0.016309077 -0.014366431 -0.010615859 -0.0043940293 0.021227408
-0.0036281766 0.0062871943 -0.002778509 0.015528112 -0.003918974 -2.2042062e-05 -0.005983159 -0.005116871
-0.002733844 -0.0048850663 -0.02130264 -0.002034645 -0.009027053 -0.010569857 -0.029973214 -0.00030365796
0.0005877897 -0.0008850066 -0.015294663 0.021572948 0.0037657884 -0.009684952 0.00014339839 -0.006771534
-0.001895909 -0.001596397 0.007838735 -0.007805198 -0.002284172 0.015030836 0.0074130143 0.0036922726
0.00082099414 0.019079948 -0.007193929 0.0029643334 0.0061778594 -0.01470983 0.0028227798 0.017806528
0.0042945175 0.003409425 -0.0041501606 0.017646551 -0.013170998 0.00028585576 -0.0032831873 0.019948438
0.00042770457 0.024965176 -0.011054118 0.0012213059 0.0016784442 0.002212023 -0.017897513 -0.014068112
-0.0050120023 -0.002527497 0.016547495 0.03078892 0.00027355505 0.008209424 0.012845502 0.011537467
-0.01788748 -0.0053044455 -0.008012066 -0.02077384 -0.00223957 -0.004203664 -0.0056029595 0.012859732
-0.011823585 -0.002451929 -0.002966718 0.0040182825 0.0053511397 -0.013148477 0.016343787 0.01996028
-0.012971963 0.010262197 -0.007945153 0.0032848401 -0.004596494 0.0037061127 0.004333756 0.00014012314
0.014199654 -0.008497194 0.00557963 0.0063728583 -0.00061322993 -0.017769048 -0.018146042 -0.018316494
0.00095677027 -0.0015349023 -0.006937708 0.001806738 -0.0032994607 0.016033536 -0.02742311 0.007117911
0.013228423 -0.004743428 0.0061239237 -0.020545324 0.0035746896 -0.013789013 0.0056090266 -0.0056778705

action_model._discrete_distribution.branches.0.bias f4 [38]
00000000: d221 a4bb 7982 a7bb 7923 8a3b 170a d03b
00000010: 7bb7 21bb de1d b03b feb7 99ba a443 123b
00000020: f296 22bb 2db3 b3bb 3acc dd3a 721f 84bb
00000030: d5aa b8bb 4152 11bb f50a b0bb c797 3639
00000040: dc9c f539 9378 193b 3f7b 0b3c cfc6 503b
00000050: 1e3d f23b f015 8eba e06a e4ba cfd8 9139
00000060: a8c9 143c b944 3bbc 5c59 ac3b 2fa7 3cbc
00000070: 579d 42bc 596c 133c 5ba6 2ebb aefb 133c
00000080: fe31 973b 0f7d d1b9 677b 6fbc fd33 2bba
00000090: 11bd 093c 7051 38ba
-0.0050089145 -0.005111989 0.0042156545 0.006348859 -0.0024676013 0.005374654 -0.0011727808 0.002231815
-0.0024809209 -0.005484006 0.0016921826 -0.004032069 -0.005635599 -0.0022174271 -0.0053724 0.00017413414
0.0004684691 0.0023417815 0.008513271 0.003185678 0.0073925396 -0.0010840278 -0.0017426871 0.0002781809
0.009081282 -0.011429959 0.005259676 -0.011514469 -0.011878333 0.008998 -0.0026649449 0.009032173
0.004614114 -0.00039956762 -0.014616824 -0.0006530879 0.008406893 -0.0007031178
