results/DemoRun/TestAgent1/TestAgent1-58429.pt (torch, 597377 bytes, 33 tensors)

network_body._body_endoder.seq_layers.0.weight f4 [128, 39]
0	0x3d63dad0	0.055628598
1	0xbde82a88	-0.11336237
2	0xbeaa18a5	-0.33221927
3	0x3e406759	0.18789424
4	0xbe3f950c	-0.187092
5	0x3c853156	0.016258877
6	0x3d67a5b9	0.05655453
7	0x3dd1a0fe	0.10235785
8	0x3e82a707	0.25518057
9	0x3e9f80ea	0.3115304
10	0x3ea5bd66	0.32371062
11	0xbcf7b59c	-0.030237965
12	0xbe2d7930	-0.1694076
13	0xbe444609	-0.19167341
14	0x3e0787e6	0.13235435
15	0xbd3daa68	-0.04630509
16	0xbd9b01b9	-0.07568688
17	0x3d690666	0.056890868
18	0x3d83bae8	0.06432134
19	0x3dc7e5a7	0.097605996
20	0x3e5820a5	0.21106203
21	0x3d09f9bd	0.033685435
22	0xbe9c594b	-0.30536875
23	0xbdaaffcf	-0.08349573
24	0xbc96b969	-0.018398957
25	0x3c670a5d	0.014101592
26	0xbd859e8b	-0.0652438
27	0xbd6c1ea9	-0.057646427
28	0x3d9683e3	0.07349374
29	0xbde52aed	-0.11189828
30	0xbe05f35d	-0.13081117
31	0xbc8922d8	-0.016740248
32	0x3e3f5776	0.18685707
33	0xbdd76980	-0.105181694
34	0xbdfa38ab	-0.1221784
35	0x3e8ae12d	0.2712492
36	0x3e45126e	0.19245312
37	0xbdcecc28	-0.100975335
38	0xbe9adb0e	-0.3024525
39	0xbd613987	-0.054986503
40	0xbcfd9f73	-0.03095982
41	0xbe6abf75	-0.22924598
42	0x3e3da518	0.1852001
43	0x3dce46ce	0.10072099
44	0x3e2085e7	0.1567608
45	0x3d1887b9	0.03723881
46	0x3e59eab2	0.21280935
47	0x3e8ace0f	0.27110335
48	0xbd95d781	-0.07316495
49	0x3e3692a4	0.17829376
50	0x3da54245	0.080692805
51	0xbe9d003d	-0.30664244
52	0xbd81512e	-0.06314312
53	0x3e631b9c	0.22178501
54	0xbd941f46	-0.072325274
55	0xbc6a0c65	-0.014285182
56	0xbb89e15f	-0.0042077745
57	0x3dbf79e2	0.09349419
58	0xbdc62ef6	-0.09676926
59	0xbd969ff4	-0.073547274
60	0x3dba837f	0.09107112
61	0x3de499a3	0.111621164
62	0x3e87a4ad	0.26492825
63	0xbb313d1e	-0.0027044485
64	0xbea7178d	-0.32635155
65	0xbddbdad2	-0.10735096
66	0xbdcc92c3	-0.0998893
67	0xbdc3c740	-0.09559488
68	0x3dc477cf	0.09593164
69	0x3e8f1b23	0.2795039
70	0xbe1514ab	-0.14558665
71	0xbe1ecee6	-0.15508613
72	0xbdaceb82	-0.08443357
73	0xbdb20f16	-0.08694284
74	0xbd66ab8f	-0.056315955
75	0xbebe0c6a	-0.37118846
76	0xbc91a1b3	-0.0177773
77	0x3d504f30	0.05085677
78	0x3e419f19	0.18908347
79	0xbc26294c	-0.010141682
80	0xbad97668	-0.0016591074
81	0xbe49d934	-0.19711763
82	0xbe3d3616	-0.18477663
83	0xbbd58e6d	-0.0065172226
84	0xbdcf5e60	-0.101254225
85	0x3e33810c	0.17529696
86	0x3de83cc0	0.11339712
87	0xbcc4a7b0	-0.02400574
88	0x3e8d02a4	0.27541077
89	0xbd505702	-0.050864227
90	0x3dee8149	0.11645753
91	0x3da35d90	0.0797683
92	0xbd93e25d	-0.0722091
93	0x3d9233df	0.071388
94	0xbd4ace76	-0.049513303
95	0xbd0b87f9	-0.03406522
96	0xbee10620	-0.43949986
97	0xbd780b5d	-0.060557712
98	0x3d00be00	0.031431198
99	0xbd9ffea6	-0.07812242
100	0x3d34e92f	0.044167694
101	0x3ef29408	0.47378564
102	0x3dd63be1	0.1046064
103	0x3e5b1c4a	0.2139751
104	0xbd371d68	-0.04470578
105	0x3c94514f	0.018105177
106	0x3cdbcfa7	0.026832415
107	0xbdd18886	-0.10231118
108	0x3e236429	0.15956177
109	0xbd25fef1	-0.040526334
110	0x3d28af4f	0.041182812
111	0x3d09d887	0.033653762
112	0xbe7317f3	-0.23739605
113	0x3e335121	0.17511417
114	0xbdfebe14	-0.12438598
115	0x3c67d042	0.014148774
116	0xbded3bef	-0.11583697
117	0xbe8b74d0	-0.27237558
118	0x3df52623	0.119701646
119	0x3c22cca8	0.009936489
120	0xbd2e89b3	-0.04261179
121	0x3d9b910b	0.07596024
122	0x3e09d449	0.13459887
123	0x3d564e6c	0.052320883
124	0xbda3783d	-0.07981918
125	0xbdaad256	-0.083409
126	0x3dac9216	0.08426301
127	0x3d8485c1	0.06470824
128	0x3e49e643	0.19716744
129	0x3ddc919b	0.107699595
130	0x3b9b3e71	0.004737668
131	0xbe238fba	-0.15972796
132	0xbd67b5b2	-0.056569763
133	0xbe529b7b	-0.20567124
134	0x3d47ddc9	0.048795495
135	0x3da1ca80	0.07899952
136	0x3e3a4c7d	0.1819324
137	0x3d1e650a	0.038670577
138	0x3bb573cc	0.0055374857
139	0x3d4de0c2	0.050263174
140	0xbe72f0b7	-0.23724638
141	0x3e5af2a0	0.21381617
142	0x3daa56ec	0.0831736
143	0xbed19548	-0.40934205
144	0xbd2405a6	-0.04004445
145	0x3ea1ff18	0.31639934
146	0x3e587f09	0.2114221
147	0xbce8f001	-0.028434755
148	0x3dcaade5	0.09896449
149	0xbe26004c	-0.16211051
150	0x3e871552	0.26383454
151	0xbd910a7c	-0.07082078
152	0x3cac4d4a	0.021032948
153	0x3df9fc85	0.122063674
154	0xbed72f9d	-0.42028514
155	0x3e9f9cad	0.31174222
156	0x3e27516a	0.16339651
157	0x3e2fc529	0.17165054
158	0xbddfb1c2	-0.109225765
159	0x3d50ef64	0.05100955
160	0x3cc8625b	0.024460962
161	0x3cdc6086	0.026901495
162	0x3d97af30	0.07406461
163	0x3cd93b7c	0.026517622
164	0xbd96cf70	-0.07363784
165	0xbe132fe4	-0.14373738
166	0xbcf58ac4	-0.029973395
167	0xbdc0fb39	-0.09422917
168	0x3d64dfc1	0.05587745
169	0x3cb86c99	0.02251272
170	0xbe6e7980	-0.23288536
171	0x3e1cd95c	0.15317291
172	0x3e563b73	0.20921116
173	0x3dfc5ad8	0.123220146
174	0xbecd16d3	-0.40056476
175	0x3e8441e8	0.25831532
176	0x3d227aa6	0.039667748
177	0x3d859062	0.065216795
178	0xbe18b048	-0.14910996
179	0xbe1b9410	-0.151932
180	0xbeda119e	-0.42591566
181	0xbe4305b7	-0.19045149
182	0xbebe97d6	-0.37225217
183	0xbde3b02e	-0.11117588
184	0x3d7971f4	0.06089969
185	0xbe7000c6	-0.23437795
186	0xbd53fdf4	-0.05175586
187	0x3bbaedae	0.005704603
188	0x3e4a0066	0.19726714
189	0xbd386b69	-0.04502431
190	0x3dfae1ee	0.12250124
191	0x3eb1f7f4	0.34759486
192	0x3d6fca30	0.05854243
193	0xbe94b09c	-0.29040992
194	0xbe05129d	-0.12995382
195	0x3d81de56	0.06341235
196	0xbe6025b3	-0.21889381
197	0xbbee010d	-0.007263309
198	0x3e9c7495	0.30557695
199	0x3d578c82	0.052624233
200	0x3e1cb486	0.15303239
201	0xbe7ce153	-0.2469533
202	0xbd3de25d	-0.046358455
203	0xbd832745	-0.064039744
204	0x3d06fc5d	0.032955516
205	0xbd16067b	-0.036627274
206	0xbd932bc0	-0.07186079
207	0xbbe3c9ff	-0.00695157
208	0x3e04952a	0.12947527
209	0xbd40cb5a	-0.04706893
210	0xbbf73c6b	-0.007545044
211	0x3d99f82d	0.07518039
212	0x3e3c7532	0.18404081
213	0xbdaabaa0	-0.08336377
214	0x3daadc81	0.08342839
215	0xbddb9cd2	-0.107232705
216	0x3e074d64	0.13213116
217	0x3ce90e5f	0.028449235
218	0xbc5151a7	-0.012775815
219	0x3cb4eff4	0.022087075
220	0x3cc33a9e	0.023831662
221	0xbdad15ce	-0.084514245
222	0x3d44426c	0.047914907
223	0x3d6eec6a	0.05833093
224	0x3e5273da	0.20552006
225	0x3e13fbe1	0.14451553
226	0x3e121d10	0.14268899
227	0x3e39812b	0.1811568
228	0xbe05d52d	-0.13069601
229	0x3d09a98b	0.033608954
230	0xbe4370e2	-0.1908603
231	0xbe318c81	-0.17338754
232	0xbdb04918	-0.086076915
233	0xbe148d13	-0.1450694
234	0xbe5d4e72	-0.21611956
235	0x3e90d550	0.28287745
236	0x3caf6d11	0.021414312
237	0x3d6ad7b2	0.05733461
238	0x3b385bf3	0.0028130978
239	0xbd87f3ff	-0.066383354
240	0xbd4c2ec4	-0.049849287
241	0x3e8632c5	0.2621061
242	0xbe3a3a74	-0.1818636
243	0xbe200f02	-0.15630725
244	0x3d53e081	0.051727775
245	0xbc33728c	-0.010952603
246	0xbe0bf19a	-0.13666382
247	0xbda672ff	-0.081274025
248	0x3cc4c093	0.024017608
249	0x3ecd36af	0.40080783
250	0xbe9e00cd	-0.30859986
251	0xbe116dd8	-0.14202058
252	0x3d8eaf62	0.06967045
253	0x3d13c1d9	0.03607354
254	0xbd918128	-0.07104713
255	0xbe96931b	-0.29409108

network_body._body_endoder.seq_layers.0.bias f4 [128]
0	0xba5d32b2	-0.0008438035
1	0xbbd845b3	-0.0066001057
2	0xbb692390	-0.0035574175
3	0x3a94d4f8	0.0011354974
4	0x3b21fdd9	0.0024717955
5	0xb9eb718e	-0.00044907298
6	0xbbeaf949	-0.0071708304
7	0xbb5ed821	-0.0034003335
8	0x3bd22a6e	0.0064137494
9	0xbb8d0d92	-0.004304596
10	0x3b1c5a9d	0.002385772
11	0x3bae5274	0.005319888
12	0x3b3d7e60	0.0028914437
13	0xbb9eb1a6	-0.0048429547
14	0x3b8b2892	0.0042467797
15	0xbb5fc849	-0.003414648
16	0x3bced655	0.0063121715
17	0x3a854637	0.001016802
18	0xbb2b6253	-0.0026151135
19	0x3a9246ec	0.0011160052
20	0x3c1c1656	0.00952681
21	0x3a9c8d4c	0.0011943965
22	0xbb4c2a70	-0.0031153224
23	0x3c4132a7	0.011791862
24	0x3a45cf1a	0.0007545814
25	0xbc087b70	-0.008330211
26	0x39a4f6f5	0.00031464515
27	0x3b4045c4	0.0029338459
28	0x3a5cd6d1	0.0008424344
29	0xbb6004ec	-0.0034182621
30	0xbbdd4c0a	-0.0067534493
31	0x39cdbd40	0.0003924165
32	0x3ba2d00d	0.0049686492
33	0x3ba7bf41	0.005119235
34	0x3c66d929	0.014089861
35	0xbb328e85	-0.0027245593
36	0xbbd32f73	-0.0064448654
37	0x3b704539	0.0036662354
38	0x3bae208a	0.0053139376
39	0xbb105c47	-0.0022027658
40	0x3b50a8e8	0.0031838957
41	0xbbf8856d	-0.007584265
42	0x3c00fd41	0.00787288
43	0x3ba52f7b	0.0050410605
44	0x3ad7c573	0.0016462043
45	0xbb9c0e96	-0.004762481
46	0x3b1cd41e	0.0023930143
47	0x3b671ef1	0.0035266245
48	0xbbac83d5	-0.005264739
49	0xbb6b9087	-0.00359443
50	0xbb4f5506	-0.0031636371
51	0x3b587bfe	0.003303289
52	0x3b662d71	0.00351223
53	0x3b311f8e	0.0027026865
54	0x3ba3a91d	0.004994525
55	0x3c741f46	0.014900034
56	0x3c83a91c	0.016071849
57	0x3a8f0da4	0.0010914099
58	0x3c353513	0.011060017
59	0x3b8d7a13	0.004317531
60	0x3a1807c2	0.0005799496
61	0x3c81ce3a	0.015845407
62	0x3ba031fc	0.004888771
63	0x3bbacd85	0.0057007694
64	0x3b383a12	0.0028110784
65	0x3c22ccea	0.009936551
66	0x3c5aef98	0.013362788
67	0xbbc9f960	-0.006163761
68	0x3b40ae6e	0.0029400843
69	0x3b0decb6	0.0021655983
70	0xbbe6ddb9	-0.0070454744
71	0xbaa49dea	-0.0012559269
72	0xbc14c344	-0.009079758
73	0xbbd1f1df	-0.006407007
74	0xbc546c74	-0.01296531
75	0xb9c43ec4	-0.00037430797
76	0xbba5de22	-0.0050618807
77	0x3c05066e	0.008119209
78	0x3bee2d54	0.007268587
79	0xbbc14cdd	-0.0058990554
80	0xbb4605c2	-0.0030215834
81	0xbacaf374	-0.0015483932
82	0x3bd00052	0.0063476944
83	0x3b9cfb33	0.0047906875
84	0x3b337efc	0.002738892
85	0xbbffbc3c	-0.0078044217
86	0x3b91cb7b	0.0044493056
87	0x3aa66e7f	0.0012697725
88	0x3c05422d	0.008133453
89	0x3bed3319	0.0072387573
90	0x3bdc8026	0.0067291437
91	0x3b90894a	0.0044108974
92	0x3c1ec4ef	0.009690507
93	0x3bbd8682	0.005783857
94	0x3c818c66	0.015814018
95	0xbc244361	-0.01002583
96	0xbb26b2fa	-0.0025436268
97	0xbaf86f40	-0.0018954054
98	0x3b9f3431	0.0048585166
99	0x3b731e8a	0.003709706
100	0x3c9e2304	0.019303806
101	0x3abe6368	0.0014525475
102	0x3c09a4fc	0.008401152
103	0x3bd3e57f	0.006466567
104	0x3c217cac	0.009856384
105	0x3b032f12	0.002001707
106	0x3c1c5438	0.009541564
107	0x3b236f31	0.0024938101
108	0xb924bb38	-0.00015710003
109	0x3a1322eb	0.0005612808
110	0x3bcd9778	0.00627416
111	0xbb3aaaa3	-0.0028483055
112	0x3c3ce7db	0.011529888
113	0xbb6cc891	-0.003613029
114	0x3c1d2a00	0.009592533
115	0x3c334764	0.010942314
116	0xbb2457b5	-0.0025076692
117	0x3c499475	0.012303461
118	0x3bf8fdeb	0.0075986288
119	0xbbb5124a	-0.005525862
120	0x3c344191	0.01100196
121	0xbb85e9d9	-0.0040867147
122	0xbbe4afdf	-0.0069789733
123	0x3bd385f0	0.0064551756
124	0xbbd8d871	-0.0066175987
125	0xbae327ca	-0.0017330584
126	0x3bb4a048	0.005512271
127	0x3b9467dd	0.004528983

network_body._body_endoder.seq_layers.2.weight f4 [128, 128]
0	0x3dd28e71	0.10281075
1	0xbdd5c216	-0.104374096
2	0xbc999b22	-0.01875073
3	0x3d2055e0	0.039144397
4	0x3da43b38	0.080191076
5	0xbc8af037	-0.016960246
6	0x3cb556df	0.02213615
7	0x3e0f43d6	0.13990721
8	0xbd2be2f4	-0.041964486
9	0xbd2dfc54	-0.042476967
10	0x3be979e5	0.0071251267
11	0x3db74ad8	0.08949822
12	0xbd0623a9	-0.032748852
13	0xbd7dca54	-0.061960533
14	0x3cdf2644	0.027239926
15	0xbc941ae3	-0.018079227
16	0x3e391ada	0.1807665
17	0x3c408704	0.01175094
18	0x3e238358	0.15968072
19	0xbe265197	-0.16242062
20	0x3d9da80d	0.07698069
21	0xbcf7c6a6	-0.03024609
22	0xbe13b2a9	-0.14423622
23	0x3e0de0d6	0.138553
24	0x3d5aff2e	0.053466015
25	0xba002f2e	-0.0004889843
26	0x3c021e4d	0.007941795
27	0xbdc2fb58	-0.09520596
28	0xbca4ba95	-0.0201085
29	0xbc9c7b17	-0.019101663
30	0x3d7bef8c	0.061507747
31	0xbdddc917	-0.108293705
32	0x3dc63596	0.096781895
33	0x3dc4916d	0.0959805
34	0xb9a6255e	-0.00031689828
35	0x3d942161	0.07232929
36	0xbd74c264	-0.059755698
37	0x3ddfb5fa	0.10923381
38	0x3dc1f265	0.09470061
39	0x3e11a2d5	0.14222272
40	0xbd24265f	-0.040075656
41	0x3dd8b858	0.10582036
42	0x3d8eda90	0.06975281
43	0x3d79b7fe	0.060966484
44	0xbdb720f6	-0.08941834
45	0xbcbeb6df	-0.02328056
46	0x3d978e55	0.074001946
47	0x3e29c7c3	0.1658011
48	0x3dc75903	0.097337745
49	0x3d97c3df	0.07410406
50	0xbb4bd347	-0.0031101273
51	0xbd13c9df	-0.03608119
52	0xbc26e831	-0.010187195
53	0xbc4f35a9	-0.012647071
54	0x3ad37c10	0.0016134996
55	0x3b6371cd	0.0034705282
56	0xbb88e016	-0.0041771038
57	0x3deec93a	0.11659475
58	0xbd9a14fa	-0.07523532
59	0x3c9cec86	0.019155752
60	0xbddf5c82	-0.10906316
61	0xbe0194c9	-0.12654413
62	0x3d7e3f77	0.062072244
63	0x3ddd3541	0.10801173
64	0xbb4a7b53	-0.003089626
65	0x3cf88b2b	0.030339798
66	0x3d8a154d	0.06742344
67	0x3d67ed03	0.056622516
68	0xbdef6b2a	-0.11690362
69	0x3e0448be	0.12918374
70	0xbc0c6838	-0.00856977
71	0xbd297209	-0.041368518
72	0x3d3f3961	0.04668558
73	0x3d029d81	0.03188849
74	0xbdd3586a	-0.10319598
75	0x3dbb1b0b	0.091360174
76	0xbc857260	-0.01628989
77	0xbdf87f29	-0.12133629
78	0x3dc63b87	0.09679323
79	0x3c964d03	0.018347269
80	0xbe372162	-0.17883828
81	0x3e3bd14d	0.1834156
82	0x3de32401	0.110908516
83	0xbc8327e8	-0.01601024
84	0x3d87df6e	0.06634413
85	0xba1bc815	-0.00059425953
86	0x3e04d3f2	0.12971476
87	0x3d66fe13	0.056394648
88	0x3d9e2850	0.07722533
89	0xbdcf720e	-0.10129176
90	0x3da4f637	0.08054774
91	0xbd138987	-0.03601983
92	0x3d390b03	0.045176517
93	0x3e1ac82c	0.15115422
94	0xba91d695	-0.0011126572
95	0xbdb5d0a3	-0.08877685
96	0x3db0c35d	0.086310126
97	0xbdf26037	-0.11834758
98	0xbc157d48	-0.009124108
99	0x3dd22501	0.10260964
100	0x3cf78f12	0.030219588
101	0xbd65e16d	-0.056123186
102	0x3bb10542	0.005402238
103	0x3da1f113	0.079073094
104	0x3cb4a602	0.022051815
105	0xbddc49a1	-0.10756231
106	0xbc862818	-0.01637654
107	0xbb97b745	-0.0046300017
108	0x3d8c2568	0.06843072
109	0x3cdc332b	0.026879868
110	0x3d7f1f5f	0.062285777
111	0xbe06479d	-0.13113256
112	0xbc910237	-0.017701251
113	0x3dd606de	0.104505286
114	0x3e0d4a0b	0.13797776
115	0x3d0342aa	0.032045998
116	0x3d842e85	0.064541854
117	0x3cb0e7db	0.021594932
118	0x3e0899a8	0.13339865
119	0xbde7f045	-0.11325125
120	0xbe9075e2	-0.28214937
121	0xbdd73491	-0.10508073
122	0xbde00e16	-0.10940187
123	0x3dab9488	0.083779395
124	0x3da6ec14	0.08150497
125	0xbda1c9cd	-0.078998186
126	0x3daacaa6	0.08339433
127	0x3d8fda69	0.0702408
128	0x3d22a603	0.039709102
129	0xbd2b2775	-0.041785676
130	0x3d72a5c2	0.05924011
131	0xbd1d349f	-0.03838026
132	0x3dc89f11	0.097959645
133	0xbde40290	-0.11133301
134	0xbd18f709	-0.037344966
135	0x3e51d77f	0.20492361
136	0x3e0e5f2d	0.13903494
137	0xbb8b15c2	-0.004244537
138	0x3d0fd692	0.03511674
139	0xbe3b9dfd	-0.18321986
140	0xbded8757	-0.1159808
141	0x3d09704e	0.033554368
142	0x3bae3a6d	0.0053170235
143	0x3ca976d9	0.020686554
144	0x3d1a17ed	0.037620474
145	0x3dd1dfbf	0.10247754
146	0x3cd2510d	0.025673414
147	0xbdf5a4ca	-0.11994322
148	0xbe500791	-0.20315386
149	0xbc18325e	-0.009289352
150	0xbdbd6c6e	-0.09249197
151	0x3cd4dd5a	0.025984455
152	0xbd293b49	-0.041316304
153	0xbd232585	-0.039830703
154	0x3d68471c	0.05670844
155	0xbd7eded0	-0.06222421
156	0xbe013a81	-0.12619974
157	0x3e1a0efd	0.1504478
158	0xbce31fa4	-0.027725048
159	0xbd1ab2cb	-0.037768167
160	0x3caae06b	0.020858964
161	0x3e1e06c4	0.15432268
162	0xbd644664	-0.055731192
163	0xbe1b34c0	-0.15156841
164	0xbce3aca2	-0.027792279
165	0x3e569f60	0.20959234
166	0x3db46199	0.08807678
167	0x3cd0fac0	0.025510192
168	0x3da148f0	0.0787524
169	0xbcf98383	-0.030458217
170	0x3dcd6d28	0.100305855
171	0xbd04fc27	-0.032467034
172	0xbdadb26b	-0.08481296
173	0xbc814d9e	-0.015784081
174	0x3d4a8ae6	0.04944887
175	0xbdd3bb25	-0.10338429
176	0xbda1be73	-0.078976534
177	0xbda6d362	-0.08145787
178	0x3c373aa4	0.011183415
179	0x3dc9eb6d	0.09859357
180	0x3e243087	0.16034137
181	0xbd592e28	-0.053022534
182	0x3d1442fd	0.036196698
183	0x3daecf64	0.0853565
184	0x3d8efad8	0.069814384
185	0xbca1324d	-0.019677306
186	0x3d832a10	0.06404507
187	0x3c9ee7bb	0.019397607
188	0x3ddfc711	0.10926641
189	0x3dbf17cc	0.09330711
190	0x3c4116ae	0.011785192
191	0xbda74c4e	-0.08168851
192	0x3e5f60aa	0.21814218
193	0x3c3cc6e3	0.011522028
194	0x3d45e402	0.04831315
195	0xbd22c94a	-0.039742745
196	0xbd956f23	-0.07296588
197	0xbd9a36e7	-0.07530003
198	0x3ddad9e9	0.10686094
199	0xbcc21b74	-0.023694731
200	0x3d1adf37	0.03781053
201	0x3e07394a	0.13205448
202	0xbdae0667	-0.08497315
203	0xbdb74a91	-0.08949769
204	0xbdecb2f0	-0.11557567
205	0x3bac8897	0.005265306
206	0xbd8de4df	-0.06928419
207	0x3daf4fa3	0.085601114
208	0x3d9490db	0.072541915
209	0xbd258bb5	-0.040416438
210	0x3dd8090a	0.10548599
211	0xbcf937b2	-0.030422065
212	0x3db3e04b	0.08783015
213	0x3d9c83f2	0.07642354
214	0xbdefafcd	-0.11703453
215	0xbe0c734c	-0.13715857
216	0x3d42d1af	0.04756325
217	0xbe24cbe2	-0.160934
218	0x3d0248bf	0.031807657
219	0x3bdadf7a	0.0066794725
220	0xbcc686f8	-0.02423428
221	0xbdb5cdb8	-0.08877128
222	0xbda6f571	-0.08152283
223	0xbd36d396	-0.044635378
224	0x3d629f38	0.055327624
225	0x3cdaaf50	0.026694924
226	0xbd9337c0	-0.07188368
227	0x3dbf8084	0.09350684
228	0xbe607708	-0.21920407
229	0xbd827f8a	-0.063719824
230	0xbdcd4eea	-0.10024817
231	0xbdcc05b6	-0.09962027
232	0xbdb61998	-0.088916
233	0xbd14de89	-0.03634504
234	0xbddf131a	-0.10892315
235	0x3dd85910	0.10563862
236	0x3d80a69b	0.062817775
237	0xbdb3f82c	-0.087875694
238	0xbd558d93	-0.05213697
239	0x3e00a5be	0.12563226
240	0x3d422e29	0.047407303
241	0x3dce5fa9	0.100768395
242	0x3dfa77cd	0.122298814
243	0xbd6da77e	-0.05802106
244	0x3e14ffc2	0.14550689
245	0x3e0b2ea9	0.13592018
246	0x3d3f77e7	0.046745207
247	0xbd0e8e92	-0.034803934
248	0x3cc06c58	0.023489162
249	0xbaa1aeff	-0.0012335478
250	0x3d98cb11	0.07460607
251	0x3e072dbe	0.13201043
252	0x3d00bec3	0.031431925
253	0x3d8244e3	0.06360795
254	0xbbb5dd55	-0.0055500665
255	0xbdf6acfb	-0.12044712

network_body._body_endoder.seq_layers.2.bias f4 [128]
0	0x3bfdd500	0.007746339
1	0x3af10f1c	0.0018391344
2	0xbb4ad15d	-0.0030947544
3	0xbb9e5d40	-0.0048328936
4	0xbbd2379e	-0.0064153215
5	0xbc011f03	-0.007880929
6	0xbb83dfcc	-0.0040244814
7	0x3ade59da	0.0016964034
8	0x3b815e52	0.0039480114
9	0x3c0c905f	0.008579343
10	0x3b369ee2	0.0027865698
11	0xbc3baf14	-0.011455316
12	0x3c51d0d5	0.012806137
13	0x39eaeca7	0.00044808278
14	0x3bd7b66e	0.0065830266
15	0x3bd7ee60	0.006589696
16	0x3b120f25	0.002228686
17	0xbb6868a9	-0.0035462773
18	0x39f14dac	0.00046024972
19	0xbb93b21a	-0.0045073153
20	0xbb2eba97	-0.002666151
21	0xbbaeec6c	-0.0053382423
22	0x3c8544a6	0.016268086
23	0x3c3158a5	0.010824357
24	0xbbe21e6f	-0.0069006006
25	0xba175703	-0.00057731586
26	0x3b2ce3f5	0.002638099
27	0xbae342ea	-0.0017338668
28	0x3c419ed1	0.01181765
29	0x3c24861a	0.010041738
30	0x3bc92d02	0.0061393986
31	0x3be09817	0.006854068
32	0x3ab417b1	0.0013739971
33	0xbb23e501	-0.0025008323
34	0x3b353806	0.00276518
35	0xbc7a921c	-0.015293624
36	0xbbcca30d	-0.006245023
37	0x3c8c2dad	0.017111624
38	0x390ed7d3	0.00013622576
39	0x3c5529eb	0.013010482
40	0x3b0a23ff	0.0021078584
41	0xbb9619ff	-0.0045807357
42	0x3b9d392a	0.0047980743
43	0x3b53183e	0.0032210494
44	0xbb096ae5	-0.0020968255
45	0xb9bd9f1d	-0.00036167438
46	0xbb9a5750	-0.0047101155
47	0x3aa26a53	0.0012391306
48	0xbbe27656	-0.0069110794
49	0xbb961a4c	-0.0045807716
50	0x3b26c131	0.002544474
51	0x3b662198	0.0035115238
52	0xbbcc4b43	-0.006234558
53	0xbaaf8676	-0.0013391513
54	0xbb64e769	-0.003492797
55	0x388e5195	6.7862835e-05
56	0x3ab84662	0.0014059062
57	0xbb1a8550	-0.0023577996
58	0x3bdf1a36	0.0068085445
59	0x3aef2ee5	0.0018248229
60	0x3b6e5742	0.0036367928
61	0xba93309f	-0.00112297
62	0xbb56f86b	-0.0032801877
63	0xbb53d974	-0.0032325657
64	0x3acb1717	0.0015494552
65	0xba85bfb9	-0.0010204233
66	0xbbf9220b	-0.007602935
67	0x3b60ba08	0.003429057
68	0x3bbc3896	0.0057440503
69	0x3a0cd2e1	0.00053719996
70	0x3b8ce0be	0.0042992523
71	0x3b7c7385	0.0038521003
72	0xba864f7c	-0.0010247077
73	0x3c1e1b07	0.0096499985
74	0xbb8b7fde	-0.0042571863
75	0xbbdeae8a	-0.006795709
76	0x3aca50fd	0.0015435513
77	0xbb7137c9	-0.0036806932
78	0x3c1f9ee0	0.009742469
79	0xbb834506	-0.004006031
80	0x3c263f29	0.0101468945
81	0xbaa265b9	-0.0012389935
82	0x3c19c4d3	0.009385305
83	0x3bdf4229	0.006813307
84	0xb9aae3bf	-0.0003259461
85	0xbb8cb7cf	-0.0042943726
86	0x3b51250a	0.0031912946
87	0xb790e084	-1.7270686e-05
88	0xbc1125eb	-0.008859138
89	0xbb8e5bcd	-0.0043444396
90	0x3c6bddb9	0.0143961245
91	0xbb03530a	-0.0020038509
92	0xbb98c85d	-0.004662557
93	0x3c38da09	0.011282452
94	0xba9d763e	-0.0012013388
95	0xb9d996bf	-0.0004150178
96	0x3c0e2e90	0.008678094
97	0xbbda9ad7	-0.0066712904
98	0x3b9fb071	0.0048733284
99	0x3b7259a0	0.003697969
100	0xbac864be	-0.0015288813
101	0x3afd973a	0.0019347437
102	0xbb76c065	-0.0037651297
103	0x3b982887	0.004643503
104	0x3b8d7280	0.004316628
105	0x3c589fe0	0.013221711
106	0x3bc8220a	0.0061075734
107	0xbc4d2e5e	-0.012523262
108	0xba9da81f	-0.0012028253
109	0xbadccc6a	-0.0016845588
110	0x3ba94709	0.0051659388
111	0x39aadbc2	0.0003258866
112	0xbc1a2a42	-0.009409489
113	0x3bb45d8c	0.0055043157
114	0x3c3c5772	0.011495458
115	0x3c52b770	0.012861118
116	0x3ba37710	0.0049885586
117	0xbb809443	-0.003923924
118	0x3c007660	0.007840723
119	0x3b8531ba	0.0040647658
120	0x3b2af1c4	0.0026084045
121	0x3be36f6d	0.006940773
122	0xba837db8	-0.0010031974
123	0x3bd4242d	0.006474039
124	0xbbb2afff	-0.0054531093
125	0x385e85e8	5.3053634e-05
126	0x3b772eee	0.0037717181
127	0x3a65db73	0.0008768357

action_model._discrete_distribution.branches.0.weight f4 [38, 128]
0	0xba511132	-0.00079752796
1	0x3cfa1797	0.030528827
2	0xbbe19730	-0.006884478
3	0xbc4c96bb	-0.012487109
4	0xbc257a17	-0.010099909
5	0x3ca865bc	0.020556323
6	0x3b080d60	0.0020759925
7	0xbc2b713a	-0.010464007
8	0xbbd2b634	-0.0064304117
9	0xbba22742	-0.0049485276
10	0xba3b070e	-0.0007134535
11	0x3d0340cb	0.032044213
12	0xbc6474ca	-0.01394386
13	0xbba41a0e	-0.005007989
14	0x3ca07efb	0.019591799
15	0x3b4a96d2	0.003091265
16	0xbba89f1e	-0.0051459214
17	0xbb3f410b	-0.0029183056
18	0x3c323ba1	0.010878474
19	0x3c915d39	0.017744647
20	0x3a3bbf9e	0.0007162037
21	0xb9cfe334	-0.00039651396
22	0xbb86b36d	-0.0041107447
23	0x3c8a562b	0.016886791
24	0x3aa3b0c3	0.0012488592
25	0xbc67c752	-0.014146643
26	0x3b014467	0.001972461
27	0x3ac20a58	0.0014804108
28	0x3bfeabf3	0.007771963
29	0xbbcb5809	-0.006205563
30	0xbbe2a4fe	-0.0069166413
31	0xbcc61608	-0.024180427
32	0x3ba35876	0.0049849106
33	0x3aaf9990	0.0013397206
34	0xbaa64bea	-0.0012687419
35	0x3d0e81c1	0.03479171
36	0x3cd86d00	0.026419163
37	0xbcd9c529	-0.026583271
38	0x3cbf34b9	0.02334057
39	0xbc9ac7a4	-0.018894024
40	0xbbdd5ca8	-0.0067554303
41	0x3c9bcfd0	0.019019991
42	0x3b5e7328	0.003394315
43	0xbc047bf9	-0.008086198
44	0x3c9012ee	0.017587151
45	0xbc0af964	-0.008482311
46	0x3d10e482	0.035374172
47	0xbbe580d6	-0.007003884
48	0xbc010fda	-0.007877314
49	0xbc3d8870	-0.011568174
50	0x3c030105	0.007995849
51	0x3a53c072	0.0008077688
52	0x3c5a5f57	0.013328395
53	0x3c519a1c	0.01279309
54	0xbb9db4a3	-0.0048127933
55	0x3c4a0864	0.012331102
56	0x3cdd1a79	0.026990162
57	0x3b9dee53	0.00481967
58	0x3c9326c7	0.017962826
59	0xbc05609d	-0.00814071
60	0xbca3e862	-0.02000827
61	0xbb4bff02	-0.0031127338
62	0x3b847ad5	0.004042963
63	0x3bc0f0eb	0.0058880947
64	0xbae00e1b	-0.0017094048
65	0xba727f18	-0.0009250506
66	0xbb83af77	-0.00401872
67	0x3c11f09b	0.0089074625
68	0x3c4ca6a5	0.012490903
69	0x3c517c6d	0.012786013
70	0x3c1cfa6e	0.009581191
71	0xbc882a2f	-0.016621677
72	0x3c9f44ef	0.01944205
73	0x3b82fbf5	0.003997321
74	0x3c0be921	0.008539469
75	0x3cd15b5b	0.025556257
76	0x3a6b7c4e	0.00089830614
77	0x3c1928a0	0.009348065
78	0x3b99b6b7	0.0046909708
79	0x3ca952b8	0.020669326
80	0xbc56b0d4	-0.013103683
81	0xbbc87ee9	-0.0061186445
82	0xbaf0f908	-0.0018384764
83	0xbc795a03	-0.015219214
84	0xbb0fec8f	-0.0021961068
85	0x3babc15e	0.005241557
86	0x3ac0e7d5	0.0014717529
87	0xbb134c13	-0.0022475764
88	0xbbede805	-0.007260325
89	0x3cc7851c	0.024355464
90	0xbbdf0578	-0.006806072
91	0xbb9f7089	-0.00486571
92	0xbba2cfee	-0.004968635
93	0x3b376de7	0.002798909
94	0xb9548557	-0.00020267568
95	0x3c7a6a35	0.015284111
96	0x3c722581	0.014779449
97	0xbbb3f160	-0.0054914206
98	0x3c99083a	0.01868068
99	0xbb38a440	-0.0028174073
100	0x3ca24c0c	0.019811653
101	0xbbddbaf6	-0.0067666722
102	0xbcd6a88d	-0.026203418
103	0xbbc7c535	-0.006096507
104	0x3c488859	0.012239539
105	0xbb714fd7	-0.003682127
106	0xbd00aa53	-0.031412434
107	0x3cd31024	0.025764532
108	0x3ca8d07b	0.020607224
109	0x3b245d1f	0.0025079919
110	0xbbb74cf2	-0.0055938894
111	0xbc6d2c17	-0.014475844
112	0x3b9a625b	0.004711432
113	0x3cd0b28d	0.025475765
114	0xbb6d48ba	-0.0036206678
115	0x3c7fd68c	0.015615117
116	0x3b7d655f	0.0038665158
117	0x3bcd3816	0.0062627895
118	0xbc72b9c3	-0.014814797
119	0x3c113369	0.008862355
120	0x3a0802f4	0.00051884283
121	0xbbde564d	-0.00678519
122	0x3b363325	0.002780148
123	0x3c8621fb	0.016373625
124	0x3b84f0cc	0.0040570255
125	0xbaafbb59	-0.0013407274
126	0xbbe402ae	-0.0069583273
127	0xbca2b076	-0.019859534
128	0xbcd09a7f	-0.025464294
129	0x3a9440d8	0.0011310829
130	0x3b9fbd37	0.004874851
131	0xbc278f3e	-0.010227023
132	0xbbb595ae	-0.005541525
133	0x3ba5a5b7	0.005055155
134	0x3c63c4ba	0.013901884
135	0xbb83e9b3	-0.004025662
136	0xba546a68	-0.0008103014
137	0xbc2efeb3	-0.010680842
138	0x3bcdb3b6	0.0062775267
139	0x3c859a9d	0.016309077
140	0xbc6b612e	-0.014366431
141	0xbc2dee24	-0.010615859
142	0xbb8ffbca	-0.0043940293
143	0x3cade51a	0.021227408
144	0xbb6dc6b4	-0.0036281766
145	0x3bce04cf	0.0062871943
146	0xbb3617a5	-0.002778509
147	0x3c7e699f	0.015528112
148	0xbb806abd	-0.003918974
149	0xb7b8e6f8	-2.2042062e-05
150	0xbbc40e60	-0.005983159
151	0xbba7ab6d	-0.005116871
152	0xbb332a4b	-0.002733844
153	0xbba012e8	-0.0048850663
154	0xbcae82e0	-0.02130264
155	0xbb0557ae	-0.002034645
156	0xbc13e634	-0.009027053
157	0xbc2d2d32	-0.010569857
158	0xbcf58a63	-0.029973214
159	0xb99f3448	-0.00030365796
160	0x3a1a15e6	0.0005877897
161	0xba67ffca	-0.0008850066
162	0xbc7a9677	-0.015294663
163	0x3cb0b9c0	0.021572948
164	0x3b76cb72	0.0037657884
165	0xbc1eada2	-0.009684952
166	0x39165d36	0.00014339839
167	0xbbdde3bf	-0.006771534
168	0xbaf88026	-0.001895909
169	0xbad13e32	-0.001596397
170	0x3c006e0a	0.007838735
171	0xbbffc2bf	-0.007805198
172	0xbb15b20c	-0.002284172
173	0x3c7643e5	0.015030836
174	0x3bf2e8df	0.0074130143
175	0x3b71fa0e	0.0036922726
176	0x3a5737fc	0.00082099414
177	0x3c9c4d8d	0.019079948
178	0xbbebbb0d	-0.007193929
179	0x3b424543	0.0029643334
180	0x3bca6fa4	0.0061778594
181	0xbc710180	-0.01470983
182	0x3b38fe63	0.0028227798
183	0x3c91deff	0.017806528
184	0x3b8cb906	0.0042945175
185	0x3b5f70a9	0.003409425
186	0xbb87fe12	-0.0041501606
187	0x3c908f80	0.017646551
188	0xbc57cb2b	-0.013170998
189	0x3995dee9	0.00028585576
190	0xbb572abe	-0.0032831873
191	0x3ca36ae8	0.019948438
192	0x39e03d89	0.00042770457
193	0x3ccc83c5	0.024965176
194	0xbc351c55	-0.011054118
195	0x3aa0143a	0.0012213059
196	0x3adbff3e	0.0016784442
197	0x3b10f796	0.002212023
198	0xbc929dce	-0.017897513
199	0xbc667df0	-0.014068112
200	0xbba43bb9	-0.0050120023
201	0xbb25a45d	-0.002527497
202	0x3c878e9d	0.016547495
203	0x3cfc390c	0.03078892
204	0x398f6bf0	0.00027355505
205	0x3c0680d2	0.008209424
206	0x3c5275f1	0.012845502
207	0x3c3d07a5	0.011537467
208	0xbc9288c4	-0.01788748
209	0xbbadd0ea	-0.0053044455
210	0xbc03450a	-0.008012066
211	0xbcaa2de6	-0.02077384
212	0xbb12c5c0	-0.00223957
213	0xbb89bee4	-0.004203664
214	0xbbb79908	-0.0056029595
215	0x3c52b1a0	0.012859732
216	0xbc41b7b6	-0.011823585
217	0xbb20b08b	-0.002451929
218	0xbb426d45	-0.002966718
219	0x3b83abcc	0.0040182825
220	0x3baf589d	0.0053511397
221	0xbc576cb6	-0.013148477
222	0x3c85e368	0.016343787
223	0x3ca383be	0.01996028
224	0xbc54885b	-0.012971963
225	0x3c2822c6	0.010262197
226	0xbc022c63	-0.007945153
227	0x3b574679	0.0032848401
228	0xbb969e30	-0.004596494
229	0x3b72e241	0.0037061127
230	0x3b8e022e	0.004333756
231	0x3912ee05	0.00014012314
232	0x3c68a5aa	0.014199654
233	0xbc0b37d1	-0.008497194
234	0x3bb6d554	0.00557963
235	0x3bd0d369	0.0063728583
236	0xba20c12a	-0.00061322993
237	0xbc919065	-0.017769048
238	0xbc94a702	-0.018146042
239	0xbc960c79	-0.018316494
240	0x3a7acfc4	0.00095677027
241	0xbac92ec6	-0.0015349023
242	0xbbe355b6	-0.006937708
243	0x3aecd011	0.001806738
244	0xbb583bc4	-0.0032994607
245	0x3c8358c3	0.016033536
246	0xbce0a66e	-0.02742311
247	0x3be93d5d	0.007117911
248	0x3c58bc07	0.013228423
249	0xbb9b6ec2	-0.004743428
250	0x3bc8ab32	0.0061239237
251	0xbca84eab	-0.020545324
252	0x3b6a4557	0.0035746896
253	0xbc61eb50	-0.013789013
254	0x3bb7cbed	0.0056090266
255	0xbbba0d6e	-0.0056778705

action_model._discrete_distribution.branches.0.bias f4 [38]
0	0xbba421d2	-0.0050089145
1	0xbba78279	-0.005111989
2	0x3b8a2379	0.0042156545
3	0x3bd00a17	0.006348859
4	0xbb21b77b	-0.0024676013
5	0x3bb01dde	0.005374654
6	0xba99b7fe	-0.0011727808
7	0x3b1243a4	0.002231815
8	0xbb2296f2	-0.0024809209
9	0xbbb3b32d	-0.005484006
10	0x3addcc3a	0.0016921826
11	0xbb841f72	-0.004032069
12	0xbbb8aad5	-0.005635599
13	0xbb115241	-0.0022174271
14	0xbbb00af5	-0.0053724
15	0x393697c7	0.00017413414
16	0x39f59cdc	0.0004684691
17	0x3b197893	0.0023417815
18	0x3c0b7b3f	0.008513271
19	0x3b50c6cf	0.003185678
20	0x3bf23d1e	0.0073925396
21	0xba8e15f0	-0.0010840278
22	0xbae46ae0	-0.0017426871
23	0x3991d8cf	0.0002781809
24	0x3c14c9a8	0.009081282
25	0xbc3b44b9	-0.011429959
26	0x3bac595c	0.005259676
27	0xbc3ca72f	-0.011514469
28	0xbc429d57	-0.011878333
29	0x3c136c59	0.008998
30	0xbb2ea65b	-0.0026649449
31	0x3c13fbae	0.009032173
32	0x3b9731fe	0.004614114
33	0xb9d17d0f	-0.00039956762
34	0xbc6f7b67	-0.014616824
35	0xba2b33fd	-0.0006530879
36	0x3c09bd11	0.008406893
37	0xba385170	-0.0007031178

exp_avg f4 [128, 39]
0	0x2cc461fd	5.581534e-12
1	0xad502ca5	-1.1833344e-11
2	0x00000000	0.0
3	0x00000000	0.0
4	0x2d520344	1.1937843e-11
5	0x00000000	0.0
6	0x00000000	0.0
7	0x00000000	0.0
8	0x00000000	0.0
9	0x00000000	0.0
10	0x00000000	0.0
11	0xb2c35ead	-2.2744041e-08
12	0x37890a2b	1.6336407e-05
13	0x00000000	0.0
14	0x00000000	0.0
15	0x00000000	0.0
16	0x00000000	0.0
17	0x00000000	0.0
18	0xae1e7acb	-3.6034103e-11
19	0x31354f17	2.6383924e-09
20	0x00000000	0.0
21	0xb2cb014a	-2.3632897e-08
22	0x00000000	0.0
23	0x31545ce4	3.0902862e-09
24	0x00000000	0.0
25	0x00000000	0.0
26	0x00000000	0.0
27	0x00000000	0.0
28	0x00000000	0.0
29	0x00000000	0.0
30	0xaf008abd	-1.1690822e-10
31	0x00000000	0.0
32	0x00000000	0.0
33	0x00000000	0.0
34	0xb198a43c	-4.4424535e-09
35	0xad05c7e2	-7.604558e-12
36	0x00000000	0.0
37	0x00000000	0.0
38	0x320c315a	8.160294e-09
39	0xacba7016	-5.298882e-12
40	0xae240e39	-3.7301915e-11
41	0x00000000	0.0
42	0x00000000	0.0
43	0x2e61e11e	5.135902e-11
44	0x00000000	0.0
45	0x00000000	0.0
46	0x00000000	0.0
47	0x00000000	0.0
48	0x00000000	0.0
49	0x00000000	0.0
50	0x32bc92df	2.195287e-08
51	0x380e35f4	3.3905686e-05
52	0x00000000	0.0
53	0x00000000	0.0
54	0x00000000	0.0
55	0x00000000	0.0
56	0x00000000	0.0
57	0x2c853bdf	3.7867344e-12
58	0x313eefa1	2.7784852e-09
59	0x00000000	0.0
60	0x32e2b613	2.639266e-08
61	0x00000000	0.0
62	0x31543194	3.0878242e-09
63	0x00000000	0.0
64	0x00000000	0.0
65	0x00000000	0.0
66	0x00000000	0.0
67	0x00000000	0.0
68	0x00000000	0.0
69	0x2e17895f	3.4455435e-11
70	0x00000000	0.0
71	0x00000000	0.0
72	0x00000000	0.0
73	0x32afb932	2.0456898e-08
74	0x2d12fd6a	8.355408e-12
75	0x00000000	0.0
76	0x00000000	0.0
77	0x3291a30a	1.6954363e-08
78	0x2de24fcc	2.5728662e-11
79	0xae0afca6	-3.1601964e-11
80	0x00000000	0.0
81	0x00000000	0.0
82	0x2e6a50c1	5.3277164e-11
83	0x00000000	0.0
84	0x00000000	0.0
85	0x00000000	0.0
86	0x00000000	0.0
87	0x00000000	0.0
88	0x00000000	0.0
89	0x3329dfea	3.9552027e-08
90	0x37c4a40f	2.3441416e-05
91	0x00000000	0.0
92	0x00000000	0.0
93	0x00000000	0.0
94	0x00000000	0.0
95	0x00000000	0.0
96	0x2d11bdf7	8.284476e-12
97	0x3360256c	5.21881e-08
98	0x00000000	0.0
99	0x330bc14b	3.253926e-08
100	0x00000000	0.0
101	0x335e193f	5.1711364e-08
102	0x00000000	0.0
103	0x00000000	0.0
104	0x00000000	0.0
105	0x00000000	0.0
106	0x00000000	0.0
107	0x00000000	0.0
108	0x30811335	9.391444e-10
109	0x00000000	0.0
110	0x00000000	0.0
111	0x00000000	0.0
112	0x32b65beb	2.1229388e-08
113	0x2e237ebc	3.7174472e-11
114	0x00000000	0.0
115	0x00000000	0.0
116	0x3249a061	1.1736206e-08
117	0x2ce90332	6.622613e-12
118	0xae091a8b	-3.117377e-11
119	0x00000000	0.0
120	0x00000000	0.0
121	0x2e60bbe6	5.109859e-11
122	0x00000000	0.0
123	0x00000000	0.0
124	0x00000000	0.0
125	0x00000000	0.0
126	0x00000000	0.0
127	0x00000000	0.0
128	0xb349d54a	-4.6992945e-08
129	0xb7c055d4	-2.292815e-05
130	0x00000000	0.0
131	0x00000000	0.0
132	0x00000000	0.0
133	0x00000000	0.0
134	0x00000000	0.0
135	0x2d86717e	1.5284437e-11
136	0xb23467fa	-1.05010205e-08
137	0x00000000	0.0
138	0xb2d4307a	-2.4702093e-08
139	0x00000000	0.0
140	0xb22bd7af	-1.0002551e-08
141	0x00000000	0.0
142	0x00000000	0.0
143	0x00000000	0.0
144	0x00000000	0.0
145	0x00000000	0.0
146	0x00000000	0.0
147	0x3058c2f1	7.885737e-10
148	0x00000000	0.0
149	0x00000000	0.0
150	0x00000000	0.0
151	0xb26b5022	-1.369702e-08
152	0xaba24d47	-1.1532241e-12
153	0x00000000	0.0
154	0x00000000	0.0
155	0xb2455a26	-1.1487407e-08
156	0xaca8ab09	-4.793836e-12
157	0xac7fea55	-3.636776e-12
158	0x00000000	0.0
159	0x00000000	0.0
160	0xad946ca0	-1.6873891e-11
161	0x00000000	0.0
162	0x00000000	0.0
163	0x00000000	0.0
164	0x00000000	0.0
165	0x00000000	0.0
166	0x00000000	0.0
167	0x327b5068	1.4628405e-08
168	0x380156c7	3.0836814e-05
169	0x00000000	0.0
170	0x00000000	0.0
171	0x00000000	0.0
172	0x00000000	0.0
173	0x00000000	0.0
174	0x2da56054	1.8801107e-11
175	0xb3168054	-3.504131e-08
176	0x00000000	0.0
177	0xb10dde2f	-2.0644497e-09
178	0x00000000	0.0
179	0xb31533f8	-3.473903e-08
180	0x00000000	0.0
181	0x00000000	0.0
182	0x00000000	0.0
183	0x00000000	0.0
184	0x00000000	0.0
185	0x00000000	0.0
186	0x2f0a7b55	1.2594843e-10
187	0x00000000	0.0
188	0x00000000	0.0
189	0x00000000	0.0
190	0x31936067	4.2892228e-09
191	0xae64b5be	-5.2002617e-11
192	0x00000000	0.0
193	0x00000000	0.0
194	0x32847b7e	1.542298e-08
195	0x2e176042	3.441892e-11
196	0x2d7c9899	1.4358425e-11
197	0x00000000	0.0
198	0x00000000	0.0
199	0xad3bfcd3	-1.0685858e-11
200	0x00000000	0.0
201	0x00000000	0.0
202	0x00000000	0.0
203	0x00000000	0.0
204	0x00000000	0.0
205	0x00000000	0.0
206	0x322b9111	9.986494e-09
207	0xb83fd0d4	-4.5732435e-05
208	0x00000000	0.0
209	0x00000000	0.0
210	0x00000000	0.0
211	0x00000000	0.0
212	0x00000000	0.0
213	0xad95efed	-1.7045887e-11
214	0xb0cb235b	-1.4780243e-09
215	0x00000000	0.0
216	0x2fc1e7bb	3.527115e-10
217	0x00000000	0.0
218	0xb0ff8ffd	-1.8594616e-09
219	0x00000000	0.0
220	0x00000000	0.0
221	0x00000000	0.0
222	0x00000000	0.0
223	0x00000000	0.0
224	0x00000000	0.0
225	0x2f830e8e	2.3839103e-10
226	0x00000000	0.0
227	0x00000000	0.0
228	0x00000000	0.0
229	0xb229c68f	-9.882242e-09
230	0x2d93e757	1.68147e-11
231	0x00000000	0.0
232	0x00000000	0.0
233	0xb2c454e0	-2.2856e-08
234	0xad101a5d	-8.191306e-12
235	0x2d6bb68d	1.3398738e-11
236	0x00000000	0.0
237	0x00000000	0.0
238	0x2e52f2dc	4.7964174e-11
239	0x00000000	0.0
240	0x00000000	0.0
241	0x00000000	0.0
242	0x00000000	0.0
243	0x00000000	0.0
244	0x00000000	0.0
245	0x33044a1b	3.0801043e-08
246	0x37511507	1.2462267e-05
247	0x00000000	0.0
248	0x00000000	0.0
249	0x00000000	0.0
250	0x00000000	0.0
251	0x00000000	0.0
252	0xad346a8a	-1.0255472e-11
253	0x332a07dd	3.958836e-08
254	0x00000000	0.0
255	0x32c1f8ba	2.2581265e-08

exp_avg_sq f4 [128, 39]
0	0x2d01e0c0	7.3827056e-12
1	0x2cb72fcd	5.2064798e-12
2	0x00000000	0.0
3	0x00000000	0.0
4	0x2d6ab8c8	1.334239e-11
5	0x00000000	0.0
6	0x00000000	0.0
7	0x00000000	0.0
8	0x00000000	0.0
9	0x00000000	0.0
10	0x00000000	0.0
11	0x2e01b313	2.9490254e-11
12	0x2fd2a1e0	3.8313797e-10
13	0x00000000	0.0
14	0x00000000	0.0
15	0x00000000	0.0
16	0x00000000	0.0
17	0x00000000	0.0
18	0x2d859350	1.518577e-11
19	0x2ece74ae	9.388522e-11
20	0x00000000	0.0
21	0x2db7d2c1	2.0898285e-11
22	0x00000000	0.0
23	0x2eff16d1	1.16001105e-10
24	0x00000000	0.0
25	0x00000000	0.0
26	0x00000000	0.0
27	0x00000000	0.0
28	0x00000000	0.0
29	0x00000000	0.0
30	0x2d7013a4	1.3646782e-11
31	0x00000000	0.0
32	0x00000000	0.0
33	0x00000000	0.0
34	0x2c9d4e6f	4.4709163e-12
35	0x2de483fd	2.5979214e-11
36	0x00000000	0.0
37	0x00000000	0.0
38	0x2518a464	1.3239596e-16
39	0x2d0281cb	7.418464e-12
40	0x2d0e3e54	8.085605e-12
41	0x00000000	0.0
42	0x00000000	0.0
43	0x2dbbd066	2.1351986e-11
44	0x00000000	0.0
45	0x00000000	0.0
46	0x00000000	0.0
47	0x00000000	0.0
48	0x00000000	0.0
49	0x00000000	0.0
50	0x2e647c36	5.195152e-11
51	0x302b3db1	6.2297106e-10
52	0x00000000	0.0
53	0x00000000	0.0
54	0x00000000	0.0
55	0x00000000	0.0
56	0x00000000	0.0
57	0x2d875a98	1.5387955e-11
58	0x2f6d2e87	2.1571554e-10
59	0x00000000	0.0
60	0x2e483931	4.552553e-11
61	0x00000000	0.0
62	0x2f87edd7	2.4725352e-10
63	0x00000000	0.0
64	0x00000000	0.0
65	0x00000000	0.0
66	0x00000000	0.0
67	0x00000000	0.0
68	0x00000000	0.0
69	0x2e225ea6	3.69186e-11
70	0x00000000	0.0
71	0x00000000	0.0
72	0x00000000	0.0
73	0x2d1ed1fc	9.027886e-12
74	0x2d29f202	9.660274e-12
75	0x00000000	0.0
76	0x00000000	0.0
77	0x2587cf67	2.3559308e-16
78	0x2e06ec6d	3.067806e-11
79	0x2d8e9338	1.620891e-11
80	0x00000000	0.0
81	0x00000000	0.0
82	0x2dceb2c3	2.3498875e-11
83	0x00000000	0.0
84	0x00000000	0.0
85	0x00000000	0.0
86	0x00000000	0.0
87	0x00000000	0.0
88	0x00000000	0.0
89	0x2ef5e396	1.11817375e-10
90	0x30dcae93	1.6056724e-09
91	0x00000000	0.0
92	0x00000000	0.0
93	0x00000000	0.0
94	0x00000000	0.0
95	0x00000000	0.0
96	0x2d4c9f79	1.16314675e-11
97	0x30aea4f9	1.2707054e-09
98	0x00000000	0.0
99	0x2e874818	6.151896e-11
100	0x00000000	0.0
101	0x30cf2e45	1.5074383e-09
102	0x00000000	0.0
103	0x00000000	0.0
104	0x00000000	0.0
105	0x00000000	0.0
106	0x00000000	0.0
107	0x00000000	0.0
108	0x2e7f4d3d	5.804889e-11
109	0x00000000	0.0
110	0x00000000	0.0
111	0x00000000	0.0
112	0x2d2d5d0f	9.854575e-12
113	0x2e2d033b	3.9338515e-11
114	0x00000000	0.0
115	0x00000000	0.0
116	0x2638208a	6.388192e-16
117	0x2d288d91	9.581128e-12
118	0x2d2d7511	9.859905e-12
119	0x00000000	0.0
120	0x00000000	0.0
121	0x2dcbe518	2.3180166e-11
122	0x00000000	0.0
123	0x00000000	0.0
124	0x00000000	0.0
125	0x00000000	0.0
126	0x00000000	0.0
127	0x00000000	0.0
128	0x2ec14e7f	8.7905676e-11
129	0x308ef3da	1.0401167e-09
130	0x00000000	0.0
131	0x00000000	0.0
132	0x00000000	0.0
133	0x00000000	0.0
134	0x00000000	0.0
135	0x2d75c616	1.39706215e-11
136	0x2f1c97e9	1.4242087e-10
137	0x00000000	0.0
138	0x2e245d30	3.737205e-11
139	0x00000000	0.0
140	0x2f3d84d8	1.7236645e-10
141	0x00000000	0.0
142	0x00000000	0.0
143	0x00000000	0.0
144	0x00000000	0.0
145	0x00000000	0.0
146	0x00000000	0.0
147	0x2e1e81f3	3.604046e-11
148	0x00000000	0.0
149	0x00000000	0.0
150	0x00000000	0.0
151	0x2d468076	1.1283521e-11
152	0x2d92ca86	1.6688217e-11
153	0x00000000	0.0
154	0x00000000	0.0
155	0x25e75f4b	4.0136685e-16
156	0x2df75cc7	2.812185e-11
157	0x2cc52feb	5.6043967e-12
158	0x00000000	0.0
159	0x00000000	0.0
160	0x2d42b095	1.1066832e-11
161	0x00000000	0.0
162	0x00000000	0.0
163	0x00000000	0.0
164	0x00000000	0.0
165	0x00000000	0.0
166	0x00000000	0.0
167	0x2e53850a	4.8094008e-11
168	0x30167129	5.473049e-10
169	0x00000000	0.0
170	0x00000000	0.0
171	0x00000000	0.0
172	0x00000000	0.0
173	0x00000000	0.0
174	0x2d13d99f	8.404304e-12
175	0x2f59bf26	1.9803945e-10
176	0x00000000	0.0
177	0x2e0ae852	3.158391e-11
178	0x00000000	0.0
179	0x2f648119	2.0782344e-10
180	0x00000000	0.0
181	0x00000000	0.0
182	0x00000000	0.0
183	0x00000000	0.0
184	0x00000000	0.0
185	0x00000000	0.0
186	0x2dbe59da	2.1640401e-11
187	0x00000000	0.0
188	0x00000000	0.0
189	0x00000000	0.0
190	0x2d8b9a04	1.5870867e-11
191	0x2de9b254	2.6568227e-11
192	0x00000000	0.0
193	0x00000000	0.0
194	0x256c1aa5	2.0478765e-16
195	0x2d92e588	1.670021e-11
196	0x2ca151ca	4.5849756e-12
197	0x00000000	0.0
198	0x00000000	0.0
199	0x2d8f1d56	1.6270246e-11
200	0x00000000	0.0
201	0x00000000	0.0
202	0x00000000	0.0
203	0x00000000	0.0
204	0x00000000	0.0
205	0x00000000	0.0
206	0x2dbf41a5	2.1743338e-11
207	0x2fe6af43	4.1961287e-10
208	0x00000000	0.0
209	0x00000000	0.0
210	0x00000000	0.0
211	0x00000000	0.0
212	0x00000000	0.0
213	0x2d480df3	1.1371781e-11
214	0x2f81becb	2.360053e-10
215	0x00000000	0.0
216	0x2d93d998	1.6808596e-11
217	0x00000000	0.0
218	0x2f9a1360	2.8026204e-10
219	0x00000000	0.0
220	0x00000000	0.0
221	0x00000000	0.0
222	0x00000000	0.0
223	0x00000000	0.0
224	0x00000000	0.0
225	0x2de38a7b	2.586841e-11
226	0x00000000	0.0
227	0x00000000	0.0
228	0x00000000	0.0
229	0x2cccd5cc	5.821765e-12
230	0x2d630c75	1.2906222e-11
231	0x00000000	0.0
232	0x00000000	0.0
233	0x2538e4f0	1.6037023e-16
234	0x2d5b33c6	1.2460205e-11
235	0x2d70239c	1.3650327e-11
236	0x00000000	0.0
237	0x00000000	0.0
238	0x2e0dc883	3.223778e-11
239	0x00000000	0.0
240	0x00000000	0.0
241	0x00000000	0.0
242	0x00000000	0.0
243	0x00000000	0.0
244	0x00000000	0.0
245	0x2e91f84f	6.637945e-11
246	0x2fc0bf1f	3.5060396e-10
247	0x00000000	0.0
248	0x00000000	0.0
249	0x00000000	0.0
250	0x00000000	0.0
251	0x00000000	0.0
252	0x2dc7f26f	2.2731343e-11
253	0x2fb5900a	3.3026054e-10
254	0x00000000	0.0
255	0x2dddf7c2	2.5234818e-11

exp_avg f4 [128]
0	0x3788deaf	1.6316159e-05
1	0x380e509e	3.393052e-05
2	0x37c56b86	2.35343e-05
3	0xb7c0cf55	-2.298473e-05
4	0x38014154	3.081684e-05
5	0xb83fc776	-4.572371e-05
6	0x375244bc	1.2532979e-05
7	0x38c29154	9.27771e-05
8	0xb8c7516c	-9.5042255e-05
9	0xb700fc0e	-7.688081e-06
10	0xb72f9386	-1.0465161e-05
11	0xb8a21947	-7.72947e-05
12	0xb867a140	-5.5224868e-05
13	0x349c8264	2.9152136e-07
14	0xb804bd1e	-3.164738e-05
15	0x3792c8dd	1.749809e-05
16	0x378b8251	1.6630775e-05
17	0x3825fed6	3.95764e-05
18	0x382bc449	4.0952382e-05
19	0xb82d3bfd	-4.1302283e-05
20	0xb75b9c62	-1.3089828e-05
21	0xb631f368	-2.6516736e-06
22	0xb602b046	-1.9474114e-06
23	0xb86ea471	-5.689677e-05
24	0x380acb84	3.3091303e-05
25	0x3826a818	3.9734034e-05
26	0x36a0f52f	4.7969147e-06
27	0x37d70695	2.5633062e-05
28	0xb7c89989	-2.3913353e-05
29	0xb64cba98	-3.050698e-06
30	0x37b237d9	2.124526e-05
31	0x3834aee4	4.3078224e-05
32	0x38329d7a	4.258517e-05
33	0xb895f2a0	-7.150066e-05
34	0xb89fea09	-7.625303e-05
35	0xb6298385	-2.5259517e-06
36	0x380fef62	3.43168e-05
37	0x375fb93c	1.3334964e-05
38	0x3804af51	3.163453e-05
39	0xb599b7b8	-1.1452858e-06
40	0x37a34f12	1.9467934e-05
41	0xb866f9cd	-5.506892e-05
42	0xb7b213dc	-2.1228501e-05
43	0xb84b3874	-4.8451548e-05
44	0x3742067e	1.1564813e-05
45	0xb7db9c20	-2.6179536e-05
46	0x381938cc	3.653094e-05
47	0xb7f48ad6	-2.9151717e-05
48	0x37bd9820	2.2601394e-05
49	0x38794be8	5.943692e-05
50	0x37cfe2ba	2.47819e-05
51	0xb7cd6bb1	-2.4488052e-05
52	0x37012a5b	7.698861e-06
53	0xb78e999c	-1.6999249e-05
54	0xb80a9a02	-3.3045195e-05
55	0xb84e0ba9	-4.9125087e-05
56	0xb67b5612	-3.7452014e-06
57	0x38c1fea1	9.2503855e-05
58	0x36d55fba	6.3590387e-06
59	0x370ccbb5	8.3920795e-06
60	0xb6543890	-3.1623385e-06
61	0xb8323202	-4.248508e-05
62	0xb82ad91d	-4.073336e-05
63	0x34b41d40	3.3548895e-07
64	0x36fd408d	7.5475023e-06
65	0xb7bc1a2e	-2.2423537e-05
66	0xb8502554	-4.962583e-05
67	0x37942acd	1.7662906e-05
68	0x37909646	1.7236114e-05
69	0xb819e02f	-3.668683e-05
70	0xb6a09f02	-4.7868825e-06
71	0xb7cb51b6	-2.4237535e-05
72	0x37ba2d4c	2.219402e-05
73	0x387a93de	5.9742357e-05
74	0x380e9469	3.3993656e-05
75	0x37a5ddf7	1.9772893e-05
76	0x3679b388	3.7208392e-06
77	0xb8c79a5b	-9.5178104e-05
78	0xb8808a59	-6.129285e-05
79	0xb7c2cf70	-2.3223198e-05
80	0x37f3a588	2.9044939e-05
81	0x3815bfc5	3.5702968e-05
82	0xb633ac95	-2.6773535e-06
83	0xb7be719d	-2.270267e-05
84	0xb8662de2	-5.4879005e-05
85	0x386fb34e	5.714903e-05
86	0xb7157a38	-8.909548e-06
87	0x384045a0	4.584121e-05
88	0xb2e56a00	-2.6707312e-08
89	0xb8ea741c	-0.000111796166
90	0x37b9bc8a	2.2141514e-05
91	0xb7c342a8	-2.327685e-05
92	0xb80af88c	-3.313324e-05
93	0x36f59816	7.319274e-06
94	0xb8bb7dee	-8.940311e-05
95	0x3819868a	3.6603342e-05
96	0x3799403a	1.826893e-05
97	0x37c9abe1	2.4041105e-05
98	0xb701f77b	-7.74662e-06
99	0x38434acb	4.656128e-05
100	0xb8c1c5dc	-9.239811e-05
101	0x387389b0	5.8063946e-05
102	0x3609619a	2.0471402e-06
103	0xb73cf1f2	-1.12620055e-05
104	0x35fdd0ac	1.89107e-06
105	0xb7e90ebe	-2.778263e-05
106	0xb7af9896	-2.0932679e-05
107	0xb86343f4	-5.4184304e-05
108	0x3582e35a	9.751923e-07
109	0xb6fd2406	-7.5441812e-06
110	0xb8cf4c38	-9.884726e-05
111	0x38a4d342	7.859479e-05
112	0xb6d12c66	-6.233854e-06
113	0x37f59b88	2.92787e-05
114	0xb8a4bcf2	-7.855323e-05
115	0xb82e8590	-4.1609223e-05
116	0x3682c600	3.897352e-06
117	0xb4c79528	-3.7175164e-07
118	0x382a30e2	4.0576684e-05
119	0xb7c1a492	-2.3084027e-05
120	0xb7835229	-1.5654676e-05
121	0xb8bb6bdf	-8.9369474e-05
122	0x3830f312	4.2188047e-05
123	0x37c73df6	2.3751501e-05
124	0x381412f6	3.530361e-05
125	0x388eb477	6.804702e-05
126	0xb8195e16	-3.6565667e-05
127	0x3716638b	8.963873e-06

exp_avg_sq f4 [128]
0	0x301499ff	5.406093e-10
1	0x3091b805	1.060244e-09
2	0x317bd40c	3.6645842e-09
3	0x30e60bb7	1.6738032e-09
4	0x307f492e	9.2872454e-10
5	0x3056026d	7.7856194e-10
6	0x307684b3	8.9682856e-10
7	0x311c810c	2.2774342e-09
8	0x313c2f6a	2.7384552e-09
9	0x30e334c1	1.6531417e-09
10	0x304a5735	7.36111e-10
11	0x30a70e9a	1.2154999e-09
12	0x30d765ef	1.567228e-09
13	0x3054f5d7	7.747451e-10
14	0x30538279	7.6946766e-10
15	0x303575b5	6.601469e-10
16	0x300fbab3	5.228841e-10
17	0x3052031b	7.640197e-10
18	0x302ed876	6.360844e-10
19	0x3029a51d	6.171648e-10
20	0x30a2e6c3	1.1852638e-09
21	0x3097299a	1.099852e-09
22	0x30a52361	1.2015385e-09
23	0x309afb00	1.1276313e-09
24	0x30c17822	1.4076742e-09
25	0x30b41ac6	1.3104333e-09
26	0x308aca81	1.0098377e-09
27	0x30b6414b	1.32608e-09
28	0x308b797c	1.0148109e-09
29	0x3052cb45	7.668642e-10
30	0x305aa6ef	7.9545165e-10
31	0x304d9908	7.4796036e-10
32	0x30c2ef41	1.4183358e-09
33	0x3118a059	2.2210058e-09
34	0x30e81b03	1.6887899e-09
35	0x30133a31	5.3560983e-10
36	0x3041a6cc	7.0450024e-10
37	0x30047ed0	4.820153e-10
38	0x308bed6f	1.0181064e-09
39	0x30869d94	9.79457e-10
40	0x304d7f20	7.475922e-10
41	0x30969d0a	1.095857e-09
42	0x3110d342	2.1074844e-09
43	0x30e980dd	1.6989606e-09
44	0x30d046c8	1.5154109e-09
45	0x306449f4	8.305101e-10
46	0x3042d90f	7.088525e-10
47	0x30c77ce4	1.4514652e-09
48	0x307562e8	8.9271035e-10
49	0x309ee540	1.156117e-09
50	0x309867dd	1.1088975e-09
51	0x3024f7b4	6.001486e-10
52	0x3155f95d	3.1137326e-09
53	0x302a07f2	6.185693e-10
54	0x309ce7d1	1.141638e-09
55	0x30f9ab6c	1.8165855e-09
56	0x308b565f	1.0138129e-09
57	0x31511802	3.042715e-09
58	0x302866b3	6.126399e-10
59	0x314901f4	2.925046e-09
60	0x30a35965	1.1885218e-09
61	0x30856819	9.70661e-10
62	0x30f936a0	1.813266e-09
63	0x3082d61d	9.5196e-10
64	0x305fc441	8.140582e-10
65	0x310cc8a7	2.048674e-09
66	0x308b161d	1.0119866e-09
67	0x301c3b85	5.683705e-10
68	0x3103bbfb	1.9169863e-09
69	0x311ded48	2.2981386e-09
70	0x3091a5df	1.0597282e-09
71	0x306d40da	8.631226e-10
72	0x301df5e3	5.7465693e-10
73	0x3086abf6	9.798657e-10
74	0x3102e4e4	1.90476e-09
75	0x30b88bad	1.342746e-09
76	0x3071a2da	8.7906715e-10
77	0x30bf91e5	1.3938545e-09
78	0x30fe23c6	1.84911e-09
79	0x30649d42	8.3169394e-10
80	0x3139fad8	2.7063631e-09
81	0x300b0721	5.0578036e-10
82	0x310488f5	1.928638e-09
83	0x3048e2cc	7.3081874e-10
84	0x30989f02	1.1104648e-09
85	0x3087ef17	9.890496e-10
86	0x31379caf	2.671907e-09
87	0x30895f6e	9.995185e-10
88	0x30868ca5	9.789757e-10
89	0x31233e94	2.3755193e-09
90	0x306d11cb	8.6245383e-10
91	0x30fd50f8	1.8431185e-09
92	0x30d507d5	1.5500016e-09
93	0x308fd427	1.0464917e-09
94	0x30ea7944	1.7060207e-09
95	0x30601118	8.1515017e-10
96	0x305ad34b	7.9608203e-10
97	0x30273c2d	6.083976e-10
98	0x3098ad84	1.1108772e-09
99	0x309eb5c8	1.1547678e-09
100	0x30fd26ef	1.8419238e-09
101	0x30be98eb	1.3867781e-09
102	0x3016d93b	5.4878385e-10
103	0x3053e697	7.708904e-10
104	0x30160ec5	5.459067e-10
105	0x30660b0f	8.368923e-10
106	0x30e95ef2	1.6979966e-09
107	0x30c57caf	1.4369074e-09
108	0x3046ffa2	7.2395256e-10
109	0x30bfc87e	1.3954062e-09
110	0x30e83643	1.6895644e-09
111	0x315ed223	3.24247e-09
112	0x30ad06f0	1.2589378e-09
113	0x309e9753	1.1539022e-09
114	0x30abb5ca	1.2493555e-09
115	0x303307c9	6.5130884e-10
116	0x30f47b70	1.778842e-09
117	0x3076b18f	8.9746605e-10
118	0x30fc5b8b	1.8361431e-09
119	0x30c1351c	1.4057693e-09
120	0x30da3c7d	1.5878779e-09
121	0x311ca200	2.2793074e-09
122	0x312e3f4f	2.535632e-09
123	0x308f6d88	1.043575e-09
124	0x3054f886	7.7478324e-10
125	0x3089f182	1.0036703e-09
126	0x308cabac	1.0235133e-09
127	0x31182580	2.2140227e-09
