results/DemoRun/TestAgent1/TestAgent1-257591.pt (torch, 597434 bytes, 33 tensors)

network_body._body_endoder.seq_layers.0.weight f4 [128, 39]
00000000: fb0a b93e 8290 233e efcf 21be cb08 48bd
00000010: 83a4 39be 7934 d7bd 905d 94bc b97c 6b3d
00000020: 6d93 c03e 0e95 1e3e 6531 243e 8e5c c73e
00000030: da79 ac3d d06b 3abe 79f9 eabd ca77 b1be
00000040: d3a2 203e e2f9 4dbe 191a e4bd 5c08 10bd
00000050: 5a9f c03d 55c4 003e b0d5 f43c 3db3 92be
00000060: 3723 803d e2c2 453e c98e 353d 054e 0e3d
00000070: 6ff8 133e cb7a 42bd 7ca3 a43b 78ea 5dbe
00000080: b4f1 b1ba cf15 a33d 6ed8 a2be 4f9c c73c
00000090: 63a3 d23d 5761 d8bd 3e60 40be 880f 83bd
000000a0: 8678 acbe 066f 13be 2e72 cd3d ea8b 94bc
000000b0: 45f5 7e3d d236 0abe f550 09be a9b0 863e
000000c0: bfd4 47be 5463 12be 95e7 0f3c c3c1 16be
000000d0: fab5 913c 5f93 8abc 4ee1 79be 8bb6 663e
000000e0: a62b 403e e762 903d c368 af3d 9faf 9fbe
000000f0: 66c1 31be e814 07bd f97d 983d 4266 1ebe
00000100: 2a68 dd3d 53d0 8d3c 7268 63be 802d 6dbe
00000110: 955f 23be 3a79 11be 25f5 063d 06d5 803d
00000120: 2023 febd b386 7dbe 0cf0 613e 9753 a0bd
00000130: 93dd 663e 3566 b73e 504e 91bd 9b1c 923d
00000140: 42e0 123e 0069 e1bd c590 d33c 68d1 48be
00000150: 90b4 413e d318 24bd fa6a 463e 7ea9 9b3e
00000160: 6ec5 233e 09a9 3c3e 321b 97be 5759 a73c
00000170: a61f c3bd 2ffd 07be 0b61 9ebd 6c53 be3d
00000180: f894 893d 803c a6bd e0bc 0ebe 9d52 21be
00000190: 0939 f73d 7977 773d 0a0d d7b9 4970 903d
000001a0: 59b6 2e3e 1abb 28be 3ed0 febd b63b d2bd
000001b0: 52ab 5abd 72fd bd3c 2899 9abe c084 62be
000001c0: 0ad6 183e 8ed6 213e c0f0 03be 1123 f6bb
000001d0: e422 4a3e 217e a13e 81c9 a5bd 9f1b 173e
000001e0: 3bfd c3bd 02e0 c9bd a880 d2bd 28a4 5abe
000001f0: efb4 88be c790 8bbb e15c 83bc 830f e9bd
00000200: dc25 c53d 9727 85be 1fd3 89bd 1108 3bbe
00000210: 96e3 40be 66cd 9b3c fd75 473e 2a6a 793e
00000220: c631 4abe e716 a4bd 3073 07be 796f d63e
00000230: 91c6 b9be 8074 a6be 8665 213e 4a9c 14be
00000240: a239 003e 203c 55be d4cc 853e 13b2 40bd
00000250: dec5 b9be 9b19 a53e 3d69 ee3d b736 87be
00000260: 32ca aebd 62f4 213d f9a8 dfbd a9e2 97bd
00000270: ef62 033e 3160 00be f15a e7bd c92b 093d
00000280: 6814 ecbd 1777 1a3e 2779 8ebd 81f9 493e
00000290: 24b5 823e bac1 ea3d 5719 14bd 1e03 5a3c
000002a0: b398 44bd 6e64 a6be 705a e73d 7436 3f3e
000002b0: f8a2 4ebd ee08 983b 773e a33d 9260 6ebe
000002c0: 1de5 1a3e 6b3b 903e ac54 e5bd cb2a 68be
000002d0: 4b8a 90bd 155d 71be 2efe 9a3d 7c97 cf3c
000002e0: 9726 c2bd 297b 583d c99c 3cbd ad15 34bd
000002f0: 03b3 ebbe 19d0 6b3d 1bd3 5abe 06e6 aabc
00000300: ba3f d53d a94d e2ba 032c a63e 8e46 44be
00000310: 7e5b 273b 92d2 023d 91b4 7dbd 510f 2dbd
00000320: c593 96bd 903e 4cbe 6af7 2f3d e5fa 20be
00000330: f7a5 d1bd f8c4 0cbd 62b0 433e 71d8 5ebe
00000340: 0c67 82be 18cc 8bbd c91e 60bd 1559 fd3e
00000350: 2468 39bd 70cd b7bd c1f7 0b3e 96a0 c6bd
00000360: 82b7 0abd bb58 d9be c1bd 31bd 04ab 133e
00000370: 61ff 873d a085 a43d 47fa 933d 6359 b3bb
00000380: 3718 44be 50f7 a0bd 7fc9 133e 77bd 15be
00000390: 8f6a 113e f335 d03d 9da2 a6bd 7eab 20bd
000003a0: 0cb9 053e 26f9 543e f2ff bf3e 81ad bdbd
000003b0: afd2 99be 04ca 30be fd5f a7be eff8 9cbc
000003c0: 1998 013e 8615 df3d f179 583c 447c c1bb
000003d0: 32e9 87bd 5d06 92be 0ea6 b5be 074c 35be
000003e0: 3b5e 1a3e 2ec2 01be 78c6 1bbe 17d3 373d
000003f0: be4c 8a3e 3090 b8bd 8a74 8a3d 7c92 a3bd
0.3614119 0.15973094 -0.15801977 -0.04883651 -0.18129162 -0.10508055 -0.01811102 0.05749199
0.37612477 0.15486547 0.16034468 0.389378 0.08421679 -0.1820519 -0.114733644 -0.34661704
0.15687113 -0.20114854 -0.1113779 -0.035164222 0.09405394 0.12574895 0.02988705 -0.28652373
0.06256717 0.19312623 0.044325624 0.034742374 0.14450239 -0.047480386 0.0050243717 -0.21671474
-0.0013576061 0.07963144 -0.31805748 0.024366526 0.1028507 -0.10565441 -0.18786713 -0.06399447
-0.33685702 -0.14397821 0.10031544 -0.018133122 0.062245626 -0.13497475 -0.13409789 0.26306656
-0.1951475 -0.14295703 0.008783241 -0.14722352 0.017786968 -0.016915975 -0.24402353 0.22530572
0.1876665 0.07050114 0.085649036 -0.31188676 -0.17358932 -0.032978922 0.074459024 -0.15468696
0.10810883 0.01731125 -0.22207811 -0.23161888 -0.1595443 -0.142064 0.03294863 0.06290631
-0.12409043 -0.24758415 0.22064227 -0.078284435 0.22545461 0.35820165 -0.07095015 0.07134362
0.1434336 -0.11006355 0.025825867 -0.19611132 0.18916535 -0.040062737 0.19376746 0.3040275
0.15993282 0.18423857 -0.29512936 0.020428343 -0.09527521 -0.13280176 -0.07733353 0.09293255
0.06717867 -0.08117008 -0.13939238 -0.1575417 0.120714255 0.060416672 -0.0004101771 0.07052667
0.17061748 -0.16477624 -0.12442063 -0.10265295 -0.05338604 0.023192141 -0.30194974 -0.22120953
0.149254 0.15804502 -0.12884808 -0.0075115045 0.19739872 0.3154154 -0.080950744 0.1475663
-0.09569784 -0.09857179 -0.102784455 -0.21351683 -0.2670054 -0.004259202 -0.016035499 -0.11379912
0.09626362 -0.26006767 -0.06729721 -0.18264796 -0.18836817 0.01901884 0.19478603 0.24356905
-0.1974555 -0.08012181 -0.13227534 0.41881922 -0.36284307 -0.32510757 0.15761384 -0.14512745
0.12521985 -0.20823717 0.26132834 -0.047044825 -0.36283773 0.32246098 0.11641166 -0.26408932
-0.085346594 0.039539702 -0.10920901 -0.07416279 0.12830709 -0.12536694 -0.112966426 0.033489022
-0.1152733 0.15084492 -0.06956702 0.19724084 0.25528824 0.11462732 -0.03615698 0.013306407
-0.047997188 -0.32498497 0.112965465 0.18673116 -0.050448388 0.0046397364 0.079708986 -0.23279026
0.15126462 0.28170332 -0.111977905 -0.22672574 -0.07057627 -0.23570664 0.07568012 0.025340788
-0.09480017 0.05285183 -0.04604796 -0.043965984 -0.46035013 0.057571504 -0.21369593 -0.020861637
0.104125455 -0.0017265576 0.32455453 -0.1916754 0.0025536711 0.031939097 -0.06193978 -0.042250935
-0.073524036 -0.1994574 0.04296056 -0.15720709 -0.102367334 -0.03436753 0.19110253 -0.21762253
-0.25469244 -0.06826037 -0.05471686 0.49482027 -0.045265332 -0.08974731 0.1366873 -0.09698598
-0.033866413 -0.42450508 -0.043393854 0.14420706 0.066405065 0.080332994 0.07225471 -0.005473302
-0.19149862 -0.07859671 0.14432333 -0.14623056 0.14200805 0.1016654 -0.08136485 -0.039226048
0.13058871 0.20798168 0.37499958 -0.09261609 -0.3004355 -0.17264563 -0.3269042 -0.01916167
0.12655677 0.10892777 0.013212667 -0.005904706 -0.06636275 -0.2852048 -0.35478252 -0.17704783
0.15075009 -0.1267173 -0.15212429 0.044879045 0.27011675 -0.090118766 0.06760509 -0.07986924

network_body._body_endoder.seq_layers.0.bias f4 [128]
00000000: a68e b93c c22f b63c 7d87 753c 7052 463c
00000010: a40f 953c 8e1e e5ba 50d1 5dbc 084e 2d3c
00000020: 01c0 ea3c c820 05bd 519b 143d 8928 143d
00000030: ac37 26bb 402e a93c ba50 94bc d4ab b4bc
00000040: f270 bbbc fd84 74bb 7935 f3ba d9a4 dfbb
00000050: 6df4 2ebc 6986 0dbc d829 21bc f0fd a53c
00000060: a93c f73b d81c c23b 07e8 fa3b 93d6 3e3a
00000070: ce25 5cbc cbda 71bc f1b4 ca3c 1b73 06bc
00000080: 8b9f 79bc a20b 83bc 833b a83c 6cb2 fb3b
00000090: 6d92 cdbb 31aa 9b3b ef2c 723c 2d19 4f3a
000000a0: b4b3 ca3c 0abf 403b cb29 ebbc cb2a 6fba
000000b0: f60a 8fbc b7e4 1dbc bfb5 d1bc d12f 813c
000000c0: a31c 45bc f238 98bc 4669 9c3c 13b3 943c
000000d0: bbda 833c e796 8abb 3a23 223c 26e6 abbc
000000e0: 89e0 e23b 61ab f2bc 930e 3fbb 59c0 613c
000000f0: e31e 9c3c 318d 5d3c 4f9f 0b3c b681 e0bb
00000100: 54e0 583b f8b5 a83c 92c3 f13b bd90 96bc
00000110: 5b42 91bc 3f85 3dbc da07 9f3b 9ba3 02bc
00000120: 1672 9ebc f6b2 743c 01e1 363c 6dc3 793c
00000130: 970b 98bb d692 2ebc 65bd 69bc 1c05 313a
00000140: 367c 113c dac5 1eba 8299 733c 433c f83b
00000150: ed38 5139 4294 863c ef08 8e3a 7d87 aabc
00000160: b2b0 bc3c 5400 a53b 34a2 e53b 26e1 aabc
00000170: df35 4ebb fa0b b5ba a63e 36bc 5b81 673c
00000180: 56be 6cbb c558 bf3b 123a d6bb 10e0 d03c
00000190: f310 e43c 8ab4 833c bf20 eb3c 1ee4 b23a
000001a0: 6797 1a3c c213 703b 8337 ad3b 8370 bc3c
000001b0: b042 63bc 8a1b 05bb a1c4 ce3b 3a7b 41bb
000001c0: 9775 1a3c ac55 fc3c 4277 80bc 3f41 913c
000001d0: 7c7b f93c a9f8 5bbc e1bc 47bc dc0f 4f3c
000001e0: 8bd3 313c 119a 453c f4b7 6ebb ec7f 63bb
000001f0: d38b 6c3a 9528 a5bc 9fb1 f339 ea43 9b3c
0.022651028 0.02223957 0.014985916 0.012104616 0.018195935 -0.001748042 -0.0135386735 0.010577686
0.028656008 -0.032501966 0.036280934 0.03617147 -0.0025362773 0.020651937 -0.0181049 -0.02205459
-0.022881005 -0.0037310713 -0.0018555365 -0.0068250713 -0.010678393 -0.008638003 -0.0098366365 0.020262688
0.007545073 0.0059238486 0.0076570543 0.0007279899 -0.013436748 -0.014761637 0.024744483 -0.008206154
-0.015235792 -0.015996758 0.02053619 0.0076811817 -0.006273559 0.004750513 0.014781221 0.0007900175
0.024743892 0.0029410743 -0.028706452 -0.0009123503 -0.017461281 -0.009637049 -0.025599359 0.015769871
-0.012030753 -0.018581841 0.019093167 0.018151795 0.01609551 -0.0042294147 0.009896094 -0.020983767
0.0069237393 -0.029622735 -0.0029152974 0.013778769 0.019057697 0.013522432 0.008521869 -0.0068514002
0.0033092694 0.020594582 0.00737805 -0.018379563 -0.017731836 -0.011567413 0.004853231 -0.007973577
-0.01934151 0.014935246 0.011162044 0.015244347 -0.0046400535 -0.010655126 -0.014266347 0.00067527755
0.008879712 -0.0006056704 0.014868142 0.007575543 0.00019953 0.016428117 0.0010836403 -0.020816559
0.023033474 0.0050354395 0.0070078615 -0.020859312 -0.0031465215 -0.0013812773 -0.011123335 0.014129962
-0.0036124191 0.0058394396 -0.0065376842 0.025497466 0.027840113 0.016077299 0.028702138 0.0013648306
0.009435511 0.003663287 0.0052861585 0.023002869 -0.01387088 -0.0020310604 0.006310061 -0.0029522912
0.00942745 0.03080257 -0.015681867 0.017731307 0.03045439 -0.013425984 -0.012191028 0.0126380585
0.010853658 0.012060658 -0.0036425563 -0.0034713699 0.0009023521 -0.020160953 0.0004648091 0.018953282

network_body._body_endoder.seq_layers.2.weight f4 [128, 128]
00000000: 4ebb 033e cf67 77bc 9877 dd3c 7afb 973d
00000010: bce7 213d b679 48be 1529 36bd c36e 033e
00000020: fbeb 8c3d 2878 87bd ff8d 96bb 7b36 40bd
00000030: 7942 92bd 10d9 833c da95 ce3d 4479 4abd
00000040: 1e88 cdbc 9d26 ddbd 14e6 8cba a470 a2bd
00000050: 52bf 05bd 09a4 1b3e 10bd 853d 7a5b 923d
00000060: e568 f0bc 4784 89bd abcd f9bb 11a6 a23d
00000070: b61a 923d 7c15 ad3d a31e 8bbd 7aba 293e
00000080: 5d0b 17be 0a20 d93d 67f6 a03b d164 b43d
00000090: c779 a93d d694 afbd c28e aabd 4d64 953d
000000a0: 6f8f 7e3d e42f e4bd 8f01 823c 4082 ad3d
000000b0: 9cfb bcbc 1a11 013e 2a48 13be b0c6 cd3c
000000c0: defc 153d d4ae d3bd 696b 823c 8b87 433d
000000d0: eccb 18bd 249b 86bc 8fe4 9f3d a998 c43d
000000e0: 2893 10be 4f03 c9bd b83b 5fbd 657d d43c
000000f0: 4498 f9bd 8b40 f83d eede 383b 04d5 f6bc
00000100: b25d ffbd be61 43be 2333 15bd cec4 843c
00000110: 05f4 dabd 6841 363c 591a 20bc bb15 10bd
00000120: 692f dfbd 7ffe e83d 5189 f9bd 2f9f 00be
00000130: 12b4 f0bb 6542 a1bd 1b91 8ebd be9a dbbc
00000140: ec0b cebd 5a8d a4bd a2b9 70bd 86b9 01bb
00000150: a055 8bbd e02a 66be 21f9 553d c037 3d3c
00000160: d181 8dbd 9cf8 943b e59f bd3b a337 673d
00000170: 76e4 34bd 77ae eebd 196e 0bbe 9991 2d3d
00000180: 8220 05be 3939 debb 0c56 053e 1b11 ffbc
00000190: a1c0 11bd 3998 84bd 2544 9bbd e98e e23d
000001a0: 29cf cfbd c7aa f1bb 1e92 793d a648 13be
000001b0: 1338 6c3d e984 d83d f009 d03d e204 67bd
000001c0: 7f87 d7bc 8214 26bc b97a 54bc 01e7 5c3e
000001d0: 7801 73bc a6d0 d6bd f10e 903d 5ff3 09be
000001e0: 266b e0bd 0759 fe3b d5aa 253d 20d9 83bd
000001f0: b416 153e b854 b83d 2069 7e3d 8d36 463d
00000200: 5a1c a03d 7e38 8b3d cf79 713a 0953 333e
00000210: 7041 c2bc 50e5 22bc 955e a6bd f319 d23d
00000220: a98c 8ebd e675 993d 2fc3 b1bd ec35 14bc
00000230: 0c1b 0f3e bfc5 a73d 904b ecbd 194d 0c3e
00000240: 9743 eebd 82fa 7cbd 6deb 073e 5b03 0ebd
00000250: 84c2 b93d ee79 dbbd 72f7 d0bc cb9c a23d
00000260: 1456 773d a2f7 d63c 7c82 c0bc b7c8 c4ba
00000270: e2d6 8fbc 9d26 aabc a644 00bd ff9d c5bc
00000280: 561b 283e 0b9a 8d3d b21c 6a3e 68ae 493e
00000290: a252 89bc a56e 953d e683 ca3d 6d39 d8bd
000002a0: 5167 043e e27a c4bd cf97 89bd 6d81 dabd
000002b0: 0182 313d 863a 5c3e 8ffc 493d 7b51 cbbb
000002c0: 940a 85bd 6e39 b0bd 52d4 c4bc 5cca b1bc
000002d0: c35a 23be 99da e83d 0aca 3ebe 0a6c ccbd
000002e0: 286d ab3d a23a 5c3b f018 523e 7917 493e
000002f0: 1048 20bd a7e8 3d3d d8de 253d 0821 6abd
00000300: 59d0 21bd 23d9 fdba 4a26 81bd 110e 203d
00000310: a63d 0dbe 8ace 8c3c 8ce1 073e d0e8 c63d
00000320: ae74 813e 98db f6bd 5257 febc b968 273e
00000330: 0631 b0bd c44c 843d 8eb2 01be dade 393e
00000340: e4df 253b 5d21 6ebd afd2 0abd 29fe ed3d
00000350: 9043 12bd 3cc6 193e 7b3e e33d b8b6 f2bd
00000360: 1194 9bbd b321 81bd f1e0 81bd 10ad c5ba
00000370: a4e8 1f3d 65af 9a3e 07b3 a33d 2766 15be
00000380: 7a43 043e 5799 ddbc 9c1a ffbc 4cbe b0bc
00000390: 76ab af3d 827d f23d a854 95bd 5209 fd3c
000003a0: e20b dd3d 64d5 583d a30a e5bd 6a38 8f3c
000003b0: 9d71 4b3d e1fd f4bd 4203 363d e251 5dbd
000003c0: a2fa 043e 909e ac3a 1d77 02be 4cdc f1bd
000003d0: d00a ae3d 505f 56bd ac0c a43d ca3d 4e3d
000003e0: 3642 d3ba 83cd 0ebd abd6 2a3e 13f3 1fbe
000003f0: 24ae 3ebb e1e6 063e 63e0 de3c 7b6b 1e3e
0.1286442 -0.0151004335 0.027034566 0.07421012 0.03952764 -0.19577679 -0.044472773 0.12835221
0.06880947 -0.06614715 -0.004594564 -0.046926957 -0.07141585 0.016094714 0.10087176 -0.049432054
-0.02508932 -0.107983805 -0.0010749721 -0.07931641 -0.03265316 0.15199293 0.065302014 0.07146354
-0.029346893 -0.06714683 -0.0076233945 0.07941831 0.07134001 0.084513634 -0.06792953 0.16575041
-0.14750428 0.10601814 0.004912186 0.08808292 0.0827518 -0.0857331 -0.0832801 0.072945215
0.062148508 -0.11141947 0.015869884 0.08472109 -0.023069195 0.1260418 -0.14382997 0.025119156
0.036618106 -0.1033608 0.015920358 0.047736686 -0.03730385 -0.016431399 0.07807266 0.0959943
-0.14118636 -0.09815084 -0.05450031 0.025938699 -0.121872455 0.121216856 0.0028209048 -0.03013087
-0.12469043 -0.19080254 -0.03642572 0.016207125 -0.10691074 0.0111239925 -0.009771907 -0.035176974
-0.10897715 0.11376666 -0.12184394 -0.12560724 -0.007345685 -0.07873992 -0.069612704 -0.026807185
-0.10060868 -0.08034773 -0.058770783 -0.0019794418 -0.06803441 -0.22477293 0.05223954 0.011548936
-0.06909526 0.004546238 0.005786883 0.056449544 -0.04416319 -0.1165437 -0.13616218 0.04237518
-0.13000682 -0.006781724 0.13021106 -0.031136086 -0.035584096 -0.06474347 -0.07581357 0.11062414
-0.101469345 -0.0073750946 0.060930364 -0.14383182 0.057670664 0.105722256 0.101581454 -0.05640114
-0.026309727 -0.010136725 -0.0129687125 0.21572496 -0.014831893 -0.10489015 0.070341 -0.13471745
-0.10957937 0.0077620777 0.04044612 -0.06437898 0.14559442 0.09000534 0.062111974 0.048391867
0.07817908 0.067978844 0.00092115713 0.17512144 -0.023712844 -0.009942368 -0.08123509 0.10258856
-0.069604225 0.074931905 -0.086798064 -0.009046059 0.13975161 0.08192014 -0.1153785 0.13701285
-0.116339855 -0.06176234 0.13273402 -0.03467117 0.09070304 -0.107166156 -0.025508616 0.07940062
0.060384825 0.026241127 -0.02349972 -0.0015013431 -0.017558519 -0.020770365 -0.03131547 -0.02412319
0.16416678 0.06914147 0.22862509 0.19695437 -0.016763035 0.072964944 0.09888439 -0.10557828
0.12930037 -0.095937505 -0.06718408 -0.10669217 0.043336872 0.215067 0.049313124 -0.0062047816
-0.06496158 -0.08604704 -0.024027023 -0.021702938 -0.15952592 0.11369819 -0.1863176 -0.09981544
0.08370429 0.0033604284 0.20517325 0.1963786 -0.039131224 0.046364453 0.040495723 -0.057160407
-0.039505336 -0.001936708 -0.06306131 0.039075915 -0.13793048 0.01718833 0.13269633 0.09712374
0.25284332 -0.12053603 -0.031047497 0.16348542 -0.086031005 0.064599544 -0.1266577 0.18151417
0.0025310451 -0.058137286 -0.03389233 0.11620743 -0.035708964 0.15017027 0.110959016 -0.11851257
-0.07596601 -0.06305256 -0.06341732 -0.0015081484 0.039040223 0.3021194 0.07993131 -0.1458975
0.12916365 -0.027050657 -0.031140618 -0.021575116 0.085776255 0.11840345 -0.072915375 0.030888233
0.10793282 0.05293788 -0.111836694 0.017482955 0.049668897 -0.11962486 0.0444367 -0.054033168
0.12986234 0.0013169814 -0.1274075 -0.118095964 0.08498156 -0.05233699 0.080102295 0.050351895
-0.0016117755 -0.03486396 0.16683452 -0.15620069 -0.0029095495 0.13174011 0.027206605 0.15470688

network_body._body_endoder.seq_layers.2.bias f4 [128]
00000000: a6e6 25bc 1180 663c c5f8 143b d14f 923a
00000010: 45c7 be3b 595d 06bc 59e2 3bbc 2dcf 993b
00000020: 8740 32bc de08 cf3c e632 a8bc af7d 073b
00000030: 712c 51bc d907 1a3c a59e ac3c f99b 57bb
00000040: 00cb f23a 5052 d03b 8a56 babb ea25 f7ba
00000050: 371b c93c 8c10 153b 2a0c 3b3c 3978 a93b
00000060: 710f c13c 1438 cbba 6abe dc3c 893e ed3c
00000070: 5803 483c f217 e4bc 739a 863c b835 913b
00000080: cb28 80bc 7571 fa3a d1f5 9a3c bef9 92bc
00000090: e411 c0bc e446 8f3c 96b9 06bc 7971 903c
000000a0: e198 203c 39ed b13c fbed 6fbb 0506 153b
000000b0: 936f 2b3b bcce af3c 252e 26bc 482a 4b3c
000000c0: 48c9 cdbb 9354 c53b a04b b83c 6a3c 5ebc
000000d0: ab60 50bc e049 f53b 83cb 123b aaeb 26bc
000000e0: 3ad4 e5bc a7e8 a83a d542 25bc ec2a a53c
000000f0: 50e6 8d3c 35ae 4e3b 24e1 473c d3aa 183c
00000100: d84b 08bd 8970 063c 918d 33bc be5e 8e3c
00000110: 0118 4bbb fc7c d53c 0e10 87bc 3590 a63a
00000120: aea6 4bbc f43b c1ba f8b2 9dbc 2343 063d
00000130: 105c d43b 7b94 bc3c 56ae 35bc 31df 7abc
00000140: e898 d0bb 5f1c 873b db0e 03bb 199f 873b
00000150: a325 823b 9379 9c3c 7493 03bc 366c 253c
00000160: abd0 5d3b 877b 873c fcde ebba 7f13 5b3b
00000170: bfc4 15bc 22da c73b 5b66 31bc 8d81 4d3a
00000180: 1401 f93b 454b 24bc dd1b 29bc cf5b bcbc
00000190: 4d95 2d3c 65e5 803c ac6c ab3c 59e4 9c3c
000001a0: 3735 bcbc 4e46 1e3c 56f3 c6ba 5f59 69bc
000001b0: 7c81 23bb 6f1f 7f3b b392 023c c4d4 d93b
000001c0: ff72 a63b b4ab 763c 8d53 9d3c 321a a23c
000001d0: 5219 63bb e285 e4bb 8b8b 533c f70e 43bc
000001e0: c261 b3bc d52c f43b 97c0 993c 0ea5 c23b
000001f0: a812 63bc 39fd b93b 1227 e53c 131c a5bc
-0.010125792 0.014068619 0.0022731286 0.0011162703 0.0058220946 -0.008200967 -0.01146754 0.0046938867
-0.010879642 0.025272783 -0.020532083 0.0020674278 -0.012766943 0.009401285 0.021071741 -0.0032899363
0.0018523633 0.0063574687 -0.005686586 -0.0018855904 0.02454911 0.0022745458 0.011416474 0.0051718024
0.023566933 -0.0015504383 0.026946265 0.028960483 0.012207828 -0.02784345 0.016431069 0.0044314526
-0.015644452 0.0019107299 0.018916043 -0.017941352 -0.02344603 0.017489858 -0.008222958 0.017632233
0.009802074 0.021719562 -0.0036610353 0.0022739184 0.0026159033 0.021460883 -0.010142838 0.012400217
-0.006280098 0.006022045 0.022496998 -0.0135642085 -0.01271836 0.007485613 0.0022399134 -0.010188023
-0.0280553 0.0012886719 -0.010086735 0.020162068 0.017321736 0.003153694 0.012199674 0.009318071
-0.033275455 0.008205541 -0.010959045 0.017379161 -0.003098965 0.026060574 -0.016487148 0.0012707772
-0.012429876 -0.0014742599 -0.019250378 0.03277887 0.0064807013 0.02302002 -0.011088928 -0.015312002
-0.006365884 0.004123255 -0.0019997868 0.004138839 0.003971772 0.01910094 -0.008030761 0.0100966
0.00338463 0.016538395 -0.0017995532 0.0033428369 -0.009141146 0.0060990015 -0.010827626 0.0007839434
0.0075990055 -0.010027711 -0.0103215845 -0.022992996 0.010594678 0.015734384 0.020925842 0.019151853
-0.022974594 0.009660317 -0.0015178721 -0.014242499 -0.0024949005 0.0038928648 0.007969546 0.006647678
0.0050796266 0.015055586 0.01920488 0.019787882 -0.0034652543 -0.006973968 0.012911688 -0.011905423
-0.0218972 0.0074516335 0.018768592 0.005940086 -0.013859428 0.0056759384 0.027972732 -0.020154988

action_model._discrete_distribution.branches.0.weight f4 [38, 128]
00000000: 9644 a43b 4821 91ba e23b 79bc 7d4f e6b9
00000010: 8c1c f6bb 3b9a a53b de2d 673c 06a5 b3bb
00000020: 411b 8f3a 060f cb3b 6193 e3bb 1aee 68bc
00000030: 9f60 cb3b 54f7 89bc 65c0 64bc 0e5b cfbc
00000040: b378 b9bc befd 1bbb dc69 553c ef25 e73c
00000050: 8c2f 4d3a a7d2 09bc aee5 9ab9 2c69 1d3c
00000060: b1a2 a0bc 8b03 2c3b 149b 97bc fad2 b2bb
00000070: 25bc ad3c a373 91bc 3587 d3bc 9b16 81bc
00000080: 92fc 853c 8669 b13c f70f d83b ab98 78bc
00000090: bf93 a8bb 8af9 0ebc f918 95bc 2a60 9f3c
000000a0: 4c50 2bbc 8bfd 3f3c c775 4cbb d2a6 d6bb
000000b0: 39e9 813c 5b71 4fbc 00e5 8fbb df8d 923c
000000c0: c88d 87bc c55c 8c3c 8745 83bc a9ec c7ba
000000d0: 4358 083c 5be2 9139 a3bb d43c e0b5 583b
000000e0: 32b2 c63c b8a7 60bc 57f0 51bb 97f1 37bc
000000f0: 10f5 d2bc a880 0ebc e889 a43b db0b 033d
00000100: 49b9 a33c 244f 673b 1a6f a1bb 106b 12bd
00000110: 2726 dbbb db88 a6bb 346d e43c fe1f dbbb
00000120: 532e 8bbc ad0d 54bc 3156 9dbc a790 8ebc
00000130: 6397 b1bc 18be c1bc b5ba 143c 7a84 093d
00000140: c6ca 33bc 8ce2 edbc 83fc 383c 914a ae39
00000150: 84b4 043c 7aaa 003b 406d 97bc 52d5 4bbb
00000160: addb 13bb 4e75 31bc c610 0c3d 2d8d bdbb
00000170: a34c dabc f269 983a 0b96 dc3c 5beb cc3c
00000180: a424 ed3b aeee 053c 1155 dd3c 2e32 8d3a
00000190: dcfd 173c 77c6 00bc bcf4 de3b 0ec6 f9bc
000001a0: ee99 fd3b c579 34ba 7ee4 2b3c 8617 c8bb
000001b0: 6e45 cebc 7287 82bc 5d20 dbba c5f7 92bb
000001c0: 4ed7 c33b b45a 513c 460e 81bb c516 033c
000001d0: 8fff 72bc 2e33 cfbc a215 25bc e628 56bc
000001e0: e04d 053d eaa0 e0bc 7213 fdbc 4842 efbb
000001f0: 91ea e63b 4d03 abba 27c2 3fbc 794e 9b3c
00000200: 1c2b c63a a612 9dbc 0bfe 4d3c a479 803c
00000210: 4363 91bc f929 bebb 5ab9 9a3c 7637 3c3c
00000220: 23ed 56bc 79f3 4e3c bd55 623a 17ce 333c
00000230: fe21 44bc 4c63 313c 7b43 66bc aa77 32bc
00000240: 8b81 7fbc e97c c6bb d828 30bc aa9a b1bc
00000250: aeed 85bc 491b 533c 04a2 64bc 4df4 57bb
00000260: 2fb8 cdba 81d3 843b 732c 8d3b 9f89 04bc
00000270: 6855 8abc 796d e93b 22a2 9bbb 6038 d1bc
00000280: 728e db3a dc3d 15bb 9d62 12bc 9992 cf3b
00000290: d557 403c 22dc 7cbc a012 67bc 41e1 88bc
000002a0: fb28 b83c 2d9e b5bc a80c 0d3c 7b2a c33b
000002b0: a409 3bbc 9c55 24bc 8cdc f9bb 1f6b 583b
000002c0: 52c5 ccba 9b1b b8bb b063 26bc 5330 b4ba
000002d0: b03e 13bc d3c6 3fbc 5d6d 2fbc 48dd a7bc
000002e0: 9b88 34bc 723b 7a3b 6ba8 e73a 8884 3f3a
000002f0: 700d 8b3c e356 55bc c254 a7bc 63f5 b6bb
00000300: 30e4 513c 4427 893c 2acd 22bc d218 853c
00000310: f895 b3bc 8d22 92bc dbee c83a 6109 e83b
00000320: bebf 233c 3c45 863b 7f37 a53b 7423 b9bc
00000330: 71a8 d5ba 5df1 a83a 7afb 843c 4cf6 aebb
00000340: 499b 9a3c e2c4 813b de83 83bb 4da6 cbbb
00000350: ab82 533c 022f aabc fc60 e3ba cbf0 3ebc
00000360: 4e90 af3c 0bb4 1b3c 0060 1fbb 2669 68bb
00000370: 566d 9b3b bf9b 733b 5ba2 90bc 0f3c 833c
00000380: 8014 913c c885 8036 6ca1 c8ba 3f1c e33b
00000390: feb4 3d3c d5c1 b9bc a30a 583c ba35 fa3a
000003a0: 8c23 863c c6d1 c7bc 75f1 85bc 3f8e da3b
000003b0: a506 bfba ad3b 5cbc eb7b 49bc e3cd 523c
000003c0: 7963 0abb ef2b e13c 61ba 1f3b b364 6abc
000003d0: 04ac 6a39 cae2 923c 33e2 553c e793 fd3b
000003e0: c0c2 0c3d c896 c9bc ab87 833b 3b0f a7bc
000003f0: a302 393b 1aca 47bc 3029 69bb a379 e43a
0.005013059 -0.0011072541 -0.015212031 -0.00043928242 -0.0075107273 0.005053786 0.014110057 -0.005482319
0.0010918156 0.0061968593 -0.006945059 -0.014216924 0.0062065865 -0.016841568 -0.013961886 -0.025311973
-0.022640562 -0.0023802365 0.013025727 0.02821633 0.00078272144 -0.00841204 -0.00029544294 0.009607594
-0.019608827 0.002624723 -0.018506564 -0.0054572793 0.021207878 -0.017755335 -0.025821308 -0.01575785
0.016355786 0.021656763 0.0065937 -0.015173118 -0.005144566 -0.008726487 -0.018200384 0.019455034
-0.010456156 0.011718164 -0.003119813 -0.0065506482 0.01585828 -0.012661303 -0.0043913126 0.017889915
-0.016547099 0.01713408 -0.016024364 -0.0015253025 0.0083218245 0.00027825203 0.025968378 0.003306739
0.024254892 -0.013711862 -0.0032034123 -0.011227033 -0.02575162 -0.008697666 0.0050213225 0.031993728
0.019985812 0.0035294974 -0.0049265744 -0.035746634 -0.0066878977 -0.0050822324 0.027884103 -0.0066871634
-0.016989863 -0.012942714 -0.019206138 -0.01740296 -0.021678632 -0.023650214 0.009077718 0.033573605
-0.010973638 -0.02903869 0.011290672 0.00033243423 0.008099679 0.0019632862 -0.018484712 -0.003110249
-0.0022561357 -0.01083119 0.034195684 -0.0057846517 -0.026647871 0.0011628254 0.026927015 0.02501457
0.007237034 0.008174581 0.027018102 0.0010772401 0.009276833 -0.007859818 0.006804077 -0.030489948
0.007739297 -0.00068846 0.0104914885 -0.00610632 -0.025179591 -0.015933726 -0.0016718019 -0.004485103
0.005976594 0.012777973 -0.003938469 0.008001034 -0.014831438 -0.025292959 -0.010075958 -0.013071274
0.03254497 -0.02742048 -0.030893061 -0.0073016025 0.0070470055 -0.0013047248 -0.011704004 0.018958317
0.0015119049 -0.019173931 0.012572776 0.015683003 -0.017747527 -0.0058033434 0.01888721 0.011487832
-0.013118061 0.012631291 0.0008633992 0.010974429 -0.011970995 0.010826897 -0.014054175 -0.010892788
-0.01559485 -0.006057371 -0.010751925 -0.021680195 -0.016348686 0.012884923 -0.013954643 -0.003295201
-0.001569515 0.0040535335 0.0043082773 -0.008089452 -0.016886428 0.007123646 -0.0047495523 -0.025539577
0.0016750826 -0.0022772467 -0.008934644 0.0063346145 0.011739691 -0.015433343 -0.014103562 -0.016708972
0.022480479 -0.02217015 0.0086089745 0.005955992 -0.011415873 -0.0100301765 -0.007625168 0.0033022834
-0.0015622771 -0.005618525 -0.010155603 -0.0013747312 -0.008987114 -0.011705118 -0.010707227 -0.020491257
-0.011018897 0.0038182405 0.0017674094 0.00073058205 0.016974181 -0.013021204 -0.020426158 -0.0055834516
0.012810752 0.016742356 -0.00993661 0.016247187 -0.021922097 -0.01783874 0.0015329974 0.007081196
0.009994445 0.004097609 0.005042016 -0.022599913 -0.001630081 0.0012889315 0.016233195 -0.0053394195
0.018872874 0.003960238 -0.0040135225 -0.006214893 0.012909572 -0.020774368 -0.0017347629 -0.011654089
0.021431115 0.009503375 -0.0024318695 -0.0035463064 0.0047432585 0.003717169 -0.017655542 0.01601985
0.01770997 3.8302715e-06 -0.0015306897 0.0069308574 0.011578796 -0.022675434 0.01318613 0.0019089498
0.016374372 -0.02439202 -0.016350487 0.006669789 -0.0014574124 -0.013441962 -0.012297611 0.01286647
-0.002111642 0.02748677 0.0024372565 -0.014306235 0.0002238006 0.017930407 0.013054418 0.0077385786
0.034365416 -0.02460803 0.0040139756 -0.020393005 0.0028230331 -0.012194181 -0.0035577528 0.001743127

action_model._discrete_distribution.branches.0.bias f4 [38]
00000000: e7e4 a73b cbad 66bb 0dae 9f3b 52c3 fabb
00000010: c6dd 203c 1b22 bdbc f55b 8a3c 8781 0dbc
00000020: a081 90ba f32b ef3b 5672 cfba c1d0 e4bb
00000030: ffe8 b2bb d71f 09bc 48a0 87bc 5ccc 323c
00000040: 613d a33b ddc3 9b3b 1f2b 6e3a e18e a33b
00000050: ff0d 0f3b f8bb 0dbc 0d33 a43a 448e fb3b
00000060: 9224 57bc 9c11 c3bb 5a3b 71bb ad57 6bbb
00000070: 8948 efb9 6a0e 12bc c107 84bc 8638 933c
00000080: fd27 28bc 87dd 073d d770 1b3c 9dc6 c03b
00000090: d278 11ba cdf7 84bb
0.005123723 -0.0035198804 0.0048730434 -0.0076526785 0.0098185 -0.023087552 0.016889552 -0.008636839
-0.0011024959 0.0072989403 -0.0015826921 -0.006982893 -0.005459904 -0.008369408 -0.01655592 0.010912981
0.004981682 0.0047535733 0.0009085405 0.0049913977 0.002182841 -0.008650772 0.0012527421 0.0076768715
-0.013131278 -0.005953027 -0.0036809058 -0.0035910413 -0.00045639675 -0.008914569 -0.016116979 0.017971288
-0.01026344 0.03317025 0.009487352 0.0058830515 -0.00055493147 -0.0040578605

exp_avg f4 [128, 39]
00000000: 0000 0000 0000 0000 0000 0000 0000 0000
00000010: 0000 0000 342b f237 0000 0000 0000 0000
00000020: 44b1 5c38 0000 0000 0000 0000 8d62 2037
00000030: ae7f 1a37 0000 0000 0000 0000 0000 0000
00000040: 0000 0000 0000 0000 0000 0000 0000 0000
00000050: 0000 0000 0000 0000 3019 9c36 0000 0000
00000060: 0000 0000 3560 5038 0000 0000 0000 0000
00000070: 0000 0000 0000 0000 0000 0000 a6b6 7002
00000080: 8e68 a8b6 0000 0000 0000 0000 0000 0000
00000090: 0000 0000 bda2 6c82 ee7f bd33 0000 0000
000000a0: 0000 0000 0000 0000 0000 0000 0000 0000
000000b0: 68b0 9138 0000 0000 0000 0000 80ec 2138
000000c0: 0000 0000 0000 0000 6b98 e237 85b9 5937
000000d0: 0000 0000 0000 0000 0000 0000 0000 0000
000000e0: 0000 0000 0000 0000 0000 0000 0000 0000
000000f0: 0000 0000 c844 a936 0000 0000 0000 0000
00000100: b3ea 1d38 0000 0000 0000 0000 0000 0000
00000110: 0000 0000 0000 0000 6c89 1383 1234 34b6
00000120: 0000 0000 0000 0000 0000 0000 0000 0000
00000130: 26f7 e582 18c4 e333 0000 0000 0000 0000
00000140: 0000 0000 0000 0000 0000 0000 d564 08b8
00000150: 0000 0000 0000 0000 b71d 9cb6 0000 0000
00000160: 0000 0000 5c8b 4fb8 7abd 76b7 0000 0000
00000170: 0000 0000 0000 0000 0000 0000 0000 0000
00000180: 0000 0000 0000 0000 0000 0000 0000 0000
00000190: f5fb 41b7 0000 0000 0000 0000 88ef 0238
000001a0: 0000 0000 0000 0000 0000 0000 0000 0000
000001b0: 0000 0000 a34a 8900 2ed2 8336 0000 0000
000001c0: 0000 0000 0000 0000 0000 0000 4d34 0000
000001d0: 6488 33b3 0000 0000 0000 0000 0000 0000
000001e0: 0000 0000 0000 0000 931a e0b8 0000 0000
000001f0: 0000 0000 1c7e b2b7 0000 0000 0000 0000
00000200: e4ed 4db7 d7f1 dc36 0000 0000 0000 0000
00000210: 0000 0000 0000 0000 0000 0000 0000 0000
00000220: 0000 0000 0000 0000 0000 0000 264b 85b7
00000230: 0000 0000 0000 0000 f636 73b7 0000 0000
00000240: 0000 0000 0000 0000 0000 0000 0000 0000
00000250: fdd1 2e82 30ae 3ab5 0000 0000 0000 0000
00000260: 0000 0000 0000 0000 db2c 1a00 17ed b7b3
00000270: 0000 0000 0000 0000 0000 0000 0000 0000
00000280: 0000 0000 3b88 1a38 0000 0000 0000 0000
00000290: 1eb5 d637 0000 0000 0000 0000 60d0 5c37
000002a0: 5bf6 f1b5 0000 0000 0000 0000 0000 0000
000002b0: 0000 0000 0000 0000 0000 0000 0000 0000
000002c0: 0000 0000 0000 0000 da24 2b36 0000 0000
000002d0: 0000 0000 d022 a037 0000 0000 0000 0000
000002e0: 0000 0000 0000 0000 0000 0000 6184 8281
000002f0: 7027 c7b6 0000 0000 0000 0000 0000 0000
00000300: 0000 0000 0f7e 6f01 a02b 5233 0000 0000
00000310: 0000 0000 0000 0000 0000 0000 0000 0000
00000320: 2caa 1bb8 0000 0000 0000 0000 5627 f2b7
00000330: 0000 0000 0000 0000 681b 56b8 4366 82b5
00000340: 0000 0000 0000 0000 0000 0000 0000 0000
00000350: 0000 0000 0000 0000 0000 0000 0000 0000
00000360: 0000 0000 4028 99b5 0000 0000 0000 0000
00000370: 2f43 1ab8 0000 0000 0000 0000 0000 0000
00000380: 0000 0000 0000 0000 d9a8 5382 f659 2036
00000390: 0000 0000 0000 0000 0000 0000 0000 0000
000003a0: e07a 1401 48d2 b3b3 0000 0000 0000 0000
000003b0: 0000 0000 0000 0000 0000 0000 57d3 3838
000003c0: 0000 0000 0000 0000 4245 4f37 0000 0000
000003d0: 0000 0000 0e54 9037 8f8b d7b6 0000 0000
000003e0: 0000 0000 0000 0000 0000 0000 0000 0000
000003f0: 0000 0000 0000 0000 0000 0000 0000 0000
0.0 0.0 0.0 0.0 0.0 2.8868766e-05 0.0 0.0
5.261718e-05 0.0 0.0 9.559689e-06 9.208843e-06 0.0 0.0 0.0
0.0 0.0 0.0 0.0 0.0 0.0 4.6520945e-06 0.0
0.0 4.9680664e-05 0.0 0.0 0.0 0.0 0.0 1.7684833e-37
-5.018962e-06 0.0 0.0 0.0 0.0 -1.7385245e-37 8.8242686e-08 0.0
0.0 0.0 0.0 0.0 6.946997e-05 0.0 0.0 3.860565e-05
0.0 0.0 2.7012275e-05 1.2977403e-05 0.0 0.0 0.0 0.0
0.0 0.0 0.0 0.0 0.0 5.0445997e-06 0.0 0.0
3.7650298e-05 0.0 0.0 0.0 0.0 0.0 -4.335717e-37 -2.68524e-06
0.0 0.0 0.0 0.0 -3.3790382e-37 1.06061805e-07 0.0 0.0
0.0 0.0 0.0 -3.2518834e-05 0.0 0.0 -4.6526216e-06 0.0
0.0 -4.9482434e-05 -1.4706859e-05 0.0 0.0 0.0 0.0 0.0
0.0 0.0 0.0 0.0 -1.156236e-05 0.0 0.0 3.1217496e-05
0.0 0.0 0.0 0.0 0.0 1.2608238e-38 3.9285724e-06 0.0
0.0 0.0 0.0 1.8762e-41 -4.180073e-08 0.0 0.0 0.0
0.0 0.0 -0.00010686102 0.0 0.0 -2.1277978e-05 0.0 0.0
-1.227434e-05 6.584665e-06 0.0 0.0 0.0 0.0 0.0 0.0
0.0 0.0 0.0 -1.588983e-05 0.0 0.0 -1.4496725e-05 0.0
0.0 0.0 0.0 0.0 -1.2843765e-37 -6.9543876e-07 0.0 0.0
0.0 0.0 2.403814e-39 -8.564728e-08 0.0 0.0 0.0 0.0
0.0 3.6843336e-05 0.0 0.0 2.5595127e-05 0.0 0.0 1.3161538e-05
-1.8027598e-06 0.0 0.0 0.0 0.0 0.0 0.0 0.0
0.0 0.0 2.5502436e-06 0.0 0.0 1.9089697e-05 0.0 0.0
0.0 0.0 0.0 -4.794441e-38 -5.9352533e-06 0.0 0.0 0.0
0.0 4.398781e-38 4.8934112e-08 0.0 0.0 0.0 0.0 0.0
-3.7113365e-05 0.0 0.0 -2.8866965e-05 0.0 0.0 -5.10471e-05 -9.715517e-07
0.0 0.0 0.0 0.0 0.0 0.0 0.0 0.0
0.0 -1.1411103e-06 0.0 0.0 -3.677903e-05 0.0 0.0 0.0
0.0 0.0 -1.5550289e-37 2.3894222e-06 0.0 0.0 0.0 0.0
2.7271465e-38 -8.373587e-08 0.0 0.0 0.0 0.0 0.0 4.4065844e-05
0.0 0.0 1.2354287e-05 0.0 0.0 1.7205279e-05 -6.423746e-06 0.0
0.0 0.0 0.0 0.0 0.0 0.0 0.0 0.0

exp_avg_sq f4 [128, 39]
00000000: 0000 0000 0000 0000 0000 0000 0000 0000
00000010: 0000 0000 cef9 1931 0000 0000 0000 0000
00000020: a576 d630 0000 0000 0000 0000 5fc7 7931
00000030: a13a 5f30 0000 0000 0000 0000 0000 0000
00000040: 0000 0000 0000 0000 0000 0000 0000 0000
00000050: 0000 0000 0000 0000 9848 3330 0000 0000
00000060: 0000 0000 05e9 c530 0000 0000 0000 0000
00000070: 0000 0000 0000 0000 0000 0000 6fe9 522d
00000080: 0943 4630 0000 0000 0000 0000 0000 0000
00000090: 0000 0000 389a 5b2d 3380 7427 0000 0000
000000a0: 0000 0000 0000 0000 0000 0000 0000 0000
000000b0: 8e18 d931 0000 0000 0000 0000 dae4 3431
000000c0: 0000 0000 0000 0000 e74c 9b31 eaad 8e30
000000d0: 0000 0000 0000 0000 0000 0000 0000 0000
000000e0: 0000 0000 0000 0000 0000 0000 0000 0000
000000f0: 0000 0000 0d34 9e30 0000 0000 0000 0000
00000100: b097 2031 0000 0000 0000 0000 0000 0000
00000110: 0000 0000 0000 0000 ef23 9c2d 887b f030
00000120: 0000 0000 0000 0000 0000 0000 0000 0000
00000130: e28d ae2d 96c6 df27 0000 0000 0000 0000
00000140: 0000 0000 0000 0000 0000 0000 3875 8b31
00000150: 0000 0000 0000 0000 fcb7 0831 0000 0000
00000160: 0000 0000 ae3e f331 8462 2630 0000 0000
00000170: 0000 0000 0000 0000 0000 0000 0000 0000
00000180: 0000 0000 0000 0000 0000 0000 0000 0000
00000190: 56d1 2131 0000 0000 0000 0000 0a07 4031
000001a0: 0000 0000 0000 0000 0000 0000 0000 0000
000001b0: 0000 0000 0dde 8b2d d9fc 6f30 0000 0000
000001c0: 0000 0000 0000 0000 0000 0000 e5f9 022d
000001d0: 1d22 d327 0000 0000 0000 0000 0000 0000
000001e0: 0000 0000 0000 0000 f8fc c231 0000 0000
000001f0: 0000 0000 b59d 1231 0000 0000 0000 0000
00000200: 6b86 c431 b2f4 8130 0000 0000 0000 0000
00000210: 0000 0000 0000 0000 0000 0000 0000 0000
00000220: 0000 0000 0000 0000 0000 0000 7430 5031
00000230: 0000 0000 0000 0000 c769 6731 0000 0000
00000240: 0000 0000 0000 0000 0000 0000 0000 0000
00000250: 8a85 3e2d 24a5 5131 0000 0000 0000 0000
00000260: 0000 0000 0000 0000 00e6 5b2d 9f9d 0f28
00000270: 0000 0000 0000 0000 0000 0000 0000 0000
00000280: 0000 0000 7868 ca31 0000 0000 0000 0000
00000290: aabd 0631 0000 0000 0000 0000 e74a 6c31
000002a0: df27 5e30 0000 0000 0000 0000 0000 0000
000002b0: 0000 0000 0000 0000 0000 0000 0000 0000
000002c0: 0000 0000 0000 0000 0eb2 5030 0000 0000
000002d0: 0000 0000 1e90 5a30 0000 0000 0000 0000
000002e0: 0000 0000 0000 0000 0000 0000 24eb 862d
000002f0: 274f b72f 0000 0000 0000 0000 0000 0000
00000300: 0000 0000 29ff 0a2d 297b 9e27 0000 0000
00000310: 0000 0000 0000 0000 0000 0000 0000 0000
00000320: 0351 da31 0000 0000 0000 0000 bb33 0931
00000330: 0000 0000 0000 0000 003b 0f32 ccef b030
00000340: 0000 0000 0000 0000 0000 0000 0000 0000
00000350: 0000 0000 0000 0000 0000 0000 0000 0000
00000360: 0000 0000 ab9d 5330 0000 0000 0000 0000
00000370: 3da5 5331 0000 0000 0000 0000 0000 0000
00000380: 0000 0000 0000 0000 8756 9f2d 430a 0131
00000390: 0000 0000 0000 0000 0000 0000 0000 0000
000003a0: f03b 712d f81c 0328 0000 0000 0000 0000
000003b0: 0000 0000 0000 0000 0000 0000 8ab7 1531
000003c0: 0000 0000 0000 0000 b3a5 6b30 0000 0000
000003d0: 0000 0000 8dde 8830 f286 812f 0000 0000
000003e0: 0000 0000 0000 0000 0000 0000 0000 0000
000003f0: 0000 0000 0000 0000 0000 0000 0000 0000
0.0 0.0 0.0 0.0 0.0 2.2406428e-09 0.0 0.0
1.560427e-09 0.0 0.0 3.6347598e-09 8.1210244e-10 0.0 0.0 0.0
0.0 0.0 0.0 0.0 0.0 0.0 6.522298e-10 0.0
0.0 1.4399865e-09 0.0 0.0 0.0 0.0 0.0 1.1988951e-11
7.2127243e-10 0.0 0.0 0.0 0.0 1.2482952e-11 3.39313e-15 0.0
0.0 0.0 0.0 0.0 6.3183228e-09 0.0 0.0 2.6323534e-09
0.0 0.0 4.5198365e-09 1.0381289e-09 0.0 0.0 0.0 0.0
0.0 0.0 0.0 0.0 0.0 1.1510807e-09 0.0 0.0
2.3369289e-09 0.0 0.0 0.0 0.0 0.0 1.7751104e-11 1.7497408e-09
0.0 0.0 0.0 0.0 1.9844518e-11 6.211024e-15 0.0 0.0
0.0 0.0 0.0 4.0587587e-09 0.0 0.0 1.9895188e-09 0.0
0.0 7.0793567e-09 6.053045e-10 0.0 0.0 0.0 0.0 0.0
0.0 0.0 0.0 0.0 2.3547577e-09 0.0 0.0 2.7943678e-09
0.0 0.0 0.0 0.0 0.0 1.590108e-11 8.730701e-10 0.0
0.0 0.0 0.0 7.445132e-12 5.860125e-15 0.0 0.0 0.0
0.0 0.0 5.6749023e-09 0.0 0.0 2.1335442e-09 0.0 0.0
5.7196323e-09 9.455532e-10 0.0 0.0 0.0 0.0 0.0 0.0
0.0 0.0 0.0 3.0295526e-09 0.0 0.0 3.3675052e-09 0.0
0.0 0.0 0.0 0.0 1.0829901e-11 3.0507374e-09 0.0 0.0
0.0 0.0 1.2499779e-11 7.972273e-15 0.0 0.0 0.0 0.0
0.0 5.8908505e-09 0.0 0.0 1.9607378e-09 0.0 0.0 3.4385097e-09
8.081979e-10 0.0 0.0 0.0 0.0 0.0 0.0 0.0
0.0 0.0 7.592299e-10 0.0 0.0 7.951274e-10 0.0 0.0
0.0 0.0 0.0 1.533846e-11 3.3343747e-10 0.0 0.0 0.0
0.0 7.901049e-12 4.398734e-15 0.0 0.0 0.0 0.0 0.0
6.353845e-09 0.0 0.0 1.996553e-09 0.0 0.0 8.337111e-09 1.287384e-09
0.0 0.0 0.0 0.0 0.0 0.0 0.0 0.0
0.0 7.698541e-10 0.0 0.0 3.0798468e-09 0.0 0.0 0.0
0.0 0.0 1.8114633e-11 1.8777804e-09 0.0 0.0 0.0 0.0
1.3712573e-11 7.278242e-15 0.0 0.0 0.0 0.0 0.0 2.1786684e-09
0.0 0.0 8.5727975e-10 0.0 0.0 9.958555e-10 2.3560848e-10 0.0
0.0 0.0 0.0 0.0 0.0 0.0 0.0 0.0

exp_avg f4 [128]
00000000: 6dd5 1c39 fd35 4539 3c1c a3b8 deeb 2cb9
00000010: f9b2 bb38 d0fc 20b9 3c4f 3f38 9eff 66b9
00000020: 9374 8ab8 60a4 4b39 7c59 2d39 ad24 b737
00000030: 51a9 25b8 7351 0cb9 8718 9fb8 300d 5437
00000040: 6c0e e7b7 5038 ce35 b545 0cb9 945b 07b8
00000050: e5fd 9d38 a652 75b8 fa13 6d39 273e 28b9
00000060: 4714 1e39 2023 3fb9 38f5 f4b8 5e47 84b8
00000070: 22ce 10b8 478e b938 2737 e1b8 0f44 9337
00000080: 0613 ee38 3c69 4ab9 bc96 1f39 8c38 0439
00000090: 943c 95b8 1b70 cb38 0ea0 6139 fa9f dfb8
000000a0: 25ef 6338 1ea8 ccb7 075d 0937 9f3a 9bb7
000000b0: 9f8b 4b39 841b 8138 e7f2 dfb7 2f1b aa39
000000c0: 9432 4738 a47d 2fb8 9b84 72b9 7b8a b6b7
000000d0: 3dde 6839 8cf8 6839 395a 24b9 ec19 23b8
000000e0: 8951 24b7 0d73 85b8 26e2 1039 fbbd 7a39
000000f0: fa4a b1b7 76f3 8738 589d 2d37 bc65 2ab9
00000100: 4670 76b9 12f9 f738 3fad 0837 013b d2b8
00000110: 46da 2c37 0c61 1539 431d 0339 897d 9f36
00000120: 994b 9738 4242 0039 4b2d a939 8a6b af39
00000130: 7873 f736 1c48 7eb8 c1ea 0539 98bb 6338
00000140: 776a 6a38 d5db 98b8 3f47 5fb9 c02a 1bb7
00000150: 4010 2539 8811 ed37 3082 7139 2c4a 95b8
00000160: 2614 4db8 4565 b538 2469 7338 f3e4 a8b8
00000170: 74c2 42b9 903c 3b38 c13a d2b8 fc78 95b9
00000180: fea3 dbb7 22cc 9538 082a 1c39 e70d 04b8
00000190: e645 ec38 3220 ab38 52a1 2fb8 4c77 45b7
000001a0: f2f2 56b8 7467 4339 5f02 d038 e0ea fb35
000001b0: 746d 48b8 b63a e738 d206 e937 666f 2638
000001c0: 53ed f9b8 2b27 9438 aa1b 07b9 f626 7139
000001d0: c162 3539 086c 8837 9895 aab7 ddee 4b38
000001e0: 9bbe e338 017f 34b9 4272 1738 91a4 07b9
000001f0: 089e 8937 f510 0739 ff96 0db9 566b 9039
0.00014956827 0.00018807496 -7.777705e-05 -0.00016491066 8.950191e-05 -0.00015352969 4.561174e-05 -0.00022029734
-6.6020664e-05 0.00019420823 0.00016531901 2.1832378e-05 -3.9496754e-05 -0.00013381783 -7.5862794e-05 1.2639255e-05
-2.7544062e-05 1.5364585e-06 -0.00013377408 -3.2271797e-05 7.533635e-05 -5.8489524e-05 0.00022609523 -0.00016044882
0.00015075608 -0.00018228265 -0.00011680502 -6.307544e-05 -3.452425e-05 8.847989e-05 -0.00010739109 1.7555458e-05
0.00011352268 -0.00019303424 0.00015219575 0.00012609566 -7.116157e-05 9.7006756e-05 0.00021517297 -0.000106632666
5.4343738e-05 -2.439698e-05 8.187496e-06 -1.8504737e-05 0.00019411602 6.1563245e-05 -2.6696782e-05 0.0003244518
4.74924e-05 -4.1840263e-05 -0.00023128318 -2.1760576e-05 0.00022208034 0.00022217835 -0.0001567387 -3.888637e-05
-9.794146e-06 -6.363364e-05 0.00013817157 0.00023912631 -2.1134958e-05 6.48265e-05 1.0348238e-05 -0.00016250362
-0.00023502213 0.00011824271 8.146569e-06 -0.00010024571 1.030282e-05 0.000142459 0.00012504034 4.7531835e-06
7.214322e-05 0.00012231714 0.00032267938 0.00033458724 7.374616e-06 -6.0625476e-05 0.00012771321 5.4295728e-05
5.58891e-05 -7.288872e-05 -0.00021293478 -9.248673e-06 0.0001574168 2.8260765e-05 0.0002303205 -7.118689e-05
-4.8894573e-05 8.6496155e-05 5.8033635e-05 -8.0535094e-05 -0.00018573721 4.4640678e-05 -0.00010024524 -0.00028509635
-2.61832e-05 7.142896e-05 0.00014892977 -3.14842e-05 0.000112663765 8.159912e-05 -4.1873493e-05 -1.1769891e-05
-5.1247836e-05 0.00018635188 9.9186545e-05 1.8769315e-06 -4.7785652e-05 0.00011025874 2.777894e-05 3.9681232e-05
-0.0001191745 7.0644855e-05 -0.00012884909 0.00022998065 0.00017298294 1.626277e-05 -2.033524e-05 4.862143e-05
0.000108597065 -0.0001721345 3.6107616e-05 -0.00012935909 1.6405262e-05 0.0001288092 -0.00013503058 0.00027545792

exp_avg_sq f4 [128]
00000000: be04 3a32 42aa ae32 cf61 a432 3410 e232
00000010: 7c21 7a32 714a d132 5318 c831 a46a 7532
00000020: ec46 ba32 836d a832 f42e 1a33 e4b0 cb32
00000030: 1be6 3632 3973 5932 0b4b 5132 3d21 8832
00000040: ae34 0f32 2e9e 5232 e09d 1f32 8471 8132
00000050: 01fd ce31 d340 d531 7ad3 7032 5449 8332
00000060: 3f17 fe31 a689 c632 e60f 2e32 82d9 8a32
00000070: 95e8 b831 3a2c 7732 bdb8 0c33 c276 4d32
00000080: 3902 4a32 36c9 d632 68ef 5c32 b591 8032
00000090: 686d ae31 dc0c 4732 5e3c e332 d8f4 1332
000000a0: 8c82 db31 8265 f931 2dfb 4932 0532 0b32
000000b0: 43e9 9532 5a51 da31 9c84 1132 f090 2933
000000c0: 3347 b831 0300 bd31 9022 3d33 3278 7e32
000000d0: 360a f532 02b3 a332 9a5e 5c32 8cc7 0d32
000000e0: f1e8 a031 1e69 0a32 ac8e 6f32 4a00 f232
000000f0: b829 9632 3c20 3732 b76f e632 7fd0 6732
00000100: ac3a 3933 10b9 4932 766a 2532 0a03 3c32
00000110: d1ac ce31 d84a 3332 f6ba 1533 1fa5 a331
00000120: dce1 6332 3ff6 4032 c7eb f332 5ba4 1033
00000130: 00d3 7632 e068 8632 1ef7 3432 8f4b 4832
00000140: b3f2 0533 715a 8632 16c1 ab32 405c 9131
00000150: 1ee1 8332 beaa f331 2e54 d032 87fb e331
00000160: 44a8 9f32 896c 9932 6c2f d831 8447 2e32
00000170: a0e0 b432 e471 d031 9db9 b531 adcc 1633
00000180: 49eb 5232 608a 9632 c4a8 6a32 4a5c 3c32
00000190: 50b3 4b32 ea0e 9532 1528 9d32 8563 4d32
000001a0: edfe 0432 58a0 6132 70f0 dd32 11ea 4932
000001b0: 75db c531 579f 5732 52f4 0d32 8161 8232
000001c0: 2812 9d32 b6e2 5932 e91b e632 a225 a332
000001d0: eca2 e332 ec76 cb31 0080 b431 85fc 1232
000001e0: c209 3e32 b9e1 8432 e4dd fa31 a44a 4c32
000001f0: 3cf6 8732 3842 a132 3080 9232 5f68 c532
1.0827703e-08 2.033369e-08 1.9136591e-08 2.6317231e-08 1.4559529e-08 2.4364654e-08 5.8235314e-09 1.4285124e-08
2.1685501e-08 1.9607574e-08 3.5898623e-08 2.371275e-08 1.0646114e-08 1.2657261e-08 1.2182464e-08 1.5847599e-08
8.3356735e-09 1.2259575e-08 9.290915e-09 1.5069197e-08 6.0241523e-09 6.2064855e-09 1.4017923e-08 1.5283753e-08
7.3950157e-09 2.3112829e-08 1.0131748e-08 1.6164226e-08 5.3815463e-09 1.4387348e-08 3.276431e-08 1.1959573e-08
1.1758453e-08 2.5004379e-08 1.286012e-08 1.4967421e-08 5.0765046e-09 1.1586248e-08 2.645373e-08 8.612197e-09
6.3885803e-09 7.258394e-09 1.1756851e-08 8.102238e-09 1.7451958e-08 6.3538836e-09 8.470263e-09 3.94802e-08
5.363199e-09 5.5006253e-09 4.4036426e-08 1.4812075e-08 2.8526397e-08 1.90571e-08 1.2827195e-08 8.252652e-09
4.6830952e-09 8.056558e-09 1.3944071e-08 2.817264e-08 1.748127e-08 1.0659331e-08 2.6826326e-08 1.3493376e-08
4.312703e-08 1.1741818e-08 9.6284705e-09 1.0943731e-08 6.015036e-09 1.0436189e-08 3.4861806e-08 4.7626965e-09
1.32644935e-08 1.1231861e-08 2.8396142e-08 3.3677093e-08 1.436706e-08 1.5647345e-08 1.0533567e-08 1.1658712e-08
3.118721e-08 1.5640781e-08 1.9994825e-08 4.230543e-09 1.5352779e-08 7.091642e-09 2.4252667e-08 6.635165e-09
1.8586555e-08 1.78609e-08 6.2918186e-09 1.0144394e-08 2.1056906e-08 6.0665446e-09 5.288895e-09 3.5110748e-08
1.2277106e-08 1.7525224e-08 1.36589655e-08 1.0964024e-08 1.1856926e-08 1.7352665e-08 1.8295433e-08 1.1955199e-08
7.741375e-09 1.3133182e-08 2.5837124e-08 1.175296e-08 5.758404e-09 1.2550877e-08 8.262832e-09 1.5178331e-08
1.8285462e-08 1.26826105e-08 2.6788216e-08 1.899281e-08 2.6500366e-08 5.9215974e-09 5.2532414e-09 8.555735e-09
1.1061674e-08 1.546947e-08 7.3011837e-09 1.1891334e-08 1.5828043e-08 1.877298e-08 1.705493e-08 2.298128e-08

exp_avg f4 [128, 128]
00000000: 6a84 30b6 bbf7 84b6 bcf8 9535 4423 ce36
00000010: 6827 17b7 5094 8736 0e31 8e34 9a21 25b6
00000020: 6ae7 26b7 ed12 6cb5 7a93 09b7 3521 c2b5
00000030: 9cee cd35 34d4 eeb4 4895 8236 f4ec 7136
00000040: ccd3 57b5 92fe 23b6 4de5 3036 95da 3eb6
00000050: a593 8a36 9964 0835 bc87 92b6 2f42 7336
00000060: eac3 71b6 44c3 af35 700e 99b5 a93e 7436
00000070: 8902 3336 b010 8a35 b81c fbb5 122c ad36
00000080: 809e 61b4 8f90 e536 a3a4 f035 4c51 3e36
00000090: 940e 4cb5 66c9 b8b6 1a9d 19b7 252c 1636
000000a0: ce61 b3b6 bfa3 e7b6 eecc a436 ba41 9236
000000b0: a53a 4636 b901 3ab6 fc89 e134 a912 6ab5
000000c0: 2ca3 0836 c5f6 6c36 e750 64b5 75b7 4f35
000000d0: 29ff f7b6 0499 03b6 cf5b 8c36 7e1b d736
000000e0: 58e0 e135 a948 8db5 c662 9536 7c58 18b7
000000f0: fe1f 40b6 980e 1d36 99cd 36b6 28ac 7535
00000100: 8c6f afb6 b568 bab6 5e0f a8b6 f277 0d36
00000110: b5e6 be36 5fe7 8cb6 5046 91b6 2d70 ba35
00000120: bc76 56b4 0f8b afb6 7a1e afb6 ac51 32b4
00000130: 1df6 bcb6 a656 cf36 d001 aa36 4435 a2b6
00000140: 608f ccb4 4006 e736 4a78 c5b6 98a2 df35
00000150: 3bc5 d635 95e6 6536 82b1 ccb6 a111 cb36
00000160: 3696 b436 1e68 2fb7 7ace 0635 baca 8d36
00000170: 0d8d cc36 f895 ea34 5f5b dd35 0efd a436
00000180: 1bb7 8136 ea76 0bb7 5a76 15b6 61c9 5bb6
00000190: 0fe3 e2b6 72a9 f9b6 8e5a deb6 ca53 e435
000001a0: b41a 8835 b28e 17b7 25eb 19b6 3ea5 9db5
000001b0: 268a b636 1797 29b6 1f9c 04b6 4387 b535
000001c0: 45f7 2cb6 b12f 0937 cd3e 5f36 fad1 1335
000001d0: cb69 8bb6 c6b5 ad35 9e53 9835 7682 1ab7
000001e0: 311f f2b6 5161 d036 0adb fdb6 d449 b9b5
000001f0: b486 8b36 4ece 87b6 5bea ee36 42b7 8bb6
00000200: 4e59 0038 908b 7637 1f85 df36 5312 d136
00000210: a826 3837 3900 7bb6 aad2 54b7 6ae9 6d36
00000220: 2e82 ac37 a442 9634 a41c ea37 00c8 df36
00000230: cc34 b1b6 7613 5db5 7728 5db6 b249 3137
00000240: cf14 ccb4 cd0e 2c37 611b 4736 4b6c ad37
00000250: 8dcb 09b7 d63d 2336 8fde 8536 6de5 8236
00000260: 9151 6037 b1bf 8e36 b614 bb36 4810 a5b4
00000270: e3dd 74b7 0502 98b6 67b7 f237 2bb3 d6b6
00000280: 377d e9b6 573c 85b7 190b 1237 b2f1 a936
00000290: 59a2 0535 1805 2337 4ee6 4037 2af4 aab4
000002a0: 9893 0537 1595 2f37 925f 0ab7 038a 6336
000002b0: 8255 4db6 d3ac 00b7 2814 c2b6 2e7e 0eb5
000002c0: dc82 feb6 1060 8334 9cc7 d837 7b3e 9836
000002d0: e741 3637 6b11 5cb6 d258 0236 094c b9b7
000002e0: db31 b036 203e b5b6 93b2 2bb7 a1dd 4a37
000002f0: 6528 a836 0201 b836 7821 c736 9340 1bb7
00000300: b412 b637 e260 4837 c4fc 1237 42a1 abb7
00000310: e139 1bb7 caa8 2237 a48f ca37 7c7e 00b7
00000320: 1e8b bab5 b431 2837 f459 c234 91ee e835
00000330: 7a1f d936 921f 3bb7 4c84 9bb7 224f 1136
00000340: 5dc0 8a37 0cca 1c37 1919 9e37 4876 58b7
00000350: 9d4f 1ab7 dcbd 8bb5 c1fb 1637 30d9 78b7
00000360: f9b3 02b7 53c6 8737 ccd7 0cb6 6d54 07b7
00000370: a0c0 aab4 c567 03b6 3517 9736 2760 d0b5
00000380: 9819 2634 b0b9 6437 6625 5936 78cc 4c36
00000390: 8add 6f37 d063 0837 588c 9b37 2d48 6537
000003a0: 5097 ed33 bb84 5e37 2c8a bd36 5d83 a937
000003b0: a36e 73b7 2ec4 2cb7 8047 66b6 e32c ecb6
000003c0: bc1e 5436 4154 5436 da33 a835 f6ad 4935
000003d0: 31c7 bb37 7041 21b7 3107 2eb7 10ba 6a37
000003e0: 3bef 9436 da85 b4b6 3dce 4337 be42 4e36
000003f0: bf61 42b7 6a76 06b6 2023 30b5 6e86 5837
-2.6303119e-06 -3.962746e-06 1.1173756e-06 6.143384e-06 -9.009476e-06 4.0405794e-06 2.6485253e-07 -2.4606475e-06
-9.948251e-06 -8.794439e-07 -8.200173e-06 -1.4463791e-06 1.5343135e-06 -4.4485353e-07 3.8916805e-06 3.6049723e-06
-8.0401946e-07 -2.4437072e-06 2.6359514e-06 -2.8439438e-06 4.1299086e-06 5.0810337e-07 -4.3669406e-06 3.6248346e-06
-3.6025835e-06 1.3095346e-06 -1.140359e-06 3.6395306e-06 2.6674554e-06 1.0286658e-06 -1.8709316e-06 5.1609322e-06
-2.101242e-07 6.8415607e-06 1.7929309e-06 2.8359527e-06 -7.6017136e-07 -5.507073e-06 -9.156089e-06 2.2377437e-06
-5.3460017e-06 -6.903399e-06 4.911438e-06 4.3587906e-06 2.9538435e-06 -2.7717163e-06 4.2009913e-07 -8.7198947e-07
2.0360558e-06 3.531038e-06 -8.505435e-07 7.7380474e-07 -7.390878e-06 -1.9609588e-06 4.183013e-06 6.4107e-06
1.6829099e-06 -1.0526466e-06 4.452045e-06 -9.080508e-06 -2.8628851e-06 2.3403318e-06 -2.7239787e-06 9.152013e-07
-5.228392e-06 -5.5554215e-06 -5.008579e-06 2.1080455e-06 5.689299e-06 -4.1992603e-06 -4.329522e-06 1.3890727e-06
-1.9973498e-07 -5.231595e-06 -5.2189544e-06 -1.6607254e-07 -5.631488e-06 6.179168e-06 5.066606e-06 -4.834177e-06
-3.810228e-07 6.885064e-06 -5.885061e-06 1.6662116e-06 1.6001644e-06 3.4257876e-06 -6.1003384e-06 6.0519237e-06
5.381905e-06 -1.04550545e-05 5.0219353e-07 4.225728e-06 6.0960942e-06 4.3695013e-07 1.6492376e-06 4.9170403e-06
3.865816e-06 -8.3127325e-06 -2.227162e-06 -3.275076e-06 -6.761758e-06 -7.4405043e-06 -6.6266575e-06 1.701171e-06
1.0140561e-06 -9.033525e-06 -2.2935649e-06 -1.1745503e-06 5.4401053e-06 -2.5270908e-06 -1.9760407e-06 1.3524917e-06
-2.5773927e-06 8.17694e-06 3.3266144e-06 5.5067324e-07 -4.1548387e-06 1.2942407e-06 1.1349218e-06 -9.209491e-06
-7.215793e-06 6.210212e-06 -7.565487e-06 -1.3805061e-06 4.1582043e-06 -4.0473305e-06 7.1202353e-06 -4.163857e-06
3.060075e-05 1.4695237e-05 6.6614152e-06 6.2308186e-06 1.0976255e-05 -3.7402044e-06 -1.2685234e-05 3.5451617e-06
2.0564617e-05 2.7988165e-07 2.790831e-05 6.669201e-06 -5.2811574e-06 -8.2357235e-07 -3.295512e-06 1.0567181e-05
-3.80131e-07 1.0255445e-05 2.9669247e-06 2.0673635e-05 -8.213229e-06 2.4324886e-06 3.989618e-06 3.9010106e-06
1.3370432e-05 4.2542456e-06 5.5754454e-06 -3.074549e-07 -1.4595195e-05 -4.530188e-06 2.8934051e-05 -6.398555e-06
-6.958518e-06 -1.5882933e-05 8.704862e-06 5.0647295e-06 4.978261e-07 9.716743e-06 1.1497714e-05 -3.184262e-07
7.961782e-06 1.0465524e-05 -8.247693e-06 3.390597e-06 -3.0597153e-06 -7.669633e-06 -5.783997e-06 -5.308274e-07
-7.585024e-06 2.4470546e-07 2.5842157e-05 4.5372267e-06 1.0863389e-05 -3.2792693e-06 1.942321e-06 -2.2089125e-05
5.2510127e-06 -5.4014527e-06 -1.0233972e-05 1.209174e-05 5.0114927e-06 5.4837446e-06 5.9345584e-06 -9.253755e-06
2.17048e-05 1.1943486e-05 8.76113e-06 -2.045988e-05 -9.252196e-06 9.695252e-06 2.4147164e-05 -7.658844e-06
-1.3898568e-06 1.0025153e-05 3.6200765e-07 1.7354779e-06 6.4707683e-06 -1.1153419e-05 -1.8539045e-05 2.1652745e-06
1.6540458e-05 9.345367e-06 1.8846755e-05 -1.2902143e-05 -9.197652e-06 -1.0411563e-06 8.999313e-06 -1.483252e-05
-7.790507e-06 1.6185606e-05 -2.0987236e-06 -8.066284e-06 -3.180512e-07 -1.9580923e-06 4.5028523e-06 -1.5525192e-06
1.5469266e-07 1.3633093e-05 3.2357289e-06 3.0517385e-06 1.4297091e-05 8.129471e-06 1.8542793e-05 1.3666268e-05
1.1063696e-07 1.3263135e-05 5.6487243e-06 2.020754e-05 -1.4509688e-05 -1.02976755e-05 -3.431429e-06 -7.0385736e-06
3.1608351e-06 3.1639504e-06 1.2532066e-06 7.513148e-07 2.2384893e-05 -9.611584e-06 -1.0372883e-05 1.3990808e-05
4.438594e-06 -5.3800004e-06 1.1670924e-05 3.073524e-06 -1.1586059e-05 -2.0036482e-06 -6.5616223e-07 1.2905903e-05
