results/DemoRun/TestAgent1/TestAgent1-7531.pt (torch, 201236 bytes, 11 tensors)

network_body._body_endoder.seq_layers.0.weight f4 [128, 39]
00000000: 592e 8c3c dca5 013e 6493 243e 4526 1abe
00000010: 7083 cabc bbc8 233d 1790 93be 0d37 93bd
00000020: ead1 363d 2716 f93d 0ccc b03e 776c 103e
00000030: d0fd 78bc 229e 0ebe d982 243e 1a20 99bd
00000040: 8a6d 363e daf1 dcbd 2330 253e a7ed 74bd
00000050: 535a 76be a99c a23e 4bc8 9f3d f95d db3a
00000060: 89bc 2d3e f961 5f3e d9fe 16be a8bf 9f3d
00000070: e73c 68be 72d4 ecbd ffe0 b23d d518 61bd
00000080: ee61 3dbe ad28 a03e 3605 59bc 0f25 edbd
00000090: f5f6 793d 2e03 f3be a99d 023d d90a 633e
000000a0: 34af 46bd e814 96bd 6881 ffbc 8775 c4bd
000000b0: fc0f d23d 5f8f 2d3e 8b09 afbe 2071 94bd
000000c0: 2bbf 253d 7204 8a3e 7ab8 a6bc 7659 c43c
000000d0: b096 3fbe 363a 38bb e3a2 b33d 179e 513c
000000e0: f4ef 333e bc06 473e 27e1 31be 4ec8 91bd
000000f0: 82fd 6c3e b1b3 f3bd 876c a13d e232 35bd
00000100: e36a 53be 421a d53d 3190 98bd 9749 0c3e
00000110: ae3e 963d abb0 dfbc df25 6c3d 394e a43d
00000120: 0c01 12be 2318 d1be 1f74 893e da13 7ebe
00000130: 9868 b43c 9c32 97bd 8cf7 63bd c0e8 b0bd
00000140: ce44 0d3e 431f 91be 7f65 653e ef41 963d
00000150: 9d3c 253d e925 97bc 2a18 80be cee4 91be
00000160: 570f 06bd cc09 00be 025f 4b3a 40d2 3ebd
00000170: 3728 ebbe 64a0 31bc 1bbe 7e3e a50d ebbd
00000180: 615a 12be 32b1 29be f27e cdbb 6918 66be
00000190: a3d0 28be 66d1 7e3d ca47 e1bd a0c4 28bc
000001a0: 7132 94bd fc48 9c3e dc6d c13d 961b 77be
000001b0: 8fef 4c3e 228a a73e f35a 8e3d 0669 a23e
000001c0: c93d 203d 0fe1 c1bd b0a2 a0bb 97b7 a9be
000001d0: c15f 843c ea0e a4bc 21a8 1ebe e4b3 e73d
000001e0: b4db cebd e346 ed3b 80f8 5e3e 4dca 2f3d
000001f0: 8023 27be 8165 cc3d 2f09 2bbe 8125 443d
00000200: 6b60 07be b5d8 173c 62a2 203e 9eec 49be
00000210: 5663 f63d 5b81 653e f672 cabd d0c3 073e
00000220: 703b b5be 8774 a7bd 85a6 fbbd 3a44 26bd
00000230: 8fe0 88be 1b91 98be 3ffc f13d 6e3b debc
00000240: bced 79be b2b4 fa3d 0d82 33bc a0e0 b23d
00000250: bd00 ea3e f60a b33d 9b74 f53c fb06 053d
00000260: a479 52bb 3a67 9c3e aa47 ad3c a18c 1b3d
00000270: 99e4 efbe 0a03 15be 9cc6 c03d 4001 0c3b
00000280: 3a3a 74bd e5b4 cb3d 7972 d2bc a4f3 fc3d
00000290: e3c4 abbd 9eca 38be 803f 23be 2649 f43d
000002a0: 87e7 a9be 3448 9d3e c3ac cabc a181 95bd
000002b0: a930 95be 6df2 1dbe ccd9 86bd 6460 c13c
000002c0: 88eb a53e 4fd2 08be c040 903e 795c 2dbe
000002d0: e594 4bbe 366b f03d 9320 49be 6a31 223e
000002e0: d0b5 7c3e da61 1c3e 03d0 bb39 cb95 dcbe
000002f0: 22d1 933d fa6d f63b 6b56 54be 809a 883e
00000300: ca54 403d 9523 83be cf1c a4be 7de5 263e
00000310: 29ab ce3d 16e4 87bd 22b6 cebd cc87 8cbe
00000320: a7bc c1bc 7453 d33d 4c15 eb3d 7c1f bb3c
00000330: 61da 2dbe 8f02 3a3e 517c 273e 8265 e0bc
00000340: feb7 c43c 7da2 2a3e eabe c1bb 8024 963e
00000350: 6156 69bc 6265 7f3e b6ea b63d a7b4 06bf
00000360: 9100 1abd 2977 773e 4630 3bbd 7c39 68be
00000370: 0d6b b23e 648b a437 9342 bd3d f297 823e
00000380: 29e6 d1bd ca7a 84be 456b 3d3e b754 4f3e
00000390: fb49 1a3e 5f91 82be c9a0 d7bd 4c93 abbe
000003a0: 391a a73c 3d45 0cbe 1ad9 a63e 44e0 60bc
000003b0: 0036 ffbc 51b3 1cbd 55da ba3d 62e6 a6be
000003c0: 0b46 3ebd 3480 c5bc 1c9e df3c 70ba 82bd
000003d0: 8d8c dabd e3fa 873d 917c 1e3d 757c f63b
000003e0: 56cb 663e 4a4a 51bd 8239 dcbd 5db0 e33d
000003f0: 4e6a acbe 3b68 81be c058 a6bd 1f60 98bc
0.017111944 0.12660927 0.1607185 -0.15053661 -0.024720877 0.039986353 -0.2882087 -0.071882345
0.044633783 0.12162428 0.34530675 0.14103876 -0.015197232 -0.1392751 0.1606554 -0.07476826
0.17815223 -0.10788317 0.16131644 -0.059796955 -0.24057893 0.31760147 0.07801875 0.001673638
0.16966452 0.21814717 -0.14745654 0.078002274 -0.22679482 -0.11563958 0.08734321 -0.054955322
-0.18494388 0.31281033 -0.013245871 -0.11579334 0.061026532 -0.47463363 0.031888638 0.22172107
-0.04850693 -0.07328206 -0.031189635 -0.09592729 0.10256955 0.16949223 -0.34186968 -0.072481394
0.040465515 0.26956517 -0.020351637 0.02396844 -0.18709826 -0.0028110868 0.087713026 0.012794039
0.17572004 0.19436163 -0.17371045 -0.07118283 0.2314358 -0.11899508 0.07882028 -0.04423798
-0.20646243 0.10405399 -0.07449377 0.13699947 0.07336174 -0.027305922 0.057653304 0.08022732
-0.14258212 -0.40838727 0.26846406 -0.2481226 0.02202253 -0.073827 -0.055656 -0.086381435
0.13795778 -0.28344163 0.22401999 0.073367946 0.04034101 -0.018450694 -0.25018436 -0.28494877
-0.032729473 -0.12503737 0.0007757993 -0.04658723 -0.4592912 -0.010841463 0.24877207 -0.11477212
-0.1429229 -0.16571501 -0.0062712366 -0.22470249 -0.16485839 0.062211417 -0.11000021 -0.010300785
-0.072361834 0.30524433 0.09444782 -0.24131617 0.2001326 0.32722574 0.06950941 0.31720752
0.039121423 -0.09466755 -0.0049022064 -0.3314788 0.01615894 -0.020026643 -0.15493824 0.11313608
-0.10100499 0.0072411164 0.21774483 0.04291754 -0.16322136 0.09980298 -0.16702722 0.04788733
-0.13220374 0.009267976 0.15686944 -0.19719169 0.120306656 0.22412626 -0.09885208 0.1325829
-0.3539691 -0.08176523 -0.122876205 -0.04059241 -0.26733825 -0.29798207 0.1181569 -0.027127948
-0.24407095 0.12241496 -0.0109562995 0.0873425 0.45703688 0.08742325 0.029962828 0.03247736
-0.003211596 0.30547506 0.021152336 0.03797591 -0.46854094 -0.1455194 0.09412882 0.002136305
-0.05962584 0.09946612 -0.02568935 0.12351158 -0.083871625 -0.18046042 -0.15942192 0.119280145
-0.33184454 0.3071915 -0.024740582 -0.073001154 -0.29138687 -0.1542451 -0.0658451 0.023605533
0.3240626 -0.13361476 0.281744 -0.16929807 -0.19881018 0.11739199 -0.19641332 0.15839162
0.24678731 0.15271702 0.000358224 -0.43083033 0.07217623 0.0075204344 -0.20736091 0.26680374
0.04695586 -0.25613084 -0.3205323 0.1629848 0.1009124 -0.06635301 -0.10093333 -0.27447355
-0.023649527 0.10318652 0.114786714 0.022842161 -0.16977836 0.18165039 0.16356017 -0.027392153
0.024013516 0.16663547 -0.0059126513 0.29324722 -0.014241786 0.24941018 0.08931486 -0.52619404
-0.037598196 0.2416655 -0.045700334 -0.22678179 0.34847298 1.9615232e-05 0.09241214 0.2550655
-0.10248978 -0.2587493 0.18497951 0.2024716 0.15067284 -0.25501534 -0.10528714 -0.33510816
0.020398246 -0.13698287 0.3258751 -0.013725344 -0.031153679 -0.038256947 0.09123675 -0.32597643
-0.046453517 -0.024108984 0.027297072 -0.063832164 -0.10671339 0.0663965 0.038693015 0.0075221607
0.22538504 -0.05109624 -0.10753156 0.11117623 -0.33674854 -0.25274834 -0.081223965 -0.018600522

network_body._body_endoder.seq_layers.0.bias f4 [128]
00000000: 0000 0000 0000 0000 0000 0000 0000 0000
00000010: 0000 0000 0000 0000 0000 0000 0000 0000
00000020: 0000 0000 0000 0000 0000 0000 0000 0000
00000030: 0000 0000 0000 0000 0000 0000 0000 0000
00000040: 0000 0000 0000 0000 0000 0000 0000 0000
00000050: 0000 0000 0000 0000 0000 0000 0000 0000
00000060: 0000 0000 0000 0000 0000 0000 0000 0000
00000070: 0000 0000 0000 0000 0000 0000 0000 0000
00000080: 0000 0000 0000 0000 0000 0000 0000 0000
00000090: 0000 0000 0000 0000 0000 0000 0000 0000
000000a0: 0000 0000 0000 0000 0000 0000 0000 0000
000000b0: 0000 0000 0000 0000 0000 0000 0000 0000
000000c0: 0000 0000 0000 0000 0000 0000 0000 0000
000000d0: 0000 0000 0000 0000 0000 0000 0000 0000
000000e0: 0000 0000 0000 0000 0000 0000 0000 0000
000000f0: 0000 0000 0000 0000 0000 0000 0000 0000
00000100: 0000 0000 0000 0000 0000 0000 0000 0000
00000110: 0000 0000 0000 0000 0000 0000 0000 0000
00000120: 0000 0000 0000 0000 0000 0000 0000 0000
00000130: 0000 0000 0000 0000 0000 0000 0000 0000
00000140: 0000 0000 0000 0000 0000 0000 0000 0000
00000150: 0000 0000 0000 0000 0000 0000 0000 0000
00000160: 0000 0000 0000 0000 0000 0000 0000 0000
00000170: 0000 0000 0000 0000 0000 0000 0000 0000
00000180: 0000 0000 0000 0000 0000 0000 0000 0000
00000190: 0000 0000 0000 0000 0000 0000 0000 0000
000001a0: 0000 0000 0000 0000 0000 0000 0000 0000
000001b0: 0000 0000 0000 0000 0000 0000 0000 0000
000001c0: 0000 0000 0000 0000 0000 0000 0000 0000
000001d0: 0000 0000 0000 0000 0000 0000 0000 0000
000001e0: 0000 0000 0000 0000 0000 0000 0000 0000
000001f0: 0000 0000 0000 0000 0000 0000 0000 0000
0.0 0.0 0.0 0.0 0.0 0.0 0.0 0.0
0.0 0.0 0.0 0.0 0.0 0.0 0.0 0.0
0.0 0.0 0.0 0.0 0.0 0.0 0.0 0.0
0.0 0.0 0.0 0.0 0.0 0.0 0.0 0.0
0.0 0.0 0.0 0.0 0.0 0.0 0.0 0.0
0.0 0.0 0.0 0.0 0.0 0.0 0.0 0.0
0.0 0.0 0.0 0.0 0.0 0.0 0.0 0.0
0.0 0.0 0.0 0.0 0.0 0.0 0.0 0.0
0.0 0.0 0.0 0.0 0.0 0.0 0.0 0.0
0.0 0.0 0.0 0.0 0.0 0.0 0.0 0.0
0.0 0.0 0.0 0.0 0.0 0.0 0.0 0.0
0.0 0.0 0.0 0.0 0.0 0.0 0.0 0.0
0.0 0.0 0.0 0.0 0.0 0.0 0.0 0.0
0.0 0.0 0.0 0.0 0.0 0.0 0.0 0.0
0.0 0.0 0.0 0.0 0.0 0.0 0.0 0.0
0.0 0.0 0.0 0.0 0.0 0.0 0.0 0.0

network_body._body_endoder.seq_layers.2.weight f4 [128, 128]
00000000: a848 b4bc b0ec 80bc 113d c9bc 0dc6 e23d
00000010: da50 1a3c ace8 8cbd ac4c 13bd a136 89bc
00000020: 7f5c fbbd 1e39 2dbd 3d5a 883d a761 b3bb
00000030: 52c9 c5bc 9a7a 3dbe a746 943d 6bb0 2dbe
00000040: 7c40 903d 114b d6bd 106a 6b3e b883 ca3d
00000050: 9715 203d 22ca 133e 70f3 963d 3937 d73d
00000060: fa78 0b3d cc88 e13d d05a 5bbd a365 bebc
00000070: b4a0 00be 0c5f e7bc 8c84 ae3c 518a 03be
00000080: c769 2f3d 8870 183e ab56 bebd 6e2c ff3d
00000090: 3e77 293e 11f0 5abc d8b4 91bc ceaa 0fbd
000000a0: 523e 06be 05af 863b 9f4e 9dbd a677 81bd
000000b0: a97f 393d 5219 50bd dc94 923a 4149 c4bc
000000c0: 6ede 293d 470f 0c3d d189 2f3e b6df 00be
000000d0: 46da efbc 3920 1dbd 912c 2fbe cced 113e
000000e0: c4ca 86bd 2c7d 85bd 1c65 033d cf05 24bd
000000f0: 7eb5 35bd 447b fcbc 9682 79bd 34f9 d93c
00000100: db30 f2bc eab7 46bd 92fe 8bbd f179 b63d
00000110: a50f b53d 9b89 383c 20a0 fd3d 16fe 163e
00000120: 153b 07bc 07c7 903d 84f9 86bd 84fe f43d
00000130: 99c1 123e 56b1 833d 8340 863c 0a55 2b3e
00000140: e073 f1bd 192c efbb 4c24 a63d fd69 60be
00000150: 2689 55be f21e 0dbd 21bd 82bb 2353 0f3e
00000160: 458a d03d 2a94 e6bd 1cd5 dbbc 0168 c8bd
00000170: 7b90 0dbd 3b42 093d 0ab8 ff3c d523 10be
00000180: 8bbc 94bd 0594 d2bc f436 2b3e f428 b13c
00000190: b503 6fbd 1ebb ed3c 0331 84bd bca4 a73d
000001a0: a3fe 823d 5e75 573d 0d01 04bd b0c6 ae3d
000001b0: f415 a03b 9cf6 033e 3911 13bd e0cc d93c
000001c0: e7a8 e7bd 8607 0fbc 5627 813b 2894 dc3d
000001d0: 68e4 333d 417b 09bd 0676 563d 0c60 013e
000001e0: db78 623c 9dac 0bbc a42d 34be a018 da3d
000001f0: f9d9 a5bd 12bf f73c 784d 6cbd fd86 553d
00000200: 19d1 ab3d 9e36 0dbd d122 133c afab aa3d
00000210: 1058 4b3d ec9e cdbc 0551 953d e6a3 0b3d
00000220: 47c3 b93d 4ff0 1b3d 9a67 94bc 2b3f 523e
00000230: ae4d 71bd 9869 ecbc 5045 8dbd 6dd7 7dbe
00000240: 7430 73bd 3933 afbd f624 183d 17dc 55bd
00000250: 13de 743d e129 36be 505c 053c f39c 193d
00000260: fb31 ef3d 4bee 73bd 811b 473d b5ed dcbd
00000270: 18f3 40bd 3a7f b03d 7150 a5bc 69c0 373d
00000280: c53b ea3d c292 dc3a 47b0 333d 000a a73d
00000290: 5e1e d33c 18f4 54be 1c86 c53d 8dd4 99bc
000002a0: ae5b 06bd 7359 c9bd a331 a5bd acff 043e
000002b0: fa05 f03c 53b2 293c 7962 6b3d 6971 7ebd
000002c0: 1a20 893e 3ae3 45bc 7145 4abb bd1f bcbc
000002d0: eecf e8bd b32a 99bd d078 623d 9d39 5ebc
000002e0: 3437 f4bb e3e2 c3bd 9181 de3d a249 6cbd
000002f0: e130 98bd 59d1 ca3d b6ac 9dbb 76f7 d43c
00000300: eb67 61bc 0f3a 453d e58d c33d d616 54bc
00000310: 1910 49bb 2e1f 643b 4c51 83bd d89e dd3d
00000320: eb2f a7bd f563 cdbd 5b20 18be a16b 36bd
00000330: cb37 24bd c357 6a3d 0e10 ad3d 4dc1 2c3d
00000340: 20e8 62bc 302b 8f3b 7678 d8bd 0828 46bd
00000350: 14da 883c 3229 763c 13fb 993d 0254 373e
00000360: ab0c 39bb a7f6 3abd 4873 3c3d 909a b7bc
00000370: 760a 1dbb 8a01 303d 26f5 7dbc 7a64 37bd
00000380: 71ba 803b 5eee 04be 095b 783d 20d4 823d
00000390: 8483 ebbd 33d0 ab3d 4b25 ae3d 3017 6a3d
000003a0: 6f30 7f3e 76af 1fba 668e 443a 4488 a7bc
000003b0: 5521 04bc babb a93c a3a3 a9bd 5c5a b6bd
000003c0: 652c 993a f2b8 85bc a473 7ebd ca82 3c3d
000003d0: 08ad f63d fc0b a53d a760 193d 7f41 0a3d
000003e0: ba4a 1e3e 4ad8 e93d f3c7 be3d 7d0d 3dbd
000003f0: 2c5a 20bd cfb9 063e e6f1 40bd f04a 5cbd
-0.022007301 -0.015737861 -0.024565252 0.110729314 0.009418691 -0.06880316 -0.035961792 -0.016749682
-0.122735016 -0.0422908 0.066578366 -0.0054742876 -0.024143849 -0.185038 0.07240038 -0.1696183
0.070435494 -0.104635365 0.22989678 0.098884046 0.03908309 0.14432576 0.07370651 0.1050858
0.03405092 0.1101242 -0.053553402 -0.023241824 -0.12561303 -0.028243564 0.021303438 -0.12845732
0.042825487 0.14886677 -0.09293874 0.12459646 0.16549394 -0.0133629 -0.017786428 -0.035075
-0.13109711 0.0041102194 -0.076810114 -0.06321649 0.04528776 -0.050805397 0.001118328 -0.023960711
0.04147189 0.034194257 0.17142417 -0.12585339 -0.029278886 -0.038360808 -0.17106844 0.14250869
-0.06581643 -0.06518015 0.032078847 -0.040044602 -0.044362538 -0.030820496 -0.060915552 0.026608087
-0.029564312 -0.048515238 -0.06835665 0.08909977 0.088408746 0.011263276 0.12384057 0.14745364
-0.008253832 0.070692115 -0.0659056 0.119626075 0.14331664 0.064303085 0.016388183 0.16731659
-0.117896795 -0.007298958 0.08112392 -0.21915431 -0.20853099 -0.03445334 -0.003989831 0.13996558
0.10182623 -0.11258729 -0.026835017 -0.09785462 -0.034561615 0.033510428 0.031215686 -0.14076169
-0.07262524 -0.025705347 0.16720182 0.021625973 -0.058353145 0.029019888 -0.06454661 0.081857175
0.06396224 0.052602164 -0.032227565 0.085339904 0.0048854295 0.12887043 -0.035905097 0.02658695
-0.113115124 -0.008729821 0.003941457 0.10770446 0.043918997 -0.03356481 0.05235865 0.12634295
0.0138227595 -0.008525041 -0.17595536 0.10649228 -0.080982156 0.030242477 -0.057691067 0.052130688
0.083894916 -0.034475915 0.008980469 0.08333527 0.04964453 -0.025100194 0.07290844 0.034091853
0.09070449 0.038070973 -0.018115807 0.20531909 -0.05891197 -0.028858945 -0.06897986 -0.2478921
-0.05937238 -0.08554692 0.037144624 -0.052211847 0.0597821 -0.17789413 0.008139685 0.037503194
0.11679455 -0.059553426 0.048610214 -0.107875265 -0.047106832 0.086180165 -0.020179959 0.04486123
0.114371814 0.0016828405 0.043869283 0.08156204 0.025771316 -0.2079624 0.0964472 -0.01877811
-0.032802276 -0.09831514 -0.08066108 0.12988156 0.029299725 0.010357457 0.057466958 -0.062119875
0.26782304 -0.012078101 -0.0030864144 -0.022964353 -0.113677844 -0.07478847 0.055290997 -0.013563541
-0.00745287 -0.095647596 0.108645566 -0.05768741 -0.07431198 0.09903211 -0.0048118485 0.025996905
-0.013757686 0.048151072 0.095485486 -0.012944898 -0.003067976 0.0034808624 -0.064119905 0.10821313
-0.081634365 -0.10028831 -0.14856093 -0.044536237 -0.04009227 0.057212602 0.08450328 0.042176533
-0.013849288 0.004369162 -0.10569851 -0.04837802 0.01670555 0.01502447 0.07518592 0.1790314
-0.002823631 -0.045645382 0.04600838 -0.022412568 -0.0023962534 0.042970218 -0.0155003425 -0.044773556
0.0039284755 -0.12981555 0.060633693 0.06388116 -0.11499694 0.0838932 0.08503207 0.05715102
0.2492082 -0.00060915144 0.00074980257 -0.020450719 -0.008064588 0.020719398 -0.08283164 -0.089039534
0.0011686204 -0.01632354 -0.062122002 0.046023168 0.12044722 0.080589265 0.03744569 0.03375387
0.15458193 0.11418207 0.09315481 -0.04615544 -0.039148495 0.13156818 -0.047105692 -0.053782403

network_body._body_endoder.seq_layers.2.bias f4 [128]
00000000: 0000 0000 0000 0000 0000 0000 0000 0000
00000010: 0000 0000 0000 0000 0000 0000 0000 0000
00000020: 0000 0000 0000 0000 0000 0000 0000 0000
00000030: 0000 0000 0000 0000 0000 0000 0000 0000
00000040: 0000 0000 0000 0000 0000 0000 0000 0000
00000050: 0000 0000 0000 0000 0000 0000 0000 0000
00000060: 0000 0000 0000 0000 0000 0000 0000 0000
00000070: 0000 0000 0000 0000 0000 0000 0000 0000
00000080: 0000 0000 0000 0000 0000 0000 0000 0000
00000090: 0000 0000 0000 0000 0000 0000 0000 0000
000000a0: 0000 0000 0000 0000 0000 0000 0000 0000
000000b0: 0000 0000 0000 0000 0000 0000 0000 0000
000000c0: 0000 0000 0000 0000 0000 0000 0000 0000
000000d0: 0000 0000 0000 0000 0000 0000 0000 0000
000000e0: 0000 0000 0000 0000 0000 0000 0000 0000
000000f0: 0000 0000 0000 0000 0000 0000 0000 0000
00000100: 0000 0000 0000 0000 0000 0000 0000 0000
00000110: 0000 0000 0000 0000 0000 0000 0000 0000
00000120: 0000 0000 0000 0000 0000 0000 0000 0000
00000130: 0000 0000 0000 0000 0000 0000 0000 0000
00000140: 0000 0000 0000 0000 0000 0000 0000 0000
00000150: 0000 0000 0000 0000 0000 0000 0000 0000
00000160: 0000 0000 0000 0000 0000 0000 0000 0000
00000170: 0000 0000 0000 0000 0000 0000 0000 0000
00000180: 0000 0000 0000 0000 0000 0000 0000 0000
00000190: 0000 0000 0000 0000 0000 0000 0000 0000
000001a0: 0000 0000 0000 0000 0000 0000 0000 0000
000001b0: 0000 0000 0000 0000 0000 0000 0000 0000
000001c0: 0000 0000 0000 0000 0000 0000 0000 0000
000001d0: 0000 0000 0000 0000 0000 0000 0000 0000
000001e0: 0000 0000 0000 0000 0000 0000 0000 0000
000001f0: 0000 0000 0000 0000 0000 0000 0000 0000
0.0 0.0 0.0 0.0 0.0 0.0 0.0 0.0
0.0 0.0 0.0 0.0 0.0 0.0 0.0 0.0
0.0 0.0 0.0 0.0 0.0 0.0 0.0 0.0
0.0 0.0 0.0 0.0 0.0 0.0 0.0 0.0
0.0 0.0 0.0 0.0 0.0 0.0 0.0 0.0
0.0 0.0 0.0 0.0 0.0 0.0 0.0 0.0
0.0 0.0 0.0 0.0 0.0 0.0 0.0 0.0
0.0 0.0 0.0 0.0 0.0 0.0 0.0 0.0
0.0 0.0 0.0 0.0 0.0 0.0 0.0 0.0
0.0 0.0 0.0 0.0 0.0 0.0 0.0 0.0
0.0 0.0 0.0 0.0 0.0 0.0 0.0 0.0
0.0 0.0 0.0 0.0 0.0 0.0 0.0 0.0
0.0 0.0 0.0 0.0 0.0 0.0 0.0 0.0
0.0 0.0 0.0 0.0 0.0 0.0 0.0 0.0
0.0 0.0 0.0 0.0 0.0 0.0 0.0 0.0
0.0 0.0 0.0 0.0 0.0 0.0 0.0 0.0

action_model._discrete_distribution.branches.0.weight f4 [38, 128]
00000000: 4a92 8439 7e35 06bc 4495 1f3b eb27 4abc
00000010: 072d 853c 73a5 033b 22aa 6bbc 3643 c1bb
00000020: dfa3 14ba e034 af3b e8af adba 9711 9e3b
00000030: 162a 973b 18f9 f13b d15e 2d3c cf9d 3d3c
00000040: 6753 923b 0e7c 383c 7df1 773c dd4f d3bb
00000050: f1a7 96bb fa74 923c 7bd4 f2ba 5084 7abc
00000060: cb55 f2bb 63f1 0ebc 39df 47bb 9a8f 853b
00000070: da08 873b 0a2d 253c 7e09 113c f08a d2bb
00000080: f87b d13b 4039 7d3c 372d 5dba 35c9 97bc
00000090: 1b9f 9cbb 661f aebc 9c14 463a 99f1 ad3b
000000a0: fa3e febb 13f2 97bb 3769 08bc d344 9d3b
000000b0: 1978 34bc 870d 09bc d751 3e3c 2a1a b9ba
000000c0: 9a48 7f39 65d4 a33b 1f9c 0bbc df94 f1bb
000000d0: 9063 0cbc 1810 f23b 07e6 ab3b fa59 0bbc
000000e0: 6750 8a3b 40af d2bb 6716 9d3c fb04 703c
000000f0: 4a00 5cbb 1740 a53c b8b8 5138 41e4 4bbc
00000100: 529b b0bc a2df 4bbb a2ef c2bb 2574 823a
00000110: 4fce a83c 78d7 71bb c83e 41bc fd16 a8bb
00000120: 4aa5 df3b cf18 f2b9 6d42 a2ba ac33 403c
00000130: 1d44 d5bb dae3 90bb ef01 923c 57ab 48bc
00000140: 723a 9f3c 5dff 5c3a 4c2b 0b3c b098 933a
00000150: f1f9 1e3b e257 8b3b baa0 0ebb 3314 c4bb
00000160: 5d9b 0e3b 4c1b a23a d555 683c 2e18 c0ba
00000170: b3e7 b5bb c3ee 713b 1bd6 baba 6835 47bc
00000180: 5706 3fbc 22fb d93b d2af ed3b 2746 b13b
00000190: 0c04 2cbc b761 c7bb 61f6 1ebb 7a4d 18bc
000001a0: 0332 773b 40bc 733a d397 a4bb a71d f03b
000001b0: 3380 42bb 9fe1 73ba 6bf2 973c a008 babb
000001c0: eab0 6d3a 6fa4 663c 4368 d73a c825 f23b
000001d0: 2ffe 913b 6fde 223c cd57 543b cb46 383c
000001e0: 0822 063b 4075 38bc de18 a23b c0c5 5a3b
000001f0: 300e f83b 39f3 3f3a ad95 91bc 2b14 16bc
00000200: 579a 563b caae 3cbc 9b7b 0cb9 810f 07bc
00000210: e3d8 f2bb 825d cabb 1fe9 873c bd9c 4d3c
00000220: 309c e7ba 3a8a 803c abd7 053b 38f9 a4bc
00000230: cf7d 2abc 5fb6 ca3a 4de7 a33a 13a3 3f39
00000240: b3a0 23bc f803 563b cf45 383b 1a57 71bc
00000250: 9150 beba 2070 e23b 1843 513c 2692 c9ba
00000260: 40b0 173c 85c6 1abb f299 e4b9 dfb6 c2bb
00000270: 63bc c83b b782 7b3b c4c1 383b d961 8f3b
00000280: d4c6 923b 47ac 283c 2d12 79bc a004 863c
00000290: 0410 87bc 9626 833b cb69 343c 98c4 3f3c
000002a0: dacf 6d3c 40e7 76bb d234 6dbc df50 113c
000002b0: 531b 903b da66 c2ba 7fd6 c33b 4f2f 04bb
000002c0: 85ea 6c3b d6a6 97ba 2729 863b e734 b839
000002d0: 1fea 933b 1b1d 763c 27a7 10bb b7f8 b938
000002e0: 639a cebb 4084 42bc 3fd3 2ebb 50a9 81bc
000002f0: 6440 aebb 671d 093a 5b04 1c3b 842b 9c3a
00000300: 581d 6a3c 7c94 373c 101b 6dba 4e54 15bb
00000310: 8e6c 153b cb36 0d3b ad2e a33b f3c8 afba
00000320: d539 32bc a957 90ba 62e9 70bc f8b6 66bb
00000330: 7c6d 38bc 55c5 e73b 7058 06bb 0167 3fbb
00000340: bbbb ac3b 3511 32bc 1754 a63b 6bca bbbb
00000350: f813 073b 9089 f13a ae1b 11bb 0212 99bb
00000360: 935a 57bc 11f2 343c b8ed 73bc 5bd5 b6bb
00000370: 5ce9 8d3b c70d f93a 539a 853b 7d5f 3e3c
00000380: 74f9 40bc a308 a1bb 880d ddba de4c 023c
00000390: 33ef 9abb 3519 833c 4ed9 b93b 6d8f 4c3c
000003a0: e2c8 f73a ab7a 24bb 9a54 deba ee3a 9ebc
000003b0: a232 f9bb 985c 1cbc 10b5 fdbb 27a0 88ba
000003c0: d0db 433a 00be 5fbc 52ec 9cbc 20f7 14bc
000003d0: 0f4e d9bb 55f3 113c da26 c13b ce96 393b
000003e0: 28e5 5c3c 952e 5dba d726 963c c753 273b
000003f0: 3818 693b 8fe5 5f3b 8e2f 153b 1fad 3ebc
0.00025285996 -0.0081914645 0.0024350444 -0.012338619 0.016256822 0.002008763 -0.014383825 -0.0058979047
-0.00056701706 0.0053468794 -0.0013251277 0.004823874 0.0046131713 0.0073844306 0.010581688 0.011573269
0.0044655087 0.011260046 0.015133259 -0.0064487294 -0.004597657 0.017878044 -0.0018526459 -0.015290335
-0.007395481 -0.008724543 -0.0030498041 0.0040759565 0.0041209282 0.010081539 0.008852361 -0.006425254
0.006392952 0.015455544 -0.00084372185 -0.01852856 -0.004779709 -0.021255206 0.00075561716 0.0053083417
-0.0077589722 -0.004637012 -0.008325866 0.0047994643 -0.011014962 -0.008365042 0.011616192 -0.0014122177
0.00024345741 0.0049996846 -0.008521109 -0.007372483 -0.008568659 0.0073871724 0.0052459273 -0.008505339
0.0042210105 -0.006429583 0.019175721 0.014649625 -0.0033569508 0.020172162 5.0001516e-05 -0.012444557
-0.021558437 -0.0031108637 -0.0059489766 0.0009952827 0.020606188 -0.003690211 -0.011794753 -0.0051296935
0.006825124 -0.0004617632 -0.0012379416 0.01173107 -0.006508364 -0.0044216933 0.017823188 -0.012247882
0.019437049 0.0008430386 0.0084942095 0.0011260714 0.0024257863 0.00425242 -0.002176328 -0.0059838532
0.0021760084 0.0012367754 0.01418062 -0.0014655644 -0.0055513023 0.0036915995 -0.0014254482 -0.012158729
-0.011659226 0.006652252 0.0072536254 0.005409974 -0.010499012 -0.0060846466 -0.002425574 -0.009295816
0.0037719018 0.0009297766 -0.0050229817 0.0073277536 -0.0029678463 -0.00093033345 0.018548211 -0.0056772977
0.0009067195 0.01407729 0.0016434271 0.007389758 0.00445535 0.009940728 0.0032400966 0.011247347
0.0020467062 -0.011258423 0.004946812 0.0033382028 0.0075700507 0.0007322315 -0.017771566 -0.009160082
0.0032745802 -0.011516282 -0.00013397487 -0.0082434425 -0.007411109 -0.006175698 0.016590653 0.012549576
-0.0017670449 0.015690912 0.0020422738 -0.020138368 -0.010405972 0.0015465728 0.0012504846 0.0001827593
-0.009987044 0.0032656174 0.002811778 -0.014730239 -0.001451986 0.006910339 0.012772344 -0.0015378639
0.00925833 -0.0023616862 -0.00043602247 -0.00594221 0.006125973 0.0038377473 0.0028191665 0.004375678
0.0044792686 0.01029498 -0.015202087 0.016359627 -0.016487129 0.0040024025 0.011011551 0.011704586
0.014514888 -0.0037674457 -0.014477925 0.008869379 0.0043977886 -0.0014831678 0.0059764977 -0.00201698
0.0036150527 -0.0011570107 0.004094261 0.0003513463 0.0045139934 0.015021588 -0.0022072287 8.867814e-05
-0.0063050254 -0.011872351 -0.0026676205 -0.015827805 -0.0053177346 0.00052305165 0.0023806307 0.0011914824
0.014289223 0.011204835 -0.0009044865 -0.0022785845 0.00228003 0.0021547552 0.0049799294 -0.0013411328
-0.010878046 -0.0011012453 -0.01470408 -0.0035204273 -0.011256572 0.0070730844 -0.002049949 -0.0029205682
0.0052714027 -0.01086836 0.0050759423 -0.005730917 0.0020611268 0.0018427838 -0.0022141743 -0.004671336
-0.013144153 0.011044041 -0.01488822 -0.005579633 0.004330797 0.0019001298 0.004077235 0.011619446
-0.011778224 -0.0049143597 -0.0016864995 0.007952897 -0.004728222 0.01600323 0.0056716567 0.012485367
0.0018904472 -0.002509753 -0.0016962469 -0.01931521 -0.007604913 -0.00954356 -0.0077425316 -0.0010423706
0.0007471414 -0.013656139 -0.019155655 -0.009092122 -0.0066316198 0.0089081125 0.005894524 0.0028318646
0.0134823695 -0.0008437422 0.018329067 0.0025532113 0.0035567414 0.0034163927 0.002276394 -0.011637955

action_model._discrete_distribution.branches.0.bias f4 [38]
00000000: 0000 0000 0000 0000 0000 0000 0000 0000
00000010: 0000 0000 0000 0000 0000 0000 0000 0000
00000020: 0000 0000 0000 0000 0000 0000 0000 0000
00000030: 0000 0000 0000 0000 0000 0000 0000 0000
00000040: 0000 0000 0000 0000 0000 0000 0000 0000
00000050: 0000 0000 0000 0000 0000 0000 0000 0000
00000060: 0000 0000 0000 0000 0000 0000 0000 0000
00000070: 0000 0000 0000 0000 0000 0000 0000 0000
00000080: 0000 0000 0000 0000 0000 0000 0000 0000
00000090: 0000 0000 0000 0000
0.0 0.0 0.0 0.0 0.0 0.0 0.0 0.0
0.0 0.0 0.0 0.0 0.0 0.0 0.0 0.0
0.0 0.0 0.0 0.0 0.0 0.0 0.0 0.0
0.0 0.0 0.0 0.0 0.0 0.0 0.0 0.0
0.0 0.0 0.0 0.0 0.0 0.0

network_body._body_endoder.seq_layers.0.weight f4 [128, 39]
00000000: 2887 103e 56f8 80be b6a5 2dbe a141 1abd
00000010: e96a f53c 7eb4 ae3e 4e70 db3c ab20 283e
00000020: 67a9 acbd a745 2f3e 548f c53d 811a a8bd
00000030: 2874 c43b b1cb 7ebd ff0c 18bd dbc3 863d
00000040: a1f5 813c 9021 9d3d 2a20 423d 8de4 51be
00000050: d527 3cbe 985f 393d 14d2 39bd dd70 79be
00000060: c58b 35be 2eb4 92bd 7338 943c 1e51 f4bd
00000070: 9c9e 273e fd5c 90be f26b a13c 3fa5 00be
00000080: 0058 18be 33b7 3a3c c1e7 00be 56eb 553e
00000090: cbd7 44be b315 55bd 8991 863e 3e4e 80bc
000000a0: 4d3e 5fbe c1e8 bb3b 8eca 32bd 20d2 debd
000000b0: 2520 d1bc 898b c0bb ebc2 10bd a879 493e
000000c0: 78ce d23d 4825 dcbe a023 14be b228 ea3c
000000d0: 5426 393d 6b3d 1dbd bd04 953d f82c 8a3e
000000e0: 7780 4a3d b9d3 e7bc 2919 403e 579c 433e
000000f0: 6457 3ebe 4cc7 803e 9a9f 563e c4f6 45be
00000100: 3aac 25be 20b9 86bd f71d e9bd 1099 413e
00000110: bb01 3e3e d3c2 87bd 163b 23be 9109 b0bd
00000120: edc8 353d 765c 7dbd 94ec 19be eb33 7b3c
00000130: 28bb 3fbb f08c 073e fb09 533d ea4b 1e3d
00000140: 9e08 423e 67b9 72be 12dd 8c3c 76b9 363c
00000150: 808a 03be 1219 8cbe 1afb 103d 2a13 623e
00000160: b88b abbe f372 a73d ced5 a43b 1ee7 ccbc
00000170: 30d8 673e f016 14be 3e89 9e3d 7f1e 8aba
00000180: c218 8b3e 47a6 b8bd f9b4 12bd 0ccb 66bd
00000190: 9556 703e 68ed 18be 623e 46bd 05c9 833e
000001a0: 7ea2 f83d 8cba a7bd d125 2fbe 9c30 93bc
000001b0: 6ee6 a1bc 8cf2 8ebd 3735 623d 716f f0bc
000001c0: 6b01 89bd d89d b53d 9808 97bd 85c2 05be
000001d0: 9577 ba3d ca97 f9bc d1ab f6bb d500 3c3e
000001e0: f020 86bc 52a8 09bd 658d 03bc a37b 103d
000001f0: e28a d6be e20e 203d 682f 4ebe 573c d5bc
00000200: b491 81bc 3b44 eabe 5b5b a33d c0cf 9ebe
00000210: 77fb c6be a3fa 64be 98c8 9e39 adbd c2bd
00000220: fdd5 02be 70fb fdbd 4462 ffbd 413e 4f3e
00000230: bdd1 0c3e 9bff 33be f4f7 bc3a b9de a3bd
00000240: 573a 213e 70c8 903e 0ae2 e83d 8aab 0bbe
00000250: 32c4 41be 688b 4d3e 8afc 153e dd81 c63d
00000260: 2178 003f 07e9 5c3e 72d1 80be 47f7 68bc
00000270: 8e62 aebe c688 56be cdee 62bd 6390 dabd
00000280: e491 fdbe dedc 5c3e 0f6a 053e ae39 bdbc
00000290: b0e6 f5bd 155c cdbe 1b6a 203e dc98 4ebe
000002a0: a378 943d caf9 3bbe 6f1a 753d 044a 68bc
000002b0: 91b9 06bd 5da2 423e e980 1f3e bd33 803d
000002c0: ce9a fe3c a53e 293c 3665 c4bd eabd a43e
000002d0: cb94 f7bc 7276 433d 626a 273e 0b5f 4a3d
000002e0: 16b9 81bd 08f8 753d 9c2c 42be f06a cc3e
000002f0: a6d8 e03d 3a4d 043e 67dc 35bd fae4 1ebd
00000300: 95ac 1a3d 8492 0dbe dc0c 053e 10f4 e13d
00000310: bcef 343d 8342 d63d 3bb4 c5bd cc32 1fbe
00000320: ac5c 33be 61bf 2f3d 0710 a63d fa2a af3c
00000330: 9350 28bd 3c4f 32bd 2545 16bd 9bb5 c73e
00000340: 0113 2dbe 1ff3 3dbe 409e 46bd cde5 ae3d
00000350: 5348 62bb a740 be3d bf08 3cbd 0fd0 bbbd
00000360: eaa1 483d 138f db3c 437a e53e 8c82 72bc
00000370: 1a9c a8bd 7708 5b3d db11 0abe 0efc 0bbe
00000380: e048 aabe 4fea 93bc c9f5 443e afb5 1f3e
00000390: 3ec8 29be 0ac2 833d 4285 393d d45a b93d
000003a0: baf0 0d3d b830 6d3e bb0f a13e f47e 973c
000003b0: 2bab 7cbd b479 18be 7dd0 573e 65ac 653e
000003c0: 6ecd 20be 71eb 293e ab0f 7cbd d0a0 833d
000003d0: 9bc3 1e3e 1297 18be dc02 333d fb85 0c3e
000003e0: 220c 8cbe f3c7 ae3d fee7 573b 76e1 00be
000003f0: a53e f6bc 3d70 2abe ccbd 94bd d970 9fbc
0.14114058 -0.25189465 -0.16957745 -0.037660245 0.029958205 0.3412208 0.02678695 0.16418712
-0.084307484 0.17116414 0.09646478 -0.0820818 0.005995292 -0.062205974 -0.03712177 0.06580325
0.015864195 0.07672417 0.047393955 -0.20497341 -0.1837457 0.04525718 -0.04536636 -0.2435946
-0.17729099 -0.07163273 0.018093323 -0.119295344 0.16369098 -0.28195944 0.019704793 -0.12563036
-0.1487732 0.011396217 -0.12588407 0.20890555 -0.19222943 -0.052022647 0.2628291 -0.015662309
-0.2180111 0.0057345335 -0.043650202 -0.10879922 -0.025528023 -0.005876009 -0.03534214 0.19675314
0.10293287 -0.42997193 -0.14466715 0.028583858 0.04520257 -0.03838865 0.072762944 0.26987433
0.04943892 -0.0282992 0.18759598 0.19102608 -0.18588024 0.2515205 0.2095932 -0.19332415
-0.1617898 -0.065782785 -0.113826685 0.18906045 0.18555348 -0.06628957 -0.15940508 -0.08595575
0.04438107 -0.061855756 -0.15031654 0.015332202 -0.002925584 0.13237357 0.05152319 0.038646616
0.189486 -0.23703538 0.017195258 0.011152616 -0.12845802 -0.27362877 0.03539572 0.22077623
-0.33505034 0.08176222 0.0050303703 -0.025012549 0.22641063 -0.14461875 0.077410206 -0.0010537653
0.27167326 -0.0901609 -0.03581712 -0.056345984 0.23470528 -0.14934313 -0.048399337 0.25739303
0.12140368 -0.08189878 -0.1710427 -0.017967515 -0.019763198 -0.06979856 0.05522653 -0.029350014
-0.066897236 0.08867997 -0.07374686 -0.13062485 0.0910484 -0.030467886 -0.0075278063 0.18359692
-0.016373128 -0.03360779 -0.008029317 0.03527416 -0.41902834 0.039076693 -0.20135272 -0.026029749
-0.015816547 -0.4575518 0.07976409 -0.31017876 -0.38863727 -0.22361235 0.00030285562 -0.09508834
-0.12776943 -0.124014735 -0.124699146 0.20238592 0.13751884 -0.17577974 0.0014417158 -0.08001465
0.15744911 0.28277922 0.113712385 -0.13639656 -0.18922499 0.2007271 0.14647117 0.09692738
0.501833 0.21573268 -0.25159794 -0.014219112 -0.34059566 -0.20950612 -0.05540352 -0.10672071
-0.49525368 0.21568629 0.1302874 -0.023098793 -0.12006891 -0.40109316 0.15665476 -0.20175499
0.07249572 -0.18357006 0.059839662 -0.014177803 -0.032891814 0.19007249 0.15576519 0.06259868
0.031079676 0.010329877 -0.09589617 0.32176143 -0.030222317 0.04772038 0.16349176 0.049407046
-0.063341305 0.060050994 -0.1896233 0.39925337 0.109788224 0.12920085 -0.044399645 -0.038792588
0.037762243 -0.13825423 0.12993187 0.11032879 0.04417394 0.10461905 -0.09653517 -0.15546721
-0.1751582 0.042907123 0.08108526 0.021382798 -0.041092467 -0.043532595 -0.036687035 0.3900574
-0.1690178 -0.18549775 -0.048490763 0.08539925 -0.0034527972 0.09289675 -0.04590678 -0.091705434
0.04898254 0.026801622 0.4481984 -0.014801633 -0.08232899 0.05347487 -0.13483374 -0.1367037
-0.33258724 -0.018056063 0.19234385 0.1559665 -0.16580293 0.064334944 0.0452931 0.09050527
0.034653403 0.23163116 0.31457314 0.018493153 -0.061686676 -0.14890176 0.21075626 0.22429045
-0.15703365 0.1659372 -0.06153838 0.06427157 0.15504305 -0.14901379 0.0437039 0.13722984
-0.27353007 0.08534231 0.0032944675 -0.12586007 -0.030059168 -0.16644378 -0.072627634 -0.01946299

network_body._body_endoder.seq_layers.0.bias f4 [128]
00000000: 0000 0000 0000 0000 0000 0000 0000 0000
00000010: 0000 0000 0000 0000 0000 0000 0000 0000
00000020: 0000 0000 0000 0000 0000 0000 0000 0000
00000030: 0000 0000 0000 0000 0000 0000 0000 0000
00000040: 0000 0000 0000 0000 0000 0000 0000 0000
00000050: 0000 0000 0000 0000 0000 0000 0000 0000
00000060: 0000 0000 0000 0000 0000 0000 0000 0000
00000070: 0000 0000 0000 0000 0000 0000 0000 0000
00000080: 0000 0000 0000 0000 0000 0000 0000 0000
00000090: 0000 0000 0000 0000 0000 0000 0000 0000
000000a0: 0000 0000 0000 0000 0000 0000 0000 0000
000000b0: 0000 0000 0000 0000 0000 0000 0000 0000
000000c0: 0000 0000 0000 0000 0000 0000 0000 0000
000000d0: 0000 0000 0000 0000 0000 0000 0000 0000
000000e0: 0000 0000 0000 0000 0000 0000 0000 0000
000000f0: 0000 0000 0000 0000 0000 0000 0000 0000
00000100: 0000 0000 0000 0000 0000 0000 0000 0000
00000110: 0000 0000 0000 0000 0000 0000 0000 0000
00000120: 0000 0000 0000 0000 0000 0000 0000 0000
00000130: 0000 0000 0000 0000 0000 0000 0000 0000
00000140: 0000 0000 0000 0000 0000 0000 0000 0000
00000150: 0000 0000 0000 0000 0000 0000 0000 0000
00000160: 0000 0000 0000 0000 0000 0000 0000 0000
00000170: 0000 0000 0000 0000 0000 0000 0000 0000
00000180: 0000 0000 0000 0000 0000 0000 0000 0000
00000190: 0000 0000 0000 0000 0000 0000 0000 0000
000001a0: 0000 0000 0000 0000 0000 0000 0000 0000
000001b0: 0000 0000 0000 0000 0000 0000 0000 0000
000001c0: 0000 0000 0000 0000 0000 0000 0000 0000
000001d0: 0000 0000 0000 0000 0000 0000 0000 0000
000001e0: 0000 0000 0000 0000 0000 0000 0000 0000
000001f0: 0000 0000 0000 0000 0000 0000 0000 0000
0.0 0.0 0.0 0.0 0.0 0.0 0.0 0.0
0.0 0.0 0.0 0.0 0.0 0.0 0.0 0.0
0.0 0.0 0.0 0.0 0.0 0.0 0.0 0.0
0.0 0.0 0.0 0.0 0.0 0.0 0.0 0.0
0.0 0.0 0.0 0.0 0.0 0.0 0.0 0.0
0.0 0.0 0.0 0.0 0.0 0.0 0.0 0.0
0.0 0.0 0.0 0.0 0.0 0.0 0.0 0.0
0.0 0.0 0.0 0.0 0.0 0.0 0.0 0.0
0.0 0.0 0.0 0.0 0.0 0.0 0.0 0.0
0.0 0.0 0.0 0.0 0.0 0.0 0.0 0.0
0.0 0.0 0.0 0.0 0.0 0.0 0.0 0.0
0.0 0.0 0.0 0.0 0.0 0.0 0.0 0.0
0.0 0.0 0.0 0.0 0.0 0.0 0.0 0.0
0.0 0.0 0.0 0.0 0.0 0.0 0.0 0.0
0.0 0.0 0.0 0.0 0.0 0.0 0.0 0.0
0.0 0.0 0.0 0.0 0.0 0.0 0.0 0.0

network_body._body_endoder.seq_layers.2.weight f4 [128, 128]
00000000: 4826 c53d 7a85 08bd 9e0e 3dbd 5fec 843d
00000010: b8e4 17be d40d 523e 126a 983d a3dd 00be
00000020: 5b8d dc3d 0a7c 033d 080d 63bc 6da4 863c
00000030: d2cd bebd 3a59 163e a80c a93d d7d9 0d3b
00000040: 033b 433e af29 293e b10d c63c 7591 793b
00000050: c433 fb3b 7e6e e73d be68 96bd d645 443e
00000060: 153d c6bd 3e7f 84ba 1366 923d 25a5 ab3d
00000070: 0308 553c f73e 8abd 859b 0c3d 7c1b e1bd
00000080: e417 dc3d 4971 41bd 249a 46be 1270 46bd
00000090: 4491 843d f374 14bc 8761 41bd 59c2 1a3d
000000a0: 8c4b a43d efe6 9cbc d091 1c3e 8666 b03d
000000b0: 418c febd 154a e93d 3bd1 e83c 2773 39be
000000c0: 868d a93c 876c 9f3d 2466 97bd c275 d1bd
000000d0: 0694 383d 4390 5f3d f893 cebc 375d 9abd
000000e0: 8919 3bbc 7e3f e83d 9656 5a3d 67fe c9bd
000000f0: f562 753c b93e f83a f9d9 75bd 2391 d8bd
00000100: 4365 f7bd 14fc 313d 2a1a e6bc 91e1 8fbd
00000110: cdff 92bd c89b c43c bf3a 19bd 77c8 8fbc
00000120: 21fa 80be ca2c a3bc 0c1a 153d 4cca a9bd
00000130: 9d2d 133e 2ead 19bd 8676 f4bd 2b03 fe3d
00000140: fa7d 17bd 6e3a 943b d22d 91bd cdc1 b7bd
00000150: cd29 24bd 2ce3 44bd ae86 7a3d 3c6f 58be
00000160: d3eb 303d b5a1 f0bd ba32 303d 8504 fdbd
00000170: d4fc f53c ed2e b33d 3c63 c5bd c629 c93d
00000180: c1ee 783d d02d 38bd a46e 0b3e 914e eebd
00000190: 1c5b fd3d e46e 6bbb a98a 04be 4008 b93d
000001a0: 388d 03bd 955c d23d 6cf3 cabc 4c17 65bc
000001b0: 4211 853d 5301 d7bc 7d67 103d 56de bfbc
000001c0: 8446 6ebd 8dc3 18bc d959 35bd c91b f0bd
000001d0: bec2 2f3d 9a58 9cbd a1ee 2f3e 0c9b 073d
000001e0: bd2b 8a3d c3b4 983c 2186 8c3c 1122 e0bd
000001f0: 7305 2e3c 6ccc c1bb fef3 d73c a60c a93d
00000200: f192 90bd 9469 10bd 0703 a9bc 5deb 1fbc
00000210: 44cb 0bbd 8040 5dbd 34a9 1ebe 1049 a43d
00000220: f85f f83c 1e8f 8fbc 82c9 01be f9f7 6fbd
00000230: e070 493e 5db6 f6bd abd5 b3bd beac c6bd
00000240: 6fbc 323d e788 633c bbc5 28bc 6589 063d
00000250: 1bca 3a3d 2661 75bd 8f22 853d 45f5 e8bd
00000260: 7b26 2c3c bebe d93c d538 08bd e7fa 343b
00000270: d9bc 533d 7b94 04bc a466 0d3c 792f 7b3c
00000280: 0d1b 5bbb 3c86 8a3c 2120 efb9 ff06 593c
00000290: 7685 153e 114a 043e f7a4 ec3d e1c9 2b3d
000002a0: 3b57 99bd 2d4a e7bb 0e2d e9bd 3a22 52bd
000002b0: 8a7b 3abd 871f fcbd 5503 dd3d 2519 33bd
000002c0: 8251 d63d a94b 103e e232 03bd 667b 9ebd
000002d0: 5d6f f9bc 0903 96bd e88d 7ebc 07df 0b3e
000002e0: ca5b 8ebd 59c0 6f3d e4af c63d 389b 8fbc
000002f0: bb7c 803c 5ec3 f33d acff 043c a3df aa3d
00000300: 3ab1 1dbd f6a7 0f3e 4763 f43a 7491 6dbd
00000310: d85b eb3d fcdd 553c fe86 983c c3f6 41bd
00000320: 6527 96bd c98c 973d abe9 08bb bdda c2bd
00000330: a2db 353d e27d 29bd 74a3 ddbc adab 58be
00000340: e69d 9b3d a456 49be af09 c33d e0b5 963d
00000350: 5127 67bc ef7a 6dbc a7f9 d8bd b060 53bd
00000360: a900 47bd 1674 e0bd fbc7 9bbc c96b ffbc
00000370: 5a07 f5bc a1af 3fbe 7d61 bfbd 5bf3 08be
00000380: f344 483d 3f41 af3c c907 39bd 511e adbc
00000390: dd9c 4cbc 0501 a03d 75cc c7bd 133d 7ebe
000003a0: 3e65 20bc 66d7 bb3d e31e b9bb 05b1 933c
000003b0: bd35 c6bd 5c50 c4bd 6995 29be 8569 9fbc
000003c0: 0379 2a3d c93f 1cbd d2ca 6c3d 7c14 f93c
000003d0: e4d4 3a3d b8f1 afbb beac a1bd 808d f33d
000003e0: 8a7e a8bd 0fb7 163c 2cd7 05be acd3 30be
000003f0: ea57 1c3e 7c98 5abd 7cd5 f1bc 6124 8e3d
0.09626442 -0.03333042 -0.04615652 0.06490397 -0.14833343 0.20513088 0.07442106 -0.12584548
0.10769149 0.032100715 -0.013858087 0.016435826 -0.09316601 0.14682475 0.08254367 0.0021644735
0.1906548 0.16519807 0.02417645 0.0038081084 0.007666083 0.113003716 -0.07344197 0.19167265
-0.09679619 -0.0010108722 0.07148375 0.08381108 0.013002398 -0.06750291 0.034328002 -0.1099157
0.10746744 -0.047227178 -0.19394737 -0.048446722 0.0647302 -0.009061086 -0.04721215 0.037783
0.08022222 -0.019153086 0.15289998 0.08613305 -0.12429095 0.11391083 0.028420081 -0.18110333
0.020697366 0.07784372 -0.07392529 -0.10227539 0.04506304 0.054580938 -0.025217041 -0.075373106
-0.011419662 0.11340235 0.05330523 -0.098629765 0.0149772065 0.0018939591 -0.060022328 -0.10574558
-0.12079861 0.04345329 -0.028088648 -0.07025445 -0.071776964 0.024000064 -0.03740954 -0.017551644
-0.25190833 -0.019918818 0.036401793 -0.08290538 0.14372869 -0.037518673 -0.11936669 0.12402948
-0.036985375 0.004523567 -0.07088818 -0.089725114 -0.040078927 -0.04806821 0.061163597 -0.21136183
0.04319365 -0.11749593 0.043017127 -0.12354378 0.030027784 0.08749185 -0.09638068 0.09822421
0.06077457 -0.044965565 0.13616425 -0.11636079 0.12370893 -0.003592425 -0.1294352 0.09034777
-0.0321171 0.10271565 -0.024774276 -0.013982605 0.06497432 -0.026245749 0.035254944 -0.023421448
-0.058172718 -0.009323967 -0.04427514 -0.117240496 0.04291033 -0.07634087 0.17180873 0.03310685
0.06746624 0.018640881 0.017153801 -0.10943998 0.010621416 -0.0059142616 0.026361462 0.082543656
-0.07059277 -0.035256937 -0.020631326 -0.009760705 -0.034129396 -0.05401659 -0.15494233 0.08021748
0.030319199 -0.017524298 -0.12674525 -0.058586095 0.19671965 -0.12046502 -0.08780988 -0.09700917
0.043636736 0.0138876205 -0.010301049 0.032845873 0.0456029 -0.0599071 0.06500732 -0.113749065
0.010507221 0.02658021 -0.033257324 0.002761537 0.05169377 -0.008092041 0.008630428 0.015331143
-0.0033432872 0.016909711 -0.0004560957 0.013246297 0.14601693 0.12918879 0.11554902 0.041940574
-0.07487341 -0.007058403 -0.113855466 -0.051302172 -0.045527972 -0.12310701 0.10791651 -0.04372515
0.10464765 0.14091362 -0.032030948 -0.0773838 -0.03044861 -0.07324798 -0.015536763 0.13659297
-0.06951101 0.058533046 0.09701517 -0.017530069 0.015684476 0.11902498 0.008117598 0.083434366
-0.038499095 0.14028916 0.001864531 -0.058000043 0.11492127 0.0130534135 0.018619057 -0.04735447
-0.07331733 0.073998995 -0.002089123 -0.09514377 0.04439891 -0.041379817 -0.02705548 -0.21159239
0.07598476 -0.19661957 0.095233314 0.07358909 -0.014108495 -0.014494642 -0.105944924 -0.05160588
-0.048584614 -0.10959642 -0.019016257 -0.031179326 -0.029910732 -0.18719341 -0.09344766 -0.13374083
0.04889388 0.021393416 -0.04517344 -0.02113262 -0.012488571 0.078126945 -0.09755794 -0.24827985
-0.009789763 0.09171943 -0.005649434 0.018028745 -0.096782185 -0.0958564 -0.16560902 -0.019459495
0.041619312 -0.038146768 0.057810612 0.030405276 0.045613185 -0.0053693913 -0.07894276 0.11892223
-0.082272604 0.009198918 -0.13070363 -0.17268246 0.15267912 -0.053368077 -0.029520743 0.069405325

network_body._body_endoder.seq_layers.2.bias f4 [128]
00000000: 0000 0000 0000 0000 0000 0000 0000 0000
00000010: 0000 0000 0000 0000 0000 0000 0000 0000
00000020: 0000 0000 0000 0000 0000 0000 0000 0000
00000030: 0000 0000 0000 0000 0000 0000 0000 0000
00000040: 0000 0000 0000 0000 0000 0000 0000 0000
00000050: 0000 0000 0000 0000 0000 0000 0000 0000
00000060: 0000 0000 0000 0000 0000 0000 0000 0000
00000070: 0000 0000 0000 0000 0000 0000 0000 0000
00000080: 0000 0000 0000 0000 0000 0000 0000 0000
00000090: 0000 0000 0000 0000 0000 0000 0000 0000
000000a0: 0000 0000 0000 0000 0000 0000 0000 0000
000000b0: 0000 0000 0000 0000 0000 0000 0000 0000
000000c0: 0000 0000 0000 0000 0000 0000 0000 0000
000000d0: 0000 0000 0000 0000 0000 0000 0000 0000
000000e0: 0000 0000 0000 0000 0000 0000 0000 0000
000000f0: 0000 0000 0000 0000 0000 0000 0000 0000
00000100: 0000 0000 0000 0000 0000 0000 0000 0000
00000110: 0000 0000 0000 0000 0000 0000 0000 0000
00000120: 0000 0000 0000 0000 0000 0000 0000 0000
00000130: 0000 0000 0000 0000 0000 0000 0000 0000
00000140: 0000 0000 0000 0000 0000 0000 0000 0000
00000150: 0000 0000 0000 0000 0000 0000 0000 0000
00000160: 0000 0000 0000 0000 0000 0000 0000 0000
00000170: 0000 0000 0000 0000 0000 0000 0000 0000
00000180: 0000 0000 0000 0000 0000 0000 0000 0000
00000190: 0000 0000 0000 0000 0000 0000 0000 0000
000001a0: 0000 0000 0000 0000 0000 0000 0000 0000
000001b0: 0000 0000 0000 0000 0000 0000 0000 0000
000001c0: 0000 0000 0000 0000 0000 0000 0000 0000
000001d0: 0000 0000 0000 0000 0000 0000 0000 0000
000001e0: 0000 0000 0000 0000 0000 0000 0000 0000
000001f0: 0000 0000 0000 0000 0000 0000 0000 0000
0.0 0.0 0.0 0.0 0.0 0.0 0.0 0.0
0.0 0.0 0.0 0.0 0.0 0.0 0.0 0.0
0.0 0.0 0.0 0.0 0.0 0.0 0.0 0.0
0.0 0.0 0.0 0.0 0.0 0.0 0.0 0.0
0.0 0.0 0.0 0.0 0.0 0.0 0.0 0.0
0.0 0.0 0.0 0.0 0.0 0.0 0.0 0.0
0.0 0.0 0.0 0.0 0.0 0.0 0.0 0.0
0.0 0.0 0.0 0.0 0.0 0.0 0.0 0.0
0.0 0.0 0.0 0.0 0.0 0.0 0.0 0.0
0.0 0.0 0.0 0.0 0.0 0.0 0.0 0.0
0.0 0.0 0.0 0.0 0.0 0.0 0.0 0.0
0.0 0.0 0.0 0.0 0.0 0.0 0.0 0.0
0.0 0.0 0.0 0.0 0.0 0.0 0.0 0.0
0.0 0.0 0.0 0.0 0.0 0.0 0.0 0.0
0.0 0.0 0.0 0.0 0.0 0.0 0.0 0.0
0.0 0.0 0.0 0.0 0.0 0.0 0.0 0.0

value_heads.value_heads.extrinsic.weight f4 [1, 128]
00000000: e82e 44bd 74b0 153e b8ec 58bd 8c3d e73d
00000010: c0df 7ebc baa9 a3bd 7275 15be cce8 ae3d
00000020: 388b 8a3d 18b9 e03d 2a87 443e 8f22 f6bd
00000030: f828 953d 4881 1dbe c4ea 903d e01a 133e
00000040: 1e98 2e3e fc27 ffbd 009b 45bd d805 54be
00000050: 383d 0e3e 6ec0 513e ec1c b93d 8463 c43d
00000060: e08a 423d 00c7 2bbe 72df 483e 8046 b7ba
00000070: e2b6 2b3e 48c2 3c3d 68b9 e93d 985b 443e
00000080: f882 4bbd 6c5c fcbd 5c54 a73d ee64 1f3e
00000090: e4f4 e23d e07f bf3d 48a4 f0bc e04b 0b3d
000000a0: 6c57 b43d b810 53be 7a84 373e c089 343d
000000b0: 20b3 973d b051 a93d 8281 07be 0489 863d
000000c0: c016 1a3c b84c a3bc a646 43be 2cfa d8bd
000000d0: 9888 c63c 6dad 3cbe 7078 40bd fcb0 8f3d
000000e0: 6013 76bd 88b4 103e 7e41 3bbe 8804 e03c
000000f0: 404b 44bb 6667 f3bd 4c1c 0fbd 1a06 b5bd
00000100: 202f e13d 3cce d7bd 6855 1e3e 2053 dabc
00000110: 5f70 37be fcca 03bd f8de 563d 4057 13bd
00000120: 08dc 263e 84a4 963d 0071 82ba 2079 18bd
00000130: a8e4 093e d016 373e 18f0 f93c 6526 1ebe
00000140: a666 3e3e c84e 7c3d 58f5 4d3d 7053 683d
00000150: faca 423e 1cf1 45be c07b 5f3c 606f 3cbe
00000160: d44c bd3d 382b 9a3d fd56 46be 827e 433e
00000170: 3458 1cbd 4c7f e83d 04c1 db3d 1cdf 48bd
00000180: eac6 283e 4a13 bdbd d859 45be b25e 22be
00000190: 2c67 e33d a0a4 123d 449b b53d c465 47be
000001a0: f4df 4bbe 309f f1bc 5456 b23d d552 0dbe
000001b0: 1a2d 093e f0de b53d dccb 14be c2a4 96bd
000001c0: e872 433e 80fa c83d 70d1 463d 4c1f dbbd
000001d0: 9ab1 533e 688e e0bd 9665 3c3e 788b 5cbd
000001e0: 880b babc d844 d9bc 8065 ed3b 80fa a2bc
000001f0: e08c 3e3e 3eaa ddbd 3ec1 2d3e a05a 823c
-0.047896296 0.14618093 -0.052960128 0.11291036 -0.015556276 -0.07991357 -0.14595583 0.08540496
0.06764835 0.10972804 0.19192186 -0.1201831 0.07283205 -0.15381348 0.07076028 0.14365721
0.17050216 -0.12458798 -0.048243523 -0.20705354 0.1389054 0.20483562 0.090387195 0.095892936
0.047495723 -0.16775131 0.19616488 -0.0013982803 0.16768983 0.04608372 0.114123166 0.19175565
-0.04968545 -0.123223156 0.08170387 0.15565845 0.110818654 0.09350562 -0.02937521 0.034007907
0.08805737 -0.20611846 0.1792163 0.04407668 0.07407212 0.08267534 -0.13232997 0.065691024
0.009404838 -0.019934043 -0.19069919 -0.105945915 0.024235055 -0.18425532 -0.04698986 0.07016179
-0.06007707 0.14131367 -0.18286702 0.02734591 -0.002995208 -0.11884956 -0.034939095 -0.088390544
0.109953165 -0.10537383 0.15462267 -0.026650965 -0.1791396 -0.032176003 0.052458733 -0.03597188
0.16294873 0.073555976 -0.000995189 -0.03722489 0.13466132 0.17879796 0.030509993 -0.15444334
0.18593845 0.06159857 0.050282806 0.056720197 0.19022742 -0.19330257 0.013640344 -0.18401861
0.092431694 0.075277746 -0.19369121 0.19091228 -0.038170055 0.11352405 0.10730174 -0.0490409
0.1648213 -0.09232195 -0.19272554 -0.15856436 0.11103663 0.03580153 0.08867505 -0.19472414
-0.1990965 -0.029494852 0.08707872 -0.13801129 0.13396111 0.088804126 -0.14530891 -0.07355644
0.19086802 0.09813404 0.04853958 -0.10699329 0.20673218 -0.10964662 0.18398127 -0.053843945
-0.022710577 -0.026522085 0.0072447658 -0.019894838 0.18608427 -0.10823487 0.16968247 0.015912354
