results/DemoRun/TestAgent1/TestAgent1-7531.onnx (onnx, 110624 bytes, 5 tensors)

network_body._body_endoder.seq_layers.0.weight f4 [128, 39]
0	0x3c8c2e59	0.017111944
1	0x3e01a5dc	0.12660927
2	0x3e249364	0.1607185
3	0xbe1a2645	-0.15053661
4	0xbcca8370	-0.024720877
5	0x3d23c8bb	0.039986353
6	0xbe939017	-0.2882087
7	0xbd93370d	-0.071882345
8	0x3d36d1ea	0.044633783
9	0x3df91627	0.12162428
10	0x3eb0cc0c	0.34530675
11	0x3e106c77	0.14103876
12	0xbc78fdd0	-0.015197232
13	0xbe0e9e22	-0.1392751
14	0x3e2482d9	0.1606554
15	0xbd99201a	-0.07476826
16	0x3e366d8a	0.17815223
17	0xbddcf1da	-0.10788317
18	0x3e253023	0.16131644
19	0xbd74eda7	-0.059796955
20	0xbe765a53	-0.24057893
21	0x3ea29ca9	0.31760147
22	0x3d9fc84b	0.07801875
23	0x3adb5df9	0.001673638
24	0x3e2dbc89	0.16966452
25	0x3e5f61f9	0.21814717
26	0xbe16fed9	-0.14745654
27	0x3d9fbfa8	0.078002274
28	0xbe683ce7	-0.22679482
29	0xbdecd472	-0.11563958
30	0x3db2e0ff	0.08734321
31	0xbd6118d5	-0.054955322
32	0xbe3d61ee	-0.18494388
33	0x3ea028ad	0.31281033
34	0xbc590536	-0.013245871
35	0xbded250f	-0.11579334
36	0x3d79f6f5	0.061026532
37	0xbef3032e	-0.47463363
38	0x3d029da9	0.031888638
39	0x3e630ad9	0.22172107
40	0xbd46af34	-0.04850693
41	0xbd9614e8	-0.07328206
42	0xbcff8168	-0.031189635
43	0xbdc47587	-0.09592729
44	0x3dd20ffc	0.10256955
45	0x3e2d8f5f	0.16949223
46	0xbeaf098b	-0.34186968
47	0xbd947120	-0.072481394
48	0x3d25bf2b	0.040465515
49	0x3e8a0472	0.26956517
50	0xbca6b87a	-0.020351637
51	0x3cc45976	0.02396844
52	0xbe3f96b0	-0.18709826
53	0xbb383a36	-0.0028110868
54	0x3db3a2e3	0.087713026
55	0x3c519e17	0.012794039
56	0x3e33eff4	0.17572004
57	0x3e4706bc	0.19436163
58	0xbe31e127	-0.17371045
59	0xbd91c84e	-0.07118283
60	0x3e6cfd82	0.2314358
61	0xbdf3b3b1	-0.11899508
62	0x3da16c87	0.07882028
63	0xbd3532e2	-0.04423798
64	0xbe536ae3	-0.20646243
65	0x3dd51a42	0.10405399
66	0xbd989031	-0.07449377
67	0x3e0c4997	0.13699947
68	0x3d963eae	0.07336174
69	0xbcdfb0ab	-0.027305922
70	0x3d6c25df	0.057653304
71	0x3da44e39	0.08022732
72	0xbe12010c	-0.14258212
73	0xbed11823	-0.40838727
74	0x3e89741f	0.26846406
75	0xbe7e13da	-0.2481226
76	0x3cb46898	0.02202253
77	0xbd97329c	-0.073827
78	0xbd63f78c	-0.055656
79	0xbdb0e8c0	-0.086381435
80	0x3e0d44ce	0.13795778
81	0xbe911f43	-0.28344163
82	0x3e65657f	0.22401999
83	0x3d9641ef	0.073367946
84	0x3d253c9d	0.04034101
85	0xbc9725e9	-0.018450694
86	0xbe80182a	-0.25018436
87	0xbe91e4ce	-0.28494877
88	0xbd060f57	-0.032729473
89	0xbe0009cc	-0.12503737
90	0x3a4b5f02	0.0007757993
91	0xbd3ed240	-0.04658723
92	0xbeeb2837	-0.4592912
93	0xbc31a064	-0.010841463
94	0x3e7ebe1b	0.24877207
95	0xbdeb0da5	-0.11477212
96	0xbe125a61	-0.1429229
97	0xbe29b132	-0.16571501
98	0xbbcd7ef2	-0.0062712366
99	0xbe661869	-0.22470249
100	0xbe28d0a3	-0.16485839
101	0x3d7ed166	0.062211417
102	0xbde147ca	-0.11000021
103	0xbc28c4a0	-0.010300785
104	0xbd943271	-0.072361834
105	0x3e9c48fc	0.30524433
106	0x3dc16ddc	0.09444782
107	0xbe771b96	-0.24131617
108	0x3e4cef8f	0.2001326
109	0x3ea78a22	0.32722574
110	0x3d8e5af3	0.06950941
111	0x3ea26906	0.31720752
112	0x3d203dc9	0.039121423
113	0xbdc1e10f	-0.09466755
114	0xbba0a2b0	-0.0049022064
115	0xbea9b797	-0.3314788
116	0x3c845fc1	0.01615894
117	0xbca40eea	-0.020026643
118	0xbe1ea821	-0.15493824
119	0x3de7b3e4	0.11313608
120	0xbdcedbb4	-0.10100499
121	0x3bed46e3	0.0072411164
122	0x3e5ef880	0.21774483
123	0x3d2fca4d	0.04291754
124	0xbe272380	-0.16322136
125	0x3dcc6581	0.09980298
126	0xbe2b092f	-0.16702722
127	0x3d442581	0.04788733
128	0xbe07606b	-0.13220374
129	0x3c17d8b5	0.009267976
130	0x3e20a262	0.15686944
131	0xbe49ec9e	-0.19719169
132	0x3df66356	0.120306656
133	0x3e65815b	0.22412626
134	0xbdca72f6	-0.09885208
135	0x3e07c3d0	0.1325829
136	0xbeb53b70	-0.3539691
137	0xbda77487	-0.08176523
138	0xbdfba685	-0.122876205
139	0xbd26443a	-0.04059241
140	0xbe88e08f	-0.26733825
141	0xbe98911b	-0.29798207
142	0x3df1fc3f	0.1181569
143	0xbcde3b6e	-0.027127948
144	0xbe79edbc	-0.24407095
145	0x3dfab4b2	0.12241496
146	0xbc33820d	-0.0109562995
147	0x3db2e0a0	0.0873425
148	0x3eea00bd	0.45703688
149	0x3db30af6	0.08742325
150	0x3cf5749b	0.029962828
151	0x3d0506fb	0.03247736
152	0xbb5279a4	-0.003211596
153	0x3e9c673a	0.30547506
154	0x3cad47aa	0.021152336
155	0x3d1b8ca1	0.03797591
156	0xbeefe499	-0.46854094
157	0xbe15030a	-0.1455194
158	0x3dc0c69c	0.09412882
159	0x3b0c0140	0.002136305
160	0xbd743a3a	-0.05962584
161	0x3dcbb4e5	0.09946612
162	0xbcd27279	-0.02568935
163	0x3dfcf3a4	0.12351158
164	0xbdabc4e3	-0.083871625
165	0xbe38ca9e	-0.18046042
166	0xbe233f80	-0.15942192
167	0x3df44926	0.119280145
168	0xbea9e787	-0.33184454
169	0x3e9d4834	0.3071915
170	0xbccaacc3	-0.024740582
171	0xbd9581a1	-0.073001154
172	0xbe9530a9	-0.29138687
173	0xbe1df26d	-0.1542451
174	0xbd86d9cc	-0.0658451
175	0x3cc16064	0.023605533
176	0x3ea5eb88	0.3240626
177	0xbe08d24f	-0.13361476
178	0x3e9040c0	0.281744
179	0xbe2d5c79	-0.16929807
180	0xbe4b94e5	-0.19881018
181	0x3df06b36	0.11739199
182	0xbe492093	-0.19641332
183	0x3e22316a	0.15839162
184	0x3e7cb5d0	0.24678731
185	0x3e1c61da	0.15271702
186	0x39bbd003	0.000358224
187	0xbedc95cb	-0.43083033
188	0x3d93d122	0.07217623
189	0x3bf66dfa	0.0075204344
190	0xbe54566b	-0.20736091
191	0x3e889a80	0.26680374
192	0x3d4054ca	0.04695586
193	0xbe832395	-0.25613084
194	0xbea41ccf	-0.3205323
195	0x3e26e57d	0.1629848
196	0x3dceab29	0.1009124
197	0xbd87e416	-0.06635301
198	0xbdceb622	-0.10093333
199	0xbe8c87cc	-0.27447355
200	0xbcc1bca7	-0.023649527
201	0x3dd35374	0.10318652
202	0x3deb154c	0.114786714
203	0x3cbb1f7c	0.022842161
204	0xbe2dda61	-0.16977836
205	0x3e3a028f	0.18165039
206	0x3e277c51	0.16356017
207	0xbce06582	-0.027392153
208	0x3cc4b7fe	0.024013516
209	0x3e2aa27d	0.16663547
210	0xbbc1beea	-0.0059126513
211	0x3e962480	0.29324722
212	0xbc695661	-0.014241786
213	0x3e7f6562	0.24941018
214	0x3db6eab6	0.08931486
215	0xbf06b4a7	-0.52619404
216	0xbd1a0091	-0.037598196
217	0x3e777729	0.2416655
218	0xbd3b3046	-0.045700334
219	0xbe68397c	-0.22678179
220	0x3eb26b0d	0.34847298
221	0x37a48b64	1.9615232e-05
222	0x3dbd4293	0.09241214
223	0x3e8297f2	0.2550655
224	0xbdd1e629	-0.10248978
225	0xbe847aca	-0.2587493
226	0x3e3d6b45	0.18497951
227	0x3e4f54b7	0.2024716
228	0x3e1a49fb	0.15067284
229	0xbe82915f	-0.25501534
230	0xbdd7a0c9	-0.10528714
231	0xbeab934c	-0.33510816
232	0x3ca71a39	0.020398246
233	0xbe0c453d	-0.13698287
234	0x3ea6d91a	0.3258751
235	0xbc60e044	-0.013725344
236	0xbcff3600	-0.031153679
237	0xbd1cb351	-0.038256947
238	0x3dbada55	0.09123675
239	0xbea6e662	-0.32597643
240	0xbd3e460b	-0.046453517
241	0xbcc58034	-0.024108984
242	0x3cdf9e1c	0.027297072
243	0xbd82ba70	-0.063832164
244	0xbdda8c8d	-0.10671339
245	0x3d87fae3	0.0663965
246	0x3d1e7c91	0.038693015
247	0x3bf67c75	0.0075221607
248	0x3e66cb56	0.22538504
249	0xbd514a4a	-0.05109624
250	0xbddc3982	-0.10753156
251	0x3de3b05d	0.11117623
252	0xbeac6a4e	-0.33674854
253	0xbe81683b	-0.25274834
254	0xbda658c0	-0.081223965
255	0xbc98601f	-0.018600522

network_body._body_endoder.seq_layers.0.bias f4 [128]
0	0x00000000	0.0
1	0x00000000	0.0
2	0x00000000	0.0
3	0x00000000	0.0
4	0x00000000	0.0
5	0x00000000	0.0
6	0x00000000	0.0
7	0x00000000	0.0
8	0x00000000	0.0
9	0x00000000	0.0
10	0x00000000	0.0
11	0x00000000	0.0
12	0x00000000	0.0
13	0x00000000	0.0
14	0x00000000	0.0
15	0x00000000	0.0
16	0x00000000	0.0
17	0x00000000	0.0
18	0x00000000	0.0
19	0x00000000	0.0
20	0x00000000	0.0
21	0x00000000	0.0
22	0x00000000	0.0
23	0x00000000	0.0
24	0x00000000	0.0
25	0x00000000	0.0
26	0x00000000	0.0
27	0x00000000	0.0
28	0x00000000	0.0
29	0x00000000	0.0
30	0x00000000	0.0
31	0x00000000	0.0
32	0x00000000	0.0
33	0x00000000	0.0
34	0x00000000	0.0
35	0x00000000	0.0
36	0x00000000	0.0
37	0x00000000	0.0
38	0x00000000	0.0
39	0x00000000	0.0
40	0x00000000	0.0
41	0x00000000	0.0
42	0x00000000	0.0
43	0x00000000	0.0
44	0x00000000	0.0
45	0x00000000	0.0
46	0x00000000	0.0
47	0x00000000	0.0
48	0x00000000	0.0
49	0x00000000	0.0
50	0x00000000	0.0
51	0x00000000	0.0
52	0x00000000	0.0
53	0x00000000	0.0
54	0x00000000	0.0
55	0x00000000	0.0
56	0x00000000	0.0
57	0x00000000	0.0
58	0x00000000	0.0
59	0x00000000	0.0
60	0x00000000	0.0
61	0x00000000	0.0
62	0x00000000	0.0
63	0x00000000	0.0
64	0x00000000	0.0
65	0x00000000	0.0
66	0x00000000	0.0
67	0x00000000	0.0
68	0x00000000	0.0
69	0x00000000	0.0
70	0x00000000	0.0
71	0x00000000	0.0
72	0x00000000	0.0
73	0x00000000	0.0
74	0x00000000	0.0
75	0x00000000	0.0
76	0x00000000	0.0
77	0x00000000	0.0
78	0x00000000	0.0
79	0x00000000	0.0
80	0x00000000	0.0
81	0x00000000	0.0
82	0x00000000	0.0
83	0x00000000	0.0
84	0x00000000	0.0
85	0x00000000	0.0
86	0x00000000	0.0
87	0x00000000	0.0
88	0x00000000	0.0
89	0x00000000	0.0
90	0x00000000	0.0
91	0x00000000	0.0
92	0x00000000	0.0
93	0x00000000	0.0
94	0x00000000	0.0
95	0x00000000	0.0
96	0x00000000	0.0
97	0x00000000	0.0
98	0x00000000	0.0
99	0x00000000	0.0
100	0x00000000	0.0
101	0x00000000	0.0
102	0x00000000	0.0
103	0x00000000	0.0
104	0x00000000	0.0
105	0x00000000	0.0
106	0x00000000	0.0
107	0x00000000	0.0
108	0x00000000	0.0
109	0x00000000	0.0
110	0x00000000	0.0
111	0x00000000	0.0
112	0x00000000	0.0
113	0x00000000	0.0
114	0x00000000	0.0
115	0x00000000	0.0
116	0x00000000	0.0
117	0x00000000	0.0
118	0x00000000	0.0
119	0x00000000	0.0
120	0x00000000	0.0
121	0x00000000	0.0
122	0x00000000	0.0
123	0x00000000	0.0
124	0x00000000	0.0
125	0x00000000	0.0
126	0x00000000	0.0
127	0x00000000	0.0

network_body._body_endoder.seq_layers.2.weight f4 [128, 128]
0	0xbcb448a8	-0.022007301
1	0xbc80ecb0	-0.015737861
2	0xbcc93d11	-0.024565252
3	0x3de2c60d	0.110729314
4	0x3c1a50da	0.009418691
5	0xbd8ce8ac	-0.06880316
6	0xbd134cac	-0.035961792
7	0xbc8936a1	-0.016749682
8	0xbdfb5c7f	-0.122735016
9	0xbd2d391e	-0.0422908
10	0x3d885a3d	0.066578366
11	0xbbb361a7	-0.0054742876
12	0xbcc5c952	-0.024143849
13	0xbe3d7a9a	-0.185038
14	0x3d9446a7	0.07240038
15	0xbe2db06b	-0.1696183
16	0x3d90407c	0.070435494
17	0xbdd64b11	-0.104635365
18	0x3e6b6a10	0.22989678
19	0x3dca83b8	0.098884046
20	0x3d201597	0.03908309
21	0x3e13ca22	0.14432576
22	0x3d96f370	0.07370651
23	0x3dd73739	0.1050858
24	0x3d0b78fa	0.03405092
25	0x3de188cc	0.1101242
26	0xbd5b5ad0	-0.053553402
27	0xbcbe65a3	-0.023241824
28	0xbe00a0b4	-0.12561303
29	0xbce75f0c	-0.028243564
30	0x3cae848c	0.021303438
31	0xbe038a51	-0.12845732
32	0x3d2f69c7	0.042825487
33	0x3e187088	0.14886677
34	0xbdbe56ab	-0.09293874
35	0x3dff2c6e	0.12459646
36	0x3e29773e	0.16549394
37	0xbc5af011	-0.0133629
38	0xbc91b4d8	-0.017786428
39	0xbd0faace	-0.035075
40	0xbe063e52	-0.13109711
41	0x3b86af05	0.0041102194
42	0xbd9d4e9f	-0.076810114
43	0xbd8177a6	-0.06321649
44	0x3d397fa9	0.04528776
45	0xbd501952	-0.050805397
46	0x3a9294dc	0.001118328
47	0xbcc44941	-0.023960711
48	0x3d29de6e	0.04147189
49	0x3d0c0f47	0.034194257
50	0x3e2f89d1	0.17142417
51	0xbe00dfb6	-0.12585339
52	0xbcefda46	-0.029278886
53	0xbd1d2039	-0.038360808
54	0xbe2f2c91	-0.17106844
55	0x3e11edcc	0.14250869
56	0xbd86cac4	-0.06581643
57	0xbd857d2c	-0.06518015
58	0x3d03651c	0.032078847
59	0xbd2405cf	-0.040044602
60	0xbd35b57e	-0.044362538
61	0xbcfc7b44	-0.030820496
62	0xbd798296	-0.060915552
63	0x3cd9f934	0.026608087
64	0xbcf230db	-0.029564312
65	0xbd46b7ea	-0.048515238
66	0xbd8bfe92	-0.06835665
67	0x3db679f1	0.08909977
68	0x3db50fa5	0.088408746
69	0x3c38899b	0.011263276
70	0x3dfda020	0.12384057
71	0x3e16fe16	0.14745364
72	0xbc073b15	-0.008253832
73	0x3d90c707	0.070692115
74	0xbd86f984	-0.0659056
75	0x3df4fe84	0.119626075
76	0x3e12c199	0.14331664
77	0x3d83b156	0.064303085
78	0x3c864083	0.016388183
79	0x3e2b550a	0.16731659
80	0xbdf173e0	-0.117896795
81	0xbbef2c19	-0.007298958
82	0x3da6244c	0.08112392
83	0xbe6069fd	-0.21915431
84	0xbe558926	-0.20853099
85	0xbd0d1ef2	-0.03445334
86	0xbb82bd21	-0.003989831
87	0x3e0f5323	0.13996558
88	0x3dd08a45	0.10182623
89	0xbde6942a	-0.11258729
90	0xbcdbd51c	-0.026835017
91	0xbdc86801	-0.09785462
92	0xbd0d907b	-0.034561615
93	0x3d09423b	0.033510428
94	0x3cffb80a	0.031215686
95	0xbe1023d5	-0.14076169
96	0xbd94bc8b	-0.07262524
97	0xbcd29405	-0.025705347
98	0x3e2b36f4	0.16720182
99	0x3cb128f4	0.021625973
100	0xbd6f03b5	-0.058353145
101	0x3cedbb1e	0.029019888
102	0xbd843103	-0.06454661
103	0x3da7a4bc	0.081857175
104	0x3d82fea3	0.06396224
105	0x3d57755e	0.052602164
106	0xbd04010d	-0.032227565
107	0x3daec6b0	0.085339904
108	0x3ba015f4	0.0048854295
109	0x3e03f69c	0.12887043
110	0xbd131139	-0.035905097
111	0x3cd9cce0	0.02658695
112	0xbde7a8e7	-0.113115124
113	0xbc0f0786	-0.008729821
114	0x3b812756	0.003941457
115	0x3ddc9428	0.10770446
116	0x3d33e468	0.043918997
117	0xbd097b41	-0.03356481
118	0x3d567606	0.05235865
119	0x3e01600c	0.12634295
120	0x3c6278db	0.0138227595
121	0xbc0bac9d	-0.008525041
122	0xbe342da4	-0.17595536
123	0x3dda18a0	0.10649228
124	0xbda5d9f9	-0.080982156
125	0x3cf7bf12	0.030242477
126	0xbd6c4d78	-0.057691067
127	0x3d5586fd	0.052130688
128	0x3dabd119	0.083894916
129	0xbd0d369e	-0.034475915
130	0x3c1322d1	0.008980469
131	0x3daaabaf	0.08333527
132	0x3d4b5810	0.04964453
133	0xbccd9eec	-0.025100194
134	0x3d955105	0.07290844
135	0x3d0ba3e6	0.034091853
136	0x3db9c347	0.09070449
137	0x3d1bf04f	0.038070973
138	0xbc94679a	-0.018115807
139	0x3e523f2b	0.20531909
140	0xbd714dae	-0.05891197
141	0xbcec6998	-0.028858945
142	0xbd8d4550	-0.06897986
143	0xbe7dd76d	-0.2478921
144	0xbd733074	-0.05937238
145	0xbdaf3339	-0.08554692
146	0x3d1824f6	0.037144624
147	0xbd55dc17	-0.052211847
148	0x3d74de13	0.0597821
149	0xbe3629e1	-0.17789413
150	0x3c055c50	0.008139685
151	0x3d199cf3	0.037503194
152	0x3def31fb	0.11679455
153	0xbd73ee4b	-0.059553426
154	0x3d471b81	0.048610214
155	0xbddcedb5	-0.107875265
156	0xbd40f318	-0.047106832
157	0x3db07f3a	0.086180165
158	0xbca55071	-0.020179959
159	0x3d37c069	0.04486123
160	0x3dea3bc5	0.114371814
161	0x3adc92c2	0.0016828405
162	0x3d33b047	0.043869283
163	0x3da70a00	0.08156204
164	0x3cd31e5e	0.025771316
165	0xbe54f418	-0.2079624
166	0x3dc5861c	0.0964472
167	0xbc99d48d	-0.01877811
168	0xbd065bae	-0.032802276
169	0xbdc95973	-0.09831514
170	0xbda531a3	-0.08066108
171	0x3e04ffac	0.12988156
172	0x3cf005fa	0.029299725
173	0x3c29b253	0.010357457
174	0x3d6b6279	0.057466958
175	0xbd7e7169	-0.062119875
176	0x3e89201a	0.26782304
177	0xbc45e33a	-0.012078101
178	0xbb4a4571	-0.0030864144
179	0xbcbc1fbd	-0.022964353
180	0xbde8cfee	-0.113677844
181	0xbd992ab3	-0.07478847
182	0x3d6278d0	0.055290997
183	0xbc5e399d	-0.013563541
184	0xbbf43734	-0.00745287
185	0xbdc3e2e3	-0.095647596
186	0x3dde8191	0.108645566
187	0xbd6c49a2	-0.05768741
188	0xbd9830e1	-0.07431198
189	0x3dcad159	0.09903211
190	0xbb9dacb6	-0.0048118485
191	0x3cd4f776	0.025996905
192	0xbc6167eb	-0.013757686
193	0x3d453a0f	0.048151072
194	0x3dc38de5	0.095485486
195	0xbc5416d6	-0.012944898
196	0xbb491019	-0.003067976
197	0x3b641f2e	0.0034808624
198	0xbd83514c	-0.064119905
199	0x3ddd9ed8	0.10821313
200	0xbda72feb	-0.081634365
201	0xbdcd63f5	-0.10028831
202	0xbe18205b	-0.14856093
203	0xbd366ba1	-0.044536237
204	0xbd2437cb	-0.04009227
205	0x3d6a57c3	0.057212602
206	0x3dad100e	0.08450328
207	0x3d2cc14d	0.042176533
208	0xbc62e820	-0.013849288
209	0x3b8f2b30	0.004369162
210	0xbdd87876	-0.10569851
211	0xbd462808	-0.04837802
212	0x3c88da14	0.01670555
213	0x3c762932	0.01502447
214	0x3d99fb13	0.07518592
215	0x3e375402	0.1790314
216	0xbb390cab	-0.002823631
217	0xbd3af6a7	-0.045645382
218	0x3d3c7348	0.04600838
219	0xbcb79a90	-0.022412568
220	0xbb1d0a76	-0.0023962534
221	0x3d30018a	0.042970218
222	0xbc7df526	-0.0155003425
223	0xbd37647a	-0.044773556
224	0x3b80ba71	0.0039284755
225	0xbe04ee5e	-0.12981555
226	0x3d785b09	0.060633693
227	0x3d82d420	0.06388116
228	0xbdeb8384	-0.11499694
229	0x3dabd033	0.0838932
230	0x3dae254b	0.08503207
231	0x3d6a1730	0.05715102
232	0x3e7f306f	0.2492082
233	0xba1faf76	-0.00060915144
234	0x3a448e66	0.00074980257
235	0xbca78844	-0.020450719
236	0xbc042155	-0.008064588
237	0x3ca9bbba	0.020719398
238	0xbda9a3a3	-0.08283164
239	0xbdb65a5c	-0.089039534
240	0x3a992c65	0.0011686204
241	0xbc85b8f2	-0.01632354
242	0xbd7e73a4	-0.062122002
243	0x3d3c82ca	0.046023168
244	0x3df6ad08	0.12044722
245	0x3da50bfc	0.080589265
246	0x3d1960a7	0.03744569
247	0x3d0a417f	0.03375387
248	0x3e1e4aba	0.15458193
249	0x3de9d84a	0.11418207
250	0x3dbec7f3	0.09315481
251	0xbd3d0d7d	-0.04615544
252	0xbd205a2c	-0.039148495
253	0x3e06b9cf	0.13156818
254	0xbd40f1e6	-0.047105692
255	0xbd5c4af0	-0.053782403

action_model._discrete_distribution.branches.0.weight f4 [38, 128]
0	0x3984924a	0.00025285996
1	0xbc06357e	-0.0081914645
2	0x3b1f9544	0.0024350444
3	0xbc4a27eb	-0.012338619
4	0x3c852d07	0.016256822
5	0x3b03a573	0.002008763
6	0xbc6baa22	-0.014383825
7	0xbbc14336	-0.0058979047
8	0xba14a3df	-0.00056701706
9	0x3baf34e0	0.0053468794
10	0xbaadafe8	-0.0013251277
11	0x3b9e1197	0.004823874
12	0x3b972a16	0.0046131713
13	0x3bf1f918	0.0073844306
14	0x3c2d5ed1	0.010581688
15	0x3c3d9dcf	0.011573269
16	0x3b925367	0.0044655087
17	0x3c387c0e	0.011260046
18	0x3c77f17d	0.015133259
19	0xbbd34fdd	-0.0064487294
20	0xbb96a7f1	-0.004597657
21	0x3c9274fa	0.017878044
22	0xbaf2d47b	-0.0018526459
23	0xbc7a8450	-0.015290335
24	0xbbf255cb	-0.007395481
25	0xbc0ef163	-0.008724543
26	0xbb47df39	-0.0030498041
27	0x3b858f9a	0.0040759565
28	0x3b8708da	0.0041209282
29	0x3c252d0a	0.010081539
30	0x3c11097e	0.008852361
31	0xbbd28af0	-0.006425254
32	0x3bd17bf8	0.006392952
33	0x3c7d3940	0.015455544
34	0xba5d2d37	-0.00084372185
35	0xbc97c935	-0.01852856
36	0xbb9c9f1b	-0.004779709
37	0xbcae1f66	-0.021255206
38	0x3a46149c	0.00075561716
39	0x3badf199	0.0053083417
40	0xbbfe3efa	-0.0077589722
41	0xbb97f213	-0.004637012
42	0xbc086937	-0.008325866
43	0x3b9d44d3	0.0047994643
44	0xbc347819	-0.011014962
45	0xbc090d87	-0.008365042
46	0x3c3e51d7	0.011616192
47	0xbab91a2a	-0.0014122177
48	0x397f489a	0.00024345741
49	0x3ba3d465	0.0049996846
50	0xbc0b9c1f	-0.008521109
51	0xbbf194df	-0.007372483
52	0xbc0c6390	-0.008568659
53	0x3bf21018	0.0073871724
54	0x3babe607	0.0052459273
55	0xbc0b59fa	-0.008505339
56	0x3b8a5067	0.0042210105
57	0xbbd2af40	-0.006429583
58	0x3c9d1667	0.019175721
59	0x3c7004fb	0.014649625
60	0xbb5c004a	-0.0033569508
61	0x3ca54017	0.020172162
62	0x3851b8b8	5.0001516e-05
63	0xbc4be441	-0.012444557
64	0xbcb09b52	-0.021558437
65	0xbb4bdfa2	-0.0031108637
66	0xbbc2efa2	-0.0059489766
67	0x3a827425	0.0009952827
68	0x3ca8ce4f	0.020606188
69	0xbb71d778	-0.003690211
70	0xbc413ec8	-0.011794753
71	0xbba816fd	-0.0051296935
72	0x3bdfa54a	0.006825124
73	0xb9f218cf	-0.0004617632
74	0xbaa2426d	-0.0012379416
75	0x3c4033ac	0.01173107
76	0xbbd5441d	-0.006508364
77	0xbb90e3da	-0.0044216933
78	0x3c9201ef	0.017823188
79	0xbc48ab57	-0.012247882
80	0x3c9f3a72	0.019437049
81	0x3a5cff5d	0.0008430386
82	0x3c0b2b4c	0.0084942095
83	0x3a9398b0	0.0011260714
84	0x3b1ef9f1	0.0024257863
85	0x3b8b57e2	0.00425242
86	0xbb0ea0ba	-0.002176328
87	0xbbc41433	-0.0059838532
88	0x3b0e9b5d	0.0021760084
89	0x3aa21b4c	0.0012367754
90	0x3c6855d5	0.01418062
91	0xbac0182e	-0.0014655644
92	0xbbb5e7b3	-0.0055513023
93	0x3b71eec3	0.0036915995
94	0xbabad61b	-0.0014254482
95	0xbc473568	-0.012158729
96	0xbc3f0657	-0.011659226
97	0x3bd9fb22	0.006652252
98	0x3bedafd2	0.0072536254
99	0x3bb14627	0.005409974
100	0xbc2c040c	-0.010499012
101	0xbbc761b7	-0.0060846466
102	0xbb1ef661	-0.002425574
103	0xbc184d7a	-0.009295816
104	0x3b773203	0.0037719018
105	0x3a73bc40	0.0009297766
106	0xbba497d3	-0.0050229817
107	0x3bf01da7	0.0073277536
108	0xbb428033	-0.0029678463
109	0xba73e19f	-0.00093033345
110	0x3c97f26b	0.018548211
111	0xbbba08a0	-0.0056772977
112	0x3a6db0ea	0.0009067195
113	0x3c66a46f	0.01407729
114	0x3ad76843	0.0016434271
115	0x3bf225c8	0.007389758
116	0x3b91fe2f	0.00445535
117	0x3c22de6f	0.009940728
118	0x3b5457cd	0.0032400966
119	0x3c3846cb	0.011247347
120	0x3b062208	0.0020467062
121	0xbc387540	-0.011258423
122	0x3ba218de	0.004946812
123	0x3b5ac5c0	0.0033382028
124	0x3bf80e30	0.0075700507
125	0x3a3ff339	0.0007322315
126	0xbc9195ad	-0.017771566
127	0xbc16142b	-0.009160082
128	0x3b569a57	0.0032745802
129	0xbc3caeca	-0.011516282
130	0xb90c7b9b	-0.00013397487
131	0xbc070f81	-0.0082434425
132	0xbbf2d8e3	-0.007411109
133	0xbbca5d82	-0.006175698
134	0x3c87e91f	0.016590653
135	0x3c4d9cbd	0.012549576
136	0xbae79c30	-0.0017670449
137	0x3c808a3a	0.015690912
138	0x3b05d7ab	0.0020422738
139	0xbca4f938	-0.020138368
140	0xbc2a7dcf	-0.010405972
141	0x3acab65f	0.0015465728
142	0x3aa3e74d	0.0012504846
143	0x393fa313	0.0001827593
144	0xbc23a0b3	-0.009987044
145	0x3b5603f8	0.0032656174
146	0x3b3845cf	0.002811778
147	0xbc71571a	-0.014730239
148	0xbabe5091	-0.001451986
149	0x3be27020	0.006910339
150	0x3c514318	0.012772344
151	0xbac99226	-0.0015378639
152	0x3c17b040	0.00925833
153	0xbb1ac685	-0.0023616862
154	0xb9e499f2	-0.00043602247
155	0xbbc2b6df	-0.00594221
156	0x3bc8bc63	0.006125973
157	0x3b7b82b7	0.0038377473
158	0x3b38c1c4	0.0028191665
159	0x3b8f61d9	0.004375678
160	0x3b92c6d4	0.0044792686
161	0x3c28ac47	0.01029498
162	0xbc79122d	-0.015202087
163	0x3c8604a0	0.016359627
164	0xbc871004	-0.016487129
165	0x3b832696	0.0040024025
166	0x3c3469cb	0.011011551
167	0x3c3fc498	0.011704586
168	0x3c6dcfda	0.014514888
169	0xbb76e740	-0.0037674457
170	0xbc6d34d2	-0.014477925
171	0x3c1150df	0.008869379
172	0x3b901b53	0.0043977886
173	0xbac266da	-0.0014831678
174	0x3bc3d67f	0.0059764977
175	0xbb042f4f	-0.00201698
176	0x3b6cea85	0.0036150527
177	0xba97a6d6	-0.0011570107
178	0x3b862927	0.004094261
179	0x39b834e7	0.0003513463
180	0x3b93ea1f	0.0045139934
181	0x3c761d1b	0.015021588
182	0xbb10a727	-0.0022072287
183	0x38b9f8b7	8.867814e-05
184	0xbbce9a63	-0.0063050254
185	0xbc428440	-0.011872351
186	0xbb2ed33f	-0.0026676205
187	0xbc81a950	-0.015827805
188	0xbbae4064	-0.0053177346
189	0x3a091d67	0.00052305165
190	0x3b1c045b	0.0023806307
191	0x3a9c2b84	0.0011914824
192	0x3c6a1d58	0.014289223
193	0x3c37947c	0.011204835
194	0xba6d1b10	-0.0009044865
195	0xbb15544e	-0.0022785845
196	0x3b156c8e	0.00228003
197	0x3b0d36cb	0.0021547552
198	0x3ba32ead	0.0049799294
199	0xbaafc8f3	-0.0013411328
200	0xbc3239d5	-0.010878046
201	0xba9057a9	-0.0011012453
202	0xbc70e962	-0.01470408
203	0xbb66b6f8	-0.0035204273
204	0xbc386d7c	-0.011256572
205	0x3be7c555	0.0070730844
206	0xbb065870	-0.002049949
207	0xbb3f6701	-0.0029205682
208	0x3bacbbbb	0.0052714027
209	0xbc321135	-0.01086836
210	0x3ba65417	0.0050759423
211	0xbbbbca6b	-0.005730917
212	0x3b0713f8	0.0020611268
213	0x3af18990	0.0018427838
214	0xbb111bae	-0.0022141743
215	0xbb991202	-0.004671336
216	0xbc575a93	-0.013144153
217	0x3c34f211	0.011044041
218	0xbc73edb8	-0.01488822
219	0xbbb6d55b	-0.005579633
220	0x3b8de95c	0.004330797
221	0x3af90dc7	0.0019001298
222	0x3b859a53	0.004077235
223	0x3c3e5f7d	0.011619446
224	0xbc40f974	-0.011778224
225	0xbba108a3	-0.0049143597
226	0xbadd0d88	-0.0016864995
227	0x3c024cde	0.007952897
228	0xbb9aef33	-0.004728222
229	0x3c831935	0.01600323
230	0x3bb9d94e	0.0056716567
231	0x3c4c8f6d	0.012485367
232	0x3af7c8e2	0.0018904472
233	0xbb247aab	-0.002509753
234	0xbade549a	-0.0016962469
235	0xbc9e3aee	-0.01931521
236	0xbbf932a2	-0.007604913
237	0xbc1c5c98	-0.00954356
238	0xbbfdb510	-0.0077425316
239	0xba88a027	-0.0010423706
240	0x3a43dbd0	0.0007471414
241	0xbc5fbe00	-0.013656139
242	0xbc9cec52	-0.019155655
243	0xbc14f720	-0.009092122
244	0xbbd94e0f	-0.0066316198
245	0x3c11f355	0.0089081125
246	0x3bc126da	0.005894524
247	0x3b3996ce	0.0028318646
248	0x3c5ce528	0.0134823695
249	0xba5d2e95	-0.0008437422
250	0x3c9626d7	0.018329067
251	0x3b2753c7	0.0025532113
252	0x3b691838	0.0035567414
253	0x3b5fe58f	0.0034163927
254	0x3b152f8e	0.002276394
255	0xbc3ead1f	-0.011637955

action_model._discrete_distribution.branches.0.bias f4 [38]
0	0x00000000	0.0
1	0x00000000	0.0
2	0x00000000	0.0
3	0x00000000	0.0
4	0x00000000	0.0
5	0x00000000	0.0
6	0x00000000	0.0
7	0x00000000	0.0
8	0x00000000	0.0
9	0x00000000	0.0
10	0x00000000	0.0
11	0x00000000	0.0
12	0x00000000	0.0
13	0x00000000	0.0
14	0x00000000	0.0
15	0x00000000	0.0
16	0x00000000	0.0
17	0x00000000	0.0
18	0x00000000	0.0
19	0x00000000	0.0
20	0x00000000	0.0
21	0x00000000	0.0
22	0x00000000	0.0
23	0x00000000	0.0
24	0x00000000	0.0
25	0x00000000	0.0
26	0x00000000	0.0
27	0x00000000	0.0
28	0x00000000	0.0
29	0x00000000	0.0
30	0x00000000	0.0
31	0x00000000	0.0
32	0x00000000	0.0
33	0x00000000	0.0
34	0x00000000	0.0
35	0x00000000	0.0
36	0x00000000	0.0
37	0x00000000	0.0
