results/DemoRun/TestAgent1/TestAgent1-5890.onnx (onnx, 110624 bytes, 5 tensors)

network_body._body_endoder.seq_layers.0.weight f4 [128, 39]
00000000: 8658 583d 36bd 883e aa01 1b3c 3d03 603d
00000010: 545b 4dbe 5c10 7a3e 4b66 833e e095 a0bd
00000020: 95f2 c23d 4d2b eabb 0b95 c73d fbfe 2cbe
00000030: f324 603d 3905 97be 03e0 e3bd 724a 9abe
00000040: c8f0 d23c a134 073e 91c0 d7bc 5698 41be
00000050: 31bb 3bbe ddb7 463e 324a 883e d41e 573e
00000060: e16a c03e 717f c9bd ac12 923d a98d 97be
00000070: 15c2 743d 878c 9b3e 329e 9d3d e4da 5f3d
00000080: 83b8 2ebe 0463 413e a0e8 eebb 2f93 823d
00000090: dacb 10be eb56 e63d b450 1b3e 3df8 3e3e
000000a0: e3b0 073e d406 29bd 139e 05be 4932 1fbe
000000b0: 3b29 c53e f760 0dbe 34a0 3abd ea29 493e
000000c0: 4edb a7be 2e03 b83c 9824 39be 8607 2dbc
000000d0: 2023 4bbe a0ad 37be d5da b0bc e419 6e3e
000000e0: 0cc7 933c 0c92 243e 2e4a 64be f18e 493c
000000f0: 9c06 f73d 0df2 353e ddd1 bd3e f0de 51be
00000100: 204b 473e 037b fbbd ea01 203e 74ec eabd
00000110: f9ab 35be 9a96 54bd a705 b0bd 56cf 20bd
00000120: 0e37 e2bd 00cf f6bd b3c2 cabd 4b51 293e
00000130: 0d5b fd3d 61f0 1dbd 6bc2 5dbb 3032 2b3e
00000140: 9f5d 613e 5160 043d 0a21 723e 2871 483e
00000150: 7862 c43c bc92 01be 15b6 44be 481a c6bd
00000160: fa1c 58be 5cc5 2b3d fb29 593e dc9f 613d
00000170: 1bfb 18be 2aa7 0fbe 54b9 ecbd aaa4 043e
00000180: 3d5f 50be a362 b0bd f134 75be 0547 0bbe
00000190: 1745 3d3e f2dc fabe 443b 873e 26e9 3ebe
000001a0: 7e02 253d 280a 7bbe 2f6c a43e efb3 92bd
000001b0: 0706 483e 0488 603e 745d 54be 4185 bbbd
000001c0: 7dc2 ab3c 6050 1a3e 378f 323e 57b9 863e
000001d0: 5c92 08be a9c8 c83d cdb5 423e 8968 e53d
000001e0: d44b 0ebe e614 65bd 06ce 91bd 8217 6abe
000001f0: 4737 79bd 6c14 1b3e 8c74 753d e754 a43c
00000200: 3884 913d 259d 77bd ac67 693e 3568 9dbb
00000210: 2ec8 3b3d 9d63 653e a54f fc3d 2db2 9fbc
00000220: 4c7c 8abc 7f74 c93d 5e0d 2dbe 7240 15be
00000230: b856 81be 580e 34be 792c 65bc 423d 53be
00000240: 6263 b1bd 0f93 003e 5ff6 463e e4e3 a73e
00000250: 6734 5f3e dfe2 14be 9826 863d 88f9 323e
00000260: a96a 843d 229f 5bbd b272 86be 2b42 cdbc
00000270: 64bd fbbd 1fbc 203e a0f9 ee3c 0944 d7ba
00000280: 7d33 be3e 2372 5c3d 3632 41be 2d75 3fbd
00000290: ffa6 5ebd 7580 aabb 48a3 3a3d d5c9 423e
000002a0: 8c3b 04be bde4 40be cb56 4e3e 01cd e63c
000002b0: a03b 80bd 0a34 9fbd 4892 263e 43f1 42bd
000002c0: d5a8 7fbe 7371 853c 8c78 68be dd25 a03e
000002d0: da94 323d eebe 393c 0aee 6ebe 2648 b73c
000002e0: d30f 29be 2532 4a3c 2855 343e 51f7 acbe
000002f0: 726b 42bc 2712 c83d 090f 55bd 9ef7 f03d
00000300: cb4f e8bd 9869 3ebe e271 ab3e 46f7 b13e
00000310: 4e6d 8cbe db5e cdbe 675e 803d 9648 08be
00000320: 2e85 e9bd ab0e 403d 5b93 8dbe 83e1 0fbd
00000330: 08de f93d a82d 3f3e 4832 9c3d 153e fd3d
00000340: b421 53be 2160 aebd 70f9 4fbd 606d 24be
00000350: acd5 0b3e 8c2e 803e 4102 003e cd27 4abe
00000360: 55d1 953b 6aaa 30be f7e0 9bbc e1b7 5fbe
00000370: 9eb5 963d 6353 c9bc 0c1f f4bc 58be d73d
00000380: 7e13 f4bc 377b 1a3e 1293 0ebe 1c72 333d
00000390: 365e 463d edad bbbd a342 80be 1425 d93d
000003a0: 4c18 81bc b13b 223d bbbd 863e 2224 29bb
000003b0: 4125 69be 20c2 913d 7e11 b53d a0a1 973d
000003c0: 697b aebe ec59 c3bc 8b46 263e 90fa d53d
000003d0: 4079 46bd 2b67 5abd 60a7 03be 0270 76bc
000003e0: 70d5 57be a2a1 cc3c f774 debd c4b5 183e
000003f0: 697e fbbd 1a52 e6bd ac09 bfbb 00b6 86bd
0.052818798 0.26706856 0.009460846 0.05469059 -0.2005437 0.24420303 0.2566398 -0.078410864
0.09518925 -0.007146275 0.097452246 -0.16894142 0.054722738 -0.29496172 -0.11126711 -0.30134922
0.02574958 0.1320367 -0.02633694 -0.18905768 -0.18333127 0.19406076 0.26619107 0.21007854
0.37581542 -0.09838761 0.07132468 -0.29600266 0.059755404 0.3038065 0.07696189 0.05465211
-0.17062573 0.18885428 -0.0072909147 0.06375729 -0.14140263 0.11247047 0.15167505 0.18649383
0.1325107 -0.041266277 -0.13048582 -0.15546526 0.3850802 -0.1380652 -0.045562938 0.19644895
-0.32784504 0.022462454 -0.18080366 -0.010560876 -0.19837618 -0.17937326 -0.021588722 0.23252064
0.018039249 0.16071337 -0.22293922 0.012302146 0.120618075 0.17768116 0.37074175 -0.204952
0.19462252 -0.12279322 0.1562573 -0.11470881 -0.17741384 -0.051901437 -0.08594828 -0.03926023
-0.11045657 -0.12051201 -0.09900417 0.16534917 0.12370882 -0.03855932 -0.0033837806 0.16718364
0.2200837 0.032318417 0.23645416 0.19574416 0.023972735 -0.12653631 -0.19210084 -0.096729815
-0.21104804 0.041936263 0.2120742 0.055084094 -0.14939539 -0.14028612 -0.11558786 0.1295344
-0.2034883 -0.086125635 -0.23945977 -0.1360131 0.18483387 -0.48996693 0.26412404 -0.18643627
0.04028558 -0.24515593 0.32113788 -0.07163226 0.19533549 0.21926886 -0.20738775 -0.091562755
0.020966763 0.15069723 0.17437445 0.26313278 -0.13337082 0.09803898 0.19014664 0.11201579
-0.13896114 -0.055928133 -0.07119374 -0.2286053 -0.060843732 0.15144509 0.0599256 0.020060016
0.07105297 -0.0604526 0.22793454 -0.004803682 0.045845203 0.2240128 0.123198785 -0.01949414
-0.016904972 0.09836673 -0.1689963 -0.14575365 -0.25261474 -0.17583597 -0.013987654 -0.20628837
-0.08661534 0.12556098 0.1942992 0.32791054 0.21797334 -0.1453967 0.0655033 0.17478001
0.06465656 -0.053618558 -0.2625938 -0.025055965 -0.12291983 0.15696763 0.029171765 -0.0016423474
0.37148657 0.053819787 -0.1886681 -0.046742607 -0.05435848 -0.0052033016 0.045565873 0.19022305
-0.1291334 -0.18837257 0.20150296 0.028173925 -0.062613726 -0.077735975 0.1626674 -0.047593366
-0.24966748 0.016289448 -0.22702235 0.31278887 0.043598987 0.011337025 -0.23332992 0.02237327
-0.16509943 0.012341057 0.1761061 -0.33782437 -0.011866437 0.09769087 -0.05201629 0.11765979
-0.11343344 -0.18594968 0.33485323 0.34758967 -0.27427143 -0.4011143 0.06268006 -0.1330894
-0.11402355 0.04688899 -0.27651486 -0.035127174 0.12200552 0.1866976 0.07626778 0.12365357
-0.20618325 -0.08514429 -0.05077499 -0.16057348 0.13655728 0.25035512 0.1250086 -0.19741745
0.0045720735 -0.17252508 -0.01902817 -0.21847488 0.073588595 -0.024575895 -0.02979996 0.10534352
-0.02979445 0.15086065 -0.1392329 0.043809995 0.04842969 -0.09164033 -0.2505084 0.10602775
-0.015758656 0.039607707 0.26316628 -0.002580889 -0.22768117 0.071171045 0.08841227 0.074038744
-0.3407853 -0.023846589 0.16237848 0.10448182 -0.048455477 -0.053321045 -0.12856817 -0.015041353
-0.21077514 0.024979416 -0.10862153 0.14913088 -0.1227997 -0.112461284 -0.0058300104 -0.065776825

network_body._body_endoder.seq_layers.0.bias f4 [128]
00000000: 0000 0000 0000 0000 0000 0000 0000 0000
00000010: 0000 0000 0000 0000 0000 0000 0000 0000
00000020: 0000 0000 0000 0000 0000 0000 0000 0000
00000030: 0000 0000 0000 0000 0000 0000 0000 0000
00000040: 0000 0000 0000 0000 0000 0000 0000 0000
00000050: 0000 0000 0000 0000 0000 0000 0000 0000
00000060: 0000 0000 0000 0000 0000 0000 0000 0000
00000070: 0000 0000 0000 0000 0000 0000 0000 0000
00000080: 0000 0000 0000 0000 0000 0000 0000 0000
00000090: 0000 0000 0000 0000 0000 0000 0000 0000
000000a0: 0000 0000 0000 0000 0000 0000 0000 0000
000000b0: 0000 0000 0000 0000 0000 0000 0000 0000
000000c0: 0000 0000 0000 0000 0000 0000 0000 0000
000000d0: 0000 0000 0000 0000 0000 0000 0000 0000
000000e0: 0000 0000 0000 0000 0000 0000 0000 0000
000000f0: 0000 0000 0000 0000 0000 0000 0000 0000
00000100: 0000 0000 0000 0000 0000 0000 0000 0000
00000110: 0000 0000 0000 0000 0000 0000 0000 0000
00000120: 0000 0000 0000 0000 0000 0000 0000 0000
00000130: 0000 0000 0000 0000 0000 0000 0000 0000
00000140: 0000 0000 0000 0000 0000 0000 0000 0000
00000150: 0000 0000 0000 0000 0000 0000 0000 0000
00000160: 0000 0000 0000 0000 0000 0000 0000 0000
00000170: 0000 0000 0000 0000 0000 0000 0000 0000
00000180: 0000 0000 0000 0000 0000 0000 0000 0000
00000190: 0000 0000 0000 0000 0000 0000 0000 0000
000001a0: 0000 0000 0000 0000 0000 0000 0000 0000
000001b0: 0000 0000 0000 0000 0000 0000 0000 0000
000001c0: 0000 0000 0000 0000 0000 0000 0000 0000
000001d0: 0000 0000 0000 0000 0000 0000 0000 0000
000001e0: 0000 0000 0000 0000 0000 0000 0000 0000
000001f0: 0000 0000 0000 0000 0000 0000 0000 0000
0.0 0.0 0.0 0.0 0.0 0.0 0.0 0.0
0.0 0.0 0.0 0.0 0.0 0.0 0.0 0.0
0.0 0.0 0.0 0.0 0.0 0.0 0.0 0.0
0.0 0.0 0.0 0.0 0.0 0.0 0.0 0.0
0.0 0.0 0.0 0.0 0.0 0.0 0.0 0.0
0.0 0.0 0.0 0.0 0.0 0.0 0.0 0.0
0.0 0.0 0.0 0.0 0.0 0.0 0.0 0.0
0.0 0.0 0.0 0.0 0.0 0.0 0.0 0.0
0.0 0.0 0.0 0.0 0.0 0.0 0.0 0.0
0.0 0.0 0.0 0.0 0.0 0.0 0.0 0.0
0.0 0.0 0.0 0.0 0.0 0.0 0.0 0.0
0.0 0.0 0.0 0.0 0.0 0.0 0.0 0.0
0.0 0.0 0.0 0.0 0.0 0.0 0.0 0.0
0.0 0.0 0.0 0.0 0.0 0.0 0.0 0.0
0.0 0.0 0.0 0.0 0.0 0.0 0.0 0.0
0.0 0.0 0.0 0.0 0.0 0.0 0.0 0.0

network_body._body_endoder.seq_layers.2.weight f4 [128, 128]
00000000: ecb2 053e efe0 4fbd b6cd 033d b1b1 803d
00000010: 4bdd cfbd 72dc 093c 8fbf 713c 816d 0ebd
00000020: 044a 0f3d 3ae8 ac3d 787e 143e dd95 163e
00000030: 2fa2 e3bb 897c 0cbd 76c2 c0bd 8a9a e7bc
00000040: e5c9 6a3e b581 113e f83a 2fbe 85c2 0e3d
00000050: 8d46 1dbd 8b8f 933d 9968 77bb 0109 b9bd
00000060: 9631 c7bd 99eb 463c be28 343d 75eb cd3c
00000070: b153 0ebe 95e6 a23d 5be2 103e b829 123e
00000080: 8941 8b3d bedc 0abc 0b8d e4bd 5393 f93c
00000090: 7988 9a3c c946 e33c 3aca 5d3c ea04 133d
000000a0: 58a3 903d f107 3b3d e8f9 c23d 56b6 ed3d
000000b0: 39e6 d8bd 2b3f fabd 0120 f63c d0f3 1c3d
000000c0: 207c a2bd 6d97 2abc 7f8b f93d fd6f d13d
000000d0: 9c06 113e f5dd ee3a 0f97 5cbe 86c8 953d
000000e0: 6e0a b9bd 846e d5bc c11f a03d 9be0 2b3d
000000f0: d91a a5bd cfaa fd3c d338 4e3d 68f8 e13c
00000100: 46b6 363d 3aba a63d c53b 933d 50ee 183d
00000110: 0d91 813d b608 12be a22d be3c 8d28 cfbc
00000120: 0f31 07be 775a 103c cd9d 8c3e 83d2 673d
00000130: 2e73 26be 0b6a dbbd 3b87 fd3c 00a8 663c
00000140: 26de adbd df71 973c e96e a03d a6ab c9bc
00000150: fa00 0e3d d70c ecbc 7596 e73d 37a9 0fbd
00000160: c93e 413d 9b0a 2cbc ae0a f73b a036 663b
00000170: e74b 0abd 79f9 ae3d d179 acbd 725a ebbd
00000180: 874c 363e 4068 a53d e345 babd 2fa4 1cbc
00000190: 221b 8b3d 3205 a6bd 6ad9 a0bd 86fc 87b9
000001a0: ac44 623d 15a9 533c 2db8 c03d 12cb 2dbd
000001b0: 64ba ffbb 77b4 53bd 1959 09be c769 4d3d
000001c0: 65ad 55bd 9a7c 903d 69b2 9e3d 4316 61bd
000001d0: 77b9 243d dc2b b13d 6cb1 2cbe 5022 8c3d
000001e0: f421 543c f55e 983d cbd8 dd3d 41a4 d0b9
000001f0: 72f6 6d3d 596c 8bbc daf7 953d 6332 5dbd
00000200: f755 99bc 6a13 97bc 8ea0 8dbd 455f 6d3d
00000210: 3082 fbbd 903f 61bd 4561 ee3d e8d7 053e
00000220: 30c4 4a3d e618 a23d 8311 ee3c cd58 3f3d
00000230: 8b2f b53d 6c39 d83d f1f3 85bd abd0 883d
00000240: f91f 52bd 09c9 b33d 0e74 0d3d b6d5 893b
00000250: ff09 6fbb 866d f23d b88d 943c 7512 f63c
00000260: 6f72 c3bc 1515 0c3e 7388 1ebd 439f e7bd
00000270: 9c33 783c 98f0 8e3c 09bc 183e 2a96 bdbc
00000280: 3a37 a03d 8292 4d3c 7c56 4d3d e8f2 173e
00000290: ddfc 5e3d ec5d afbc 121d d13c b100 50bd
000002a0: 4dac 6f3d 5e06 05be 9262 183e 374a a6bc
000002b0: c17b e33d 788e 343d 52c9 14bb 6cd0 523d
000002c0: 001f b2bd 3dae 30bb 3d96 eebc 845c 2ebe
000002d0: 58e7 a33e 4bd9 b9bd 974c 02be a997 0c3e
000002e0: 5571 9bbb af93 c63d fa1e 93bc be26 c6bd
000002f0: 999c d0bb 0aac 9c3c 0532 013e 4646 f03b
00000300: adac 253e 45d6 bb3d 38e3 333e 3b7a 1fbc
00000310: 700e 0c3d 9060 08bd 0b43 8bbd 6238 50bd
00000320: cec9 94bd 8d32 473e 553c 833d ff0f 1abc
00000330: 774b c5bd 5173 5a3d 4218 98bd 93c8 f1bb
00000340: ed2c 3b3d caed 6abe 8021 3d3e e8b5 933d
00000350: 93c5 043c 9bae 64bc 0e70 8d3c 24df 2fbc
00000360: 9c86 503e 2661 f5bd f42e a8bd b1fe 053e
00000370: 82ff 1ebc a5b2 bfbd c439 a5bc 93a3 53bd
00000380: 8db6 1ebe b39d ab3d a0f6 823d 309a cc3c
00000390: 6731 02bd 3488 ce3d 26fd 6d3d 64c0 0e3e
000003a0: b358 c33d 9866 ebbc 50bf 98bc 057d 25be
000003b0: 7219 933d c3dc d2bd d475 973d 55ac 84bd
000003c0: cafc ed3d c6d6 0abc df5b 11be 69f1 8b3d
000003d0: 6fd0 d63c ad80 af3c dc78 e0bc c539 fdbc
000003e0: 3460 d33c 7ae6 453d 885d cabd d0f5 0b3e
000003f0: aa82 2ebe 77aa 23bd d7db 3b3c b3ff 13bd
0.13056535 -0.050751623 0.032178603 0.06283892 -0.1014963 0.008414375 0.014755144 -0.0347724
0.034982696 0.08442731 0.14501369 0.14705606 -0.006946824 -0.034298453 -0.094120905 -0.028271932
0.22928579 0.14209636 -0.17112339 0.034853477 -0.03839736 0.07205113 -0.0037751554 -0.090349205
-0.09726255 0.012141132 0.043984167 0.025136689 -0.13899113 0.07954136 0.14148848 0.14273727
0.06799609 -0.008475481 -0.11159714 0.030465757 0.018863903 0.027743714 0.013536984 0.03589336
0.07062405 0.04566187 0.09520322 0.116070434 -0.105907865 -0.122190796 0.030044558 0.038318455
-0.07933831 -0.010412079 0.1218481 0.10226438 0.14162678 0.0018224107 -0.21542 0.073136374
-0.090351924 -0.026053675 0.078185566 0.041962247 -0.080617614 0.030965237 0.05034716 0.02758427
0.044607423 0.08140989 0.071891345 0.037336648 0.06326494 -0.14261135 0.023215119 -0.02528789
-0.13202308 0.008810631 0.27464142 0.056597244 -0.16254875 -0.107135855 0.030948272 0.01407814
-0.08489637 0.018486915 0.078336544 -0.024617981 0.0346689 -0.028814716 0.11307994 -0.035073485
0.047179017 -0.010500575 0.007539115 0.0035127774 -0.033763792 0.08543677 -0.08421672 -0.114918604
0.1780263 0.08076525 -0.09095361 -0.009560629 0.067922845 -0.0810646 -0.078539684 -0.0002593735
0.05524127 0.01291873 0.09410129 -0.04242999 -0.007804202 -0.051685777 -0.13412894 0.050149705
-0.052167315 0.07055016 0.07748873 -0.05495287 0.040215936 0.08650944 -0.16864556 0.06842482
0.012947548 0.074399866 0.108323656 -0.0003979523 0.058096357 -0.017019438 0.073226646 -0.05400313
-0.018717749 -0.018441875 -0.06915389 0.057952184 -0.12280691 -0.05499226 0.116396464 0.13070643
0.049503505 0.07914905 0.029061085 0.046715546 0.08846959 0.10557827 -0.06540669 0.06680425
-0.051300023 0.08778579 0.034534506 0.0042063845 -0.0036474464 0.11837296 0.018133983 0.030038098
-0.023858277 0.13679917 -0.038704347 -0.11309674 0.015149023 0.017448708 0.1491548 -0.023142893
0.07823034 0.012547137 0.050131306 0.14838755 0.054440368 -0.02140709 0.025526557 -0.05078191
0.05851393 -0.1299071 0.14881352 -0.02029906 0.111075886 0.04408118 -0.0022703004 0.051468298
-0.08697319 -0.0026959323 -0.029124374 -0.1702748 0.3201244 -0.090746485 -0.12724529 0.13729729
-0.004743735 0.09696137 -0.017959107 -0.09675358 -0.006366324 0.019125003 0.12616737 0.007332596
0.16179152 0.09171728 0.17567146 -0.009733732 0.034193456 -0.033295214 -0.06799897 -0.05083502
-0.07265054 0.19452877 0.06407992 -0.009403228 -0.096335344 0.05333263 -0.07426502 -0.0073786466
0.04569714 -0.22942272 0.1846981 0.0721243 0.008103746 -0.013957645 0.017265346 -0.010734353
0.2036385 -0.1198142 -0.082120806 0.13085438 -0.0097044725 -0.093602456 -0.020169146 -0.05166967
-0.15499325 0.08379688 0.06394696 0.024975866 -0.031785395 0.100845724 0.05810275 0.13940579
0.095384024 -0.028735444 -0.018645912 -0.16160972 0.07182588 -0.10296013 0.07395521 -0.06478182
0.11620481 -0.008474058 -0.14195202 0.06833155 0.026222436 0.021423662 -0.02740138 -0.030911336
0.02580271 0.048315503 -0.09881121 0.13667989 -0.17042032 -0.03995749 0.011465988 -0.036132526

action_model._discrete_distribution.branches.0.weight f4 [38, 128]
00000000: c636 433a 5a6e b23b ca9d 89bb 3899 dbba
00000010: 52b1 d23b 8f5b 87ba 7f3d b2bb d53c 00bc
00000020: 475b d03a 1e6f 96bb 6f25 e1ba 026e 95bb
00000030: d4ee 123c ffb3 73bb badd e6bb a06f 9a3b
00000040: 4dfb 5ebc df3e 103c 7da4 70bb ebb7 38bc
00000050: 0f42 d03b a23d fb3b 5782 27bc b9e4 16bb
00000060: 8d52 fcbb de7b 96bb 1938 c33a d791 30bc
00000070: f784 3b3c 535b ee3b e041 453c f729 0e3c
00000080: 45f3 febb 5ff8 86bb 6fbf efbb b4a0 01bb
00000090: e259 2cbc da30 653c 07fe 2ebb 4d23 e4bb
000000a0: a564 8d3b 28f9 b23a 1d0b 183b cf94 ecbb
000000b0: 254b 1ebb 132c 613c 7078 f4ba 6576 6fbb
000000c0: da09 cc39 cb04 09bb 5bf6 653c ef7c 85bb
000000d0: 8553 b43b 9f67 2abb c7f2 003c d27f d2bc
000000e0: 4346 94b9 40d4 4e3c 4de5 80bb 40bc c03b
000000f0: f44e abbb 3557 df3a b490 a33b 8baa 6dbb
00000100: 571c 6e3b 450c a8bc c54d 96bb 6166 28bc
00000110: b080 d93b 35b6 ec3a 0f91 a93b 077f 193b
00000120: 47ae dc3a 8025 3f3c 6749 e83b 478e 76bb
00000130: 8a7a 083c f5d4 9bbc af6a bf3b 4369 363b
00000140: 337c 97bb 0bea 80bc b362 993b 491d 9f3c
00000150: ed9f 853b 2470 cb3c 7b08 843b d8ef 4fbc
00000160: e921 09bc 61d6 99bb ba45 b53b d1df b2bb
00000170: f2eb aabc fcfd c33c 9d16 6e3b b7de 4bbc
00000180: ef2b 913c 8b1a cbbc 3242 5d3b daf2 613c
00000190: 90aa 023b 2a0b 743c 72d9 4cbb 1fef 273c
000001a0: 27d3 43bc bf32 c2bb 6161 343b 9201 2f3c
000001b0: d5a6 553b 01c7 893b bbcb d2ba 25c7 14bc
000001c0: 86ed 8bbb ac01 343c e1aa 803a 2fab 053b
000001d0: 9198 a23b 235b 0c3c 2379 ef3a 8ec6 9cba
000001e0: 84f2 80bb 1dd9 2e3c bb90 74bb 85fd e93b
000001f0: ee1b 37bc 1b98 6a3a 70f7 a7bb 9f37 503c
00000200: 9ea8 24bc 0e90 16b9 73cb a53b cd78 db3a
00000210: 4278 0c3c 4d3d 02bc 83d5 133b fa9d 963b
00000220: d554 073c 456c e53b aaaf fcbb 071f a7bb
00000230: 9f1e bfbc bb2b 5f3c 0ffc a6bb 46eb 903b
00000240: e1c3 b5bb bdef a2bb b719 5abb 1710 7ebc
00000250: 4554 4c3c d3a7 423c 2a36 d9bb 427e 803b
00000260: a8d2 30bb 0aca 363c e8e4 bbbb 73c2 913c
00000270: 7a7b eebb ab15 7b3c c338 f73b 5f9a acbb
00000280: 8e71 3a3c 0d1e 823c b620 023c 27b8 e438
00000290: cd3e 243c 724a b13a 527b d9bb 3898 aebc
000002a0: c977 b8bb 6aef fc3b 02de e93a 8875 a93c
000002b0: 9f78 b03b 14dd c23b e8fa 593a 1baa 553c
000002c0: e70b f3ba 5bcc d3bb 78e5 d2bb bb72 7b3b
000002d0: d3b8 0bba 66a8 9bb9 67fd 69ba cb61 843b
000002e0: 172d 653c 0baa 313c 0b31 5abb 07d9 343b
000002f0: f333 253c eee5 b0bb 2a3d 4e3b 3f18 ee39
00000300: ac7c 963b e309 33bc cf60 de3b b4b5 1cbb
00000310: b524 88bb 80e3 ef3b aa2b a7bb 97d2 c33b
00000320: 1bb9 04bb 8129 803b ddc9 cc3b dece 0cbb
00000330: a787 aabb e14f 99bb 5083 08bc b7aa b2bb
00000340: b720 72bc a595 1d3c cb24 e0bb 3872 deba
00000350: 2017 02bc afd7 e23b 51f8 b3bb b51d 6cbc
00000360: d00d 7aba fa47 08bc d776 05bc fdd8 783c
00000370: 6adb 6a3b 6fb7 8f3b b7fe 70bc 0c12 903c
00000380: b78c 23bc 63fa 55bc 264b 37bc 3491 a0bb
00000390: 4b32 de3a b44d b73b e3da 9b3a 0021 d2bb
000003a0: 7ca4 c23b 94b6 36bb 43d0 92bb 666b 153c
000003b0: 55aa 283c c9f7 0339 8b43 8d3c fcaa 44bb
000003c0: 073a 81b7 4bcb d83c c689 003c a74c 263b
000003d0: bb06 80bc c34d 5dbc 7ed0 07bc e618 26bc
000003e0: f24e f83b 4f8e a53b cfd2 363c 0f8b 36bc
000003f0: 239f ddbb 418f b83b afb2 b1ba 7e85 a63b
0.00074468215 0.005445284 -0.004199718 -0.0016754037 0.0064298296 -0.0010326969 -0.00543946 -0.0078270035
0.0015896343 -0.004590883 -0.0017177294 -0.004560233 0.008968074 -0.0037186143 -0.007045475 0.004713014
-0.013609719 0.008804052 -0.0036719136 -0.011274318 0.006355531 0.0076672593 -0.0102239465 -0.0023024513
-0.0077002705 -0.004592403 0.0014894038 -0.010776958 0.0114452755 0.0072740703 0.012039632 0.008676997
-0.007780465 -0.0041189636 -0.007316522 -0.0019779624 -0.010519477 0.013988698 -0.0026701705 -0.006962216
0.0043149763 0.0013654577 0.0023199983 -0.007219888 -0.0024153676 0.013743418 -0.0018651616 -0.0036539074
0.00038917252 -0.0020907398 0.0140357865 -0.004073731 0.0055031204 -0.0026001704 0.007870383 -0.025695715
-0.0002828111 0.0126238465 -0.003933585 0.005881816 -0.005227918 0.001703954 0.004991615 -0.0036264982
0.003633281 -0.020513663 -0.0045869076 -0.010278315 0.006637655 0.0018059673 0.005174763 0.0023421661
0.0016836607 0.011666656 0.0070888284 -0.0037621425 0.008329997 -0.019022444 0.005841575 0.0027833737
-0.00462296 -0.0157366 0.0046809553 0.019423144 0.0040779025 0.024833746 0.0040293313 -0.012691461
-0.008369901 -0.0046947454 0.0055319937 -0.00545881 -0.02086446 0.02392482 0.0036329397 -0.012443236
0.017721144 -0.02479293 0.003376138 0.0137908105 0.001993809 0.01489524 -0.0031257537 0.010249882
-0.011952198 -0.0059264596 0.0027523863 0.010681527 0.003260066 0.0042046313 -0.0016082445 -0.009080683
-0.0042702584 0.010986727 0.0009816551 0.0020396223 0.004962035 0.008566651 0.0018270354 -0.0011961029
-0.00393516 0.010671881 -0.0037317711 0.0071408176 -0.011176093 0.0008949057 -0.0051259324 0.012708574
-0.010049967 -0.0001435878 0.0050596534 0.0016744375 0.008573594 -0.007949186 0.0022557683 0.004596469
0.008259972 0.007001432 -0.0077113705 -0.0051001343 -0.023330031 0.013621266 -0.0050959657 0.004422578
-0.005547032 -0.0049724267 -0.0033279487 -0.015506766 0.012471263 0.011880833 -0.0066287713 0.003921301
-0.002698103 0.011156568 -0.005734075 0.017792916 -0.007277903 0.01532499 0.0075446083 -0.005267426
0.011379613 0.01588347 0.007942369 0.00010906188 0.0100247385 0.0013526215 -0.0066370154 -0.021312818
-0.005629514 0.00771897 0.0017842653 0.020685926 0.005385473 0.0059467647 0.0008315281 0.013041045
-0.0018542976 -0.00646357 -0.006436046 0.0038367945 -0.000532997 -0.0002968937 -0.00089260045 0.004039978
0.013987801 0.010843764 -0.0033293392 0.0027595179 0.010083186 -0.0053985035 0.0031469562 0.00045412962
0.0045924988 -0.01092765 0.006786443 -0.0023912014 -0.0041547664 0.0073208213 -0.0051016407 0.005976032
-0.0020251933 0.0039111977 0.00624965 -0.0021485607 -0.0052041593 -0.0046787118 -0.008332089 -0.0054524797
-0.014778308 0.009618198 -0.0068403236 -0.0016971296 -0.007940084 0.006922684 -0.005492248 -0.01441138
-0.00095388014 -0.008317942 -0.008146009 0.015188453 0.0035836347 0.0043858807 -0.014709166 0.01758673
-0.0099822795 -0.013060185 -0.01118735 -0.004900122 0.0016952244 0.0055939797 0.0011890795 -0.0064126253
0.005940018 -0.002787982 -0.004480393 0.009119844 0.010294517 0.0001258544 0.017244121 -0.0030009141
-1.540502e-05 0.026464125 0.007845348 0.0025375278 -0.01562821 -0.013507309 -0.0082894545 -0.010137772
0.0075777704 0.005052365 0.011158659 -0.011141553 -0.0067633553 0.0056323116 -0.001355728 0.0050818315

action_model._discrete_distribution.branches.0.bias f4 [38]
00000000: 0000 0000 0000 0000 0000 0000 0000 0000
00000010: 0000 0000 0000 0000 0000 0000 0000 0000
00000020: 0000 0000 0000 0000 0000 0000 0000 0000
00000030: 0000 0000 0000 0000 0000 0000 0000 0000
00000040: 0000 0000 0000 0000 0000 0000 0000 0000
00000050: 0000 0000 0000 0000 0000 0000 0000 0000
00000060: 0000 0000 0000 0000 0000 0000 0000 0000
00000070: 0000 0000 0000 0000 0000 0000 0000 0000
00000080: 0000 0000 0000 0000 0000 0000 0000 0000
00000090: 0000 0000 0000 0000
0.0 0.0 0.0 0.0 0.0 0.0 0.0 0.0
0.0 0.0 0.0 0.0 0.0 0.0 0.0 0.0
0.0 0.0 0.0 0.0 0.0 0.0 0.0 0.0
0.0 0.0 0.0 0.0 0.0 0.0 0.0 0.0
0.0 0.0 0.0 0.0 0.0 0.0
