results/DemoRun/TestAgent1/TestAgent1-98176.pt (torch, 597377 bytes, 33 tensors)

network_body._body_endoder.seq_layers.0.weight f4 [128, 39]
-0.18671584 0.44559005 0.13288783 -0.2048223 -0.121206015 -0.21291742 0.1571942 0.15516452
-0.14257301 -0.116403215 0.2531013 0.077764414 -0.10778421 0.14415655 0.07164267 -0.3454778
-0.13190578 0.13091742 -0.10041636 0.18741813 0.26277903 -0.029717483 0.25419232 0.24838486
0.15153404 -0.016198922 -0.040183067 0.039518204 0.167686 0.007376252 0.251071 -0.1557237
0.06367398 0.026683196 0.1174462 0.10488312 0.096846655 0.2370677 0.2946646 0.09506531
-0.0155141195 0.07416467 -0.20621882 -0.13385643 -0.012212357 -0.20798177 -0.10254668 -0.069963984
-0.044695023 -0.05492331 -0.1405136 -0.11912725 0.06757693 -0.029889317 0.010476787 0.17624532
-0.05779193 0.112527624 -0.026682554 -0.11513262 -0.026491363 0.02409698 -0.09061784 0.1032983
-0.022031153 0.31527808 -0.1260686 -0.039269 0.13033956 -0.20250948 -0.1671752 -0.07838221
-0.055107214 -0.39572677 -0.14725831 -0.08717501 0.055297818 0.020317718 0.14908583 0.16258745
0.15851842 -0.03280997 0.17881593 0.06574671 0.063412756 0.002305823 -0.13330238 0.09124253
0.10834677 0.1443381 -0.024236644 -0.17112964 -0.12635182 0.1848385 0.24523309 -0.16645011
-0.3480695 -0.0156716 -0.08299434 0.11463791 0.12882209 -0.0660989 -0.12864183 -0.1464344
-0.087232225 0.07316495 -0.22212933 0.14774172 0.19410414 -0.11874207 0.06925948 0.14636524
-0.21454044 -0.25430706 0.2444226 0.2594652 -0.12896018 -0.022040475 -0.078758635 0.20708348
-0.16504033 -0.0017815843 0.12494895 -0.04017261 -0.11970711 -0.12656282 -0.06416411 -0.09196698
0.048274294 -0.039612327 -0.2611829 0.17723821 0.2490684 -0.17592673 -0.19291134 -0.1233613
-0.06468142 -0.21066251 0.20045383 0.17973822 0.25158003 0.09979363 -0.029077109 -0.067157924
0.09448771 -0.297629 -0.17628641 0.016634027 0.11434157 0.0765765 -0.120828226 0.031065429
0.08684292 -0.25488126 -0.19575137 -0.3285761 0.020307869 0.089540556 -0.06951964 0.2839434
-0.09814932 0.13395417 0.0031106528 0.30968648 -0.2659081 0.2836456 0.15332258 -0.023204833
0.10876715 -0.28484172 0.29308295 -0.0026923583 -0.24066666 -0.009135284 0.2456206 -0.10423006
0.09027642 -0.16635206 -0.046548594 -0.20070677 -0.080345176 0.028120061 0.22164625 0.05829811
0.059142318 0.3214053 -0.14778924 0.07392806 -0.060791 -0.06017129 0.03785809 0.12435203
0.14471267 -0.2970514 0.015004572 0.2159273 0.09727756 0.21847436 -0.1860352 0.012364381
0.08803174 -0.10959531 -0.28093404 0.03221439 0.102803715 0.102397725 -0.17040959 -0.15340059
-0.14606135 -0.28417778 -0.04103364 -0.29847503 -0.08069394 0.0053036804 -0.049670253 0.07733098
-0.33525223 -0.044303816 0.14484915 -0.1509916 -0.008586254 -0.094427854 0.20839427 0.10882412
0.1035419 -0.05271509 0.22133659 -0.27432334 -0.0038225295 -0.1091192 -0.2264427 0.068346106
0.17103067 -0.1054368 -0.09662387 -0.044172574 -0.0072836475 -0.15792269 -0.060566857 0.1404819
0.018913113 -0.023405122 -0.0032980694 -0.17469311 0.062239554 -0.030356854 -0.061320934 -0.3216775
0.012995728 -0.08509453 0.04406844 -0.120911956 0.017846072 0.07689201 -0.30705863 0.002602538
00000000: 7032 3fbe 6124 e43e bf13 083e f0bc 51be
00000010: dc3a f8bd 0607 5abe 84f7 203e 73e3 1e3e
00000020: a9fe 11be cf64 eebd 7e96 813e f342 9f3d
00000030: f8bd dcbd c69d 133e 64b9 923d 77e2 b0be
00000040: 4f12 07be 370f 063e 18a7 cdbd 8aea 3f3e
00000050: f98a 863e 1472 f3bc 7f25 823e 9a58 7e3e
00000060: bd2b 1b3e 9ab3 84bc 0097 24bd d7dd 213d
00000070: e1b5 2b3e 7db4 f13b 618c 803e 0976 1fbe
00000080: 8167 823d b896 da3c a287 f03d f6cc d63d
00000090: 8a57 c63d e0c1 723e 47de 963e 9ab1 c23d
000000a0: ef2e 7ebc a6e3 973d 072b 53be a911 09be
000000b0: 5616 48bc 2cf9 54be fe03 d2bd 4749 8fbd
000000c0: 2112 37bd 44f7 60bd cce2 0fbe fdf8 f3bd
000000d0: c665 8a3d 71da f4bc d4a6 2b3c a779 343e
000000e0: 3bb7 6cbd e274 e63d 5f95 dabc a7ca ebbd
000000f0: 6a04 d9bc 0867 c53c d995 b9bd 0f8e d33d
00000100: ad7a b4bc 216c a13e 2118 01be 88d8 20bd
00000110: bc77 053e a55e 4fbe fa2f 2bbe da86 a0bd
00000120: 1ab8 61bd b39c cabe e2ca 16be d088 b2bd
00000130: f77f 623d 5871 a63c f5a9 183e 537d 263e
00000140: a752 223e bf63 06bd 861b 373e 36a6 863d
00000150: 8cde 813d 4a1d 173b 6b80 08be 5ddd ba3d
00000160: e9e4 dd3d 5ecd 133e ed8b c6bc 9c3c 2fbe
00000170: 5f62 01be 4e46 3d3e 621e 7b3e e671 2abe
00000180: 2a36 b2be ba61 80bc f0f8 a9bd 48c7 ea3d
00000190: f0e9 033e dc5e 87bd afba 03be e6f2 15be
000001a0: cfa6 b2bd 81d7 953d df75 63be 9b49 173e
000001b0: 3cc3 463e 0b2f f3bd ead7 8d3d c5e0 153e
000001c0: 7db0 5bbe 8934 82be eb49 7a3e 9fd8 843e
000001d0: 230e 04be 3a8e b4bc 354c a1bd b10d 543e
000001e0: 5500 29be 0d84 e9ba 3ce5 ff3d 098c 24bd
000001f0: 0029 f5bd af99 01be 7968 83bd 2f59 bcbd
00000200: 44bb 453d 8940 22bd c4b9 85be ef7d 353e
00000210: c90b 7f3e 2326 34be 8d8a 45be d9a4 fcbd
00000220: b177 84bd eab7 57be c543 4d3e 4c0d 383e
00000230: 19cf 803e 9a60 cc3d 1e33 eebc 188a 89bd
00000240: c682 c13d d462 98be 6d84 34be 1544 883c
00000250: ea2b ea3d 24d4 9c3d ca74 f7bd ed7c fe3c
00000260: b3da b13d cc7f 82be 0c73 48be 203b a8be
00000270: b05c a63c 0a61 b73d 5060 8ebd 0861 913e
00000280: 8302 c9bd 482b 093e 18dc 4b3b 3a8f 9e3e
00000290: 1b25 88be ff39 913e 9800 1d3e 1018 bebc
000002a0: 50c1 de3d c6d6 91be f80e 963e 4772 30bb
000002b0: 5271 76be 29ac 15bc f783 7b3e 9276 d5bd
000002c0: d8e2 b83d 3258 2abe bda9 3ebd 1386 4dbe
000002d0: 038c a4bd 0b5c e63c 3cf7 623e 00ca 6e3d
000002e0: 373f 723d 3c8f a43e 1056 17be 9867 973d
000002f0: fcff 78bd 2c76 76bd 1611 1b3d 47ac fe3d
00000300: 8f2f 143e 1f17 98be bdd5 753c 0c1c 5d3e
00000310: 7539 c73d beb7 5f3e 0380 3ebe f993 4a3c
00000320: fc49 b43d 8273 e0bd 96d6 8fbe 3cf3 033d
00000330: c18a d23d e6b5 d13d da7f 2ebe 0b15 1dbe
00000340: 1b91 15be c07f 91be e412 28bd b8d1 98be
00000350: dd42 a5bd 7fca ad3b 0973 4bbd b45f 9e3d
00000360: 2ea6 abbe eb77 35bd 5653 143e 8b9d 1abe
00000370: 5cad 0cbc 6463 c1bd 4f65 553e 2edf de3d
00000380: c70d d43d c7eb 57bd 0fa6 623e 1c74 8cbe
00000390: 6783 7abb e379 dfbd 98e0 67be 0bf9 8b3d
000003a0: aa22 2f3e 40ef d7bd bce2 c5bd 4dee 34bd
000003b0: aaab eebb 7cb6 21be f414 78bd 7dda 0f3e
000003c0: acef 9a3c 19bc bfbc 6c24 58bb c0e2 32be
000003d0: e7ee 7e3d f0ae f8bc a92b 7bbd eab2 a4be
000003e0: 09ec 543c 0a46 aebd 1c81 343d b0a0 f7bd
000003f0: ed31 923c 8f79 9d3d ca36 9dbe 588f 2a3b

network_body._body_endoder.seq_layers.0.bias f4 [128]
0.013731235 0.004615443 -0.0075546717 -0.010447314 -0.003899533 0.004491419 -0.0044234097 -0.0049433615
-0.0023898564 -0.008210876 -0.0036840164 0.0034907393 0.0004298078 0.013475575 -0.0033827017 0.010453025
0.010665489 -0.005104089 0.0029118764 0.0065358514 -0.00067151233 -0.0010139146 0.010488922 0.015769906
-7.985726e-05 -0.007987876 0.009425348 0.0048721046 -0.0052510616 -0.0016256619 -0.0019546156 0.008094692
-0.0026875138 0.0045278207 -0.0020910955 0.005642376 0.002820249 -0.003564062 0.003937753 0.0072282716
-0.00697852 0.0007047535 0.011796463 0.007910536 0.0066588335 -0.004646622 -3.2941134e-06 0.010776556
0.012590818 -0.0028011072 -0.0039857444 0.000624737 0.0023773692 -0.0024875812 -0.001021076 -0.0011529878
0.008874308 -0.0010869286 -0.00199096 -0.0009205646 -0.008144779 0.0021697935 0.0029748238 0.004436157
0.009397971 0.005774791 0.0070746928 0.004390577 -0.0076238066 0.012214061 0.0047819135 0.003917494
0.008587687 0.0025818103 -0.007970134 0.0033142387 -0.005543786 -0.0075478484 0.0013932 0.0034005302
-0.007310177 0.004914294 -0.0053708022 0.0012423514 0.0054542087 0.0042536566 0.0058385152 -0.0042852294
0.006140098 0.011257797 0.007758976 -0.0053867 -0.0077387285 0.0066952873 -0.00671055 0.0055448585
0.0024856564 -0.00011132807 0.002906602 0.005399808 0.0033454841 0.007103424 0.00312438 0.0059582624
0.012160667 0.00947804 0.0047465414 -0.0067499424 -0.0028094596 0.0052159084 -0.006454272 0.010315692
0.009937688 -0.0017279538 -0.0022548523 0.002175138 -0.00022470925 -0.00043241782 0.00064530096 -0.0036038237
0.00016040138 0.010311114 0.0073315687 -0.005098353 0.0017944189 0.0067757894 0.0077514006 0.005131679
00000000: f9f8 603c 243d 973b 2e8d f7bb 362b 2bbc
00000010: 4f8f 7fbb c12c 933b 40f2 90bb ecfb a1bb
00000020: 239f 1cbb e986 06bc 8a6f 71bb e3c4 643b
00000030: d457 e139 a8c8 5c3c 51b0 5dbb 2a43 2b3c
00000040: 4ebe 2e3c 3440 a7bb 2ed5 3e3b b22a d63b
00000050: 6e08 30ba 54e5 84ba bad9 2b3c e42f 813c
00000060: 0a79 a7b8 95df 02bc c66c 1a3c 2da6 9f3b
00000070: 1911 acbb 2914 d5ba 0219 00bb 999f 043c
00000080: 0021 30bb 1d5e 943b c30a 09bb aee3 b83b
00000090: edd3 383b 0a93 69bb 4408 813b 23db ec3b
000000a0: 12ac e4bb 35bf 383a f445 413c 319b 013c
000000b0: 5832 da3b b142 98bb 7010 5db6 2790 303c
000000c0: b849 4e3c c892 37bb d99a 82bb 64c5 233a
000000d0: a3cd 1b3b b006 23bb a0d5 85ba da1f 97ba
000000e0: 8c65 113c 4677 8eba c47a 02bb 0b52 71ba
000000f0: ae71 05bc 1833 0e3b 43f5 423b 2f5d 913b
00000100: f3f9 193c 753a bd3b d3d2 e73b d4de 8f3b
00000110: 20d1 f9bb 7c1d 483c 99b1 9c3b 525e 803b
00000120: 5fb3 0c3c 9733 293b 2a95 02bc b333 593b
00000130: a6a8 b5bb f153 f7bb 099c b63a 6edb 5e3b
00000140: 368a efbb 1608 a13b 8efd afbb 65d6 a23a
00000150: 38b9 b23b 4262 8b3b 0451 bf3b 1c6b 8cbb
00000160: e032 c93b 9f72 383c 023f fe3b ea82 b0bb
00000170: 2995 fdbb 2464 db3b 2ce4 dbbb a5b1 b53b
00000180: 65e6 223b cd78 e9b8 b17c 3e3b dff0 b03b
00000190: e93f 5b3b d7c3 e83b 66c2 4c3b 873d c33b
000001a0: 893d 473c c849 1b3c e088 9b3b 9f2e ddbb
000001b0: e91e 38bb 36ea aa3b 5c7e d3bb 2603 293c
000001c0: afd1 223c 827c e2ba 25c6 13bb c38c 0e3b
000001d0: ee9f 6bb9 23b6 e2b9 6a29 293a 212e 6cbb
000001e0: 6b31 2839 f2ef 283c a83d f03b 1610 a7bb
000001f0: b532 eb3a 7107 de3b 76ff fd3b a527 a83b

network_body._body_endoder.seq_layers.2.weight f4 [128, 128]
0.037505716 0.020824831 -0.023597406 -0.12845136 0.007465491 0.18158495 -0.19140266 -0.0016941973
0.023318585 0.04885882 0.018879399 -0.027150799 -0.02396514 -0.041134644 -0.104720965 0.040084157
-0.027182877 -0.0011427277 -0.0075521 -0.045054574 0.0922902 0.051553257 -0.16295181 0.071471386
-0.07443788 -0.11118444 -0.049832825 0.06591921 0.15782751 -0.027927028 0.08050873 0.049058095
-0.10070026 0.05071513 -0.1187599 0.066327594 -0.07632731 -0.1441258 -0.095620655 0.043387536
0.10094781 -0.021337228 -0.09738907 -0.010250326 0.042861838 -0.011637715 0.13224488 0.10318276
-0.05551849 -0.12253115 0.09909551 0.008031668 -0.058468852 -0.058750983 -0.10632011 -0.12413106
-0.082692 0.0057823355 0.012128992 -0.24647298 -0.07156217 -0.017709387 0.09027688 -0.1114468
0.03411213 0.00822958 -0.13602789 -0.04120204 0.03694555 -0.078033626 0.14100376 -0.06880867
-0.108604655 -0.19993955 0.08086135 0.031485513 -0.06366087 0.018143836 -0.069835484 0.008368217
0.048246343 0.21508828 0.20974052 -0.010859096 0.048622776 0.039762754 0.07810707 0.022302667
0.082929306 -0.010229188 -0.00979207 0.075003035 -0.06949297 0.14083889 -0.05844961 -0.013911612
0.04043984 -0.12240366 -0.027561963 -0.05452504 -0.119215146 0.101673976 0.09299331 0.08969153
-0.09719259 0.03356328 0.044271596 -0.06995766 0.03508285 0.041409682 0.10793423 0.06624192
0.006311592 0.12085012 -0.08416316 0.09860624 0.03580778 0.104983345 -0.017230708 -0.12472693
0.035166148 0.0039532618 -0.03310811 -0.07710773 -0.17497817 -0.1942388 -0.011507934 0.03342419
-0.12839203 -0.068582095 0.036046196 0.06553903 0.09703015 0.07794751 0.0047352267 0.037292235
0.03481293 -0.06973818 0.15428662 0.056013957 0.06637948 -0.11908146 -0.045516424 -0.03548883
0.016166873 0.031126495 0.042297844 -0.0065513575 -0.030348318 0.060757 -0.033148974 -0.022265544
0.060690664 -0.0793175 -0.114962764 -0.0037533408 0.03207208 -0.025149513 -0.10828586 -0.053414784
-0.012670051 -0.021359032 0.083678074 -0.061395966 -0.09547785 -0.03773981 -0.05174524 -0.012201193
0.065359995 -0.03245545 0.04024749 -0.0056604967 0.08442714 0.051920056 0.05184463 0.07021612
0.007574988 -0.0037349884 -0.013376749 0.04243843 -0.038237147 -0.1310161 -0.023784352 -0.09559176
-0.0520593 -0.11594214 -0.06663509 0.05209364 -0.0152176535 -0.020296682 0.013120776 -0.18060608
-0.15268317 -0.09559231 -0.07565462 0.043327242 -0.13285168 0.115995236 0.065524 -0.08567772
0.0016781247 -0.11697863 -0.051978707 -0.05375087 -0.070625916 -0.10363355 -0.05092939 -0.06365043
0.049983226 -0.00075713894 -0.14220487 -0.09536698 0.05572957 -0.034717746 0.07549937 0.029168686
8.6374675e-05 0.04663828 -0.09250648 -0.03999328 -0.08742132 -0.029293906 -0.02795859 -0.085368775
0.0719978 0.04200547 0.0046696328 0.08145278 -0.07404022 -0.017758355 -0.04417129 0.13368367
0.08052836 -0.11924755 -0.09639097 0.007609473 -0.045838952 0.19645452 0.11381182 0.053037144
0.071680166 0.11807528 0.15048967 -0.075934105 -0.096604176 -0.07570877 -0.05305285 0.11744865
0.08502702 0.038915083 0.067397036 -0.05481142 -0.087644294 -0.057194185 0.00021389904 0.10337228
00000000: 989f 193d d698 aa3c 594f c1bc c188 03be
00000010: 14a1 f43b 68f1 393e 0fff 43be d40f deba
00000020: 9e06 bf3c 3020 483d f8a8 9a3c 5a6b debc
00000030: 8b52 c4bc cd7c 28bd f277 d6bd 492f 243d
00000040: a0ae debc 94c7 95ba 9b77 f7bb 258b 38bd
00000050: a502 bd3d 8229 533d d7dc 26be 975f 923d
00000060: e372 98bd abb4 e3bd 811d 4cbd a700 873d
00000070: 899d 213e 39c7 e4bc c3e1 a43d 24f1 483d
00000080: f03b cebd abba 4f3d 6438 f3bd c3d6 873d
00000090: 7e51 9cbd b795 13be c3d4 c3bd 21b7 313d
000000a0: babd ce3d 69cb aebc ec73 c7bd fcf0 27bc
000000b0: e58f 2f3d 1dac 3ebc 346b 073e 7c51 d33d
000000c0: 5b67 63bd 9df1 fabd 96f2 ca3d 4297 033c
000000d0: 097d 6fbd dfa4 70bd 5cbe d9bd 6d38 febd
000000e0: 6c5a a9bd bf79 bd3b aeb8 463c 6a63 7cbe
000000f0: 308f 92bd 4713 91bc 16e3 b83d 383e e4bd
00000100: 29b9 0b3d 5cd5 063c e54a 0bbe 78c3 28bd
00000110: 3854 173d 18d0 9fbd 4a63 103e 8feb 8cbd
00000120: 1e6c debd f4bc 4cbe a39a a53d f4f6 003d
00000130: a160 82bd 62a2 943c e805 8fbd d91a 093c
00000140: f59d 453d 1a40 5c3e 38c6 563e 5aea 31bc
00000150: ad28 473d 45de 223d 99f6 9f3d 15b4 b63c
00000160: d7d6 a93d 5398 27bc eb6e 20bc 319b 993d
00000170: 5552 8ebd 1238 103e dc68 6fbd 88ed 63bc
00000180: 3fa4 253d c5ae fabd a0c9 e1bc a655 5fbd
00000190: 1227 f4bd 723a d03d 4773 be3d 31b0 b73d
000001a0: e90c c7bd a679 093d 2256 353d f645 8fbd
000001b0: 09b3 0f3d 339d 293d 9f0c dd3d d8a9 873d
000001c0: 79d1 ce3b 4580 f73d bc5d acbd 11f2 c93d
000001d0: 2eab 123d 8201 d73d 6a27 8dbc d570 ffbd
000001e0: 610a 103d 5d8a 813b 5f9c 07bd a8ea 9dbd
000001f0: 7a2d 33be 89e6 46be c68b 3cbc cee7 083d
00000200: 3379 03be c574 8cbd 2da5 133d 5439 863d
00000210: beb7 c63d f2a2 9f3d f629 9b3b bebf 183d
00000220: 0198 0e3d e4d2 8ebd 50fd 1d3e e46e 653d
00000230: f7f1 873d fbe0 f3bd 6e6f 3abd bc5c 11bd
00000240: 6470 843c fefc fe3c 8140 2d3d c5ac d6bb
00000250: 099d f8bc 55dc 783d 38c7 07bd 3b66 b6bc
00000260: c696 783d 3771 a2bd 9971 ebbd 9cfa 75bb
00000270: 035e 033d 5a06 cebc fac4 ddbd 76c9 5abd
00000280: 0c96 4fbc 23f9 aebc 695f ab3d 567a 7bbd
00000290: e489 c3bd 0f95 1abd d1f2 53bd 83e7 47bc
000002a0: 76db 853d 02f0 04bd 8dda 243d b07b b9bb
000002b0: 23e8 ac3d 20aa 543d 095b 543d 78cd 8f3d
000002c0: 9b37 f83b b5c6 74bb 272a 5bbc ebd3 2d3d
000002d0: 8e9e 1cbd 1629 06be 67d7 c2bc 9dc5 c3bd
000002e0: 223c 55bd 1373 edbd fa77 88bd 2460 553d
000002f0: 7753 79bc 3a45 a6bc 86f8 563c cdf0 38be
00000300: fa58 1cbe e7c5 c3bd cff0 9abd e877 313d
00000310: 450a 08be e98e ed3d 7231 863d cd77 afbd
00000320: 85f4 db3a 7e92 efbd a0e7 54bd df29 5cbd
00000330: 52a4 90bd d43d d4bd 569b 50bd 285b 82bd
00000340: 36bb 4c3d bc7a 46ba 279e 11be c34f c3bd
00000350: b144 643d 3234 0ebd 6a9f 9a3d 2bf3 ee3c
00000360: 0d24 b538 c807 3f3d 0a74 bdbd fecf 23bd
00000370: f309 b3bd c6f9 efbc 6a09 e5bc d3d5 aebd
00000380: 9573 933d ed0d 2c3d b803 993b b7d0 a63d
00000390: 66a2 97bd f879 91bc f4ec 34bd 5fe4 083e
000003a0: 0eec a43d 0f38 f4bd a168 c5bd e358 f93b
000003b0: a0c1 3bbd 602b 493e 2c16 e93d 7a3d 593d
000003c0: 0dcd 923d 74d1 f13d f719 1a3e 5783 9bbd
000003d0: 69d8 c5bd 330d 9bbd f24d 59bd eb88 f03d
000003e0: a522 ae3d 6c65 1f3d 7507 8a3d f181 60bd
000003f0: da7e b3bd 7344 6abd 164a 6039 d9b4 d33d

network_body._body_endoder.seq_layers.2.bias f4 [128]
0.014330488 -0.010934075 0.0031724432 0.0031385832 0.009725149 0.0006052365 0.0039142556 0.005156763
-0.006600795 -0.010457434 0.0011685707 -0.0016157473 -0.0037881078 0.0038536442 0.0021206418 0.0021716382
-0.0028419478 -0.009401771 0.007783215 0.0021556576 -0.0028333839 -0.0012616477 0.0060144835 0.009487445
-0.012450028 -0.006351729 0.0017485115 0.0026476742 -0.0011510974 0.005567441 -0.0017968062 -0.004107356
-0.010398518 0.0027434735 0.004443386 -0.00549474 0.0068844086 0.0045706294 -0.0023112895 0.0017185141
0.008540097 -0.010356629 0.0020468573 0.0052120215 -0.0029922503 -0.0037961553 -0.012007732 -0.00018899459
-0.0060518226 -0.004725926 0.0010949537 -0.0060435133 0.008481974 0.013833928 0.0013354186 -0.0010008593
-0.0015974082 -0.0018368576 0.010144484 -0.0067532226 -0.006695884 0.008491268 0.008025645 -0.0018288704
0.006931507 0.007950231 -0.0002651775 0.0040538674 0.013072638 0.0032377564 -0.0127633745 0.004207616
-0.0047259196 -0.009716911 -0.006011476 -0.0041359887 0.0066304915 0.002580407 -0.011867561 0.006410036
0.002097242 0.0045177173 -0.003718862 0.0055054906 -0.0040163887 0.0042948723 -0.0038436446 -0.0044936845
-0.00019724702 -0.0033415165 0.0022956147 0.004497372 -0.0010817812 0.007980924 -0.013590658 -0.009225175
-0.0033738047 -0.0009676167 -0.0010946697 -0.015463109 4.8357884e-05 0.0042377613 0.0044136248 -0.006921171
-0.002242635 0.006974314 -0.009934699 -0.004912973 0.00018470235 0.003169075 -0.0066917804 -0.003933131
0.0011820912 -0.0033915928 -0.003232565 0.006619457 -0.004286325 -0.0037166928 0.011016848 -0.002385935
-0.002215128 -0.0060205623 -0.004376865 -0.005009583 0.0035780866 -0.009797099 -0.00955446 -0.0073023126
00000000: 6cca 6a3c d624 33bc c4e8 4f3b b0b0 4d3b
00000010: 3b56 1f3c bca8 1e3a 2843 803b 10fa a83b
00000020: 7b4b d8bb a855 2bbc ba2a 993a 7cc7 d3ba
00000030: e741 78bb 6c8d 7c3b 77fa 0a3b 0b52 0e3b
00000040: f93f 3abb e309 1abc 570a ff3b ef45 0d3b
00000050: 4bb0 39bb df5d a5ba 2515 c53b 3a71 1b3c
00000060: 34fb 4bbc 2a22 d0bb 4f2e e53a 9a84 2d3b
00000070: 6be0 96ba 156f b63b d082 ebba 0097 86bb
00000080: 8c5e 2abc d9cb 333b d399 913b 380d b4bb
00000090: 9b96 e13b 38c5 953b 0179 17bb c43f e13a
000000a0: c3eb 0b3c daae 29bc 9124 063b 9bc9 aa3b
000000b0: a119 44bb ebc8 78bb 14bc 44bc d92c 46b9
000000c0: 5e4e c6bb f1db 9abb 8d84 8f3a aa08 c6bb
000000d0: faf7 0a3c b3a7 623c 3609 af3a 442f 83ba
000000e0: 2060 d1ba b7c2 f0ba 0d35 263c 234a ddbb
000000f0: 2569 dbbb f61e 0b3c ff7d 033c b5b6 efba
00000100: b221 e33b b041 023c 8607 8bb9 4ed6 843b
00000110: 9e2e 563c 8a30 543b 791d 51bc 0be0 893b
00000120: e3db 9abb ae33 1fbc eafb c4bb 3087 87bb
00000130: 9844 d93b 0c1c 293b 2970 42bc 470b d23b
00000140: e271 093b 5c09 943b 27b8 73bb 6767 b43b
00000150: e99b 83bb 00bc 8c3b a8e5 7bbb c23f 93bb
00000160: 18d4 4eb9 58fd 5abb 0672 163b b15e 933b
00000170: 8eca 8dba 6cc2 023c 5aab 5ebc 3025 17bc
00000180: 0d1b 5dbb a8a7 7dba 057b 8fba fb58 7dbc
00000190: e2d3 4a38 ebdc 8a3b 2ba0 903b feca e2bb
000001a0: 2cf9 12bb c988 e43b 26c5 22bc 01fd a0bb
000001b0: a9ac 4139 41b0 4f3b b946 dbbb 7fe1 80bb
000001c0: 66f0 9a3a 7c45 5ebb 71d9 53bb 08e8 d83b
000001d0: 4d74 8cbb c293 73bb 0280 343c 595d 1cbb
000001e0: ae2b 11bb 2348 c5bb ce6b 8fbb 6e27 a4bb
000001f0: 557e 6a3b 0384 20bc 4f8a 1cbc 3d48 efbb

action_model._discrete_distribution.branches.0.weight f4 [38, 128]
0.009830583 -0.01353445 0.010979569 0.012942721 0.020130605 -0.010038371 -0.017503839 -0.0028348854
-0.0022864854 -0.011659965 -0.0008040554 -0.0074251997 0.0017945193 -0.0016026301 0.00049944426 -0.005126653
-0.029228937 0.013989985 -0.00062893477 0.0063772444 -0.0013008957 -0.01022898 0.01719771 -0.006018963
0.0030719384 -0.012527707 -0.021770027 -0.014723667 0.014466879 0.0013526352 0.015804887 0.01663325
-0.006822682 0.0103088245 -0.012908495 -0.018780362 0.0016329656 0.0031401897 -0.011465724 0.02732141
0.020777522 0.008926107 0.017102111 -0.004006674 0.0024636148 -0.0066284193 -0.009519356 -0.020711452
-0.0045609274 0.0082533555 -0.020970322 0.01337731 -0.0058641504 -0.018449377 -0.011769873 0.0023186912
0.0027948418 -0.0025226877 0.018246049 -0.012018031 -0.025518015 0.0065123807 -0.00469935 0.0053413664
0.0034908322 -0.009735014 -0.0021242867 -0.0083508 -0.016023483 0.011570709 -0.00856955 -0.007939702
-0.0060191317 -0.011713615 -0.018719416 0.0005639251 0.0051674526 0.009757503 -0.018920483 0.0026641474
0.0123534165 -0.00020203277 -0.016935658 0.0044464013 -0.005371723 0.0061393017 -0.005879516 -0.00054576783
-0.010338765 -0.00051847653 -0.0016187417 0.005287674 -0.017226962 -0.0074066715 -0.0016268308 0.002663245
-0.0075024925 -0.0005531077 0.0035867773 -0.018811325 0.009780923 0.0088992445 -0.0021002484 0.006248071
0.0056500444 -0.0231511 -0.0024317375 0.004247492 -0.006724775 -0.013600085 0.003043859 -0.009515877
-0.018914951 0.0006145138 0.008473641 -0.013942654 0.005119831 0.010538932 0.0056818817 -0.008789771
-0.0069049136 -0.013608691 0.00032389228 0.008618365 0.012141646 -0.0018041537 -0.015056859 -0.005656887
-0.014932245 0.011990352 -0.006174953 -0.0019934748 -0.027515283 -0.0021409928 0.004672457 -0.008795765
0.0010507618 -0.0051145316 0.008361927 -0.006827857 0.017288106 0.0050179805 0.0024482296 0.009605968
0.004425238 0.013311658 0.0044042836 -0.011603613 0.013145925 0.0050189397 0.014924539 0.019440774
0.00091523404 0.0017784112 0.004536792 -0.01134076 0.012610607 0.0008148421 0.0011586177 -0.012354544
-0.018384568 -0.0119519755 0.014656873 -0.014649628 0.005428531 -0.011421505 -0.013224866 -0.0035730028
0.014328442 0.018413065 -0.0083314 0.0194858 -0.01537635 -0.004848299 0.01288152 0.026315179
0.006285815 -0.012031638 -0.027618414 0.012228004 0.008925225 0.013928873 0.02085021 -0.022141308
-0.008805622 0.01846065 -0.009501337 -0.010997538 -0.00072052237 -0.008217191 0.009016898 -0.021566056
-0.010494587 -0.023726674 0.020229258 -0.0048642564 -0.005467324 0.011206076 -0.014110487 -0.010422499
0.0039215568 0.0030271844 0.008931976 0.0084069455 0.00027422444 0.016431708 0.011022369 0.007963499
-0.003792402 0.0047203545 -0.019764515 -0.016359594 -0.005925726 0.021669473 0.0005654717 -0.011984336
0.028494861 -0.010780614 -0.021735035 0.02349771 -0.0044522397 0.0009269612 -0.020839129 -0.03167281
0.0026588708 -0.0022479314 -0.007953371 0.015554959 0.00027797613 0.026334675 -0.015523095 -0.007101482
0.008178308 0.008851232 0.0105687985 -0.008095769 0.023430904 0.024453865 -0.002747066 -0.019229328
-0.01749543 -0.023434583 -0.007985292 -0.0008321345 0.008340607 0.013273221 0.009053895 0.0072799204
-0.027277207 0.009429158 0.014737175 0.020749612 0.028050698 0.023348445 0.021000905 -0.006981577
00000000: 7410 213c 99bf 5dbc a6e3 333c b50d 543c
00000010: f0e8 a43c fb77 24bc 3664 8fbc 7cc9 39bb
00000020: dcd8 15bb 7009 3fbc 3fc7 52ba 174f f3bb
00000030: 1336 eb3a 580f d2ba 23ed 023a 7bfd a7bb
00000040: 8671 efbc 4036 653c 19df 24ba 34f8 d03b
00000050: d182 aaba 7497 27bc 36e2 8c3c b93a c5bb
00000060: 9352 493b 0341 4dbc 0e57 b2bc 893b 71bc
00000070: 7d06 6d3c e84a b13a 4079 813c 7442 883c
00000080: ce90 dfbb 58e6 283c 277e 53bc 46d9 99bc
00000090: 3c09 d63a a4cb 4d3b bbda 3bbc 26d1 df3c
000000a0: 9f35 aa3c ce3e 123c ba19 8c3c 6b4a 83bb
000000b0: 9974 213b 3633 d9bb 13f7 1bbc 10ab a9bc
000000c0: d573 95bb 1539 073c f4c9 abbc 812c 5b3c
000000d0: 0f28 c0bb 2623 97bc 6dd6 40bc 2ff5 173b
000000e0: aa29 373b ad53 25bb bd78 953c 47e7 44bc
000000f0: 280b d1bc cf65 d53b 01fd 99bb a106 af3b
00000100: 72c6 643b 9c7f 1fbc 9e37 0bbb cbd1 08bc
00000110: ae43 83bc 1293 3d3c 4c67 0cbc 8615 02bc
00000120: 233c c5bb 76ea 3fbc 7659 99bc 5fd4 133a
00000130: bc53 a93b efdd 1f3c 21ff 9abc fa98 2e3b
00000140: fc65 4a3c c2d8 53b9 a6bc 8abc 1eb3 913b
00000150: 4705 b0bb 322c c93b f4a8 c0bb dc11 0fba
00000160: ec63 29bc 5fea 07ba f52b d4ba 3944 ad3b
00000170: 8f1f 8dbc aab3 f2bb 623b d5ba d689 2e3b
00000180: 78d7 f5bb 6efe 10ba 2310 6b3b 351a 9abc
00000190: 2a40 203c 23ce 113c 52a4 09bb 9ebc cc3b
000001a0: 0224 b93b 60a7 bdbc c95d 1fbb 8c2e 8b3b
000001b0: 805b dcbb e4d2 5ebc 7b7b 473b 7be8 1bbc
000001c0: 87f3 9abc 5317 213a 07d5 0a3c bb6f 64bc
000001d0: 41c4 a73b 7cab 2c3c 142f ba3b f902 10bc
000001e0: 9d42 e2bb fdf6 5ebc 16d0 a939 0b34 0d3c
000001f0: c1ed 463c 5a79 ecba 0bb1 76bc 685d b9bb
00000200: 60a6 74bc 2e73 443c 4357 cabb f5a4 02bb
00000210: bb67 e1bc e64f 0cbb 691b 993b 1d1c 10bc
00000220: b7b9 893a cd97 a7bb 7700 093c 37bc dfbb
00000230: c99f 8d3c df6d a43b 7a72 203b 5a62 1d3c
00000240: 9601 913b 2419 5a3c cf51 903b 151d 3ebc
00000250: 0162 573c eb75 a43b 0e86 743c 4242 9f3c
00000260: 51ec 6f3a 9419 e93a 5fa9 943b 98ce 39bc
00000270: b89c 4e3c 219b 553a c2dc 973a b76a 4abc
00000280: 3c9b 96bc 38d2 43bc 6223 703c fe04 70bc
00000290: d2e1 b13b 4421 3bbc 1cad 58bc 0a29 6abb
000002a0: d7c1 6a3c ffd6 963c 6d80 08bc afa0 9f3c
000002b0: 16ed 7bbc 7bde 9ebb 030d 533c ee92 d73c
000002c0: 3df9 cd3b 5920 45bc 0340 e2bc f757 483c
000002d0: 1b3b 123c ee35 643c 0fce aa3c b061 b5bc
000002e0: 7545 10bc ca3a 973c 7fab 1bbc 052f 34bc
000002f0: 70e1 3cba 66a1 06bc 9dbb 133c 4cab b0bc
00000300: 7df1 2bbc 715e c2bc d4b7 a53c 5764 9fbb
00000310: 3d27 b3bb b099 373c ac2f 67bc 21c3 2abc
00000320: 6780 803b ba63 463b 6c57 123c 49bd 093c
00000330: c8c5 8f39 ca9b 863c 2b97 343c 5679 023c
00000340: f389 78bb 34ad 9a3b 31e9 a1bc 8e04 86bc
00000350: 982c c2bb 2e84 b13c 2a3c 143a f359 44bc
00000360: 0e6e e93c 2ca1 30bc ac0d b2bc 457e c03c
00000370: 18e4 91bb 50ff 723a d2b6 aabc 59bb 01bd
00000380: 7340 2e3b 0852 13bb db4e 02bc 3ada 7e3c
00000390: 53bd 9139 d1bb d73c 9454 7ebc 8cb3 e8bb
000003a0: 4ffe 053c c204 113c c128 2d3c 1ea4 04bc
000003b0: 2bf2 bf3c 7953 c83c 1f08 34bb d386 9dbc
000003c0: 9352 8fbc e2f9 bfbc bed4 02bc 9a23 5aba
000003d0: 0ba7 083c ed77 593c ca56 143c 668c ee3b
000003e0: 7374 dfbc c17c 1a3c 3174 713c 17fb a93c
000003f0: 94ca e53c 3d45 bf3c 170a ac3c b6c5 e4bb

action_model._discrete_distribution.branches.0.bias f4 [38]
0.0016559678 0.0036064035 -0.0011644291 -0.0010754998 0.0036015569 -0.004233981 0.005211714 0.00031898415
0.0032730342 -0.006144666 -0.0077787195 -0.005664791 -0.0026420192 -0.0028588027 0.002319077 0.011772311
0.006679655 0.0020136535 0.0051495237 -0.0044155265 -0.009029675 0.008763972 0.0008709092 0.007183422
-0.0016916329 0.015552673 -2.4701476e-05 -0.010929557 -0.0066910353 0.0016168122 -0.0021721544 -0.009447665
-0.008249019 0.0054188143 -0.011285319 -0.0002702197 -0.0015404751 -0.0021888618
00000000: 0f0d d93a 6959 6c3b c29f 98ba c9f7 8cba
00000010: 1908 6c3b 35bd 8abb 07c7 aa3b 543d a739
00000020: 6780 563b 3259 c9bb a1e4 febb b69f b9bb
00000030: ba25 2dbb c05a 3bbb a8fb 173b a7e0 403c
00000040: 02e1 da3b 80f7 033b 56bd a83b 1fb0 90bb
00000050: 34f1 13bc c396 0f3c ba4d 643a e962 eb3b
00000060: c8b9 ddba a3d0 7e3c 0436 cfb7 e211 33bc
00000070: 7940 dbbb 37eb d33a b45a 0ebb 61ca 1abc
00000080: e526 07bc 4f90 b13b 0fe6 38bc 46ac 8db9
00000090: c4e9 c9ba 0273 0fbb

exp_avg f4 [128, 39]
0.0 -4.1012234e-14 -2.4051236e-14 0.0 0.0 -2.0934026e-06 0.0 1.0076048e-05
1.48819145e-05 0.0 0.0 -2.0532375e-06 -1.5674179e-05 8.820516e-06 0.0 4.8052325e-14
0.0 8.194448e-06 0.0 0.0 0.0 -3.6848857e-14 -1.3562512e-14 0.0
-3.3537142e-06 1.8827902e-06 0.0 0.0 0.0 0.0 0.0 0.0
-6.4693513e-06 -4.51809e-15 0.0 -1.3953546e-06 0.0 -1.481269e-06 6.539886e-09 0.0
-3.7252404e-14 4.1812707e-14 0.0 0.0 2.0460413e-05 0.0 1.1759103e-05 1.1751556e-05
0.0 0.0 -2.2923136e-06 -9.418679e-06 1.3651702e-06 0.0 3.095367e-14 0.0
1.7978049e-05 0.0 0.0 0.0 -9.265802e-15 -8.047161e-14 0.0 -2.0302563e-05
1.1032509e-05 0.0 0.0 0.0 0.0 0.0 0.0 -1.3295858e-06
-1.5458736e-14 0.0 -4.8411866e-06 0.0 -5.329112e-06 1.7371015e-08 0.0 -9.277948e-14
-5.162727e-15 0.0 0.0 2.4393239e-05 0.0 -1.0843705e-05 1.5174804e-05 0.0
0.0 2.573091e-06 -6.1925066e-06 7.1130294e-06 0.0 7.143469e-14 0.0 5.673217e-06
0.0 0.0 0.0 -2.329065e-14 -8.052233e-14 0.0 -8.408942e-06 6.0679813e-06
0.0 0.0 0.0 0.0 0.0 0.0 -1.18994385e-05 -3.621564e-14
0.0 4.3031478e-06 0.0 -1.7108998e-05 9.455148e-09 0.0 -2.0466376e-14 4.730668e-15
0.0 0.0 -4.891442e-06 0.0 5.2456194e-06 2.4292808e-06 0.0 0.0
8.2246925e-06 1.6677008e-05 -1.00984425e-05 0.0 -1.5834834e-14 0.0 -4.8202764e-07 0.0
0.0 0.0 -3.4912692e-14 5.319412e-15 0.0 -2.7722945e-07 -8.210449e-06 0.0
0.0 0.0 0.0 0.0 0.0 8.917949e-06 -3.9022113e-14 0.0
-2.9600783e-06 0.0 8.447601e-06 1.2669549e-08 0.0 8.634656e-15 1.0153403e-14 0.0
0.0 -8.373324e-06 0.0 -2.5501354e-06 -6.864726e-06 0.0 0.0 1.0895036e-05
2.1867114e-05 1.3850439e-06 0.0 -4.495936e-14 0.0 -5.8254454e-06 0.0 0.0
0.0 3.969355e-14 3.105249e-14 0.0 3.9251736e-06 -1.4888628e-05 0.0 0.0
0.0 0.0 0.0 0.0 8.909549e-07 -2.965777e-14 0.0 8.609845e-06
0.0 1.0225779e-06 6.747709e-09 0.0 -5.467238e-15 -4.8456526e-14 0.0 0.0
1.1632801e-05 0.0 -1.0551474e-05 -1.0646061e-05 0.0 0.0 -1.3877935e-05 -2.1456972e-06
1.4223596e-06 0.0 8.730155e-15 0.0 3.0961955e-06 0.0 0.0 0.0
-2.6757155e-15 -2.9618675e-15 0.0 5.406237e-06 9.799485e-06 0.0 0.0 0.0
0.0 0.0 0.0 -6.035111e-07 3.1020182e-15 0.0 -6.1867468e-06 0.0
-6.8990985e-06 -1.0288026e-08 0.0 -3.3158467e-14 7.263539e-14 0.0 0.0 -5.9601884e-06
0.0 8.049362e-06 -1.2668676e-06 0.0 0.0 3.835606e-06 3.8360813e-05 -4.734443e-06
0.0 2.2421916e-14 0.0 1.5044067e-06 0.0 0.0 0.0 -3.5832845e-14
00000000: 0000 0000 e3b3 38a9 60a2 d8a8 0000 0000
00000010: 0000 0000 627c 0cb6 0000 0000 4c0c 2937
00000020: 56ad 7937 0000 0000 0000 0000 5aca 09b6
00000030: 0b7c 83b7 d4fb 1337 0000 0000 8f68 5829
00000040: 0000 0000 e37a 0937 0000 0000 0000 0000
00000050: 0000 0000 d7f3 25a9 0c52 74a8 0000 0000
00000060: 5f10 61b6 2eb4 fc35 0000 0000 0000 0000
00000070: 0000 0000 0000 0000 0000 0000 0000 0000
00000080: 4e13 d9b6 06c8 a2a7 0000 0000 0548 bbb5
00000090: 0000 0000 04d0 c6b5 72b5 e031 0000 0000
000000a0: 19c5 27a9 c54e 3c29 0000 0000 0000 0000
000000b0: 67a2 ab37 0000 0000 f648 4537 8c28 4537
000000c0: 0000 0000 0000 0000 a6d5 19b6 eb04 1eb7
000000d0: e43a b735 0000 0000 2767 0b29 0000 0000
000000e0: 91cf 9637 0000 0000 0000 0000 0000 0000
000000f0: f8ea 26a8 ba34 b5a9 0000 0000 6c4f aab7
00000100: 4418 3937 0000 0000 0000 0000 0000 0000
00000110: 0000 0000 0000 0000 0000 0000 3874 b2b5
00000120: 6b3d 8ba8 0000 0000 7a71 a2b6 0000 0000
00000130: b9d0 b2b6 4437 9532 0000 0000 bbeb d0a9
00000140: c001 baa7 0000 0000 0000 0000 15a0 cc37
00000150: 0000 0000 5ced 35b7 4997 7e37 0000 0000
00000160: 0000 0000 5ead 2c36 3ac9 cfb6 75ac ee36
00000170: 0000 0000 4cdb a029 0000 0000 905c be36
00000180: 0000 0000 0000 0000 0000 0000 95c8 d1a8
00000190: f751 b5a9 0000 0000 2214 0db7 909b cb36
000001a0: 0000 0000 0000 0000 0000 0000 0000 0000
000001b0: 0000 0000 0000 0000 b3a3 47b7 ca19 23a9
000001c0: 0000 0000 c263 9036 0000 0000 4b85 8fb7
000001d0: 2e70 2232 0000 0000 4058 b8a8 b670 aa27
000001e0: 0000 0000 0000 0000 2b21 a4b6 0000 0000
000001f0: 8703 b036 ba06 2336 0000 0000 0000 0000
00000200: c9fc 0937 9ae5 8b37 7b6c 29b7 0000 0000
00000210: a4a0 8ea8 0000 0000 b064 01b5 0000 0000
00000220: 0000 0000 0000 0000 983b 1da9 eaa6 bf27
00000230: 0000 0000 20d6 94b4 9cbf 09b7 0000 0000
00000240: 0000 0000 0000 0000 0000 0000 0000 0000
00000250: 0000 0000 4d9e 1537 6fbd 2fa9 0000 0000
00000260: c2a5 46b6 0000 0000 2cba 0d37 44a9 5932
00000270: 0000 0000 538c 1b28 4fe8 3628 0000 0000
00000280: 0000 0000 277b 0cb7 0000 0000 fe22 2bb6
00000290: 8c57 e6b6 0000 0000 0000 0000 d3c9 3637
000002a0: 456f b737 bfe5 b935 0000 0000 9d7a 4aa9
000002b0: 0000 0000 3278 c3b6 0000 0000 0000 0000
000002c0: 0000 0000 8cc3 3229 15d9 0b29 0000 0000
000002d0: fcb4 8336 2cca 79b7 0000 0000 0000 0000
000002e0: 0000 0000 0000 0000 0000 0000 0000 0000
000002f0: f429 6f35 1591 05a9 0000 0000 0173 1037
00000300: 0000 0000 823f 8935 7ad9 e731 0000 0000
00000310: 5ffa c4a7 923a 5aa9 0000 0000 0000 0000
00000320: 802a 4337 0000 0000 3c06 31b7 7c9c 32b7
00000330: 0000 0000 0000 0000 47d5 68b7 ccfe 0fb6
00000340: e7e7 be35 0000 0000 bc44 1d28 0000 0000
00000350: 3cc8 4f36 0000 0000 0000 0000 0000 0000
00000360: 3dce 40a7 d06c 55a7 0000 0000 3967 b536
00000370: 7868 2437 0000 0000 0000 0000 0000 0000
00000380: 0000 0000 0000 0000 0000 0000 f800 22b5
00000390: 2386 5f27 0000 0000 c097 cfb6 0000 0000
000003a0: ce7e e7b6 38bf 30b2 0000 0000 1c55 15a9
000003b0: 748f a329 0000 0000 0000 0000 a1fd c7b6
000003c0: 0000 0000 bf0b 0737 3d09 aab5 0000 0000
000003d0: 0000 0000 9bb3 8036 9ce5 2038 8edc 9eb6
000003e0: 0000 0000 6bf5 c928 0000 0000 05eb c935
000003f0: 0000 0000 0000 0000 0000 0000 7560 21a9

exp_avg_sq f4 [128, 39]
0.0 8.171596e-11 4.539675e-11 0.0 0.0 1.0415075e-10 0.0 2.3366464e-10
1.17983e-10 0.0 0.0 2.3707658e-10 1.2366448e-10 2.2651496e-10 0.0 1.9531179e-11
0.0 2.2815602e-10 0.0 0.0 0.0 3.4433636e-11 7.25446e-11 0.0
2.6298083e-10 1.5620572e-10 0.0 0.0 0.0 0.0 0.0 0.0
1.993358e-10 6.761529e-11 0.0 2.431598e-10 0.0 4.4161966e-10 7.6770413e-16 0.0
3.194997e-11 3.3534057e-11 0.0 0.0 1.299779e-10 0.0 1.4282375e-10 1.269167e-10
0.0 0.0 1.3956267e-10 8.805206e-11 1.9267916e-10 0.0 3.6368783e-11 0.0
1.08665264e-10 0.0 0.0 0.0 2.8181098e-11 4.2601762e-11 0.0 1.615259e-10
1.24819e-10 0.0 0.0 0.0 0.0 0.0 0.0 1.0541377e-10
5.804757e-11 0.0 1.4237578e-10 0.0 3.0627728e-10 6.0902643e-16 0.0 4.7455952e-11
4.357399e-11 0.0 0.0 2.0867498e-10 0.0 1.8533279e-10 1.6684182e-10 0.0
0.0 3.05353e-10 1.3439383e-10 1.6204246e-10 0.0 4.6265245e-11 0.0 1.1248042e-10
0.0 0.0 0.0 4.2353825e-11 5.381438e-11 0.0 1.5163555e-10 1.4590515e-10
0.0 0.0 0.0 0.0 0.0 0.0 1.8992868e-10 9.5188996e-11
0.0 1.3086296e-10 0.0 5.5844e-10 8.076672e-16 0.0 2.3844489e-11 3.9262045e-11
0.0 0.0 1.7011169e-10 0.0 9.798892e-11 9.924167e-11 0.0 0.0
1.6163818e-10 1.3328365e-10 8.000267e-11 0.0 3.176805e-11 0.0 8.935084e-11 0.0
0.0 0.0 3.7978762e-11 3.224841e-11 0.0 1.7444954e-10 1.2649233e-10 0.0
0.0 0.0 0.0 0.0 0.0 1.5265278e-10 5.6715146e-11 0.0
1.403641e-10 0.0 1.5606756e-10 5.5959676e-16 0.0 2.7887114e-11 2.0726925e-11 0.0
0.0 1.8354814e-10 0.0 3.0767328e-10 8.3034614e-11 0.0 0.0 1.9031526e-10
1.8189551e-10 8.48975e-11 0.0 3.0463965e-11 0.0 1.4344759e-10 0.0 0.0
0.0 2.4606692e-11 2.7300127e-11 0.0 1.2908402e-10 1.6742763e-10 0.0 0.0
0.0 0.0 0.0 0.0 1.3411654e-10 6.33798e-11 0.0 2.1441768e-10
0.0 1.5542855e-10 6.2915416e-16 0.0 5.1196485e-11 6.984332e-11 0.0 0.0
1.7560438e-10 0.0 9.3646986e-11 1.4714215e-10 0.0 0.0 1.7455028e-10 1.2197081e-10
1.2802968e-10 0.0 4.4811526e-11 0.0 1.0827995e-10 0.0 0.0 0.0
2.0601324e-11 4.289447e-11 0.0 1.0754132e-10 1.9922224e-10 0.0 0.0 0.0
0.0 0.0 0.0 7.495759e-11 8.1072093e-11 0.0 9.33814e-11 0.0
4.313805e-10 6.863767e-16 0.0 2.6824303e-11 3.5924947e-11 0.0 0.0 2.5720842e-10
0.0 1.9550546e-10 1.7785654e-10 0.0 0.0 2.1870278e-10 2.5458338e-10 1.0987765e-10
0.0 2.9074675e-11 0.0 1.4753557e-10 0.0 0.0 0.0 4.608182e-11
00000000: 0000 0000 ffb1 b32e 32a8 472e 0000 0000
00000010: 0000 0000 a907 e52e 0000 0000 6075 802f
00000020: 43b9 012f 0000 0000 0000 0000 9055 822f
00000030: 75f8 072f 4b0e 792f 0000 0000 4ecc ab2d
00000040: 0000 0000 36dc 7a2f 0000 0000 0000 0000
00000050: 0000 0000 d470 172e fb86 9f2e 0000 0000
00000060: 4393 902f 00c0 2b2f 0000 0000 0000 0000
00000070: 0000 0000 0000 0000 0000 0000 0000 0000
00000080: 0a2c 5b2f 06b0 942e 0000 0000 b3ad 852f
00000090: 0000 0000 71c8 f22f 9146 5d26 0000 0000
000000a0: 7884 0c2e fe7b 132e 0000 0000 0000 0000
000000b0: 87e9 0e2f 0000 0000 5009 1d2f e08b 0b2f
000000c0: 0000 0000 0000 0000 6673 192f e7a0 c12e
000000d0: 5dda 532f 0000 0000 9cf3 1f2e 0000 0000
000000e0: 1bf5 ee2e 0000 0000 0000 0000 0000 0000
000000f0: 31e2 f72d 525d 3b2e 0000 0000 8099 312f
00000100: 6d3d 092f 0000 0000 0000 0000 0000 0000
00000110: 0000 0000 0000 0000 0000 0000 adce e72e
00000120: c14b 7f2e 0000 0000 388b 1c2f 0000 0000
00000130: b260 a82f 388a 2f26 0000 0000 a7b6 502e
00000140: f4a3 3f2e 0000 0000 0000 0000 c970 652f
00000150: 0000 0000 8bc6 4b2f cc71 372f 0000 0000
00000160: 0000 0000 9dde a72f 80c4 132f e62a 322f
00000170: 0000 0000 097a 4b2e 0000 0000 d958 f72e
00000180: 0000 0000 0000 0000 0000 0000 2b46 3a2e
00000190: 9bad 6c2e 0000 0000 9db9 262f a66c 202f
000001a0: 0000 0000 0000 0000 0000 0000 0000 0000
000001b0: 0000 0000 0000 0000 2cd4 502f a452 d12e
000001c0: 0000 0000 a6e2 0f2f 0000 0000 b980 1930
000001d0: 52cb 6826 0000 0000 04bd d12d 22ad 2c2e
000001e0: 0000 0000 0000 0000 2f0a 3b2f 0000 0000
000001f0: dc7a d72e 183c da2e 0000 0000 0000 0000
00000200: 1ab9 312f 038c 122f 80ed af2e 0000 0000
00000210: a5b7 0b2e 0000 0000 0d7c c42e 0000 0000
00000220: 0000 0000 0000 0000 4908 272e 7bd4 0d2e
00000230: 0000 0000 2ecf 3f2f 6d14 0b2f 0000 0000
00000240: 0000 0000 0000 0000 0000 0000 0000 0000
00000250: 0000 0000 f0d7 272f 946f 792e 0000 0000
00000260: fb54 1a2f 0000 0000 1d99 2b2f f44a 2126
00000270: 0000 0000 334c f52d e350 b62d 0000 0000
00000280: 0000 0000 35d0 492f 0000 0000 2a25 a92f
00000290: 5598 b62e 0000 0000 0000 0000 fc40 512f
000002a0: 09ff 472f 0bb1 ba2e 0000 0000 60fb 052e
000002b0: 0000 0000 e8b8 1d2f 0000 0000 0000 0000
000002c0: 0000 0000 5871 d82d 6c22 f02d 0000 0000
000002d0: eced 0d2f b016 382f 0000 0000 0000 0000
000002e0: 0000 0000 0000 0000 0000 0000 0000 0000
000002f0: 7376 132f a85f 8b2e 0000 0000 36c1 6b2f
00000300: 0000 0000 3fe5 2a2f 6257 3526 0000 0000
00000310: 1e2a 612e 4b96 992e 0000 0000 0000 0000
00000320: 3d14 412f 0000 0000 91ee cd2e d5c8 212f
00000330: 0000 0000 0000 0000 89eb 3f2f bb1b 062f
00000340: 27c5 0c2f 0000 0000 4b15 452e 0000 0000
00000350: 311c ee2e 0000 0000 0000 0000 0000 0000
00000360: 0f36 b52d e1a6 3c2e 0000 0000 627c ec2e
00000370: 130c 5b2f 0000 0000 0000 0000 0000 0000
00000380: 0000 0000 0000 0000 0000 0000 5fd5 a42e
00000390: 8847 b22e 0000 0000 0e59 cd2e 0000 0000
000003a0: 6827 ed2f a9d5 4526 0000 0000 f6f2 eb2d
000003b0: e5ff 1d2e 0000 0000 0000 0000 de66 8d2f
000003c0: 0000 0000 e5f5 562f 2a8e 432f 0000 0000
000003d0: 0000 0000 5c77 702f 6df5 8b2f 9e9f f12e
000003e0: 0000 0000 59be ff2d 0000 0000 9237 222f
000003f0: 0000 0000 0000 0000 0000 0000 84ab 4a2e

exp_avg f4 [128]
1.1335209e-05 3.083336e-05 1.0844927e-05 2.302248e-05 1.0093496e-05 -1.9553443e-05 1.6603015e-05 9.73433e-05
3.6810518e-06 6.1171835e-05 -1.2670547e-05 4.5566634e-05 2.0245452e-05 -1.0457205e-05 -5.4628104e-05 -2.6795544e-05
1.3342419e-06 2.2251765e-05 -6.9231874e-06 -1.06525695e-05 -8.51667e-06 4.8740523e-05 -1.7332519e-05 -5.4681837e-05
1.6722137e-05 1.9223728e-05 5.4275365e-06 -4.674776e-05 -3.7233178e-05 2.3712259e-05 -3.214725e-05 -4.9296737e-05
2.7351658e-05 3.3535543e-05 -8.827893e-06 -6.5559493e-06 -1.4315954e-05 1.282902e-05 -2.251251e-05 -7.973841e-05
-3.472763e-05 1.7216018e-05 2.937093e-05 -3.3787438e-07 3.7276215e-05 -6.747503e-05 3.2123507e-06 -2.3172258e-06
-2.6117817e-05 -4.0135956e-06 5.2818315e-05 -4.6033172e-05 -2.6142863e-05 1.4930841e-05 3.2978918e-05 -6.3281695e-05
-7.779857e-05 -5.69878e-05 3.063742e-06 -2.6341007e-05 3.7883678e-05 -5.96172e-05 3.239109e-05 2.6917845e-05
-1.3047523e-05 -9.769622e-06 -2.0658004e-05 -3.6238358e-05 1.2630191e-05 -3.676644e-05 -2.6743146e-05 -4.57305e-05
-2.4750341e-05 -4.042251e-05 -7.531867e-06 -7.161826e-06 5.542837e-05 -2.1640408e-05 2.7466143e-05 -3.5749938e-05
1.636647e-05 -1.4029276e-06 2.6378855e-05 -3.472993e-05 -4.247132e-05 2.3012646e-05 -1.6642687e-05 -8.293881e-06
2.9747192e-05 5.2448046e-05 -8.765448e-06 -4.113561e-06 2.6605796e-05 3.4972923e-05 -1.6382433e-05 -1.826333e-05
1.6084969e-05 -4.136513e-06 -3.8976043e-05 -4.4622386e-05 -2.0122981e-05 1.8883518e-05 -1.2143104e-05 4.7339927e-05
-2.460965e-05 -6.414755e-05 -1.1941398e-05 -2.8019836e-05 -2.5849138e-05 5.598356e-06 1.43812995e-05 -2.9435809e-05
-3.464873e-05 -2.486432e-05 5.5586228e-05 2.3227954e-05 -3.58253e-05 2.1592294e-05 2.6124324e-05 -4.851153e-06
-8.349882e-06 -5.1309325e-07 -5.2177915e-05 -3.217308e-05 2.787549e-06 -5.457791e-05 -2.141593e-05 -1.2091459e-07
00000000: 5a2c 3e37 1153 0138 9bf2 3537 6620 c137
00000010: 3c57 2937 b306 a4b7 b446 8b37 c924 cc38
00000020: fd07 7736 6149 8038 9693 54b7 cd1e 3f38
00000030: c7d4 a937 5a71 2fb7 7b20 65b8 fec6 e0b7
00000040: 3414 b335 4da9 ba37 ba4d e8b6 70b8 32b7
00000050: d2e2 0eb7 bd6e 4c38 4d65 91b7 2d5a 65b8
00000060: 8446 8c37 a442 a137 2f1e b636 0613 44b8
00000070: d22a 1cb8 b0e9 c637 d9d5 06b8 f8c3 4eb8
00000080: 3d71 e537 84a8 0c38 831b 14b7 2dfb dbb6
00000090: 8e2e 70b7 393c 5737 3fd9 bcb7 3c39 a7b8
000000a0: 82a8 11b8 1e6b 9037 9861 f637 1a65 b5b4
000000b0: 0859 1c38 6281 8db8 c493 5736 a381 1bb6
000000c0: 9617 dbb7 86ac 86b6 3c89 5d38 be13 41b8
000000d0: 5f4d dbb7 797f 7a37 d852 0a38 1ab6 84b8
000000e0: ca27 a3b8 2f06 6fb8 b09a 4d36 e2f6 dcb7
000000f0: 4ae5 1e38 7b0d 7ab8 abdb 0738 a2cd e137
00000100: afe6 5ab7 35e8 23b7 ba4a adb7 a4fe 17b8
00000110: 42e6 5337 aa35 1ab8 7856 e0b7 c0ce 3fb8
00000120: f49e cfb7 578b 29b8 3fba fcb6 9e4f f0b6
00000130: c27b 6838 6c88 b5b7 1867 e637 34f2 15b8
00000140: ba4a 8937 3a4c bcb5 2948 dd37 faaa 11b8
00000150: 3c23 32b8 480b c137 e69b 8bb7 f325 0bb7
00000160: 9c89 f937 a9fb 5b38 500f 13b7 3807 8ab6
00000170: 832f df37 e4af 1238 026d 89b7 3434 99b7
00000180: 35ee 8637 60cc 8ab6 357a 23b8 ec28 3bb8
00000190: c6cd a8b7 0c68 9e37 3cba 4bb7 dc8e 4638
000001a0: d270 ceb7 f486 86b8 ea57 48b7 240c ebb7
000001b0: 9ad6 d8b7 83d9 bb36 3647 7137 ebec f6b7
000001c0: ca53 11b8 b893 d0b7 4225 6938 a7d9 c237
000001d0: 1f43 16b8 1921 b537 8f25 db37 16c7 a2b6
000001e0: 7816 0cb7 80bb 09b5 9cd9 5ab8 95f1 06b8
000001f0: ba11 3b36 96ea 64b8 5ca6 b3b7 c0d4 01b4

exp_avg_sq f4 [128]
2.4566014e-09 1.9140256e-09 2.6114635e-09 1.7814504e-09 2.0086144e-09 2.2028466e-09 3.1297323e-09 2.882567e-09
2.0802737e-09 1.9185704e-09 2.2365212e-09 2.867582e-09 1.728356e-09 4.0467634e-09 2.4257933e-09 3.4563759e-09
2.1070221e-09 3.9775157e-09 2.3752633e-09 2.0253268e-09 4.4446846e-09 2.7168903e-09 1.3496143e-09 3.774978e-09
2.5142517e-09 1.3607173e-09 2.7751643e-09 2.183518e-09 2.7498668e-09 1.811927e-09 1.5435248e-09 2.473593e-09
3.8855488e-09 2.9617875e-09 1.5547157e-09 1.686028e-09 1.5424453e-09 2.134918e-09 3.0434915e-09 4.993096e-09
1.880162e-09 1.8613384e-09 1.8554164e-09 3.4221006e-09 3.976925e-09 2.6197735e-09 2.0811806e-09 1.8424817e-09
1.5209243e-09 2.354174e-09 2.5887894e-09 5.38987e-09 2.0587951e-09 2.0207294e-09 1.882e-09 3.6026881e-09
2.3733833e-09 3.2445877e-09 1.6764349e-09 3.4247707e-09 1.7722844e-09 3.1946763e-09 2.364771e-09 2.908256e-09
2.5285667e-09 5.3192544e-09 2.8152503e-09 3.895386e-09 2.7807558e-09 2.6959717e-09 1.1364192e-09 3.3315002e-09
2.0278388e-09 3.278643e-09 1.601904e-09 2.2284607e-09 1.5524869e-09 1.9343174e-09 2.2052196e-09 3.1752392e-09
2.8904044e-09 2.9559981e-09 2.373308e-09 4.14994e-09 3.0864635e-09 2.736127e-09 1.9173503e-09 2.7123546e-09
2.4663647e-09 2.7556475e-09 3.0678733e-09 1.5771855e-09 1.60544e-09 3.822619e-09 1.9952462e-09 3.52483e-09
2.5789197e-09 2.0181805e-09 1.7399135e-09 1.7768332e-09 1.263314e-09 2.8994824e-09 4.6771977e-09 4.223198e-09
2.9761182e-09 3.9708556e-09 1.908941e-09 1.5424253e-09 1.2702127e-09 3.5326135e-09 2.8912572e-09 3.2790448e-09
2.329573e-09 4.1675086e-09 3.3915983e-09 1.8883668e-09 3.7163126e-09 4.5188195e-09 1.5951553e-09 2.3347129e-09
1.953038e-09 1.507351e-09 2.4899027e-09 2.4077802e-09 2.270752e-09 2.366036e-09 2.144924e-09 3.459416e-09
00000000: fdd0 2831 e587 0331 5a75 3331 37d7 f430
00000010: eb07 0a31 e360 1731 d512 5731 a816 4631
00000020: 90f4 0e31 d9d7 0331 4cb1 1931 090f 4531
00000030: 1f8b ed30 b50b 8b31 02b3 2631 3585 6d31
00000040: 20cb 1031 99aa 8831 133a 2331 ed2d 0b31
00000050: dcb7 9831 0ab4 3a31 557d b930 0fb5 8131
00000060: 2fc7 2c31 fc03 bb30 35b5 3e31 db0c 1631
00000070: 2bf8 3c31 8407 f930 f323 d430 e9fb 2931
00000080: a681 8531 5188 4b31 b2ad d530 d6b9 e730
00000090: f8fd d330 e0b5 1231 ab25 5131 bd8f ab31
000000a0: 2934 0131 06d2 ff30 a901 ff30 3b2a 6b31
000000b0: 67a5 8831 8b07 3431 8404 0f31 903a fd30
000000c0: c408 d130 11c7 2131 77e6 3131 cc31 b931
000000d0: b57a 0d31 0cdd 0a31 7e54 0131 2993 7731
000000e0: 0019 2331 64f7 5e31 4f68 e630 3459 6b31
000000f0: b794 f330 5789 5b31 7e81 2231 95da 4731
00000100: 04c3 2d31 a8c4 b631 6876 4131 2dd8 8531
00000110: 9317 3f31 0944 3931 3230 9c30 5ff0 6431
00000120: 1e5a 0b31 7f4e 6131 fd29 dc30 7f23 1931
00000130: 475f d530 dfec 0431 a28a 1731 6633 5a31
00000140: 88a0 4631 7822 4b31 ad17 2331 4297 8e31
00000150: a419 5431 7506 3c31 62c2 0331 3f64 3a31
00000160: bf7c 2931 dd5d 3d31 99d2 5231 48c4 d830
00000170: 66a6 dc30 1d58 8331 be1c 0931 7739 7231
00000180: d638 3131 35b0 0a31 c421 ef30 c334 f430
00000190: e9a0 ad30 3c40 4731 11b5 a031 a41b 9131
000001a0: 6d84 4c31 0470 8831 722e 0331 44fd d330
000001b0: a393 ae30 65c2 7231 89af 4631 9155 6131
000001c0: 4816 2031 cb31 8f31 a111 6931 80c4 0131
000001d0: 1062 7f31 f543 9b31 8a3c db30 b470 2031
000001e0: 3536 0631 332b cf30 d51a 2b31 1e76 2531
000001f0: 7e0b 1c31 bf97 2231 e765 1331 b1ba 6d31
