results/DemoRun/TestAgent1/TestAgent1-98176.onnx (onnx, 111077 bytes, 6 tensors)

network_body._body_endoder.seq_layers.0.weight f4 [128, 39]
0	0xbe3f3270	-0.18671584
1	0x3ee42461	0.44559005
2	0x3e0813bf	0.13288783
3	0xbe51bcf0	-0.2048223
4	0xbdf83adc	-0.121206015
5	0xbe5a0706	-0.21291742
6	0x3e20f784	0.1571942
7	0x3e1ee373	0.15516452
8	0xbe11fea9	-0.14257301
9	0xbdee64cf	-0.116403215
10	0x3e81967e	0.2531013
11	0x3d9f42f3	0.077764414
12	0xbddcbdf8	-0.10778421
13	0x3e139dc6	0.14415655
14	0x3d92b964	0.07164267
15	0xbeb0e277	-0.3454778
16	0xbe07124f	-0.13190578
17	0x3e060f37	0.13091742
18	0xbdcda718	-0.10041636
19	0x3e3fea8a	0.18741813
20	0x3e868af9	0.26277903
21	0xbcf37214	-0.029717483
22	0x3e82257f	0.25419232
23	0x3e7e589a	0.24838486
24	0x3e1b2bbd	0.15153404
25	0xbc84b39a	-0.016198922
26	0xbd249700	-0.040183067
27	0x3d21ddd7	0.039518204
28	0x3e2bb5e1	0.167686
29	0x3bf1b47d	0.007376252
30	0x3e808c61	0.251071
31	0xbe1f7609	-0.1557237
32	0x3d826781	0.06367398
33	0x3cda96b8	0.026683196
34	0x3df087a2	0.1174462
35	0x3dd6ccf6	0.10488312
36	0x3dc6578a	0.096846655
37	0x3e72c1e0	0.2370677
38	0x3e96de47	0.2946646
39	0x3dc2b19a	0.09506531
40	0xbc7e2eef	-0.0155141195
41	0x3d97e3a6	0.07416467
42	0xbe532b07	-0.20621882
43	0xbe0911a9	-0.13385643
44	0xbc481656	-0.012212357
45	0xbe54f92c	-0.20798177
46	0xbdd203fe	-0.10254668
47	0xbd8f4947	-0.069963984
48	0xbd371221	-0.044695023
49	0xbd60f744	-0.05492331
50	0xbe0fe2cc	-0.1405136
51	0xbdf3f8fd	-0.11912725
52	0x3d8a65c6	0.06757693
53	0xbcf4da71	-0.029889317
54	0x3c2ba6d4	0.010476787
55	0x3e3479a7	0.17624532
56	0xbd6cb73b	-0.05779193
57	0x3de674e2	0.112527624
58	0xbcda955f	-0.026682554
59	0xbdebcaa7	-0.11513262
60	0xbcd9046a	-0.026491363
61	0x3cc56708	0.02409698
62	0xbdb995d9	-0.09061784
63	0x3dd38e0f	0.1032983
64	0xbcb47aad	-0.022031153
65	0x3ea16c21	0.31527808
66	0xbe011821	-0.1260686
67	0xbd20d888	-0.039269
68	0x3e0577bc	0.13033956
69	0xbe4f5ea5	-0.20250948
70	0xbe2b2ffa	-0.1671752
71	0xbda086da	-0.07838221
72	0xbd61b81a	-0.055107214
73	0xbeca9cb3	-0.39572677
74	0xbe16cae2	-0.14725831
75	0xbdb288d0	-0.08717501
76	0x3d627ff7	0.055297818
77	0x3ca67158	0.020317718
78	0x3e18a9f5	0.14908583
79	0x3e267d53	0.16258745
80	0x3e2252a7	0.15851842
81	0xbd0663bf	-0.03280997
82	0x3e371b86	0.17881593
83	0x3d86a636	0.06574671
84	0x3d81de8c	0.063412756
85	0x3b171d4a	0.002305823
86	0xbe08806b	-0.13330238
87	0x3dbadd5d	0.09124253
88	0x3ddde4e9	0.10834677
89	0x3e13cd5e	0.1443381
90	0xbcc68bed	-0.024236644
91	0xbe2f3c9c	-0.17112964
92	0xbe01625f	-0.12635182
93	0x3e3d464e	0.1848385
94	0x3e7b1e62	0.24523309
95	0xbe2a71e6	-0.16645011
96	0xbeb2362a	-0.3480695
97	0xbc8061ba	-0.0156716
98	0xbda9f8f0	-0.08299434
99	0x3deac748	0.11463791
100	0x3e03e9f0	0.12882209
101	0xbd875edc	-0.0660989
102	0xbe03baaf	-0.12864183
103	0xbe15f2e6	-0.1464344
104	0xbdb2a6cf	-0.087232225
105	0x3d95d781	0.07316495
106	0xbe6375df	-0.22212933
107	0x3e17499b	0.14774172
108	0x3e46c33c	0.19410414
109	0xbdf32f0b	-0.11874207
110	0x3d8dd7ea	0.06925948
111	0x3e15e0c5	0.14636524
112	0xbe5bb07d	-0.21454044
113	0xbe823489	-0.25430706
114	0x3e7a49eb	0.2444226
115	0x3e84d89f	0.2594652
116	0xbe040e23	-0.12896018
117	0xbcb48e3a	-0.022040475
118	0xbda14c35	-0.078758635
119	0x3e540db1	0.20708348
120	0xbe290055	-0.16504033
121	0xbae9840d	-0.0017815843
122	0x3dffe53c	0.12494895
123	0xbd248c09	-0.04017261
124	0xbdf52900	-0.11970711
125	0xbe0199af	-0.12656282
126	0xbd836879	-0.06416411
127	0xbdbc592f	-0.09196698
128	0x3d45bb44	0.048274294
129	0xbd224089	-0.039612327
130	0xbe85b9c4	-0.2611829
131	0x3e357def	0.17723821
132	0x3e7f0bc9	0.2490684
133	0xbe342623	-0.17592673
134	0xbe458a8d	-0.19291134
135	0xbdfca4d9	-0.1233613
136	0xbd8477b1	-0.06468142
137	0xbe57b7ea	-0.21066251
138	0x3e4d43c5	0.20045383
139	0x3e380d4c	0.17973822
140	0x3e80cf19	0.25158003
141	0x3dcc609a	0.09979363
142	0xbcee331e	-0.029077109
143	0xbd898a18	-0.067157924
144	0x3dc182c6	0.09448771
145	0xbe9862d4	-0.297629
146	0xbe34846d	-0.17628641
147	0x3c884415	0.016634027
148	0x3dea2bea	0.11434157
149	0x3d9cd424	0.0765765
150	0xbdf774ca	-0.120828226
151	0x3cfe7ced	0.031065429
152	0x3db1dab3	0.08684292
153	0xbe827fcc	-0.25488126
154	0xbe48730c	-0.19575137
155	0xbea83b20	-0.3285761
156	0x3ca65cb0	0.020307869
157	0x3db7610a	0.089540556
158	0xbd8e6050	-0.06951964
159	0x3e916108	0.2839434
160	0xbdc90283	-0.09814932
161	0x3e092b48	0.13395417
162	0x3b4bdc18	0.0031106528
163	0x3e9e8f3a	0.30968648
164	0xbe88251b	-0.2659081
165	0x3e9139ff	0.2836456
166	0x3e1d0098	0.15332258
167	0xbcbe1810	-0.023204833
168	0x3ddec150	0.10876715
169	0xbe91d6c6	-0.28484172
170	0x3e960ef8	0.29308295
171	0xbb307247	-0.0026923583
172	0xbe767152	-0.24066666
173	0xbc15ac29	-0.009135284
174	0x3e7b83f7	0.2456206
175	0xbdd57692	-0.10423006
176	0x3db8e2d8	0.09027642
177	0xbe2a5832	-0.16635206
178	0xbd3ea9bd	-0.046548594
179	0xbe4d8613	-0.20070677
180	0xbda48c03	-0.080345176
181	0x3ce65c0b	0.028120061
182	0x3e62f73c	0.22164625
183	0x3d6eca00	0.05829811
184	0x3d723f37	0.059142318
185	0x3ea48f3c	0.3214053
186	0xbe175610	-0.14778924
187	0x3d976798	0.07392806
188	0xbd78fffc	-0.060791
189	0xbd76762c	-0.06017129
190	0x3d1b1116	0.03785809
191	0x3dfeac47	0.12435203
192	0x3e142f8f	0.14471267
193	0xbe98171f	-0.2970514
194	0x3c75d5bd	0.015004572
195	0x3e5d1c0c	0.2159273
196	0x3dc73975	0.09727756
197	0x3e5fb7be	0.21847436
198	0xbe3e8003	-0.1860352
199	0x3c4a93f9	0.012364381
200	0x3db449fc	0.08803174
201	0xbde07382	-0.10959531
202	0xbe8fd696	-0.28093404
203	0x3d03f33c	0.03221439
204	0x3dd28ac1	0.102803715
205	0x3dd1b5e6	0.102397725
206	0xbe2e7fda	-0.17040959
207	0xbe1d150b	-0.15340059
208	0xbe15911b	-0.14606135
209	0xbe917fc0	-0.28417778
210	0xbd2812e4	-0.04103364
211	0xbe98d1b8	-0.29847503
212	0xbda542dd	-0.08069394
213	0x3badca7f	0.0053036804
214	0xbd4b7309	-0.049670253
215	0x3d9e5fb4	0.07733098
216	0xbeaba62e	-0.33525223
217	0xbd3577eb	-0.044303816
218	0x3e145356	0.14484915
219	0xbe1a9d8b	-0.1509916
220	0xbc0cad5c	-0.008586254
221	0xbdc16364	-0.094427854
222	0x3e55654f	0.20839427
223	0x3ddedf2e	0.10882412
224	0x3dd40dc7	0.1035419
225	0xbd57ebc7	-0.05271509
226	0x3e62a60f	0.22133659
227	0xbe8c741c	-0.27432334
228	0xbb7a8367	-0.0038225295
229	0xbddf79e3	-0.1091192
230	0xbe67e098	-0.2264427
231	0x3d8bf90b	0.068346106
232	0x3e2f22aa	0.17103067
233	0xbdd7ef40	-0.1054368
234	0xbdc5e2bc	-0.09662387
235	0xbd34ee4d	-0.044172574
236	0xbbeeabaa	-0.0072836475
237	0xbe21b67c	-0.15792269
238	0xbd7814f4	-0.060566857
239	0x3e0fda7d	0.1404819
240	0x3c9aefac	0.018913113
241	0xbcbfbc19	-0.023405122
242	0xbb58246c	-0.0032980694
243	0xbe32e2c0	-0.17469311
244	0x3d7eeee7	0.062239554
245	0xbcf8aef0	-0.030356854
246	0xbd7b2ba9	-0.061320934
247	0xbea4b2ea	-0.3216775
248	0x3c54ec09	0.012995728
249	0xbdae460a	-0.08509453
250	0x3d34811c	0.04406844
251	0xbdf7a0b0	-0.120911956
252	0x3c9231ed	0.017846072
253	0x3d9d798f	0.07689201
254	0xbe9d36ca	-0.30705863
255	0x3b2a8f58	0.002602538

network_body._body_endoder.seq_layers.0.bias f4 [128]
0	0x3c60f8f9	0.013731235
1	0x3b973d24	0.004615443
2	0xbbf78d2e	-0.0075546717
3	0xbc2b2b36	-0.010447314
4	0xbb7f8f4f	-0.003899533
5	0x3b932cc1	0.004491419
6	0xbb90f240	-0.0044234097
7	0xbba1fbec	-0.0049433615
8	0xbb1c9f23	-0.0023898564
9	0xbc0686e9	-0.008210876
10	0xbb716f8a	-0.0036840164
11	0x3b64c4e3	0.0034907393
12	0x39e157d4	0.0004298078
13	0x3c5cc8a8	0.013475575
14	0xbb5db051	-0.0033827017
15	0x3c2b432a	0.010453025
16	0x3c2ebe4e	0.010665489
17	0xbba74034	-0.005104089
18	0x3b3ed52e	0.0029118764
19	0x3bd62ab2	0.0065358514
20	0xba30086e	-0.00067151233
21	0xba84e554	-0.0010139146
22	0x3c2bd9ba	0.010488922
23	0x3c812fe4	0.015769906
24	0xb8a7790a	-7.985726e-05
25	0xbc02df95	-0.007987876
26	0x3c1a6cc6	0.009425348
27	0x3b9fa62d	0.0048721046
28	0xbbac1119	-0.0052510616
29	0xbad51429	-0.0016256619
30	0xbb001902	-0.0019546156
31	0x3c049f99	0.008094692
32	0xbb302100	-0.0026875138
33	0x3b945e1d	0.0045278207
34	0xbb090ac3	-0.0020910955
35	0x3bb8e3ae	0.005642376
36	0x3b38d3ed	0.002820249
37	0xbb69930a	-0.003564062
38	0x3b810844	0.003937753
39	0x3becdb23	0.0072282716
40	0xbbe4ac12	-0.00697852
41	0x3a38bf35	0.0007047535
42	0x3c4145f4	0.011796463
43	0x3c019b31	0.007910536
44	0x3bda3258	0.0066588335
45	0xbb9842b1	-0.004646622
46	0xb65d1070	-3.2941134e-06
47	0x3c309027	0.010776556
48	0x3c4e49b8	0.012590818
49	0xbb3792c8	-0.0028011072
50	0xbb829ad9	-0.0039857444
51	0x3a23c564	0.000624737
52	0x3b1bcda3	0.0023773692
53	0xbb2306b0	-0.0024875812
54	0xba85d5a0	-0.001021076
55	0xba971fda	-0.0011529878
56	0x3c11658c	0.008874308
57	0xba8e7746	-0.0010869286
58	0xbb027ac4	-0.00199096
59	0xba71520b	-0.0009205646
60	0xbc0571ae	-0.008144779
61	0x3b0e3318	0.0021697935
62	0x3b42f543	0.0029748238
63	0x3b915d2f	0.004436157
64	0x3c19f9f3	0.009397971
65	0x3bbd3a75	0.005774791
66	0x3be7d2d3	0.0070746928
67	0x3b8fded4	0.004390577
68	0xbbf9d120	-0.0076238066
69	0x3c481d7c	0.012214061
70	0x3b9cb199	0.0047819135
71	0x3b805e52	0.003917494
72	0x3c0cb35f	0.008587687
73	0x3b293397	0.0025818103
74	0xbc02952a	-0.007970134
75	0x3b5933b3	0.0033142387
76	0xbbb5a8a6	-0.005543786
77	0xbbf753f1	-0.0075478484
78	0x3ab69c09	0.0013932
79	0x3b5edb6e	0.0034005302
80	0xbbef8a36	-0.007310177
81	0x3ba10816	0.004914294
82	0xbbaffd8e	-0.0053708022
83	0x3aa2d665	0.0012423514
84	0x3bb2b938	0.0054542087
85	0x3b8b6242	0.0042536566
86	0x3bbf5104	0.0058385152
87	0xbb8c6b1c	-0.0042852294
88	0x3bc932e0	0.006140098
89	0x3c38729f	0.011257797
90	0x3bfe3f02	0.007758976
91	0xbbb082ea	-0.0053867
92	0xbbfd9529	-0.0077387285
93	0x3bdb6424	0.0066952873
94	0xbbdbe42c	-0.00671055
95	0x3bb5b1a5	0.0055448585
96	0x3b22e665	0.0024856564
97	0xb8e978cd	-0.00011132807
98	0x3b3e7cb1	0.002906602
99	0x3bb0f0df	0.005399808
100	0x3b5b3fe9	0.0033454841
101	0x3be8c3d7	0.007103424
102	0x3b4cc266	0.00312438
103	0x3bc33d87	0.0059582624
104	0x3c473d89	0.012160667
105	0x3c1b49c8	0.00947804
106	0x3b9b88e0	0.0047465414
107	0xbbdd2e9f	-0.0067499424
108	0xbb381ee9	-0.0028094596
109	0x3baaea36	0.0052159084
110	0xbbd37e5c	-0.006454272
111	0x3c290326	0.010315692
112	0x3c22d1af	0.009937688
113	0xbae27c82	-0.0017279538
114	0xbb13c625	-0.0022548523
115	0x3b0e8cc3	0.002175138
116	0xb96b9fee	-0.00022470925
117	0xb9e2b623	-0.00043241782
118	0x3a29296a	0.00064530096
119	0xbb6c2e21	-0.0036038237
120	0x3928316b	0.00016040138
121	0x3c28eff2	0.010311114
122	0x3bf03da8	0.0073315687
123	0xbba71016	-0.005098353
124	0x3aeb32b5	0.0017944189
125	0x3bde0771	0.0067757894
126	0x3bfdff76	0.0077514006
127	0x3ba827a5	0.005131679

network_body._body_endoder.seq_layers.2.weight f4 [128, 128]
0	0x3d199f98	0.037505716
1	0x3caa98d6	0.020824831
2	0xbcc14f59	-0.023597406
3	0xbe0388c1	-0.12845136
4	0x3bf4a114	0.007465491
5	0x3e39f168	0.18158495
6	0xbe43ff0f	-0.19140266
7	0xbade0fd4	-0.0016941973
8	0x3cbf069e	0.023318585
9	0x3d482030	0.04885882
10	0x3c9aa8f8	0.018879399
11	0xbcde6b5a	-0.027150799
12	0xbcc4528b	-0.02396514
13	0xbd287ccd	-0.041134644
14	0xbdd677f2	-0.104720965
15	0x3d242f49	0.040084157
16	0xbcdeaea0	-0.027182877
17	0xba95c794	-0.0011427277
18	0xbbf7779b	-0.0075521
19	0xbd388b25	-0.045054574
20	0x3dbd02a5	0.0922902
21	0x3d532982	0.051553257
22	0xbe26dcd7	-0.16295181
23	0x3d925f97	0.071471386
24	0xbd9872e3	-0.07443788
25	0xbde3b4ab	-0.11118444
26	0xbd4c1d81	-0.049832825
27	0x3d8700a7	0.06591921
28	0x3e219d89	0.15782751
29	0xbce4c739	-0.027927028
30	0x3da4e1c3	0.08050873
31	0x3d48f124	0.049058095
32	0xbdce3bf0	-0.10070026
33	0x3d4fbaab	0.05071513
34	0xbdf33864	-0.1187599
35	0x3d87d6c3	0.066327594
36	0xbd9c517e	-0.07632731
37	0xbe1395b7	-0.1441258
38	0xbdc3d4c3	-0.095620655
39	0x3d31b721	0.043387536
40	0x3dcebdba	0.10094781
41	0xbcaecb69	-0.021337228
42	0xbdc773ec	-0.09738907
43	0xbc27f0fc	-0.010250326
44	0x3d2f8fe5	0.042861838
45	0xbc3eac1d	-0.011637715
46	0x3e076b34	0.13224488
47	0x3dd3517c	0.10318276
48	0xbd63675b	-0.05551849
49	0xbdfaf19d	-0.12253115
50	0x3dcaf296	0.09909551
51	0x3c039742	0.008031668
52	0xbd6f7d09	-0.058468852
53	0xbd70a4df	-0.058750983
54	0xbdd9be5c	-0.10632011
55	0xbdfe386d	-0.12413106
56	0xbda95a6c	-0.082692
57	0x3bbd79bf	0.0057823355
58	0x3c46b8ae	0.012128992
59	0xbe7c636a	-0.24647298
60	0xbd928f30	-0.07156217
61	0xbc911347	-0.017709387
62	0x3db8e316	0.09027688
63	0xbde43e38	-0.1114468
64	0x3d0bb929	0.03411213
65	0x3c06d55c	0.00822958
66	0xbe0b4ae5	-0.13602789
67	0xbd28c378	-0.04120204
68	0x3d175438	0.03694555
69	0xbd9fd018	-0.078033626
70	0x3e10634a	0.14100376
71	0xbd8ceb8f	-0.06880867
72	0xbdde6c1e	-0.108604655
73	0xbe4cbcf4	-0.19993955
74	0x3da59aa3	0.08086135
75	0x3d00f6f4	0.031485513
76	0xbd8260a1	-0.06366087
77	0x3c94a262	0.018143836
78	0xbd8f05e8	-0.069835484
79	0x3c091ad9	0.008368217
80	0x3d459df5	0.048246343
81	0x3e5c401a	0.21508828
82	0x3e56c638	0.20974052
83	0xbc31ea5a	-0.010859096
84	0x3d4728ad	0.048622776
85	0x3d22de45	0.039762754
86	0x3d9ff699	0.07810707
87	0x3cb6b415	0.022302667
88	0x3da9d6d7	0.082929306
89	0xbc279853	-0.010229188
90	0xbc206eeb	-0.00979207
91	0x3d999b31	0.075003035
92	0xbd8e5255	-0.06949297
93	0x3e103812	0.14083889
94	0xbd6f68dc	-0.05844961
95	0xbc63ed88	-0.013911612
96	0x3d25a43f	0.04043984
97	0xbdfaaec5	-0.12240366
98	0xbce1c9a0	-0.027561963
99	0xbd5f55a6	-0.05452504
100	0xbdf42712	-0.119215146
101	0x3dd03a72	0.101673976
102	0x3dbe7347	0.09299331
103	0x3db7b031	0.08969153
104	0xbdc70ce9	-0.09719259
105	0x3d0979a6	0.03356328
106	0x3d355622	0.044271596
107	0xbd8f45f6	-0.06995766
108	0x3d0fb309	0.03508285
109	0x3d299d33	0.041409682
110	0x3ddd0c9f	0.10793423
111	0x3d87a9d8	0.06624192
112	0x3bced179	0.006311592
113	0x3df78045	0.12085012
114	0xbdac5dbc	-0.08416316
115	0x3dc9f211	0.09860624
116	0x3d12ab2e	0.03580778
117	0x3dd70182	0.104983345
118	0xbc8d276a	-0.017230708
119	0xbdff70d5	-0.12472693
120	0x3d100a61	0.035166148
121	0x3b818a5d	0.0039532618
122	0xbd079c5f	-0.03310811
123	0xbd9deaa8	-0.07710773
124	0xbe332d7a	-0.17497817
125	0xbe46e689	-0.1942388
126	0xbc3c8bc6	-0.011507934
127	0x3d08e7ce	0.03342419
128	0xbe037933	-0.12839203
129	0xbd8c74c5	-0.068582095
130	0x3d13a52d	0.036046196
131	0x3d863954	0.06553903
132	0x3dc6b7be	0.09703015
133	0x3d9fa2f2	0.07794751
134	0x3b9b29f6	0.0047352267
135	0x3d18bfbe	0.037292235
136	0x3d0e9801	0.03481293
137	0xbd8ed2e4	-0.06973818
138	0x3e1dfd50	0.15428662
139	0x3d656ee4	0.056013957
140	0x3d87f1f7	0.06637948
141	0xbdf3e0fb	-0.11908146
142	0xbd3a6f6e	-0.045516424
143	0xbd115cbc	-0.03548883
144	0x3c847064	0.016166873
145	0x3cfefcfe	0.031126495
146	0x3d2d4081	0.042297844
147	0xbbd6acc5	-0.0065513575
148	0xbcf89d09	-0.030348318
149	0x3d78dc55	0.060757
150	0xbd07c738	-0.033148974
151	0xbcb6663b	-0.022265544
152	0x3d7896c6	0.060690664
153	0xbda27137	-0.0793175
154	0xbdeb7199	-0.114962764
155	0xbb75fa9c	-0.0037533408
156	0x3d035e03	0.03207208
157	0xbcce065a	-0.025149513
158	0xbdddc4fa	-0.10828586
159	0xbd5ac976	-0.053414784
160	0xbc4f960c	-0.012670051
161	0xbcaef923	-0.021359032
162	0x3dab5f69	0.083678074
163	0xbd7b7a56	-0.061395966
164	0xbdc389e4	-0.09547785
165	0xbd1a950f	-0.03773981
166	0xbd53f2d1	-0.05174524
167	0xbc47e783	-0.012201193
168	0x3d85db76	0.065359995
169	0xbd04f002	-0.03245545
170	0x3d24da8d	0.04024749
171	0xbbb97bb0	-0.0056604967
172	0x3dace823	0.08442714
173	0x3d54aa20	0.051920056
174	0x3d545b09	0.05184463
175	0x3d8fcd78	0.07021612
176	0x3bf8379b	0.007574988
177	0xbb74c6b5	-0.0037349884
178	0xbc5b2a27	-0.013376749
179	0x3d2dd3eb	0.04243843
180	0xbd1c9e8e	-0.038237147
181	0xbe062916	-0.1310161
182	0xbcc2d767	-0.023784352
183	0xbdc3c59d	-0.09559176
184	0xbd553c22	-0.0520593
185	0xbded7313	-0.11594214
186	0xbd8877fa	-0.06663509
187	0x3d556024	0.05209364
188	0xbc795377	-0.0152176535
189	0xbca6453a	-0.020296682
190	0x3c56f886	0.013120776
191	0xbe38f0cd	-0.18060608
192	0xbe1c58fa	-0.15268317
193	0xbdc3c5e7	-0.09559231
194	0xbd9af0cf	-0.07565462
195	0x3d3177e8	0.043327242
196	0xbe080a45	-0.13285168
197	0x3ded8ee9	0.115995236
198	0x3d863172	0.065524
199	0xbdaf77cd	-0.08567772
200	0x3adbf485	0.0016781247
201	0xbdef927e	-0.11697863
202	0xbd54e7a0	-0.051978707
203	0xbd5c29df	-0.05375087
204	0xbd90a452	-0.070625916
205	0xbdd43dd4	-0.10363355
206	0xbd509b56	-0.05092939
207	0xbd825b28	-0.06365043
208	0x3d4cbb36	0.049983226
209	0xba467abc	-0.00075713894
210	0xbe119e27	-0.14220487
211	0xbdc34fc3	-0.09536698
212	0x3d6444b1	0.05572957
213	0xbd0e3432	-0.034717746
214	0x3d9a9f6a	0.07549937
215	0x3ceef32b	0.029168686
216	0x38b5240d	8.6374675e-05
217	0x3d3f07c8	0.04663828
218	0xbdbd740a	-0.09250648
219	0xbd23cffe	-0.03999328
220	0xbdb309f3	-0.08742132
221	0xbceff9c6	-0.029293906
222	0xbce5096a	-0.02795859
223	0xbdaed5d3	-0.085368775
224	0x3d937395	0.0719978
225	0x3d2c0ded	0.04200547
226	0x3b9903b8	0.0046696328
227	0x3da6d0b7	0.08145278
228	0xbd97a266	-0.07404022
229	0xbc9179f8	-0.017758355
230	0xbd34ecf4	-0.04417129
231	0x3e08e45f	0.13368367
232	0x3da4ec0e	0.08052836
233	0xbdf4380f	-0.11924755
234	0xbdc568a1	-0.09639097
235	0x3bf958e3	0.007609473
236	0xbd3bc1a0	-0.045838952
237	0x3e492b60	0.19645452
238	0x3de9162c	0.11381182
239	0x3d593d7a	0.053037144
240	0x3d92cd0d	0.071680166
241	0x3df1d174	0.11807528
242	0x3e1a19f7	0.15048967
243	0xbd9b8357	-0.075934105
244	0xbdc5d869	-0.096604176
245	0xbd9b0d33	-0.07570877
246	0xbd594df2	-0.05305285
247	0x3df088eb	0.11744865
248	0x3dae22a5	0.08502702
249	0x3d1f656c	0.038915083
250	0x3d8a0775	0.067397036
251	0xbd6081f1	-0.05481142
252	0xbdb37eda	-0.087644294
253	0xbd6a4473	-0.057194185
254	0x39604a16	0.00021389904
255	0x3dd3b4d9	0.10337228

network_body._body_endoder.seq_layers.2.bias f4 [128]
0	0x3c6aca6c	0.014330488
1	0xbc3324d6	-0.010934075
2	0x3b4fe8c4	0.0031724432
3	0x3b4db0b0	0.0031385832
4	0x3c1f563b	0.009725149
5	0x3a1ea8bc	0.0006052365
6	0x3b804328	0.0039142556
7	0x3ba8fa10	0.005156763
8	0xbbd84b7b	-0.006600795
9	0xbc2b55a8	-0.010457434
10	0x3a992aba	0.0011685707
11	0xbad3c77c	-0.0016157473
12	0xbb7841e7	-0.0037881078
13	0x3b7c8d6c	0.0038536442
14	0x3b0afa77	0.0021206418
15	0x3b0e520b	0.0021716382
16	0xbb3a3ff9	-0.0028419478
17	0xbc1a09e3	-0.009401771
18	0x3bff0a57	0.007783215
19	0x3b0d45ef	0.0021556576
20	0xbb39b04b	-0.0028333839
21	0xbaa55ddf	-0.0012616477
22	0x3bc51525	0.0060144835
23	0x3c1b713a	0.009487445
24	0xbc4bfb34	-0.012450028
25	0xbbd0222a	-0.006351729
26	0x3ae52e4f	0.0017485115
27	0x3b2d849a	0.0026476742
28	0xba96e06b	-0.0011510974
29	0x3bb66f15	0.005567441
30	0xbaeb82d0	-0.0017968062
31	0xbb869700	-0.004107356
32	0xbc2a5e8c	-0.010398518
33	0x3b33cbd9	0.0027434735
34	0x3b9199d3	0.004443386
35	0xbbb40d38	-0.00549474
36	0x3be1969b	0.0068844086
37	0x3b95c538	0.0045706294
38	0xbb177901	-0.0023112895
39	0x3ae13fc4	0.0017185141
40	0x3c0bebc3	0.008540097
41	0xbc29aeda	-0.010356629
42	0x3b062491	0.0020468573
43	0x3baac99b	0.0052120215
44	0xbb4419a1	-0.0029922503
45	0xbb78c8eb	-0.0037961553
46	0xbc44bc14	-0.012007732
47	0xb9462cd9	-0.00018899459
48	0xbbc64e5e	-0.0060518226
49	0xbb9adbf1	-0.004725926
50	0x3a8f848d	0.0010949537
51	0xbbc608aa	-0.0060435133
52	0x3c0af7fa	0.008481974
53	0x3c62a7b3	0.013833928
54	0x3aaf0936	0.0013354186
55	0xba832f44	-0.0010008593
56	0xbad16020	-0.0015974082
57	0xbaf0c2b7	-0.0018368576
58	0x3c26350d	0.010144484
59	0xbbdd4a23	-0.0067532226
60	0xbbdb6925	-0.006695884
61	0x3c0b1ef6	0.008491268
62	0x3c037dff	0.008025645
63	0xbaefb6b5	-0.0018288704
64	0x3be321b2	0.006931507
65	0x3c0241b0	0.007950231
66	0xb98b0786	-0.0002651775
67	0x3b84d64e	0.0040538674
68	0x3c562e9e	0.013072638
69	0x3b54308a	0.0032377564
70	0xbc511d79	-0.0127633745
71	0x3b89e00b	0.004207616
72	0xbb9adbe3	-0.0047259196
73	0xbc1f33ae	-0.009716911
74	0xbbc4fbea	-0.006011476
75	0xbb878730	-0.0041359887
76	0x3bd94498	0.0066304915
77	0x3b291c0c	0.002580407
78	0xbc427029	-0.011867561
79	0x3bd20b47	0.006410036
80	0x3b0971e2	0.002097242
81	0x3b94095c	0.0045177173
82	0xbb73b827	-0.003718862
83	0x3bb46767	0.0055054906
84	0xbb839be9	-0.0040163887
85	0x3b8cbc00	0.0042948723
86	0xbb7be5a8	-0.0038436446
87	0xbb933fc2	-0.0044936845
88	0xb94ed418	-0.00019724702
89	0xbb5afd58	-0.0033415165
90	0x3b167206	0.0022956147
91	0x3b935eb1	0.004497372
92	0xba8dca8e	-0.0010817812
93	0x3c02c26c	0.007980924
94	0xbc5eab5a	-0.013590658
95	0xbc172530	-0.009225175
96	0xbb5d1b0d	-0.0033738047
97	0xba7da7a8	-0.0009676167
98	0xba8f7b05	-0.0010946697
99	0xbc7d58fb	-0.015463109
100	0x384ad3e2	4.8357884e-05
101	0x3b8adceb	0.0042377613
102	0x3b90a02b	0.0044136248
103	0xbbe2cafe	-0.006921171
104	0xbb12f92c	-0.002242635
105	0x3be488c9	0.006974314
106	0xbc22c526	-0.009934699
107	0xbba0fd01	-0.004912973
108	0x3941aca9	0.00018470235
109	0x3b4fb041	0.003169075
110	0xbbdb46b9	-0.0066917804
111	0xbb80e17f	-0.003933131
112	0x3a9af066	0.0011820912
113	0xbb5e457c	-0.0033915928
114	0xbb53d971	-0.003232565
115	0x3bd8e808	0.006619457
116	0xbb8c744d	-0.004286325
117	0xbb7393c2	-0.0037166928
118	0x3c348002	0.011016848
119	0xbb1c5d59	-0.002385935
120	0xbb112bae	-0.002215128
121	0xbbc54823	-0.0060205623
122	0xbb8f6bce	-0.004376865
123	0xbba4276e	-0.005009583
124	0x3b6a7e55	0.0035780866
125	0xbc208403	-0.009797099
126	0xbc1c8a4f	-0.00955446
127	0xbbef483d	-0.0073023126

action_model._discrete_distribution.branches.0.weight f4 [38, 128]
0	0x3c211074	0.009830583
1	0xbc5dbf99	-0.01353445
2	0x3c33e3a6	0.010979569
3	0x3c540db5	0.012942721
4	0x3ca4e8f0	0.020130605
5	0xbc2477fb	-0.010038371
6	0xbc8f6436	-0.017503839
7	0xbb39c97c	-0.0028348854
8	0xbb15d8dc	-0.0022864854
9	0xbc3f0970	-0.011659965
10	0xba52c73f	-0.0008040554
11	0xbbf34f17	-0.0074251997
12	0x3aeb3613	0.0017945193
13	0xbad20f58	-0.0016026301
14	0x3a02ed23	0.00049944426
15	0xbba7fd7b	-0.005126653
16	0xbcef7186	-0.029228937
17	0x3c653640	0.013989985
18	0xba24df19	-0.00062893477
19	0x3bd0f834	0.0063772444
20	0xbaaa82d1	-0.0013008957
21	0xbc279774	-0.01022898
22	0x3c8ce236	0.01719771
23	0xbbc53ab9	-0.006018963
24	0x3b495293	0.0030719384
25	0xbc4d4103	-0.012527707
26	0xbcb2570e	-0.021770027
27	0xbc713b89	-0.014723667
28	0x3c6d067d	0.014466879
29	0x3ab14ae8	0.0013526352
30	0x3c817940	0.015804887
31	0x3c884274	0.01663325
32	0xbbdf90ce	-0.006822682
33	0x3c28e658	0.0103088245
34	0xbc537e27	-0.012908495
35	0xbc99d946	-0.018780362
36	0x3ad6093c	0.0016329656
37	0x3b4dcba4	0.0031401897
38	0xbc3bdabb	-0.011465724
39	0x3cdfd126	0.02732141
40	0x3caa359f	0.020777522
41	0x3c123ece	0.008926107
42	0x3c8c19ba	0.017102111
43	0xbb834a6b	-0.004006674
44	0x3b217499	0.0024636148
45	0xbbd93336	-0.0066284193
46	0xbc1bf713	-0.009519356
47	0xbca9ab10	-0.020711452
48	0xbb9573d5	-0.0045609274
49	0x3c073915	0.0082533555
50	0xbcabc9f4	-0.020970322
51	0x3c5b2c81	0.01337731
52	0xbbc0280f	-0.0058641504
53	0xbc972326	-0.018449377
54	0xbc40d66d	-0.011769873
55	0x3b17f52f	0.0023186912
56	0x3b3729aa	0.0027948418
57	0xbb2553ad	-0.0025226877
58	0x3c9578bd	0.018246049
59	0xbc44e747	-0.012018031
60	0xbcd10b28	-0.025518015
61	0x3bd565cf	0.0065123807
62	0xbb99fd01	-0.00469935
63	0x3baf06a1	0.0053413664
64	0x3b64c672	0.0034908322
65	0xbc1f7f9c	-0.009735014
66	0xbb0b379e	-0.0021242867
67	0xbc08d1cb	-0.0083508
68	0xbc8343ae	-0.016023483
69	0x3c3d9312	0.011570709
70	0xbc0c674c	-0.00856955
71	0xbc021586	-0.007939702
72	0xbbc53c23	-0.0060191317
73	0xbc3fea76	-0.011713615
74	0xbc995976	-0.018719416
75	0x3a13d45f	0.0005639251
76	0x3ba953bc	0.0051674526
77	0x3c1fddef	0.009757503
78	0xbc9aff21	-0.018920483
79	0x3b2e98fa	0.0026641474
80	0x3c4a65fc	0.0123534165
81	0xb953d8c2	-0.00020203277
82	0xbc8abca6	-0.016935658
83	0x3b91b31e	0.0044464013
84	0xbbb00547	-0.005371723
85	0x3bc92c32	0.0061393017
86	0xbbc0a8f4	-0.005879516
87	0xba0f11dc	-0.00054576783
88	0xbc2963ec	-0.010338765
89	0xba07ea5f	-0.00051847653
90	0xbad42bf5	-0.0016187417
91	0x3bad4439	0.005287674
92	0xbc8d1f8f	-0.017226962
93	0xbbf2b3aa	-0.0074066715
94	0xbad53b62	-0.0016268308
95	0x3b2e89d6	0.002663245
96	0xbbf5d778	-0.0075024925
97	0xba10fe6e	-0.0005531077
98	0x3b6b1023	0.0035867773
99	0xbc9a1a35	-0.018811325
100	0x3c20402a	0.009780923
101	0x3c11ce23	0.0088992445
102	0xbb09a452	-0.0021002484
103	0x3bccbc9e	0.006248071
104	0x3bb92402	0.0056500444
105	0xbcbda760	-0.0231511
106	0xbb1f5dc9	-0.0024317375
107	0x3b8b2e8c	0.004247492
108	0xbbdc5b80	-0.006724775
109	0xbc5ed2e4	-0.013600085
110	0x3b477b7b	0.003043859
111	0xbc1be87b	-0.009515877
112	0xbc9af387	-0.018914951
113	0x3a211753	0.0006145138
114	0x3c0ad507	0.008473641
115	0xbc646fbb	-0.013942654
116	0x3ba7c441	0.005119831
117	0x3c2cab7c	0.010538932
118	0x3bba2f14	0.0056818817
119	0xbc1002f9	-0.008789771
120	0xbbe2429d	-0.0069049136
121	0xbc5ef6fd	-0.013608691
122	0x39a9d016	0.00032389228
123	0x3c0d340b	0.008618365
124	0x3c46edc1	0.012141646
125	0xbaec795a	-0.0018041537
126	0xbc76b10b	-0.015056859
127	0xbbb95d68	-0.005656887
128	0xbc74a660	-0.014932245
129	0x3c44732e	0.011990352
130	0xbbca5743	-0.006174953
131	0xbb02a4f5	-0.0019934748
132	0xbce167bb	-0.027515283
133	0xbb0c4fe6	-0.0021409928
134	0x3b991b69	0.004672457
135	0xbc101c1d	-0.008795765
136	0x3a89b9b7	0.0010507618
137	0xbba797cd	-0.0051145316
138	0x3c090077	0.008361927
139	0xbbdfbc37	-0.006827857
140	0x3c8d9fc9	0.017288106
141	0x3ba46ddf	0.0050179805
142	0x3b20727a	0.0024482296
143	0x3c1d625a	0.009605968
144	0x3b910196	0.004425238
145	0x3c5a1924	0.013311658
146	0x3b9051cf	0.0044042836
147	0xbc3e1d15	-0.011603613
148	0x3c576201	0.013145925
149	0x3ba475eb	0.0050189397
150	0x3c74860e	0.014924539
151	0x3c9f4242	0.019440774
152	0x3a6fec51	0.00091523404
153	0x3ae91994	0.0017784112
154	0x3b94a95f	0.004536792
155	0xbc39ce98	-0.01134076
156	0x3c4e9cb8	0.012610607
157	0x3a559b21	0.0008148421
158	0x3a97dcc2	0.0011586177
159	0xbc4a6ab7	-0.012354544
160	0xbc969b3c	-0.018384568
161	0xbc43d238	-0.0119519755
162	0x3c702362	0.014656873
163	0xbc7004fe	-0.014649628
164	0x3bb1e1d2	0.005428531
165	0xbc3b2144	-0.011421505
166	0xbc58ad1c	-0.013224866
167	0xbb6a290a	-0.0035730028
168	0x3c6ac1d7	0.014328442
169	0x3c96d6ff	0.018413065
170	0xbc08806d	-0.0083314
171	0x3c9fa0af	0.0194858
172	0xbc7bed16	-0.01537635
173	0xbb9ede7b	-0.004848299
174	0x3c530d03	0.01288152
175	0x3cd792ee	0.026315179
176	0x3bcdf93d	0.006285815
177	0xbc452059	-0.012031638
178	0xbce24003	-0.027618414
179	0x3c4857f7	0.012228004
180	0x3c123b1b	0.008925225
181	0x3c6435ee	0.013928873
182	0x3caace0f	0.02085021
183	0xbcb561b0	-0.022141308
184	0xbc104575	-0.008805622
185	0x3c973aca	0.01846065
186	0xbc1bab7f	-0.009501337
187	0xbc342f05	-0.010997538
188	0xba3ce170	-0.00072052237
189	0xbc06a166	-0.008217191
190	0x3c13bb9d	0.009016898
191	0xbcb0ab4c	-0.021566056
192	0xbc2bf17d	-0.010494587
193	0xbcc25e71	-0.023726674
194	0x3ca5b7d4	0.020229258
195	0xbb9f6457	-0.0048642564
196	0xbbb3273d	-0.005467324
197	0x3c3799b0	0.011206076
198	0xbc672fac	-0.014110487
199	0xbc2ac321	-0.010422499
200	0x3b808067	0.0039215568
201	0x3b4663ba	0.0030271844
202	0x3c12576c	0.008931976
203	0x3c09bd49	0.0084069455
204	0x398fc5c8	0.00027422444
205	0x3c869bca	0.016431708
206	0x3c34972b	0.011022369
207	0x3c027956	0.007963499
208	0xbb7889f3	-0.003792402
209	0x3b9aad34	0.0047203545
210	0xbca1e931	-0.019764515
211	0xbc86048e	-0.016359594
212	0xbbc22c98	-0.005925726
213	0x3cb1842e	0.021669473
214	0x3a143c2a	0.0005654717
215	0xbc4459f3	-0.011984336
216	0x3ce96e0e	0.028494861
217	0xbc30a12c	-0.010780614
218	0xbcb20dac	-0.021735035
219	0x3cc07e45	0.02349771
220	0xbb91e418	-0.0044522397
221	0x3a72ff50	0.0009269612
222	0xbcaab6d2	-0.020839129
223	0xbd01bb59	-0.03167281
224	0x3b2e4073	0.0026588708
225	0xbb135208	-0.0022479314
226	0xbc024edb	-0.007953371
227	0x3c7eda3a	0.015554959
228	0x3991bd53	0.00027797613
229	0x3cd7bbd1	0.026334675
230	0xbc7e5494	-0.015523095
231	0xbbe8b38c	-0.007101482
232	0x3c05fe4f	0.008178308
233	0x3c1104c2	0.008851232
234	0x3c2d28c1	0.0105687985
235	0xbc04a41e	-0.008095769
236	0x3cbff22b	0.023430904
237	0x3cc85379	0.024453865
238	0xbb34081f	-0.002747066
239	0xbc9d86d3	-0.019229328
240	0xbc8f5293	-0.01749543
241	0xbcbff9e2	-0.023434583
242	0xbc02d4be	-0.007985292
243	0xba5a239a	-0.0008321345
244	0x3c08a70b	0.008340607
245	0x3c5977ed	0.013273221
246	0x3c1456ca	0.009053895
247	0x3bee8c66	0.0072799204
248	0xbcdf7473	-0.027277207
249	0x3c1a7cc1	0.009429158
250	0x3c717431	0.014737175
251	0x3ca9fb17	0.020749612
252	0x3ce5ca94	0.028050698
253	0x3cbf453d	0.023348445
254	0x3cac0a17	0.021000905
255	0xbbe4c5b6	-0.006981577

action_model._discrete_distribution.branches.0.bias f4 [38]
0	0x3ad90d0f	0.0016559678
1	0x3b6c5969	0.0036064035
2	0xba989fc2	-0.0011644291
3	0xba8cf7c9	-0.0010754998
4	0x3b6c0819	0.0036015569
5	0xbb8abd35	-0.004233981
6	0x3baac707	0.005211714
7	0x39a73d54	0.00031898415
8	0x3b568067	0.0032730342
9	0xbbc95932	-0.006144666
10	0xbbfee4a1	-0.0077787195
11	0xbbb99fb6	-0.005664791
12	0xbb2d25ba	-0.0026420192
13	0xbb3b5ac0	-0.0028588027
14	0x3b17fba8	0.002319077
15	0x3c40e0a7	0.011772311
16	0x3bdae102	0.006679655
17	0x3b03f780	0.0020136535
18	0x3ba8bd56	0.0051495237
19	0xbb90b01f	-0.0044155265
20	0xbc13f134	-0.009029675
21	0x3c0f96c3	0.008763972
22	0x3a644dba	0.0008709092
23	0x3beb62e9	0.007183422
24	0xbaddb9c8	-0.0016916329
25	0x3c7ed0a3	0.015552673
26	0xb7cf3604	-2.4701476e-05
27	0xbc3311e2	-0.010929557
28	0xbbdb4079	-0.0066910353
29	0x3ad3eb37	0.0016168122
30	0xbb0e5ab4	-0.0021721544
31	0xbc1aca61	-0.009447665
32	0xbc0726e5	-0.008249019
33	0x3bb1904f	0.0054188143
34	0xbc38e60f	-0.011285319
35	0xb98dac46	-0.0002702197
36	0xbac9e9c4	-0.0015404751
37	0xbb0f7302	-0.0021888618
