Assets/ML-Agents/brains/TestAgent2.onnx (onnx, 111077 bytes, 6 tensors)

network_body._body_endoder.seq_layers.0.weight f4 [128, 39]
0.09381737 0.119299196 -0.032437906 -0.16958643 -0.064503536 0.01145088 0.13967592 0.13196658
-0.048004944 -0.09986064 -0.08964582 -0.12643988 -0.13974231 0.0862952 0.39172676 0.046352904
-0.40511388 -0.061449848 -0.0800623 0.12577271 0.13410069 0.33461928 -0.2568155 0.011225221
-0.12045966 -0.064750284 -0.035613332 0.0030908373 -0.086531915 -0.124167696 0.17346077 0.18138821
0.15284565 -0.27302858 0.028587325 0.2556031 0.15792574 0.025221746 -0.00087494985 0.0029799654
-0.043910835 0.07999945 -0.17183255 0.07067828 -0.10873042 0.14050758 -0.05435836 -0.060350288
-0.3974299 0.023442239 -0.010909255 0.0020252352 0.4475677 0.019796155 -0.06933856 -0.06870269
0.014405785 0.054022476 -0.038909066 0.076314196 -0.002797663 0.06185293 -0.080495656 -0.118988134
0.0074736616 -0.3880869 0.3863455 0.34314123 0.09834265 0.13315165 -0.092883974 -0.17166968
0.05116932 -0.0674648 -0.033419386 0.029452119 -0.07261701 0.031497244 0.032799974 0.37102708
0.0062225014 0.055064984 -0.08385767 -0.019829381 -0.17355704 -0.017936371 -0.07853297 -0.19364063
0.03978999 -0.16745849 0.07954465 0.19134317 -0.13614506 0.023560476 -0.009797366 -0.13421507
-0.0033363071 0.34367767 0.18717207 0.058401197 0.004187925 -0.32636762 -0.30537882 -0.23104888
-0.15141031 0.37295488 0.20470266 0.20685656 -0.20945302 0.08518404 0.06664539 0.054268576
0.17666966 -0.2086219 0.09075693 0.12390903 -0.03340333 0.04172148 -0.07972016 -0.23959486
0.033960823 0.037656534 0.055504832 -0.15190431 0.038741145 0.06054892 -0.031837773 0.039471816
0.083908886 0.19036308 -0.05736854 0.062036462 0.16371897 -0.14995871 0.12532042 -0.06586291
-0.10964146 -0.10665525 -0.16480151 0.11101571 -0.07514614 -0.04694042 -0.01235366 -0.18591958
0.048548568 0.11715072 0.31563246 -0.046458434 -0.17887388 -0.036733255 0.12389116 0.079197854
-0.01734255 -0.4492213 0.24096207 -0.16258162 0.06260889 0.07304293 -0.0037021914 0.13969007
0.27453718 0.13719167 0.017022824 0.021219213 -0.044255145 -0.0011363184 0.40075913 0.21277606
-0.15717584 0.19693162 0.14425181 0.18509996 -0.045759477 -0.023508549 -0.055928305 0.042610668
-0.2854145 -0.09523053 0.33132458 0.014619679 -0.009829625 0.28265104 0.022784598 -0.10953066
0.27240318 0.15850817 -0.050978128 0.013761247 0.024625225 0.0067902203 -0.25300238 0.07569362
0.026921473 0.07612481 -0.10053383 0.06041617 -0.041772477 -0.2176896 0.2834988 -0.013352717
0.21704122 -0.0013852747 -0.21287213 0.14823177 0.12097315 0.11374108 -0.13254145 0.0027738127
-0.021416515 0.44172487 0.06450706 0.0068936595 0.025772573 -0.03576088 -0.50070506 0.12861288
0.2050347 0.1468032 0.08348462 -0.22997564 -0.0758091 -0.060971633 -0.19129352 -0.04735114
-0.2655018 0.099349394 0.010638178 -0.20069672 -0.10761693 0.07154947 0.3378746 0.21665053
0.10626145 0.2512078 -0.12517476 0.012820478 0.2334096 0.13185412 -0.18479544 -0.07560814
-0.09120136 -0.05839055 -0.13633673 -0.047058616 -0.037513334 0.09581901 0.11109052 0.19870372
0.074312754 -0.34128892 0.1951785 -0.22569402 -0.11994554 0.2611162 -0.07538372 -0.020499978
00000000: 5223 c03d 2353 f43d 9cdd 04bd 11a8 2dbe
00000010: 6e1a 84bd 799c 3b3c 3407 0f3e 3f22 073e
00000020: d5a0 44bd bc83 ccbd 3a98 b7bd 7579 01be
00000030: 9c18 0fbe 8abb b03d 6990 c83e 8bdc 3d3d
00000040: 166b cfbe d6b2 7bbd b4f7 a3bd 90ca 003e
00000050: b151 093e 3853 ab3e 527d 83be fde9 373c
00000060: 8eb3 f6bd cc9b 84bd 49df 11bd a58f 4a3b
00000070: a537 b1bd a24b febd b39f 313e d5bd 393e
00000080: 9283 1c3e 67ca 8bbe f72f ea3c 69de 823e
00000090: 49b7 213e d69d ce3c e45c 65ba 864b 433b
000000a0: d9db 33bd c0d6 a33d dff4 2fbe c6bf 903d
000000b0: 0eae debd 38e1 0f3e dfa6 5ebd dd31 77bd
000000c0: ef7b cbbe f009 c03c bbbc 32bc cfb9 043b
000000d0: 9827 e53e 8c2b a23c 6001 8ebd ffb3 8cbd
000000e0: 3e06 6c3c ac46 5d3d 1d5f 1fbd 9e4a 9c3d
000000f0: ff58 37bb 7f59 7d3d e8da a4bd 0db0 f3bd
00000100: 9ee5 f43b 53b3 c6be 14cf c53e 35b0 af3e
00000110: df67 c93d e858 083e f439 bebd 2dca 2fbe
00000120: ec96 513d fc2a 8abd c4e2 08bd 9245 f13c
00000130: 3ab8 94bd 4103 013d 4459 063d 43f7 bd3e
00000140: 20e6 cb3b d28b 613d 92bd abbd 3a71 a2bc
00000150: f0b8 31be 4cef 92bc e5d5 a0bd bb49 46be
00000160: d4fa 223d 3d7a 2bbe 4ee8 a23d 77ef 433e
00000170: 9c69 0bbe e601 c13c 2285 20bc ad6f 09be
00000180: f2a5 5abb 85f6 af3e 09aa 3f3e 1836 6f3d
00000190: dc3a 893b a819 a7be 9d5a 9cbe 1498 6cbe
000001a0: 4e0b 1bbe f1f3 be3e 939d 513e 35d2 533e
000001b0: da7a 56be f874 ae3d 617d 883d ba48 5e3d
000001c0: e4e8 343e fba0 55be c5de b93d 04c4 fd3d
000001d0: eed1 08bd 25e4 2a3d 5344 a3bd 5b58 75be
000001e0: 811a 0b3d bd3d 1a3d 0959 633d ce8c 1bbe
000001f0: 09af 1e3d 2502 783d 5368 02bd 33ad 213d
00000200: 6cd8 ab3d 8aee 423e 46fb 6abd f219 7e3d
00000210: f2a5 273e c78e 19be ff53 003e 22e3 86bd
00000220: b48b e0bd 116e dabd bac1 28be 345c e33d
00000230: 38e6 99bd 9944 40bd 0167 4abc b461 3ebe
00000240: ddda 463d b7ec ef3d 949a a13e 334b 3ebd
00000250: b72a 37be 9c75 16bd a6ba fd3d 7c32 a23d
00000260: f711 8ebc 5600 e6be c3be 763e cc7b 26be
00000270: 1739 803d 8897 953d 77a0 72bb ea0a 0f3e
00000280: 2390 8c3e f97b 0c3e 7373 8b3c ead3 ad3c
00000290: e244 35bd 85f0 94ba 4d30 cd3e f8e1 593e
000002a0: b4f2 20be 71a8 493e bfb6 133e d88a 3d3e
000002b0: 4a6e 3bbd 0095 c0bc 1415 65bd 8688 2e3d
000002c0: d921 92be 3908 c3bd 60a3 a93e 6187 6f3c
000002d0: 6f0c 21bc a3b7 903e c4a6 ba3c 9c51 e0bd
000002e0: 6e78 8b3e f74f 223e 71ce 50bd da76 613c
000002f0: d7ba c93c 7f80 de3b 8789 81be 4205 9b3d
00000300: 6c8a dc3c 53e7 9b3d aee4 cdbd f276 773d
00000310: 9e19 2bbd 06ea 5ebe c126 913e 5bc5 5abc
00000320: 0e40 5e3e 1b92 b5ba 27fb 59be 12ca 173e
00000330: c5c0 f73d 15f1 e83d f2b8 07be dbc8 353b
00000340: b071 afbc c329 e23e 471c 843d 35e4 e13b
00000350: 0121 d33c 007a 12bd 352e 00bf 18b3 033e
00000360: 9ef4 513e 9453 163e fcf9 aa3d bc7e 6bbe
00000370: cd41 9bbd 64bd 79bd 73e2 43be 45f3 41bd
00000380: daef 87be b277 cb3d c14b 2e3c 7183 4dbe
00000390: 4466 dcbd 8788 923d e6fd ac3e a3d9 5d3e
000003a0: 9a9f d93d 4f9e 803e d02d 00be fb0c 523c
000003b0: ed02 6f3e c404 073e 043b 3dbe 71d8 9abd
000003c0: c7c7 babd ee2a 6fbd db9b 0bbe 89c0 40bd
000003d0: 95a7 19bd c23c c43d 6d83 e33d fd78 4b3e
000003e0: 4931 983d 6cbd aebe dfdc 473e 551c 67be
000003f0: 02a6 f5bd 06b1 853e c862 9abd 92ef a7bc

network_body._body_endoder.seq_layers.0.bias f4 [128]
-0.0012522006 -0.016925378 -0.014495921 -0.005224406 -0.0005876523 0.01651237 -0.014554615 0.0032410657
0.0127386255 0.01649519 0.0060965586 0.019197771 0.027238114 -0.015397962 0.032802306 -0.00014416769
-0.008627792 0.00016210364 0.028840188 0.002687205 -0.013131096 -0.00778701 0.030193636 0.020073583
0.004479145 0.018238658 0.015245239 0.010243938 -0.004473825 -0.00817193 -0.0050560064 0.012014729
0.021281444 0.012734491 0.01322162 0.017723737 0.025663447 -0.024419816 0.028490776 -0.023350732
0.006082382 0.026973499 -0.031515513 -0.024178658 -0.0029717651 0.008238218 0.0018485588 -0.01259777
0.01729582 -0.019561902 0.018265825 -0.009305437 0.0092546465 0.00874848 0.026139235 -0.0094238715
-0.018622437 0.0049566184 0.03244 -0.010892518 0.030775936 0.015073185 0.0047783013 -0.018618666
0.01913204 0.016301215 0.016813125 0.0025273133 -0.0011631477 0.014953026 0.01657822 0.012728115
0.019844072 0.016018406 -0.018769195 0.003309328 0.010684738 0.0051887096 0.002139885 0.006583398
0.03508513 0.02412165 -0.018061116 0.0047182017 -0.038471043 0.020346534 -0.017414201 -0.0010443828
-0.019339386 0.016711054 -0.005518122 0.00036655267 0.037209865 -0.012431682 0.01347693 0.0051869215
-0.0030300557 0.010527203 0.03072993 -0.021433037 0.0050997683 -0.019113174 -0.01401753 0.011525433
-0.022551315 -0.0033648224 -0.0016083578 0.017094096 0.009724575 0.008293667 0.014837426 0.01801262
0.0053020115 0.027333936 -0.008553703 -0.013157418 0.0010860116 0.0043666204 0.02531189 0.017502524
-0.02953026 0.03170997 -0.027198678 -0.00010132632 -0.0056661833 0.016146507 0.004293437 -0.0045070737
00000000: e120 a4ba 17a7 8abc 4d80 6dbc 7e31 abbb
00000010: ae0c 1aba f344 873c 7b76 6ebc 0f68 543b
00000020: abb5 503c ec20 873c a4c5 c73b a544 9d3c
00000030: 7722 df3c bc47 7cbc b65b 063d b82b 17b9
00000040: 955b 0dbc 5dfa 2939 4242 ec3c d21b 303b
00000050: cf23 57bc 2d2a ffbb a558 f73c 5b71 a43c
00000060: cbc5 923b 3d69 953c 2bc7 793c 31d6 273c
00000070: 2a99 92bb 8fe3 05bc dbac a5bb 6dd9 443c
00000080: 6c56 ae3c 54a4 503c 7e9f 583c 5f31 913c
00000090: 263c d23c 110c c8bc 7d65 e93c 094a bfbc
000000a0: b84e c73b 87f7 dc3c 6916 01bd 5212 c6bc
000000b0: f2c1 42bb 97f9 063c 574b f23a e166 4ebc
000000c0: f7af 8d3c 4840 a0bc 36a2 953c d575 18bc
000000d0: cda0 173c c955 0f3c f321 d63c 9566 1abc
000000e0: 158e 98bc 216b a23b cedf 043d 8876 32bc
000000f0: d11d fc3c 85f5 763c 4c93 9c3b 2c86 98bc
00000100: ccba 9c3c 208a 853c aebb 893c 48a1 253b
00000110: c374 98ba 89fd 743c 0ccf 873c 9589 503c
00000120: 0990 a23c 0839 833c dbc1 99bc 50e1 583b
00000130: 0a0f 2f3c 0d06 aa3b 503d 0c3b 8cb9 d73b
00000140: 6db5 0f3d c49a c53c e8f4 93bc 259b 9a3b
00000150: d093 1dbd c6ad a63c 3aa8 8ebc ace3 88ba
00000160: a26d 9ebc 9fe5 883c 5dd1 b4bb de2d c039
00000170: 5f69 183d 41ae 4bbc 57ce 5c3c 0df7 a93b
00000180: e693 46bb 4a7a 2c3c 56bd fb3c 5694 afbc
00000190: f51b a73b 3b93 9cbc c8a9 65bc 2bd5 3c3c
000001a0: 89bd b8bc 5a84 5cbb 88cf d2ba eb08 8c3c
000001b0: d353 1f3c 29e2 073c ad18 733c 348f 933c
000001c0: 7fbc ad3b 6beb df3c d524 0cbc 3692 57bc
000001d0: 8158 8e3a de15 8f3b e15a cf3c 7461 8f3c
000001e0: 72e9 f1bc 50e2 013d c3cf debc 277f d4b8
000001f0: 64ab b9bb ae45 843c f6af 8c3b 13b0 93bb

network_body._body_endoder.seq_layers.2.weight f4 [128, 128]
-0.10791327 -0.05170895 0.093812995 -0.062292166 0.02861664 -0.082991734 -0.1721429 0.096433885
0.13000642 0.06297771 -0.052146148 -0.061434846 -0.057666678 0.035730254 0.10052675 -0.06252335
-0.088680774 0.053326014 0.111099824 -0.026773008 -0.041686792 0.004391707 0.02736545 0.047433812
-0.15882353 0.03673846 -0.099734396 -0.16651781 -0.0659869 -0.11923067 0.10706381 0.09021258
0.0805179 0.20896815 0.06274749 0.04460339 0.021864297 -0.022476051 0.11915248 0.1526013
-0.112954885 -0.0771653 0.17208742 -0.016119312 0.048726916 0.055306785 0.03412106 -0.1145613
0.13082649 -0.07569662 -0.0041501294 -0.048696894 -0.15969533 0.0080682635 -0.12577258 0.07623928
-0.031433273 0.10843412 0.028814685 0.16745599 0.2073478 0.047745716 0.11212674 -0.16897076
-0.089191005 -0.1094935 -0.05012765 -0.17490818 -0.19047265 0.00028913308 0.10659196 0.051629357
-0.060330316 -0.03363611 -0.077479795 -0.011489545 0.084848784 0.17345726 -0.13776347 0.00463238
0.009954895 0.024683742 -0.068410724 0.10594264 0.032389898 0.016781991 -0.07038198 0.16306363
-0.06004216 -0.09961609 -0.20445876 -0.018226666 -0.0129299555 0.041792583 -0.01475069 0.013553601
0.04832235 -0.15713508 0.06285398 -0.14991838 0.05087427 0.085488595 0.003101587 0.02740714
-0.050093133 -0.018985283 -0.17481802 -0.076846905 -0.10210524 0.114639685 -0.03420887 0.002117857
0.0029179936 -0.008975915 0.07679661 -0.10712161 -0.09042626 0.17020057 -0.021335108 0.19164439
-0.09644365 0.022049949 0.1368674 -0.07185291 -0.046663687 -0.14471163 -0.03511949 -0.12314971
-0.04338426 0.00046903218 -0.04380357 -0.039855033 -0.117226936 -0.085822195 0.023472551 0.08206833
-0.13739958 -0.13452119 0.15203273 0.0035736372 -0.028235119 -0.04197809 0.00023208436 0.097857624
0.04342089 0.07540411 -0.11970318 0.010691918 0.07867567 0.0023398907 0.049629718 0.0014336122
-0.039620668 -0.07594382 0.07567999 0.10121141 -0.10508648 -0.085636534 -0.07824421 -0.09194338
0.053944606 -0.05150204 -0.027157925 -0.031797383 -0.08564608 0.14015365 -0.1506167 0.019175954
-0.0010150804 -0.022904225 0.103983976 0.13171218 0.037731532 -0.049243096 -0.07101534 -0.0852279
0.028125959 0.0427724 -0.122495875 0.040153798 -0.00460781 -0.10057678 -0.065343775 0.08065127
-0.030478377 0.050712414 -0.0059813317 0.10060626 -0.042834654 0.02297836 0.22982784 -0.028264944
0.15825652 -0.03200773 -0.0718833 -0.019121163 -0.0060599903 -0.013684919 0.06179657 -0.03799674
0.0468897 0.0851093 -0.09264846 0.06902462 -0.12049367 -0.05093869 -0.04387473 0.036229182
0.05404887 0.122322164 -0.08806177 -0.15068792 -0.058047235 -0.12057757 -0.120879315 -0.0006006026
0.030231515 -0.08665946 -0.02824148 -0.013654695 -0.043936126 -0.021467246 -0.080742724 0.011072834
0.15322694 0.027232759 0.030483972 -0.049406257 -0.13676676 -0.022272183 0.11553877 0.061359886
-0.19197625 -0.037125222 0.019917497 -0.056689367 -0.077862985 0.15014744 -0.1891189 -0.00026775172
0.0005138108 0.14144759 0.038295753 -0.1801403 0.03832038 -0.03539609 0.06968589 -0.02309614
0.050279573 -0.0704945 0.23534429 -0.021315292 0.1671915 -0.17290446 -0.0217143 0.036618456
00000000: a201 ddbd c4cc 53bd 0721 c03d 1226 7fbd
00000010: 726d ea3c 92f7 a9bd 3a46 30be 217f c53d
00000020: 6720 053e 75fa 803d 3397 55bd 1ba3 7bbd
00000030: e533 6cbd e359 123d f8e0 cd3d 3e0c 80bd
00000040: 449e b5bd 616c 5a3d 4e88 e33d 1153 dbbc
00000050: c5bf 2abd 4fe8 8f3b 822d e03c f549 423d
00000060: a3a2 22be 117b 163d 8c41 ccbd a583 2abe
00000070: 2424 87bd 362f f4bd 4544 db3d 60c1 b83d
00000080: 92e6 a43d bffb 553e c281 803d 0bb2 363d
00000090: c11c b33c b21f b8bc 3706 f43d 8443 1c3e
000000a0: e454 e7bd d708 9ebd af37 303e a60c 84bc
000000b0: e095 473d 5e89 623d 86c2 0b3d 1d9f eabd
000000c0: 61f7 053e d406 9bbd cffd 87bb 6576 47bd
000000d0: 2c87 23be c030 043c 87ca 00be 5723 9c3d
000000e0: 2dc0 00bd b512 de3d c60c ec3c 9579 2b3e
000000f0: fb52 543e 0391 433d b4a2 e53d ac06 2dbe
00000100: c6a9 b6bd 213e e0bd a752 4dbd 211b 33be
00000110: 430b 43be c996 9739 e34c da3d 4e79 533d
00000120: ec1c 77bd 05c6 09bd baad 9ebd a53e 3cbc
00000130: 33c5 ad3d c89e 313e de11 0dbe 38cb 973b
00000140: db19 233c 8f35 ca3c ec1a 8cbd 74f8 d83d
00000150: 45ab 043d 637a 893c 6d24 90bd 27fa 263e
00000160: c5ee 75bd 8503 ccbd a35d 51be 1750 95bc
00000170: 2ad8 53bc b32e 2b3d e1ac 71bc ec0f 5e3c
00000180: a8ed 453d 05e8 20be 96b9 803d 3484 19be
00000190: 8a61 503d a514 af3d ff43 4b3b f084 e03c
000001a0: 752e 4dbd 0687 9bbc 7f03 33be e961 9dbd
000001b0: 8d1c d1bd 36c8 ea3d 9a1e 0cbd bfcb 0a3b
000001c0: cf3b 3f3b b70f 13bc 8b47 9d3d 9362 dbbd
000001d0: 6731 b9bd 0f49 2e3e f7c6 aebc 6d3e 443e
000001e0: 4084 c5bd 18a2 b43c f826 0c3e 9e27 93bd
000001f0: 6c22 3fbd 492f 14be 74d9 0fbd ea35 fcbd
00000200: b2b3 31bd 6fe8 f539 5f6b 33bd 083f 23bd
00000210: ad14 f0bd 8cc3 afbd 8249 c03c 7113 a83d
00000220: 7ab2 0cbe ecbf 09be 78ae 1b3e af33 6a3b
00000230: 564d e7bc 38f1 2bbd ac5b 7339 9469 c83d
00000240: 1ada 313d 786d 9a3d f126 f5bd 282d 2f3c
00000250: b620 a13d da58 193b 8848 4b3d 0be8 bb3a
00000260: 4849 22bd 6f88 9bbd 1cfe 9a3d ed47 cf3d
00000270: 9537 d7bd 3562 afbd 803e a0bd d04c bcbd
00000280: 05f5 5c3d cef3 52bd 4c7a debc f93d 02bd
00000290: 3667 afbd 7084 0f3e 443b 1abe e416 9d3c
000002a0: 720c 85ba a4a1 bbbc 8df5 d43d 8fdf 063e
000002b0: 618c 1a3d 21b3 49bd 7e70 91bd f78b aebd
000002c0: 6968 e63c 1d32 2f3d 1edf fabd 4f78 243d
000002d0: 1dfd 96bb 33fb cdbd f5d2 85bd 7e2c a53d
000002e0: caad f9bc d2b7 4f3d 0cff c3bb a80a ce3d
000002f0: 6473 2fbd 1d3d bc3c fd57 6b3e e28b e7bc
00000300: ff0d 223e 8a1a 03bd 8d37 93bd fca3 9cbc
00000310: e292 c6bb b636 60bc 661e 7d3d 78a2 1bbd
00000320: 6a0f 403d c94d ae3d 7abe bdbd c85c 8d3d
00000330: 63c5 f6bd 16a5 50bd fdb5 33bd 0d65 143d
00000340: 5962 5d3d 0b84 fa3d bb59 b4bd ef4d 1abe
00000350: f0c2 6dbd 5ff1 f6bd 938f f7bd c271 1dba
00000360: 15a8 f73c 847a b1bd ad5a e7bc f1b7 5fbc
00000370: 5ef6 33bd 14dc afbc 715c a5bd d56a 353c
00000380: 86e7 1c3e 3c17 df3c 86b9 f93c 375e 4abd
00000390: 960c 0cbe 2774 b6bc 979f ec3d 8154 7b3d
000003a0: 6c95 44be 9e10 18bd 052a a33c 1c33 68bd
000003b0: a176 9fbd 40c0 193e 63a8 41be 0761 8cb9
000003c0: 42b1 063a a3d7 103e 02dc 1c3d b376 38be
000003d0: d5f5 1c3d 7efb 10bd 7ab7 8e3d 1e34 bdbc
000003e0: f4f1 4d3d 6c5f 90bd 18fe 703e 689d aebc
000003f0: 4034 2b3e de0d 31be 30e2 b1bc 3cfd 153d

network_body._body_endoder.seq_layers.2.bias f4 [128]
0.0035907528 -0.021010874 -0.0049112206 0.023008494 0.0025712631 0.023240501 0.0082682455 -0.0005869458
0.00019402684 -0.02706757 0.011997486 0.004969429 0.003773706 0.0010181873 -0.00018028785 0.00736064
-0.0051526655 0.029704155 0.002515725 0.03333861 0.013014795 0.03446296 -0.009846666 0.010568789
0.020074712 0.018745575 0.010877218 -0.0003364125 0.023561839 -0.0266541 -0.015760873 0.0040884917
0.0147203915 -0.012643831 -0.019294558 0.007943406 0.0068302127 -0.017735885 0.019477813 -0.017290726
0.028584242 -0.006848846 -0.009829206 0.002470404 -0.0032631457 -0.0063727465 0.0061396156 0.003385898
-0.011692927 -0.0051387153 0.004603661 0.018106293 0.010875832 0.018088667 0.016072957 -0.001959904
0.01649271 0.010776847 0.0020952136 0.0026721645 0.00028524426 -0.0070224535 -0.023493567 -0.026957871
0.011405789 -0.0079204645 0.009471619 -0.028542422 0.019186232 -0.0049752747 0.004149692 0.00863862
0.018276958 0.001402951 -0.020156408 0.0023003283 8.245861e-05 -0.0058515016 0.011276112 0.027496045
0.006206892 0.006043845 0.012443411 0.00034432404 0.0071628843 -0.00961717 0.01101359 0.020950556
0.00996784 0.023378737 -0.004379519 0.005720637 0.005974781 0.00049917906 -0.009793918 0.00084403896
0.0036452904 0.029817441 -0.012126687 -0.020157391 0.022752862 -0.0032258187 -0.010586009 0.010905541
-0.006922867 0.029441161 0.0013721826 0.013188687 0.0076864143 0.018331094 0.002639588 -0.002412659
-0.007208324 0.008864656 0.01711433 0.0017970254 0.001733511 0.037459996 0.010439301 -0.013414114
-0.0006460455 0.0016872502 0.021364063 0.00872452 0.0003326178 0.028696947 0.002476484 -0.003742702
00000000: d652 6b3b ff1e acbc 4eee a0bb 4f7c bc3c
00000010: a382 283b dd62 be3c 8977 073c 44dd 19ba
00000020: af73 4b39 cfbc ddbc 1b91 443c 98d6 a23b
00000030: 4850 773b b274 853a a70b 3db9 8631 f13b
00000040: b1d7 a8bb 2156 f33c ddde 243b 118e 083d
00000050: 023c 553c 0829 0d3d e953 21bc b728 2d3c
00000060: b973 a43c 5290 993c 5c36 323c 8560 b0b9
00000070: c204 c13c b359 dabc f21c 81bc c1f8 853b
00000080: cc2d 713c 1228 4fbc 9f0f 9ebc 0f25 023c
00000090: facf df3b d94a 91bc ef8f 9f3c 48a5 8dbc
000000a0: 8029 ea3c 496c e0bb ae0a 21bc 80e6 213b
000000b0: 80da 55bb 79d2 d0bb d42e c93b f1e5 5d3b
000000c0: b193 3fbc ab62 a8bb 4fda 963b a653 943c
000000d0: 8c30 323c af2e 943c 6fab 833c bc71 00bb
000000e0: b81b 873c 5f91 303c da4f 093b 7b1f 2f3b
000000f0: d68c 9539 9c1c e6bb 9575 c0bc c1d6 dcbc
00000100: 59df 3a3c d6c4 01bc d92e 1b3c ccd1 e9bc
00000110: 722c 9d3c a107 a3bb 24fa 873b 0089 0d3c
00000120: 8fb9 953c 39e3 b73a 0d1f a5bc 1bc1 163b
00000130: a1ed ac38 f4bd bfbb 71bf 383c 633f e13c
00000140: 2f63 cb3b 720b c63b 73df 4b3c 6486 b439
00000150: a1b6 ea3b 5691 1dbc 5872 343c 80a0 ab3c
00000160: 2750 233c c484 bf3c 1182 8fbb 2e74 bb3b
00000170: 18c8 c33b 57db 023a ab76 20bc 7f42 5d3a
00000180: d3e5 6e3b b543 f43c 03af 46bc 1d21 a5bc
00000190: 3664 ba3c 4268 53bb f170 2dbc 27ad 323c
000001a0: 38d9 e2bb 972e f13c cfda b33a 5d15 583c
000001b0: 51de fb3b 172b 963c f0fc 2c3b b41d 1ebb
000001c0: ce33 ecbb 103d 113c 5a33 8c3c 2b8a eb3a
000001d0: fa36 e33a a76f 193d 9a09 2b3c dfc6 5bbc
000001e0: 615b 29ba b926 dd3a b003 af3c 4af1 0e3c
000001f0: 3563 ae39 dc15 eb3c 824c 223b 1f48 75bb

action_model._discrete_distribution.branches.0.weight f4 [38, 128]
0.012795136 -0.024589924 0.018306844 -0.0034377812 -0.00294634 0.0072939466 -0.01759267 -0.0018327407
-0.0030906205 -0.040566705 -0.008551284 0.00333346 -0.00094420323 -0.033334337 -0.013378066 -0.0076043913
-0.011747248 -0.023257311 -0.018140497 0.013487984 0.011227603 0.015434335 0.018254787 -0.012651801
0.0023615125 0.015778318 0.0045276014 0.015323211 0.01138221 -0.002943701 -0.026795585 -0.010776838
0.01411164 -0.004752625 -0.010326751 0.006853955 -0.022133404 0.010045971 0.01349781 0.0076934258
0.0020891754 0.03401429 -0.024617232 -0.008135442 0.014183076 -0.0036116343 0.004525984 0.0028539964
0.0046663056 -0.010572378 0.013077194 0.01714854 -0.020611424 0.024318995 0.03876202 -0.004273449
0.013943502 -0.01729115 -0.005564486 0.009815082 0.01668667 0.020390572 0.0001983778 -0.012594024
0.0053811367 -0.0064803944 0.020877138 -0.0076462175 0.012974571 0.018491827 -0.0031575782 0.024428472
0.001148467 -0.008010647 0.005592056 -0.023719009 -0.005147734 0.02100035 -0.010842658 -0.0025366675
-0.014696424 0.0062315273 0.015591319 -0.030762501 0.008690916 -0.009739753 0.00920904 -0.0025608216
-0.011193899 0.016657531 0.008956831 -0.0344344 -0.004539678 0.008177302 0.004448016 0.01810769
0.004643211 0.02116959 -0.03512547 -0.03096106 0.01672069 0.004308744 0.0021863242 -0.0066908863
-0.006248371 0.0034335137 -0.012750857 0.008278709 -0.013123308 0.023501746 0.008253861 -0.0073026
-0.019218402 -0.011320832 0.022557732 0.008580501 0.014333383 0.016326036 0.0015619729 -0.046328645
-0.009768305 -0.013314922 0.028798033 -0.00023916013 0.023177665 0.019065613 -0.013903583 0.010816881
0.013988375 -0.012422898 -0.00065111247 -0.0030961926 0.016720371 0.0014705083 -0.028547993 0.013159498
0.004602851 -0.026774526 -0.016543971 0.009314768 0.0065384307 -0.0134315295 0.0137650985 -0.012549811
-0.027335322 0.009603201 0.0054893615 0.015963947 -0.002329149 0.0033465836 0.023766814 -0.0029310288
-0.029570702 -0.0006160448 -0.0014986064 0.018844504 0.011792691 -0.018333005 -0.014236755 0.016581649
0.015867699 0.013841258 -0.029144818 -0.005886216 0.015756277 -0.009046872 0.03806916 -0.0018745761
-0.0047009625 0.0013205587 -0.006763816 -0.012538909 -0.0071845874 -0.005184115 -0.0324719 0.009639136
-0.004046943 0.016569734 -0.010081772 0.030420104 -0.0074606454 0.0032539798 0.014142591 -0.017366422
0.024581958 -0.009646146 0.00079277944 0.033138674 -0.008873455 0.0037703307 -0.012614379 -0.0024400412
0.014552357 -0.015926784 0.012794094 -0.009148998 -0.012064161 0.017909613 0.008333661 -0.008923433
0.027300006 0.021629972 -0.0030376462 -0.017891476 -0.010967771 0.021689238 0.0052972436 0.023349002
0.005601815 -0.0027829113 -0.0089991195 -0.029302217 0.0034666986 0.012046624 0.016492708 -0.013962207
0.0030971067 0.013623259 -0.014840696 0.0047705877 0.017568216 0.012279654 0.0026197177 -0.018814309
0.017437367 0.02329466 -0.0076952297 -0.0016115526 0.0069822134 0.0009191778 0.013203555 0.012773925
0.0007896284 -0.008122252 -0.0063328333 -0.012132849 0.01925509 -0.0094326725 -0.009833085 -0.018025145
-0.003787241 -0.016590742 -0.002943886 0.011295668 0.010631052 0.0478943 -0.015676834 -0.013573343
-0.025008285 -0.0013673907 0.021914888 -0.002835084 0.0045431047 0.024518775 0.011321488 -0.0018704063
00000000: b1a2 513c cf70 c9bc 3cf8 953c 664c 61bb
00000010: 6217 41bb 0f02 ef3b 811e 90bc 9338 f0ba
00000020: 028c 4abb 4629 26bd af1a 0cbc 2e76 5a3b
00000030: 6884 77ba 9689 08bd ad2f 5bbc 422e f9bb
00000040: 8777 40bc 1e86 bebc 619b 94bc b5fc 5c3c
00000050: fbf3 373c 4be0 7c3c 108b 953c 8049 4fbc
00000060: 9bc3 1a3b 8841 813c 465c 943b 350e 7b3c
00000070: 737c 3a3c 1ceb 40bb 6a82 dbbc 5691 30bc
00000080: 8234 673c e8bb 9bbb 8831 29bc 2497 e03b
00000090: 1d51 b5bc db97 243c eb25 5d3c 2219 fc3b
000000a0: 8cea 083b 9152 0b3d 14aa c9bc 844a 05bc
000000b0: 2260 683c 2bb1 6cbb b54e 943b 1d0a 3b3b
000000c0: cfe7 983b c437 2dbc ba41 563c 187b 8c3c
000000d0: 4ad9 a8bc a138 c73c edc4 1e3d 4a08 8cbb
000000e0: 4973 643c 2ba6 8dbc 4b56 b6bb 70cf 203c
000000f0: 7cb2 883c 210a a73c a303 5039 2a57 4ebc
00000100: 3f54 b03b 7d59 d4bb 8806 ab3c 1f8d fabb
00000110: 4c93 543c 2c7c 973c 5fef 4ebb 381e c83c
00000120: 2888 963a 173f 03bc 913d b73b 5e4e c2bc
00000130: 53ae a8bb ed08 ac3c 67a5 31bc 383e 26bb
00000140: 45c9 70bc d731 cc3b bb72 7f3c a401 fcbc
00000150: 5864 0e3c 7c93 1fbc 83e1 163c 75d3 27bb
00000160: 9e66 37bc 6075 883c acbf 123c 160b 0dbd
00000170: 94c1 94bb 17fa 053c aac0 913b 9456 943c
00000180: 1426 983b d96b ad3c badf 0fbd 0da2 fdbc
00000190: d4f9 883c 5d30 8d3b 6f48 0f3b 393f dbbb
000001a0: 23bf ccbb cd04 613b f8e8 50bc 6ca3 073c
000001b0: 2503 57bc bc86 c03c 343b 073c a64a efbb
000001c0: e96f 9dbc 037b 39bc feca b83c 3b95 0c3c
000001d0: 91d6 6a3c 2ebe 853c 1dbb cc3a 1bc3 3dbd
000001e0: 3e0b 20bc d526 5abc dae9 eb3c 0fc7 7ab9
000001f0: 16df bd3c 7d2f 9c3c dbcb 63bc 4a39 313c
00000200: 7f2f 653c 6989 4bbc 6baf 2aba 7ee9 4abb
00000210: 29f9 883c 12be c03a 7bdd e9bc ef9a 573c
00000220: 83d3 963b 4056 dbbc 3987 87bc f89c 183c
00000230: 5540 d63b eb0f 5cbc 0287 613c b99d 4dbc
00000240: 53ee dfbc bf56 1d3c 1ae0 b33b d3c6 823c
00000250: a3a4 18bb 5b52 5b3b 9fb2 c23c 8116 40bb
00000260: 423e f2bc 117e 21ba e36c c4ba ca5f 9a3c
00000270: 2236 413c 192f 96bc 4741 69bc 3dd6 873c
00000280: fafc 813c 72c6 623c 1dc1 eebc 29e1 c0bb
00000290: 4f13 813c 5539 14bc 68ee 1b3d 56b4 f5ba
000002a0: 880a 9abb 9916 ad3a 00a3 ddbb ff6f 4dbc
000002b0: b06c ebbb 82df a9bb 4101 05bd 77ed 1d3c
000002c0: 389c 84bb 40bd 873c 042e 25bc 9533 f93c
000002d0: 6e78 f4bb b940 553b 53b6 673c 0744 8ebc
000002e0: 1a60 c93c de0a 1ebc 87d2 4f3a 6bbc 073d
000002f0: f861 11bc a717 773b 8aac 4ebc 19e9 1fbb
00000300: 026d 6e3c e378 82bc 529e 513c aee5 15bc
00000310: c2a8 45bc 2eb7 923c e889 083c 9733 12bc
00000320: 43a4 df3c 5731 b13c 3f13 47bb 2591 92bc
00000330: 2ab2 33bc a1ad b13c 8094 ad3b 6846 bf3c
00000340: 6e8f b73b 8161 36bb 0b71 13bc 340b f0bc
00000350: 8d31 633b 345f 453c b71b 873c bec1 64bc
00000360: d4f8 4a3b 1734 5f3c 6426 73bc 9752 9c3b
00000370: 38eb 8f3c 9a30 493c 92af 2b3b 7720 9abc
00000380: cfd8 8e3c 71d4 be3c 4428 fcbb bb3a d3ba
00000390: 0dcb e43b faf4 703a b953 583c ba49 513c
000003a0: 11ff 4e3a 3213 05bc a883 cfbb dbc8 46bc
000003b0: dabc 9d3c 7f8b 1abc f31a 21bc 78a9 93bc
000003c0: 5c33 78bb 4fe9 87bc 36ee 40bb 7711 393c
000003d0: dd2d 2e3c d02c 443d b46c 80bc ba62 5ebc
000003e0: 2dde ccbc 053a b3ba da86 b33c d1cc 39bb
000003f0: 53de 943b 99db c83c c37d 393c 6c28 f5ba

action_model._discrete_distribution.branches.0.bias f4 [38]
0.013462019 0.010635721 -0.010983257 -0.0026376864 0.012740113 -0.0045638084 -0.0065930597 -0.0049327384
-0.004814925 -0.0016917097 -0.0008995169 -0.00019824765 0.0051848907 -0.003436221 -0.008421707 -0.015946386
-0.007086769 -0.005458844 0.00885877 -0.017206347 0.008135991 -0.016950278 0.03269018 0.008454682
0.0034683333 -0.010015323 0.008183253 0.006136371 -0.015158715 -0.011422818 0.022431973 0.001262018
0.0032214893 -0.0199067 -0.0016359926 0.00065645017 -0.006748023 0.002851047
00000000: cd8f 5c3c 7241 2e3c 1ef3 33bc 09dd 2cbb
00000010: e8bb 503c 008c 95bb 980a d8bb cfa2 a1bb
00000020: 85c6 9dbb 5cbc ddba 8fcd 6bba b3e0 4fb9
00000030: 04e6 a93b 3932 61bb 33fb 09bc ffa1 82bc
00000040: 2138 e8bb 1ae0 b2bb 6024 113c 53f4 8cbc
00000050: d24c 053c 4fdb 8abc 23e6 053d 8285 0a3c
00000060: fa4c 633b 4f17 24bc 0d13 063c 9c13 c93b
00000070: 425c 78bc c526 3bbc 42c3 b73c 4c6a a53a
00000080: 9f1f 533b 6013 a3bc cd6e d6ba a015 2c3a
00000090: 851e ddbb a2d8 3a3b
