Assets/ML-Agents/brains/TestAgent1.onnx (onnx, 111077 bytes, 6 tensors)

network_body._body_endoder.seq_layers.0.weight f4 [128, 39]
00000000: a68f d8bd 3133 9bbd 1234 bc3d 8096 0e3e
00000010: 56fc 55be 96f9 fb3d c7d7 40be 7568 c7b9
00000020: bb2d 02be c203 0c3e b541 18be b10f a0bd
00000030: 1470 533d 1d2b fb3c fe4a 0d3d 271c 563d
00000040: 0511 cdbd 5849 aa3d 1092 5abe 8678 2abe
00000050: ca0a 613d 0e44 673e 903c 92bd e8f4 44be
00000060: d5e1 cc3e aae8 0fbd 6c04 afbe 6229 873e
00000070: e19f e2be 4bbf 40bc d769 863b 0c0a c9bb
00000080: b2dc 06bd 2d4b 20be cc15 44bd f05b 54bc
00000090: a8ad a53d a678 093e ecd1 8ebe 35f9 413e
000000a0: 62a3 393d b45a 783e ab1f b5bd 0d8f 503e
000000b0: 706d 3ebe d81a 61be e8d4 58bd 4696 53be
000000c0: 0631 523d 153b 153d c2dd 0e3e 002c 023d
000000d0: aa7c 2e3e 7fe6 4b3e 5780 503d d427 9c3d
000000e0: e89e 2abb ef80 99be fb60 043e 41d4 c9bd
000000f0: c5c5 bf3d 68c4 2dbd f045 d33e 63a1 313e
00000100: 82cc 40be c360 6bbd 82e7 a93c 0e63 783e
00000110: 06e5 2f3e 1d75 7abe 398b 383e bdfb 37be
00000120: c891 003c 3e52 83bc e2a0 723e 4cf6 5c3e
00000130: d147 33be 5d78 823d 906c 873e cb61 ec3d
00000140: de78 283d b1a4 52be 44a2 213c ab2b cc3e
00000150: 3e82 0a3e d9e2 503e 6a5c 29be 3135 08be
00000160: 50ed d0bd f03b 233e b320 75bd 016e eabd
00000170: 35f4 983c 3195 9b3d 41aa ce3a 9bef d6bc
00000180: 6f5e 34bd cf73 42be 00fd a7bd 5cd1 84bb
00000190: 8232 c6be 86a7 8ebe fe94 1f3e e627 063e
000001a0: 1ecd 26be c17a b93d 0267 3dbe 362d 6abd
000001b0: 5e91 373e c61a c1bd 6e29 013e a62b 713d
000001c0: e493 093e 022e aabe 85d9 f93d 431a 153d
000001d0: 5c39 863e cd59 ecbd f208 c23b 33fe 30bd
000001e0: 52c7 7fbe 9e0d ab3c 3d08 473d 9e3f 06be
000001f0: 5040 db3d ce8c a03e 7692 8b3e bbd6 c73c
00000200: 516b b9bd 0c44 54bd 9014 953d 9dd8 413d
00000210: f47e 9c3e c7b6 e6bd a4e1 93be 3a18 3abe
00000220: ac95 123e 5408 fb3c 576c 57bd c48e a7bc
00000230: d1bb 8bbe 64a9 723d 5a0d 043e 99ef 0b3e
00000240: 1d16 673d cd3e 203d f2a4 b8bc e6ac 803d
00000250: 5887 84bd 5a7d 863d 055c 15be 4472 b33d
00000260: a235 2e3d 54e0 d43d b2cd a23e 9165 efbe
00000270: 2d4c 023e a59f 683e 18f2 24be 12f0 35be
00000280: 4687 883b c43d 61bd 351c bd3d eb93 043c
00000290: 949d 973d 3b11 70bd 3569 c83d 90cf 72bd
000002a0: f8dd 2c3e 14b9 123e 8c76 6c3d 24b2 15bd
000002b0: 8e3d 2fbe e165 063e ecf0 113e b3a5 a33b
000002c0: c1ce 5cbe 2143 81bd 92a9 cd3d bafe 273e
000002d0: b96d 933e b22b 993d 7f4d 89be 5dd0 62be
000002e0: 0a8f 473e 45ff 893d cf16 cdbd e373 00be
000002f0: 6746 1b3e 9838 a93e da4b c8bd 4357 92bd
00000300: 9e50 f13d 57cd e9bd 63ba 5b3e f7cd 483d
00000310: 1ff6 84be 4c0d a33d a3f0 5f3e 4eca bcbd
00000320: e8d4 3b3e e847 243c d569 053c 171d 83bc
00000330: b2de 573d c46d e4bd 82c9 d33d e2d1 433e
00000340: 4b3d 12be 8689 093e 2a1c d2bc a1d1 17bd
00000350: c51f 8b3e 7d5a ee3d 71fe b9be f8f9 8c3d
00000360: 8985 bdbd f127 e13d 78d6 b03d a50f af3e
00000370: 68a0 573e 9a57 663e bd1d bb3d 0099 b93d
00000380: 9430 88bd c3eb 5f3c b73c 9fbe b3a2 283e
00000390: 9b4f de3c 65b9 47be c683 50be 3817 253e
000003a0: 5b80 993e 247f 1a3c 325b 473e eb01 d2bd
000003b0: 8ab6 82bb 5e49 0abe e8d7 183e db25 e53b
000003c0: de7d 5abe 1fe4 503e b7e0 853e fa32 17be
000003d0: 103e a3bc ee72 a83d 7de3 2e3e 036a 81bb
000003e0: ac86 1cbd 566f 3b3d 9bd7 623d 37a6 0f3e
000003f0: 267c 1a3d 10f6 d53d 6875 aabe 96e8 183e
-0.10574274 -0.07578123 0.09189619 0.13924599 -0.2089704 0.12303464 -0.18832313 -0.00038034064
-0.12712757 0.13673308 -0.14868815 -0.07815493 0.051620558 0.030660206 0.034495346 0.052272942
-0.10013012 0.083147705 -0.21344781 -0.16647539 0.05494193 0.22584555 -0.07140458 -0.1923405
0.40016046 -0.035133995 -0.3418306 0.2639876 -0.44262603 -0.011764358 0.0041019726 -0.006135231
-0.032925315 -0.15653677 -0.04787235 -0.012961373 0.08089763 0.1342493 -0.27894533 0.18942721
0.04532183 0.2425335 -0.08843931 0.2036707 -0.18596435 -0.21982896 -0.05293742 -0.20662794
0.051316284 0.0364333 0.13951781 0.031780243 0.17039743 0.19912146 0.050903644 0.07624784
-0.0026034657 -0.2998118 0.1292762 -0.09854937 0.093638934 -0.042423636 0.41264296 0.1734672
-0.18828014 -0.057465326 0.020740274 0.24256536 0.1717721 -0.24458738 0.18021859 -0.17967124
0.007847257 -0.016030427 0.23694184 0.2157833 -0.17507865 0.06370614 0.26450014 0.1154209
0.041130893 -0.20570637 0.009865347 0.39877066 0.13526246 0.20399036 -0.1653916 -0.13301541
-0.10201514 0.15940833 -0.059845638 -0.11446763 0.018671134 0.075968154 0.0015767292 -0.0262373
-0.04403537 -0.1898949 -0.08202553 -0.004053278 -0.3871041 -0.27862185 0.1558418 0.13101158
-0.16289183 0.090566166 -0.18496326 -0.057172023 0.17926547 -0.09428935 0.1261346 0.058879517
0.13435322 -0.33238226 0.12199692 0.036402 0.26215637 -0.11540566 0.0059214765 -0.043211173
-0.24978378 0.020880517 0.04859184 -0.13110206 0.10705626 0.31357425 0.27260178 0.024394384
-0.09053672 -0.051822707 0.072793126 0.04732572 0.30565608 -0.11265331 -0.28883088 -0.18173304
0.14314908 0.03064362 -0.052593555 -0.020453818 -0.2729173 0.059243575 0.12895718 0.13665618
0.056417573 0.03912239 -0.02253959 0.06282978 -0.06471127 0.06566878 -0.14585884 0.08762029
0.042531617 0.1039435 0.31797558 -0.46757177 0.12724371 0.2271715 -0.16107976 -0.17767361
0.0041665165 -0.054990545 0.09233896 0.008091907 0.074031025 -0.058610182 0.09785692 -0.05927998
0.1688155 0.14328414 0.057730243 -0.03654684 -0.17113325 0.13124801 0.1425206 0.004994118
-0.21563245 -0.06311632 0.100421086 0.16405764 0.2879465 0.07479037 -0.26816937 -0.22149797
0.19488159 0.06738142 -0.10014116 -0.12544207 0.15163575 0.3305099 -0.097800925 -0.0714555
0.11782955 -0.114161186 0.2145782 0.04902455 -0.25969025 0.079615206 0.2186914 -0.09218274
0.18342936 0.010026909 0.008142908 -0.016005082 0.052702613 -0.11153749 0.10341169 0.19123033
-0.14281194 0.13431367 -0.025648195 -0.037065152 0.27172676 0.11638353 -0.36326936 0.06883615
-0.092539854 0.10993946 0.08634657 0.34191623 0.21057284 0.22494355 0.091365315 0.090623856
-0.066498905 0.01366705 -0.3110101 0.16468315 0.027137568 -0.19504316 -0.20362768 0.16122139
0.2998074 0.009429727 0.19468382 -0.10254272 -0.0039890455 -0.1350455 0.14926112 0.006993038
-0.21337077 0.20399521 0.26148006 -0.1476554 -0.019927055 0.08225046 0.17078967 -0.003949405
-0.03821437 0.045760475 0.0553814 0.1402825 0.037716053 0.10447323 -0.332927 0.14932474

network_body._body_endoder.seq_layers.0.bias f4 [128]
00000000: 590f 8abc 17f3 87bc 36c3 533a 67ea 533b
00000010: 7d57 a33b 2464 8e3b b33b b23b d31f 433a
00000020: 6941 a53b a7db b13c 9a1c 7b3b 15ab 613c
00000030: 9b60 a83a 37b9 29bc 3ae3 3d3c 450b 323c
00000040: 16d5 73bc 0b34 51bc 42de 9b3b 1cf0 053c
00000050: e879 883c 6249 b2b9 eac1 143c 36bd 873b
00000060: 59bf b9bb 3d5a 0abc 17cd 8a3c 5dbf ad3c
00000070: 909a fe3b f40a 343c 8a34 b6bc 64ef 9bbc
00000080: b26f 9abb 25e3 85bc af60 453b 8f86 75bb
00000090: 44fe 153a f4f3 c1bb ca1a a2bb edb1 793a
000000a0: 5e88 b2bb d970 e63b 2017 883c dab5 393c
000000b0: 1567 523c 5509 82bc 5a75 85ba 5c80 6fb9
000000c0: 9878 18bc 50c1 283c f441 d9bb 30c3 073b
000000d0: a9d0 a7bb b113 6f3a 09bc 863c 5c5f cd3b
000000e0: b2b8 483c cfc4 4c3b 26da 7138 a95f f7ba
000000f0: 75eb 97bc fa6e 533b 16bd b4ba 179d cc3b
00000100: 60e7 c73b 3c62 7e3b 9c29 8abb 1603 dcbb
00000110: 3c42 80bc a15d 423b d109 c5bb 3995 c23a
00000120: 0656 e63a e0a3 b53b f89c 393c 3291 20bc
00000130: 56c7 6e3c fc9c 393b 37e6 253c 9ba1 5cbc
00000140: aa86 59bc 9552 ffb9 0ed0 4d3b 4372 56bc
00000150: 368f 02bc 171d 3ebc d902 a53b 492c 1b3c
00000160: b87e 303c 9581 fc3b e736 2bbc c2ea 02bc
00000170: 769c c73b cc99 5c3c ae3a b03a f05a 16bc
00000180: daf6 e33b ef6f f6ba dc08 303b 6a0c 8bbc
00000190: 9dd2 8fbb 925f 0e3c 092f 94bb ba2c 873b
000001a0: e714 d0ba cf0a 2d3c a8a5 92bc 0def 49bb
000001b0: 971f 9bba 1d86 27bc 7a29 4ebc 5636 803b
000001c0: 759f b63b e1a8 74bc 5a71 943a 8a8a c1bb
000001d0: 999f b2bb 225d 88bc fa46 babb 3cd7 af39
000001e0: 035a 74bb d115 133c 1657 c5ba 0028 97bb
000001f0: 6524 83bb 4f4d 893b f23b 0a3c 353b fdbb
-0.016853021 -0.016595406 0.00080781 0.003233576 0.0049847947 0.004345434 0.0054392456 0.0007443402
0.005043198 0.021711184 0.0038316608 0.013773699 0.0012846173 -0.0103591 0.01158982 0.010866945
-0.014882347 -0.012768756 0.00475672 0.008174922 0.016659692 -0.0003400548 0.009079436 0.0041424287
-0.0056685624 -0.008444366 0.016943498 0.021209413 0.00776989 0.01098894 -0.02224185 -0.019035049
-0.004713022 -0.016343663 0.0030117442 -0.0037464236 0.00057217875 -0.005918974 -0.004947041 0.0009525109
-0.005448385 0.0070324955 0.01661259 0.011334861 0.0128419595 -0.01587359 -0.0010182068 -0.00022840634
-0.009306096 0.010299996 -0.0066301767 0.0020715706 -0.00512131 0.0009120061 0.016447084 0.0062674712
0.012251066 0.0031245237 5.7662044e-05 -0.0018873113 -0.018544892 0.0032262192 -0.0013789262 0.0062443125
0.00610058 0.0038815876 -0.004216386 -0.006714235 -0.015656583 0.0029657858 -0.006013133 0.0014845497
0.0017573244 0.005543217 0.011328928 -0.009800242 0.014573893 0.002832233 0.010125688 -0.013466264
-0.013276735 -0.00048698919 0.0031404528 -0.013088766 -0.007968714 -0.011603615 0.00503574 0.009471008
0.0107724 0.007705877 -0.010450101 -0.007990541 0.0060916496 0.013464402 0.0013445222 -0.009176955
0.0069569172 -0.0018801669 0.002686075 -0.016973693 -0.0043891207 0.008689778 -0.0045222086 0.004125205
-0.001587537 0.010561659 -0.017901257 -0.0030812651 -0.0011834976 -0.010224846 -0.012583131 0.0039127273
0.005573208 -0.014932842 0.0011325285 -0.0059064077 -0.0054511544 -0.016645972 -0.0056847306 0.00033538963
-0.0037285096 0.008977369 -0.0015055861 -0.0046129227 -0.0040021413 0.004190124 0.008437144 -0.0077280053

network_body._body_endoder.seq_layers.2.weight f4 [128, 128]
00000000: 0fd4 82bc fb06 c3bd 1bd2 af3c d04a a9bd
00000010: 9175 a23c 7603 bdbc e0a9 7e3c a55d 863d
00000020: aa33 0d3e fe82 17be 1dbf 1e3d 80fd 45be
00000030: a268 fd3c 6052 483c 89a7 ca3c b3c1 afbd
00000040: 796a f33b 0cd8 53bd 4404 21be 59cf 3ebe
00000050: ee59 253d ff61 84bd fc59 ed3d 821a b0ba
00000060: ce36 2bbd 2903 30be 4908 0d3e c392 94bd
00000070: 793e 2f3e 0fdf c5bd aa04 9cbb 9330 4c3d
00000080: 208c 17bd f124 71bd d225 45bd 4624 46be
00000090: c5b2 543e 41b6 19bd 08ee a5bd 6bd6 9d3d
000000a0: 0e1b 11be 884c a53c 2277 8ebb 1852 12bd
000000b0: 40c5 223d b06b 933d f10d 2dbc 5bb8 05bd
000000c0: 50fe 9cbd b368 42be 6442 e93d 4095 783d
000000d0: cae6 72bd 490b 2bbe ef57 343a f5e2 803d
000000e0: aab2 c53c 434e 163e 7f34 a03d 5903 01bd
000000f0: 4ad0 9fbd 4f07 59bc be82 71bd 8481 913c
00000100: 15d4 123e 1250 4abe 9c0d 0a3d b2dc a7bd
00000110: 06e7 86be a1ef 493c fe2f 0fbe da75 723d
00000120: e9f3 9b3d 9cda f53c 171d 53bc 64ab e4bd
00000130: d6a9 1cbc e0da 873d 9f96 52be 1d01 473d
00000140: 95e7 28be 2baf 6d3c 7135 833d e0e3 d4bc
00000150: 0eb7 4f3e 40d8 2ebe 4cae e03d 6b05 e9bd
00000160: 1293 75be 259d dcbd 5b4c cfbd a06b 2a3d
00000170: 2e4e f93d a60b 803d 606b f2bd 98ad 60bd
00000180: e481 cdbc 3f3c 25bc 7750 4dbc 7265 19bc
00000190: 65b6 9d3c 3d20 3fbe d78e 12be 5f3c c43d
000001a0: ea4a 77bd 9486 fb3d 7129 013e 0c13 8abc
000001b0: 3116 e8bd 2903 7c3d 7e3d 39bd e2ca 12bd
000001c0: 27a2 723a 00d9 c73c bd7e 37ba 4c4c 533d
000001d0: 38ee 0c3d b6dc 073c c7e4 253e 3f44 a7bd
000001e0: 2aad e2bd 39d9 6dbd 3ae2 0a3e 52c6 8d3d
000001f0: 55b2 a9bc 52d8 373e 0243 033d 12f6 e73d
00000200: 7b3d a3bd f945 0e3d e1a2 533e f7a0 783d
00000210: db70 4ebe 539b 563d c6f0 2a3d 917a a1bd
00000220: 1f18 493e 8b65 d23d efb0 dbbd 3996 0b3d
00000230: 68c7 823d 4e20 05bd ebcd c1bd e0f8 65ba
00000240: a2f6 be3d 5ca0 5ebd cb2e bfbd 9056 be3d
00000250: bd8c c4bc 4af3 a3bd 4c5e 8fbd a921 dcbb
00000260: 56a3 39bd 10f8 73bb 8396 1ebe e545 9a3d
00000270: 27da e73d a57b 1cbe f9d8 ae3a 07c6 193e
00000280: 9aa7 533c 01c0 23bc c58d 0d3e db78 923d
00000290: 7ddd 673d 07c8 24bd 52ff 7dbd d409 44bd
000002a0: b261 503d 288d e03b 2a7a 413d 0c4b 31bd
000002b0: 8b0d 05be 6b37 f03d 65c4 b2bd 46ed 373e
000002c0: 34b8 1dbe fc13 b1bd 702d f5bd 7142 60bd
000002d0: e09e f6bd c10d 08bd 6245 7ebd 51e9 513d
000002e0: 09eb c03d dff7 24bd 8ffc d23d a3a7 24bd
000002f0: 8ae1 fbbc f323 503c 571c 8fbb e868 513c
00000300: b5c5 ba3c 407d 993c 7d4b bfbd 6c48 dd3d
00000310: 5b2e 6d3b d909 b63d 0719 483d 001d 58bd
00000320: c50e f93d 866c dc3d 30a8 bd3d 7358 7e3e
00000330: e330 e1bd 4325 8b3d c726 e23d 2b41 a53c
00000340: f3c5 543d 96c1 28be 5eb1 673d d99b e0bd
00000350: 1e68 e93b fb64 da3d 0eb6 2a3d 1a14 d2bd
00000360: 435f 8a3d 7f18 a6bd 2b55 dbbc b7a8 b13c
00000370: d96f 083e 53a4 09be 6df9 063d 18fb 0f3d
00000380: a438 a0bd 241b 493d f440 0fbd aac4 f53c
00000390: f7d0 443b 05f1 ae3c af60 ae3d 0240 1b3e
000003a0: 9965 e83d 06f5 69bc 8c69 273b 59f0 083d
000003b0: ac37 bbbd d22f e63b e358 7bbd 35e7 883c
000003c0: dfe2 b7bd cdda a6bd dac4 44bd 2e18 4cbd
000003d0: 5452 ecbd 6c2a c43c 5441 be3d 9923 3f3d
000003e0: 9489 41bd b7be b73b 339d 92bd 7cb0 533d
000003f0: ddba b4bd 1152 293e 4d42 8cbd 6a81 a1bc
-0.015970258 -0.09522816 0.02146249 -0.082662225 0.01983145 -0.02307294 0.015543431 0.0656083
0.1378924 -0.14796063 0.03875648 -0.19334984 0.030933682 0.012226671 0.02473809 -0.08581867
0.007428464 -0.05171971 -0.15724283 -0.18633784 0.040368967 -0.06464004 0.11589429 -0.0013435634
-0.041800313 -0.17188706 0.13772692 -0.07254555 0.17113675 -0.09661686 -0.004761298 0.04985101
-0.036998868 -0.05887312 -0.04813177 -0.19349775 0.2077132 -0.037527326 -0.081020415 0.077069126
-0.14170477 0.020178095 -0.004347698 -0.035722822 0.039738894 0.07198274 -0.010562406 -0.03264652
-0.07665694 -0.18985252 0.11389616 0.06068921 -0.05930213 -0.16703524 0.0006879558 0.062932886
0.024133045 0.14678292 0.07822513 -0.031497333 -0.078034 -0.013246371 -0.058962576 0.017761953
0.14338715 -0.19757107 0.033704385 -0.08196391 -0.26348132 0.012325198 -0.13983151 0.059194423
0.076148815 0.030011468 -0.0128853535 -0.11165503 -0.009561976 0.06633544 -0.2056527 0.048585046
-0.16494592 0.014507095 0.064066775 -0.025987566 0.20284674 -0.1707468 0.109707445 -0.113779865
-0.23981884 -0.107721604 -0.101219855 0.041606545 0.12173115 0.06252222 -0.118368864 -0.054853052
-0.02508635 -0.010085165 -0.012531391 -0.009362565 0.019252012 -0.18664642 -0.14312302 0.09581827
-0.060374178 0.12281528 0.12613465 -0.016854785 -0.11332358 0.06152645 -0.04522466 -0.035838015
0.000925573 0.024395466 -0.00069997815 0.051586434 0.03440687 0.008292368 0.16200553 -0.08167314
-0.11068185 -0.058068488 0.13562861 0.06922592 -0.020714918 0.17953613 0.032046326 0.11326231
-0.07970711 0.0347347 0.20667602 0.060700383 -0.20160238 0.052394222 0.041733526 -0.07884706
0.19638108 0.10273274 -0.10727107 0.03407881 0.0638569 -0.03250151 -0.09463104 -0.0008772742
0.09324385 -0.05435215 -0.09335097 0.09293854 -0.02399289 -0.08005388 -0.070004076 -0.00671788
-0.045321785 -0.0037226714 -0.15487103 0.075328626 0.11320906 -0.15281542 0.0013339809 0.15016948
0.012918377 -0.009994508 0.13823612 0.071519576 0.056607712 -0.040229823 -0.06201107 -0.047860935
0.05087442 0.0068527646 0.047235645 -0.04328446 -0.12993447 0.1172932 -0.087288655 0.17961606
-0.15402299 -0.0864639 -0.11971557 -0.054750863 -0.12042022 -0.03321624 -0.062077887 0.0512479
0.094198294 -0.04027545 0.10302078 -0.040198933 -0.030747194 0.012703883 -0.004367392 0.012781359
0.022799352 0.018736482 -0.0934057 0.10804829 0.003619096 0.08888597 0.048851993 -0.05276203
0.1216102 0.10762887 0.09260595 0.24838428 -0.109956525 0.067942165 0.110425524 0.020172676
0.05194659 -0.16480097 0.056565635 -0.109672256 0.0071230074 0.10663792 0.041677527 -0.1025774
0.06756451 -0.08110141 -0.02677401 0.021686895 0.13323916 -0.13441591 0.032952715 0.03515157
-0.07823303 0.04909815 -0.034974054 0.030001003 0.003003178 0.021355161 0.08514535 0.15161136
0.11347503 -0.01427961 0.0025545089 0.03343234 -0.09141478 0.0070247436 -0.061364066 0.01671181
-0.08978819 -0.08147202 -0.048039295 -0.049827747 -0.1153914 0.02394601 0.09289804 0.046664808
-0.047250345 0.005607452 -0.071588896 0.05168198 -0.08824704 0.16535212 -0.06848583 -0.01971503

network_body._body_endoder.seq_layers.2.bias f4 [128]
00000000: 8fdd de3b 9053 b1bb 0f6c 023c 991a 51bb
00000010: 4f29 7f3a c712 2b3c 2f7c 883b 8162 5fbc
00000020: 6b66 81bb cc02 34bb 1b99 8a3b 9d9c 21bc
00000030: bbf9 f8bb 532d ce3b 8c39 d4bb c3d9 27bc
00000040: 65a2 4dbc 950d 8a3c b29e 19bc c49e ae3b
00000050: 6f81 2f3a 48b0 983c 5d64 3ebb 639f 583c
00000060: 9295 6dbb 27aa 8bbc c583 463c 4bfb d63b
00000070: 2a33 e239 e8fb 7b3b 375e 41bc f671 afbb
00000080: 09c7 0fbb c35f 0fbc e56c 80bc 3b69 993c
00000090: 3aaa e03b 34c9 a43b 63bf d33a ad3b 3fbc
000000a0: 1039 f1bb 6054 71bc 5928 3f3c 9f90 bbba
000000b0: f90c 65bc 5eb2 8b3a 58d6 5b3b 7949 16bb
000000c0: 0c52 f8bb 1540 023a 56b6 2dbb 4a9c 2fbc
000000d0: cd6b f13b 1cd9 a9ba 55ac c93b 0c4c 8abc
000000e0: 314f abbb bdb0 213c 7927 d8bb d1c6 0bbc
000000f0: 58ce 21bb bb60 5f3b 9cd8 b4bb fc1b 9bbb
00000100: f07a cf3a 4a9e 8fbc 048b cdbb ebc3 e03b
00000110: 75e2 493b 84f0 2bbc 32f9 aabc 22ae 003c
00000120: 7a21 073c 6aa9 90bc c6b5 72bb 4a45 75bb
00000130: 9ecb d7bb da87 8cbc 1928 b03b 590d f1bb
00000140: 924b 4fbc 2480 413b a2e8 25bc b477 e8bb
00000150: cb60 aaba 8c10 dabb 22a5 3bbb 8128 073c
00000160: 8043 253c b58e 0d3b 3921 fcbb 3703 913c
00000170: d86b fe3b a102 27bc 3e83 04bc 803f 893c
00000180: 8e07 9fbc 27de b4bb 221f 7fbb 31b4 b63b
00000190: 7730 afb9 8601 0bbc e71b 92b9 09d2 88bb
000001a0: 7cda 33bb 2201 08bc dcb3 d9ba 5444 5f3c
000001b0: fc89 a6bb 9782 49ba 7dda c33b 0442 cfbb
000001c0: 7910 14bb 675e 9abb 609b 29ba 0385 d33a
000001d0: c5fc 07bc 4927 92bc ad5c e73b f90c 18bc
000001e0: 439a 323b 1b9b c0bb a257 4e3c 21d4 ddba
000001f0: 8e5f 103c 6467 dcbb f4d3 a9ba 64c1 053c
0.006801314 -0.0054115728 0.0079603335 -0.0031906723 0.00097336335 0.010441489 0.0041651945 -0.013634325
-0.0039489768 -0.0027467487 0.0042296774 -0.009864 -0.0075981296 0.006292024 -0.0064765867 -0.0102447895
-0.012550925 0.01685218 -0.009376215 0.005328985 0.00066950073 0.018638745 -0.002905152 0.0132215945
-0.003625248 -0.017048908 0.012116377 0.006560718 0.000431442 0.0038449708 -0.011802248 -0.0053541614
-0.0021938703 -0.008750859 -0.015676925 0.018726936 0.00685623 0.005028868 0.001615506 -0.011671943
-0.0073615387 -0.014729589 0.0116673345 -0.0014310068 -0.013980144 0.0010658016 0.0033544507 -0.0022931977
-0.00757814 0.00049686554 -0.0026506386 -0.010718415 0.007367587 -0.001295838 0.006154577 -0.016881965
-0.005227946 0.009868798 -0.0065965024 -0.008531288 -0.002468964 0.0034084755 -0.005518986 -0.0047335606
0.0015829485 -0.017531533 -0.0062726755 0.0068592927 0.0030805145 -0.010494355 -0.020870779 0.0078540165
0.0082477275 -0.017658908 -0.0037034615 -0.0037425333 -0.0065855524 -0.017154623 0.0053758738 -0.0073563275
-0.012652295 0.002952584 -0.010126265 -0.007094348 -0.0012998817 -0.0066548046 -0.0028632362 0.008249403
0.010086894 0.0021599953 -0.00769439 0.017701728 0.007764321 -0.010193498 -0.008087931 0.016753912
-0.019412782 -0.0055196467 -0.0038928469 0.0055756797 -0.0003341471 -0.00848425 -0.0002786808 -0.0041754288
-0.002744346 -0.008301051 -0.0016609388 0.013627131 -0.005082367 -0.0007687001 0.0059769736 -0.0063250083
-0.0022592826 -0.0047109607 -0.0006469991 0.0016137663 -0.008300011 -0.017840998 0.0070606084 -0.009280437
0.0027252592 -0.005877865 0.0125941355 -0.0016924181 0.0088118445 -0.0067261923 -0.0012956844 0.008163784

action_model._discrete_distribution.branches.0.weight f4 [38, 128]
00000000: 3947 463c a02a 143c 6a3c 0b3c 3c8f b13c
00000010: 7ff0 a8bc 130f a0bb 0980 d13b 2a37 d0bb
00000020: 9734 7f3c 8691 743b 02f5 05bc 40e5 043b
00000030: 6201 063a 8aab 89bc 3416 5fbc c35b fbbb
00000040: ae73 94bb 924f 843a 525c cc39 fdae 3e3c
00000050: a28a 213c f587 2ebb 0832 e9bc e118 4dbc
00000060: ec0a a53c 7dc5 d83b 4f80 503c 5ae5 43bc
00000070: 7fd8 823c dca1 a5bb e552 86bb e82a 403c
00000080: 5e68 72bc 4d82 943b 24b6 25bb a720 613c
00000090: 8272 873c 984c 64bb fb22 00bb 1e59 a73c
000000a0: 5cb7 4fbc 4ee4 3bbb fcde 523b 31c7 45bb
000000b0: 98e8 13bb 49a7 7339 777c a13b c232 963c
000000c0: 5940 0cba 93a2 873b 88f3 983b d502 753b
000000d0: caf0 5e3a 970e a5bc db08 a4bb adfa 3fbc
000000e0: f74d 80bb 8c1b 89bb 810a 603c 8ea7 023b
000000f0: 2ec7 93bc 08e6 95bc c61f 92bb c893 573c
00000100: ff4e 9dbb 4873 153c f0a2 da3c 4c56 e2bb
00000110: eafd e739 1469 573c 591b 53bc eaef cc3c
00000120: 8344 87bc f763 ed3a 68fb f4bb 169d be3b
00000130: 9d0d 57bc 3c52 083b 5401 59bc 86cf 19b8
00000140: 6442 563b 01c6 ccbb 06f8 143c 9fad 9ebc
00000150: 21ff 753c 7652 ccbb 56b5 debb 6aa3 4d3b
00000160: 1d6a 6c3c a2ee 3ebc 1bd9 813a 348e 943c
00000170: 3189 85bc a21b 4dbc c7c3 4bbc ee96 85bb
00000180: e8d5 aabc 38b8 06bc 6fcd ca3b 0412 90ba
00000190: f1b9 573c 554e a63c c110 8a3a 8137 413a
000001a0: 1f52 b23c ec8e d83b 8196 86bc b58e 10bc
000001b0: 4162 d0bc baea ce3b 9223 1f3b 52d8 80b9
000001c0: 6ec2 a3bc 5ca2 ec3b 86f4 d2bb 8fdf f83b
000001d0: e171 b0b9 faa1 993c 0399 e1bc 921f 343c
000001e0: d0e5 87bb eee1 8fbc 628e 833c 837d e33c
000001f0: d971 0c3b b6e6 9bbc 88cd 3a3c cf0f 9939
00000200: 0245 c0bc 5a3e b83b 3d85 4b3b d0c9 40bc
00000210: 18da bf3b ee81 413c c8d8 0f3b 9e45 c53a
00000220: 5c14 253c 2c9e a8bb b23b 55bc db3e d5bb
00000230: 1892 5e3c 6dd2 f33b 4ae7 1abc d978 dd3a
00000240: d6d6 8e3b e7d8 d1bc e9c4 003c 5df7 49bb
00000250: d559 17bc 48cb 8cbc 9b14 83bc 1eae 1f3b
00000260: 14d5 8f3c bee8 f8bc b069 35bc cb21 cbbc
00000270: 0e64 adbb 7694 a33c 8c67 1abc 1cb5 903b
00000280: 68ff 93bb c4a8 903c ec4b c9ba a30f b1bc
00000290: 4402 be3c 45bc 2f3c bf3a 2bbc 323d 553c
000002a0: e7b2 08bc 3136 fb3c 3fec 04bd 50e7 513c
000002b0: 6baa f63b 9e68 6d3c db2f d1bb c417 78bc
000002c0: bd60 babc 3b7c fa3a 1c8b 803c d84c daba
000002d0: 1e4f 233b f504 07bc 3b8e 8e3c a10d 75bc
000002e0: f007 983c 7278 d43b f284 c13b ffb0 2c3c
000002f0: d6b5 383c c414 523c f570 bbbb d627 b2bc
00000300: ae81 803b 0953 793c 1179 6eba e07a 47bc
00000310: 0ffc 71bc 2cc4 113c 0921 fa3b 6ed6 b9bb
00000320: 199a a1bc d247 cf3b 71c2 2bbc 5ecc 80bb
00000330: 83cd a0bc e366 933b 0db5 bb3c fe64 e5bb
00000340: aacc f13c 5874 bfbc cff8 5f3c 3012 4c3c
00000350: 550c b63c 8a60 ae3a e9c8 3e3b 9708 3b3d
00000360: 8b72 1ebc 63df 78ba a028 ddbb 0d9f 1fbc
00000370: b59f a7bc b38d 2cbc f7be c93b 724f 51ba
00000380: af52 233c 60d3 7fbb 0bb4 b7bb 948d 243a
00000390: 12f1 173c 555f 633b 6f5c 44bc 299b 9b3a
000003a0: 31b1 2b3c 25b6 9f3c f83a a43b 7614 9c3b
000003b0: 23eb 973a f9ea ae3c ded1 61bc 3d71 973c
000003c0: 2c0a 833c 3ccc d9bc be89 39bc ec66 8f3c
000003d0: a3ad 55bb 24a5 c039 11c3 163c 820c a03b
000003e0: 2e35 383c 6a19 b33b 7e12 ba3b f559 543c
000003f0: 60f8 ebbb 9aea 773c ed69 ec3c b688 62bc
0.012101942 0.009043366 0.008498291 0.021674745 -0.02062249 -0.0048846095 0.006393437 -0.0063542323
0.015576503 0.0037318184 -0.00817609 0.0020278245 0.00051119004 -0.016805429 -0.0136161335 -0.007670851
-0.0045303917 0.0010094515 0.00038978696 0.0116384 0.009859713 -0.002663133 -0.02846624 -0.012518139
0.02014681 0.0066153393 0.012725904 -0.011956537 0.015972374 -0.0050546955 -0.0040992373 0.01172898
-0.014795391 0.0045321346 -0.0025285566 0.013740695 0.016534094 -0.0034835692 -0.00195521 0.020428237
-0.012677994 -0.0028670016 0.0032176366 -0.0030178542 -0.0022569057 0.00023236604 0.0049281674 0.01833475
-0.0005350165 0.0041392534 0.004667703 0.0037385721 0.00085045083 -0.020148559 -0.0050059385 -0.011717481
-0.003915544 -0.004184192 0.013674379 0.0019936296 -0.018039312 -0.018298164 -0.004459354 0.013157792
-0.004800677 0.0091217235 0.026689023 -0.00690726 0.00044248934 0.013147611 -0.012884938 0.025016744
-0.016512161 0.0018111457 -0.007476259 0.005817066 -0.013125804 0.0020800969 -0.013244946 -3.6671314e-05
0.003269338 -0.00624919 0.0090923365 -0.019369898 0.015014441 -0.006235416 -0.0067965193 0.003137792
0.014429596 -0.011653574 0.0009906621 0.018134214 -0.01630077 -0.012518795 -0.012436814 -0.00407683
-0.020853952 -0.008222632 0.0061890404 -0.0010991697 0.0131668905 0.020301023 0.0010533558 0.00073706364
0.021767674 0.0066088345 -0.016429188 -0.0088230865 -0.025437476 0.0063146027 0.0024282676 -0.00024575234
-0.019990172 0.007221503 -0.006437841 0.0075950096 -0.00033654182 0.018753994 -0.027538782 0.010993855
-0.004147269 -0.017563786 0.016059104 0.02776981 0.0021430163 -0.01903091 0.0114015415 0.00029194212
-0.023470405 0.0056226673 0.0031054758 -0.011766866 0.005854856 0.011810763 0.002194928 0.0015050655
0.010075655 -0.0051458087 -0.013014721 -0.006507737 0.013584636 0.007440856 -0.009454558 0.0016896977
0.0043591065 -0.025616122 0.007859447 -0.0030817606 -0.009237726 -0.017186776 -0.016001036 0.0024365257
0.017557658 -0.030384418 -0.011072561 -0.024796387 -0.0052914685 0.019968253 -0.009424102 0.004416121
-0.004516531 0.017658599 -0.001535771 -0.021613901 0.02319444 0.010726039 -0.010451018 0.013015078
-0.008343435 0.030665489 -0.032451864 0.012811497 0.0075276396 0.014490275 -0.0063838786 -0.015142385
-0.022751207 0.001911051 0.015691333 -0.0016654981 0.0024918984 -0.008240928 0.017401805 -0.014956863
0.018558472 0.0064840848 0.005905741 0.010540246 0.011273822 0.012822334 -0.0057202526 -0.02174751
0.003921709 0.015217551 -0.000909702 -0.012175292 -0.014769568 0.008896869 0.0076333326 -0.005671314
-0.0197268 0.0063257003 -0.01048337 -0.0039306125 -0.019629246 0.004498349 0.02291348 -0.0070005646
0.029516537 -0.023370907 0.01367016 0.012455508 0.022222677 0.0013303917 0.002911145 0.04566249
-0.009670864 -0.00094937364 -0.0067492276 -0.0097425105 -0.020461896 -0.010531831 0.006156798 -0.00079845556
0.009968444 -0.0039035901 -0.0056061796 0.00062772003 0.009273784 0.0034694273 -0.0119849285 0.0011871803
0.010479257 0.019496033 0.0050119124 0.0047631813 0.0011590462 0.021352278 -0.013782946 0.018486613
0.015996061 -0.026586644 -0.011324344 0.017505132 -0.0032604716 0.00036744133 0.009201781 0.0048843035
0.011243148 0.005465676 0.005678474 0.012960901 -0.0072012395 0.015131617 0.028859103 -0.01382654

action_model._discrete_distribution.branches.0.bias f4 [38]
00000000: 5af5 dabb 8e9a 82bb 133a 32bc 4d5d a83b
00000010: 5d98 91bb a7ee c2bb ad71 babb e833 a13b
00000020: 4c98 ccba 377c e7bb 00b1 a2bc 9853 6f3b
00000030: fb1a e0bb e1ee c4bc 620d 913a e456 d03b
00000040: 1bd8 c3bb 3b90 5f3c 0386 c23b 59fc 073c
00000050: 71a3 2ebc 2cc8 c6bb 0c12 f7bc e73b dc3b
00000060: 26f9 ac3b 3d4e 92bb f090 16bb d287 a9bb
00000070: b010 b239 ed7a 87bb a202 893b 0236 6dbc
00000080: 8d2c 0abb f932 adbb 58f4 adb9 6b94 133c
00000090: 772c 7bbc e97e 6abc
-0.00668208 -0.0039857095 -0.010878104 0.0051380754 -0.004443212 -0.0059488597 -0.0056898207 0.004919518
-0.0015609353 -0.007064368 -0.01985979 0.0036518332 -0.006839154 -0.024039688 0.001106661 0.0063580144
-0.0059766895 0.013645227 0.0059363856 0.00829991 -0.010659085 -0.006066343 -0.030159973 0.006721008
0.0052787242 -0.004464893 -0.0022974573 -0.0051736617 0.0003396324 -0.004134527 0.004181222 -0.0144782085
-0.0021083683 -0.0052856174 -0.00033179182 0.009007554 -0.015330425 -0.014312484
